<?xml version="1.0"?>
<net name="TensorFlow_Frontend_IR" version="11">
	<layers>
		<layer id="0" name="input_tensor" type="Parameter" version="opset1">
			<data shape="1,?,?,3" element_type="u8" />
			<output>
				<port id="0" precision="U8" names="input_tensor">
					<dim>1</dim>
					<dim>-1</dim>
					<dim>-1</dim>
					<dim>3</dim>
				</port>
			</output>
		</layer>
		<layer id="1" name="Constant_349128" type="Const" version="opset1">
			<data element_type="f32" shape="1, 1, 1, 1" offset="0" size="4" />
			<output>
				<port id="0" precision="FP32">
					<dim>1</dim>
					<dim>1</dim>
					<dim>1</dim>
					<dim>1</dim>
				</port>
			</output>
		</layer>
		<layer id="2" name="Cast" type="Convert" version="opset1">
			<data destination_type="f32" />
			<input>
				<port id="0" precision="U8">
					<dim>1</dim>
					<dim>-1</dim>
					<dim>-1</dim>
					<dim>3</dim>
				</port>
			</input>
			<output>
				<port id="1" precision="FP32">
					<dim>1</dim>
					<dim>-1</dim>
					<dim>-1</dim>
					<dim>3</dim>
				</port>
			</output>
		</layer>
		<layer id="3" name="Preprocessor/mul" type="Multiply" version="opset1">
			<data auto_broadcast="numpy" />
			<input>
				<port id="0" precision="FP32">
					<dim>1</dim>
					<dim>1</dim>
					<dim>1</dim>
					<dim>1</dim>
				</port>
				<port id="1" precision="FP32">
					<dim>1</dim>
					<dim>-1</dim>
					<dim>-1</dim>
					<dim>3</dim>
				</port>
			</input>
			<output>
				<port id="2" precision="FP32">
					<dim>1</dim>
					<dim>-1</dim>
					<dim>-1</dim>
					<dim>3</dim>
				</port>
			</output>
		</layer>
		<layer id="4" name="Constant_349129" type="Const" version="opset1">
			<data element_type="f32" shape="1, 1, 1, 1" offset="4" size="4" />
			<output>
				<port id="0" precision="FP32">
					<dim>1</dim>
					<dim>1</dim>
					<dim>1</dim>
					<dim>1</dim>
				</port>
			</output>
		</layer>
		<layer id="5" name="Preprocessor/sub" type="Add" version="opset1">
			<data auto_broadcast="numpy" />
			<input>
				<port id="0" precision="FP32">
					<dim>1</dim>
					<dim>-1</dim>
					<dim>-1</dim>
					<dim>3</dim>
				</port>
				<port id="1" precision="FP32">
					<dim>1</dim>
					<dim>1</dim>
					<dim>1</dim>
					<dim>1</dim>
				</port>
			</input>
			<output>
				<port id="2" precision="FP32">
					<dim>1</dim>
					<dim>-1</dim>
					<dim>-1</dim>
					<dim>3</dim>
				</port>
			</output>
		</layer>
		<layer id="6" name="Constant_3126" type="Const" version="opset1">
			<data element_type="i64" shape="" offset="8" size="8" />
			<output>
				<port id="0" precision="I64" />
			</output>
		</layer>
		<layer id="7" name="Squeeze_3128" type="Squeeze" version="opset1">
			<input>
				<port id="0" precision="FP32">
					<dim>1</dim>
					<dim>-1</dim>
					<dim>-1</dim>
					<dim>3</dim>
				</port>
				<port id="1" precision="I64" />
			</input>
			<output>
				<port id="2" precision="FP32">
					<dim>-1</dim>
					<dim>-1</dim>
					<dim>3</dim>
				</port>
			</output>
		</layer>
		<layer id="8" name="Preprocessor/ResizeImage/resize/ExpandDims/dim" type="Const" version="opset1">
			<data element_type="i32" shape="" offset="16" size="4" />
			<output>
				<port id="0" precision="I32" />
			</output>
		</layer>
		<layer id="9" name="Preprocessor/ResizeImage/resize/ExpandDims" type="Unsqueeze" version="opset1">
			<input>
				<port id="0" precision="FP32">
					<dim>-1</dim>
					<dim>-1</dim>
					<dim>3</dim>
				</port>
				<port id="1" precision="I32" />
			</input>
			<output>
				<port id="2" precision="FP32">
					<dim>1</dim>
					<dim>-1</dim>
					<dim>-1</dim>
					<dim>3</dim>
				</port>
			</output>
		</layer>
		<layer id="10" name="Constant_169185" type="Const" version="opset1">
			<data element_type="i64" shape="4" offset="20" size="32" />
			<output>
				<port id="0" precision="I64">
					<dim>4</dim>
				</port>
			</output>
		</layer>
		<layer id="11" name="Transpose_169178" type="Transpose" version="opset1">
			<input>
				<port id="0" precision="FP32">
					<dim>1</dim>
					<dim>-1</dim>
					<dim>-1</dim>
					<dim>3</dim>
				</port>
				<port id="1" precision="I64">
					<dim>4</dim>
				</port>
			</input>
			<output>
				<port id="2" precision="FP32">
					<dim>1</dim>
					<dim>3</dim>
					<dim>-1</dim>
					<dim>-1</dim>
				</port>
			</output>
		</layer>
		<layer id="12" name="Preprocessor/ResizeImage/stack" type="Const" version="opset1">
			<data element_type="i32" shape="2" offset="52" size="8" />
			<output>
				<port id="0" precision="I32">
					<dim>2</dim>
				</port>
			</output>
		</layer>
		<layer id="13" name="Convert_3136" type="Const" version="opset1">
			<data element_type="f32" shape="2" offset="60" size="8" />
			<output>
				<port id="0" precision="FP32">
					<dim>2</dim>
				</port>
			</output>
		</layer>
		<layer id="14" name="ShapeOf_3130" type="ShapeOf" version="opset3">
			<data output_type="i32" />
			<input>
				<port id="0" precision="FP32">
					<dim>1</dim>
					<dim>-1</dim>
					<dim>-1</dim>
					<dim>3</dim>
				</port>
			</input>
			<output>
				<port id="1" precision="I32">
					<dim>4</dim>
				</port>
			</output>
		</layer>
		<layer id="15" name="Constant_3131" type="Const" version="opset1">
			<data element_type="i64" shape="1" offset="68" size="8" />
			<output>
				<port id="0" precision="I64">
					<dim>1</dim>
				</port>
			</output>
		</layer>
		<layer id="16" name="Constant_3132" type="Const" version="opset1">
			<data element_type="i64" shape="1" offset="76" size="8" />
			<output>
				<port id="0" precision="I64">
					<dim>1</dim>
				</port>
			</output>
		</layer>
		<layer id="17" name="Constant_3133" type="Const" version="opset1">
			<data element_type="i64" shape="1" offset="68" size="8" />
			<output>
				<port id="0" precision="I64">
					<dim>1</dim>
				</port>
			</output>
		</layer>
		<layer id="18" name="Slice_3135" type="StridedSlice" version="opset1">
			<data begin_mask="0" end_mask="0" new_axis_mask="" shrink_axis_mask="" ellipsis_mask="" />
			<input>
				<port id="0" precision="I32">
					<dim>4</dim>
				</port>
				<port id="1" precision="I64">
					<dim>1</dim>
				</port>
				<port id="2" precision="I64">
					<dim>1</dim>
				</port>
				<port id="3" precision="I64">
					<dim>1</dim>
				</port>
			</input>
			<output>
				<port id="4" precision="I32">
					<dim>2</dim>
				</port>
			</output>
		</layer>
		<layer id="19" name="Convert_3137" type="Convert" version="opset1">
			<data destination_type="f32" />
			<input>
				<port id="0" precision="I32">
					<dim>2</dim>
				</port>
			</input>
			<output>
				<port id="1" precision="FP32">
					<dim>2</dim>
				</port>
			</output>
		</layer>
		<layer id="20" name="Divide_3138" type="Divide" version="opset1">
			<data auto_broadcast="numpy" m_pythondiv="true" />
			<input>
				<port id="0" precision="FP32">
					<dim>2</dim>
				</port>
				<port id="1" precision="FP32">
					<dim>2</dim>
				</port>
			</input>
			<output>
				<port id="2" precision="FP32">
					<dim>2</dim>
				</port>
			</output>
		</layer>
		<layer id="21" name="Gather_169181" type="Const" version="opset1">
			<data element_type="i32" shape="2" offset="84" size="8" />
			<output>
				<port id="0" precision="I32">
					<dim>2</dim>
				</port>
			</output>
		</layer>
		<layer id="22" name="Transpose_169176" type="Interpolate" version="opset4">
			<data mode="linear_onnx" shape_calculation_mode="sizes" coordinate_transformation_mode="asymmetric" nearest_mode="round_prefer_floor" antialias="false" pads_begin="0, 0, 0, 0" pads_end="0, 0, 0, 0" cube_coeff="-0.75" />
			<input>
				<port id="0" precision="FP32">
					<dim>1</dim>
					<dim>3</dim>
					<dim>-1</dim>
					<dim>-1</dim>
				</port>
				<port id="1" precision="I32">
					<dim>2</dim>
				</port>
				<port id="2" precision="FP32">
					<dim>2</dim>
				</port>
				<port id="3" precision="I32">
					<dim>2</dim>
				</port>
			</input>
			<output>
				<port id="4" precision="FP32">
					<dim>1</dim>
					<dim>3</dim>
					<dim>300</dim>
					<dim>300</dim>
				</port>
			</output>
		</layer>
		<layer id="23" name="Constant_169174" type="Const" version="opset1">
			<data element_type="i32" shape="1" offset="16" size="4" />
			<output>
				<port id="0" precision="I32">
					<dim>1</dim>
				</port>
			</output>
		</layer>
		<layer id="24" name="Transpose_169170" type="Squeeze" version="opset1">
			<input>
				<port id="0" precision="FP32">
					<dim>1</dim>
					<dim>3</dim>
					<dim>300</dim>
					<dim>300</dim>
				</port>
				<port id="1" precision="I32">
					<dim>1</dim>
				</port>
			</input>
			<output>
				<port id="2" precision="FP32">
					<dim>3</dim>
					<dim>300</dim>
					<dim>300</dim>
				</port>
			</output>
		</layer>
		<layer id="25" name="Constant_169171" type="Const" version="opset1">
			<data element_type="i64" shape="1" offset="8" size="8" />
			<output>
				<port id="0" precision="I64">
					<dim>1</dim>
				</port>
			</output>
		</layer>
		<layer id="26" name="Transpose_169167" type="Unsqueeze" version="opset1">
			<input>
				<port id="0" precision="FP32">
					<dim>3</dim>
					<dim>300</dim>
					<dim>300</dim>
				</port>
				<port id="1" precision="I64">
					<dim>1</dim>
				</port>
			</input>
			<output>
				<port id="2" precision="FP32">
					<dim>1</dim>
					<dim>3</dim>
					<dim>300</dim>
					<dim>300</dim>
				</port>
			</output>
		</layer>
		<layer id="27" name="Multiply_343203" type="Const" version="opset1">
			<data element_type="f32" shape="32, 3, 3, 3" offset="92" size="3456" />
			<output>
				<port id="0" precision="FP32">
					<dim>32</dim>
					<dim>3</dim>
					<dim>3</dim>
					<dim>3</dim>
				</port>
			</output>
		</layer>
		<layer id="28" name="Multiply_342357" type="Convolution" version="opset1">
			<data strides="2, 2" dilations="1, 1" pads_begin="0, 0" pads_end="0, 0" auto_pad="same_upper" />
			<input>
				<port id="0" precision="FP32">
					<dim>1</dim>
					<dim>3</dim>
					<dim>300</dim>
					<dim>300</dim>
				</port>
				<port id="1" precision="FP32">
					<dim>32</dim>
					<dim>3</dim>
					<dim>3</dim>
					<dim>3</dim>
				</port>
			</input>
			<output>
				<port id="2" precision="FP32">
					<dim>1</dim>
					<dim>32</dim>
					<dim>150</dim>
					<dim>150</dim>
				</port>
			</output>
		</layer>
		<layer id="29" name="Constant_342365" type="Const" version="opset1">
			<data element_type="f32" shape="1, 32, 1, 1" offset="3548" size="128" />
			<output>
				<port id="0" precision="FP32">
					<dim>1</dim>
					<dim>32</dim>
					<dim>1</dim>
					<dim>1</dim>
				</port>
			</output>
		</layer>
		<layer id="30" name="Transpose_115568" type="Add" version="opset1">
			<data auto_broadcast="numpy" />
			<input>
				<port id="0" precision="FP32">
					<dim>1</dim>
					<dim>32</dim>
					<dim>150</dim>
					<dim>150</dim>
				</port>
				<port id="1" precision="FP32">
					<dim>1</dim>
					<dim>32</dim>
					<dim>1</dim>
					<dim>1</dim>
				</port>
			</input>
			<output>
				<port id="2" precision="FP32">
					<dim>1</dim>
					<dim>32</dim>
					<dim>150</dim>
					<dim>150</dim>
				</port>
			</output>
		</layer>
		<layer id="31" name="Clamp_115569" type="Clamp" version="opset1">
			<data min="0" max="6" />
			<input>
				<port id="0" precision="FP32">
					<dim>1</dim>
					<dim>32</dim>
					<dim>150</dim>
					<dim>150</dim>
				</port>
			</input>
			<output>
				<port id="1" precision="FP32">
					<dim>1</dim>
					<dim>32</dim>
					<dim>150</dim>
					<dim>150</dim>
				</port>
			</output>
		</layer>
		<layer id="32" name="Multiply_343209" type="Const" version="opset1">
			<data element_type="f32" shape="32, 1, 1, 3, 3" offset="3676" size="1152" />
			<output>
				<port id="0" precision="FP32">
					<dim>32</dim>
					<dim>1</dim>
					<dim>1</dim>
					<dim>3</dim>
					<dim>3</dim>
				</port>
			</output>
		</layer>
		<layer id="33" name="Multiply_342371" type="GroupConvolution" version="opset1">
			<data strides="1, 1" pads_begin="0, 0" pads_end="0, 0" dilations="1, 1" auto_pad="same_upper" />
			<input>
				<port id="0" precision="FP32">
					<dim>1</dim>
					<dim>32</dim>
					<dim>150</dim>
					<dim>150</dim>
				</port>
				<port id="1" precision="FP32">
					<dim>32</dim>
					<dim>1</dim>
					<dim>1</dim>
					<dim>3</dim>
					<dim>3</dim>
				</port>
			</input>
			<output>
				<port id="2" precision="FP32">
					<dim>1</dim>
					<dim>32</dim>
					<dim>150</dim>
					<dim>150</dim>
				</port>
			</output>
		</layer>
		<layer id="34" name="Constant_342379" type="Const" version="opset1">
			<data element_type="f32" shape="1, 32, 1, 1" offset="4828" size="128" />
			<output>
				<port id="0" precision="FP32">
					<dim>1</dim>
					<dim>32</dim>
					<dim>1</dim>
					<dim>1</dim>
				</port>
			</output>
		</layer>
		<layer id="35" name="Transpose_115594" type="Add" version="opset1">
			<data auto_broadcast="numpy" />
			<input>
				<port id="0" precision="FP32">
					<dim>1</dim>
					<dim>32</dim>
					<dim>150</dim>
					<dim>150</dim>
				</port>
				<port id="1" precision="FP32">
					<dim>1</dim>
					<dim>32</dim>
					<dim>1</dim>
					<dim>1</dim>
				</port>
			</input>
			<output>
				<port id="2" precision="FP32">
					<dim>1</dim>
					<dim>32</dim>
					<dim>150</dim>
					<dim>150</dim>
				</port>
			</output>
		</layer>
		<layer id="36" name="Clamp_115595" type="Clamp" version="opset1">
			<data min="0" max="6" />
			<input>
				<port id="0" precision="FP32">
					<dim>1</dim>
					<dim>32</dim>
					<dim>150</dim>
					<dim>150</dim>
				</port>
			</input>
			<output>
				<port id="1" precision="FP32">
					<dim>1</dim>
					<dim>32</dim>
					<dim>150</dim>
					<dim>150</dim>
				</port>
			</output>
		</layer>
		<layer id="37" name="Multiply_343214" type="Const" version="opset1">
			<data element_type="f32" shape="16, 32, 1, 1" offset="4956" size="2048" />
			<output>
				<port id="0" precision="FP32">
					<dim>16</dim>
					<dim>32</dim>
					<dim>1</dim>
					<dim>1</dim>
				</port>
			</output>
		</layer>
		<layer id="38" name="Multiply_342385" type="Convolution" version="opset1">
			<data strides="1, 1" dilations="1, 1" pads_begin="0, 0" pads_end="0, 0" auto_pad="same_upper" />
			<input>
				<port id="0" precision="FP32">
					<dim>1</dim>
					<dim>32</dim>
					<dim>150</dim>
					<dim>150</dim>
				</port>
				<port id="1" precision="FP32">
					<dim>16</dim>
					<dim>32</dim>
					<dim>1</dim>
					<dim>1</dim>
				</port>
			</input>
			<output>
				<port id="2" precision="FP32">
					<dim>1</dim>
					<dim>16</dim>
					<dim>150</dim>
					<dim>150</dim>
				</port>
			</output>
		</layer>
		<layer id="39" name="Constant_342393" type="Const" version="opset1">
			<data element_type="f32" shape="1, 16, 1, 1" offset="7004" size="64" />
			<output>
				<port id="0" precision="FP32">
					<dim>1</dim>
					<dim>16</dim>
					<dim>1</dim>
					<dim>1</dim>
				</port>
			</output>
		</layer>
		<layer id="40" name="Transpose_115620" type="Add" version="opset1">
			<data auto_broadcast="numpy" />
			<input>
				<port id="0" precision="FP32">
					<dim>1</dim>
					<dim>16</dim>
					<dim>150</dim>
					<dim>150</dim>
				</port>
				<port id="1" precision="FP32">
					<dim>1</dim>
					<dim>16</dim>
					<dim>1</dim>
					<dim>1</dim>
				</port>
			</input>
			<output>
				<port id="2" precision="FP32">
					<dim>1</dim>
					<dim>16</dim>
					<dim>150</dim>
					<dim>150</dim>
				</port>
			</output>
		</layer>
		<layer id="41" name="Multiply_343220" type="Const" version="opset1">
			<data element_type="f32" shape="96, 16, 1, 1" offset="7068" size="6144" />
			<output>
				<port id="0" precision="FP32">
					<dim>96</dim>
					<dim>16</dim>
					<dim>1</dim>
					<dim>1</dim>
				</port>
			</output>
		</layer>
		<layer id="42" name="Multiply_342399" type="Convolution" version="opset1">
			<data strides="1, 1" dilations="1, 1" pads_begin="0, 0" pads_end="0, 0" auto_pad="same_upper" />
			<input>
				<port id="0" precision="FP32">
					<dim>1</dim>
					<dim>16</dim>
					<dim>150</dim>
					<dim>150</dim>
				</port>
				<port id="1" precision="FP32">
					<dim>96</dim>
					<dim>16</dim>
					<dim>1</dim>
					<dim>1</dim>
				</port>
			</input>
			<output>
				<port id="2" precision="FP32">
					<dim>1</dim>
					<dim>96</dim>
					<dim>150</dim>
					<dim>150</dim>
				</port>
			</output>
		</layer>
		<layer id="43" name="Constant_342407" type="Const" version="opset1">
			<data element_type="f32" shape="1, 96, 1, 1" offset="13212" size="384" />
			<output>
				<port id="0" precision="FP32">
					<dim>1</dim>
					<dim>96</dim>
					<dim>1</dim>
					<dim>1</dim>
				</port>
			</output>
		</layer>
		<layer id="44" name="Transpose_115644" type="Add" version="opset1">
			<data auto_broadcast="numpy" />
			<input>
				<port id="0" precision="FP32">
					<dim>1</dim>
					<dim>96</dim>
					<dim>150</dim>
					<dim>150</dim>
				</port>
				<port id="1" precision="FP32">
					<dim>1</dim>
					<dim>96</dim>
					<dim>1</dim>
					<dim>1</dim>
				</port>
			</input>
			<output>
				<port id="2" precision="FP32">
					<dim>1</dim>
					<dim>96</dim>
					<dim>150</dim>
					<dim>150</dim>
				</port>
			</output>
		</layer>
		<layer id="45" name="Clamp_115645" type="Clamp" version="opset1">
			<data min="0" max="6" />
			<input>
				<port id="0" precision="FP32">
					<dim>1</dim>
					<dim>96</dim>
					<dim>150</dim>
					<dim>150</dim>
				</port>
			</input>
			<output>
				<port id="1" precision="FP32">
					<dim>1</dim>
					<dim>96</dim>
					<dim>150</dim>
					<dim>150</dim>
				</port>
			</output>
		</layer>
		<layer id="46" name="Multiply_343226" type="Const" version="opset1">
			<data element_type="f32" shape="96, 1, 1, 3, 3" offset="13596" size="3456" />
			<output>
				<port id="0" precision="FP32">
					<dim>96</dim>
					<dim>1</dim>
					<dim>1</dim>
					<dim>3</dim>
					<dim>3</dim>
				</port>
			</output>
		</layer>
		<layer id="47" name="Multiply_342413" type="GroupConvolution" version="opset1">
			<data strides="2, 2" pads_begin="0, 0" pads_end="0, 0" dilations="1, 1" auto_pad="same_upper" />
			<input>
				<port id="0" precision="FP32">
					<dim>1</dim>
					<dim>96</dim>
					<dim>150</dim>
					<dim>150</dim>
				</port>
				<port id="1" precision="FP32">
					<dim>96</dim>
					<dim>1</dim>
					<dim>1</dim>
					<dim>3</dim>
					<dim>3</dim>
				</port>
			</input>
			<output>
				<port id="2" precision="FP32">
					<dim>1</dim>
					<dim>96</dim>
					<dim>75</dim>
					<dim>75</dim>
				</port>
			</output>
		</layer>
		<layer id="48" name="Constant_342421" type="Const" version="opset1">
			<data element_type="f32" shape="1, 96, 1, 1" offset="17052" size="384" />
			<output>
				<port id="0" precision="FP32">
					<dim>1</dim>
					<dim>96</dim>
					<dim>1</dim>
					<dim>1</dim>
				</port>
			</output>
		</layer>
		<layer id="49" name="Transpose_115670" type="Add" version="opset1">
			<data auto_broadcast="numpy" />
			<input>
				<port id="0" precision="FP32">
					<dim>1</dim>
					<dim>96</dim>
					<dim>75</dim>
					<dim>75</dim>
				</port>
				<port id="1" precision="FP32">
					<dim>1</dim>
					<dim>96</dim>
					<dim>1</dim>
					<dim>1</dim>
				</port>
			</input>
			<output>
				<port id="2" precision="FP32">
					<dim>1</dim>
					<dim>96</dim>
					<dim>75</dim>
					<dim>75</dim>
				</port>
			</output>
		</layer>
		<layer id="50" name="Clamp_115671" type="Clamp" version="opset1">
			<data min="0" max="6" />
			<input>
				<port id="0" precision="FP32">
					<dim>1</dim>
					<dim>96</dim>
					<dim>75</dim>
					<dim>75</dim>
				</port>
			</input>
			<output>
				<port id="1" precision="FP32">
					<dim>1</dim>
					<dim>96</dim>
					<dim>75</dim>
					<dim>75</dim>
				</port>
			</output>
		</layer>
		<layer id="51" name="Multiply_343231" type="Const" version="opset1">
			<data element_type="f32" shape="24, 96, 1, 1" offset="17436" size="9216" />
			<output>
				<port id="0" precision="FP32">
					<dim>24</dim>
					<dim>96</dim>
					<dim>1</dim>
					<dim>1</dim>
				</port>
			</output>
		</layer>
		<layer id="52" name="Multiply_342427" type="Convolution" version="opset1">
			<data strides="1, 1" dilations="1, 1" pads_begin="0, 0" pads_end="0, 0" auto_pad="same_upper" />
			<input>
				<port id="0" precision="FP32">
					<dim>1</dim>
					<dim>96</dim>
					<dim>75</dim>
					<dim>75</dim>
				</port>
				<port id="1" precision="FP32">
					<dim>24</dim>
					<dim>96</dim>
					<dim>1</dim>
					<dim>1</dim>
				</port>
			</input>
			<output>
				<port id="2" precision="FP32">
					<dim>1</dim>
					<dim>24</dim>
					<dim>75</dim>
					<dim>75</dim>
				</port>
			</output>
		</layer>
		<layer id="53" name="Constant_342435" type="Const" version="opset1">
			<data element_type="f32" shape="1, 24, 1, 1" offset="26652" size="96" />
			<output>
				<port id="0" precision="FP32">
					<dim>1</dim>
					<dim>24</dim>
					<dim>1</dim>
					<dim>1</dim>
				</port>
			</output>
		</layer>
		<layer id="54" name="Transpose_115696" type="Add" version="opset1">
			<data auto_broadcast="numpy" />
			<input>
				<port id="0" precision="FP32">
					<dim>1</dim>
					<dim>24</dim>
					<dim>75</dim>
					<dim>75</dim>
				</port>
				<port id="1" precision="FP32">
					<dim>1</dim>
					<dim>24</dim>
					<dim>1</dim>
					<dim>1</dim>
				</port>
			</input>
			<output>
				<port id="2" precision="FP32">
					<dim>1</dim>
					<dim>24</dim>
					<dim>75</dim>
					<dim>75</dim>
				</port>
			</output>
		</layer>
		<layer id="55" name="Multiply_343237" type="Const" version="opset1">
			<data element_type="f32" shape="144, 24, 1, 1" offset="26748" size="13824" />
			<output>
				<port id="0" precision="FP32">
					<dim>144</dim>
					<dim>24</dim>
					<dim>1</dim>
					<dim>1</dim>
				</port>
			</output>
		</layer>
		<layer id="56" name="Multiply_342441" type="Convolution" version="opset1">
			<data strides="1, 1" dilations="1, 1" pads_begin="0, 0" pads_end="0, 0" auto_pad="same_upper" />
			<input>
				<port id="0" precision="FP32">
					<dim>1</dim>
					<dim>24</dim>
					<dim>75</dim>
					<dim>75</dim>
				</port>
				<port id="1" precision="FP32">
					<dim>144</dim>
					<dim>24</dim>
					<dim>1</dim>
					<dim>1</dim>
				</port>
			</input>
			<output>
				<port id="2" precision="FP32">
					<dim>1</dim>
					<dim>144</dim>
					<dim>75</dim>
					<dim>75</dim>
				</port>
			</output>
		</layer>
		<layer id="57" name="Constant_342449" type="Const" version="opset1">
			<data element_type="f32" shape="1, 144, 1, 1" offset="40572" size="576" />
			<output>
				<port id="0" precision="FP32">
					<dim>1</dim>
					<dim>144</dim>
					<dim>1</dim>
					<dim>1</dim>
				</port>
			</output>
		</layer>
		<layer id="58" name="Transpose_115720" type="Add" version="opset1">
			<data auto_broadcast="numpy" />
			<input>
				<port id="0" precision="FP32">
					<dim>1</dim>
					<dim>144</dim>
					<dim>75</dim>
					<dim>75</dim>
				</port>
				<port id="1" precision="FP32">
					<dim>1</dim>
					<dim>144</dim>
					<dim>1</dim>
					<dim>1</dim>
				</port>
			</input>
			<output>
				<port id="2" precision="FP32">
					<dim>1</dim>
					<dim>144</dim>
					<dim>75</dim>
					<dim>75</dim>
				</port>
			</output>
		</layer>
		<layer id="59" name="Clamp_115721" type="Clamp" version="opset1">
			<data min="0" max="6" />
			<input>
				<port id="0" precision="FP32">
					<dim>1</dim>
					<dim>144</dim>
					<dim>75</dim>
					<dim>75</dim>
				</port>
			</input>
			<output>
				<port id="1" precision="FP32">
					<dim>1</dim>
					<dim>144</dim>
					<dim>75</dim>
					<dim>75</dim>
				</port>
			</output>
		</layer>
		<layer id="60" name="Multiply_343243" type="Const" version="opset1">
			<data element_type="f32" shape="144, 1, 1, 3, 3" offset="41148" size="5184" />
			<output>
				<port id="0" precision="FP32">
					<dim>144</dim>
					<dim>1</dim>
					<dim>1</dim>
					<dim>3</dim>
					<dim>3</dim>
				</port>
			</output>
		</layer>
		<layer id="61" name="Multiply_342455" type="GroupConvolution" version="opset1">
			<data strides="1, 1" pads_begin="0, 0" pads_end="0, 0" dilations="1, 1" auto_pad="same_upper" />
			<input>
				<port id="0" precision="FP32">
					<dim>1</dim>
					<dim>144</dim>
					<dim>75</dim>
					<dim>75</dim>
				</port>
				<port id="1" precision="FP32">
					<dim>144</dim>
					<dim>1</dim>
					<dim>1</dim>
					<dim>3</dim>
					<dim>3</dim>
				</port>
			</input>
			<output>
				<port id="2" precision="FP32">
					<dim>1</dim>
					<dim>144</dim>
					<dim>75</dim>
					<dim>75</dim>
				</port>
			</output>
		</layer>
		<layer id="62" name="Constant_342463" type="Const" version="opset1">
			<data element_type="f32" shape="1, 144, 1, 1" offset="46332" size="576" />
			<output>
				<port id="0" precision="FP32">
					<dim>1</dim>
					<dim>144</dim>
					<dim>1</dim>
					<dim>1</dim>
				</port>
			</output>
		</layer>
		<layer id="63" name="Transpose_115746" type="Add" version="opset1">
			<data auto_broadcast="numpy" />
			<input>
				<port id="0" precision="FP32">
					<dim>1</dim>
					<dim>144</dim>
					<dim>75</dim>
					<dim>75</dim>
				</port>
				<port id="1" precision="FP32">
					<dim>1</dim>
					<dim>144</dim>
					<dim>1</dim>
					<dim>1</dim>
				</port>
			</input>
			<output>
				<port id="2" precision="FP32">
					<dim>1</dim>
					<dim>144</dim>
					<dim>75</dim>
					<dim>75</dim>
				</port>
			</output>
		</layer>
		<layer id="64" name="Clamp_115747" type="Clamp" version="opset1">
			<data min="0" max="6" />
			<input>
				<port id="0" precision="FP32">
					<dim>1</dim>
					<dim>144</dim>
					<dim>75</dim>
					<dim>75</dim>
				</port>
			</input>
			<output>
				<port id="1" precision="FP32">
					<dim>1</dim>
					<dim>144</dim>
					<dim>75</dim>
					<dim>75</dim>
				</port>
			</output>
		</layer>
		<layer id="65" name="Multiply_343248" type="Const" version="opset1">
			<data element_type="f32" shape="24, 144, 1, 1" offset="46908" size="13824" />
			<output>
				<port id="0" precision="FP32">
					<dim>24</dim>
					<dim>144</dim>
					<dim>1</dim>
					<dim>1</dim>
				</port>
			</output>
		</layer>
		<layer id="66" name="Multiply_342469" type="Convolution" version="opset1">
			<data strides="1, 1" dilations="1, 1" pads_begin="0, 0" pads_end="0, 0" auto_pad="same_upper" />
			<input>
				<port id="0" precision="FP32">
					<dim>1</dim>
					<dim>144</dim>
					<dim>75</dim>
					<dim>75</dim>
				</port>
				<port id="1" precision="FP32">
					<dim>24</dim>
					<dim>144</dim>
					<dim>1</dim>
					<dim>1</dim>
				</port>
			</input>
			<output>
				<port id="2" precision="FP32">
					<dim>1</dim>
					<dim>24</dim>
					<dim>75</dim>
					<dim>75</dim>
				</port>
			</output>
		</layer>
		<layer id="67" name="Constant_342477" type="Const" version="opset1">
			<data element_type="f32" shape="1, 24, 1, 1" offset="60732" size="96" />
			<output>
				<port id="0" precision="FP32">
					<dim>1</dim>
					<dim>24</dim>
					<dim>1</dim>
					<dim>1</dim>
				</port>
			</output>
		</layer>
		<layer id="68" name="Transpose_115774" type="Add" version="opset1">
			<data auto_broadcast="numpy" />
			<input>
				<port id="0" precision="FP32">
					<dim>1</dim>
					<dim>24</dim>
					<dim>75</dim>
					<dim>75</dim>
				</port>
				<port id="1" precision="FP32">
					<dim>1</dim>
					<dim>24</dim>
					<dim>1</dim>
					<dim>1</dim>
				</port>
			</input>
			<output>
				<port id="2" precision="FP32">
					<dim>1</dim>
					<dim>24</dim>
					<dim>75</dim>
					<dim>75</dim>
				</port>
			</output>
		</layer>
		<layer id="69" name="Transpose_115776" type="Add" version="opset1">
			<data auto_broadcast="numpy" />
			<input>
				<port id="0" precision="FP32">
					<dim>1</dim>
					<dim>24</dim>
					<dim>75</dim>
					<dim>75</dim>
				</port>
				<port id="1" precision="FP32">
					<dim>1</dim>
					<dim>24</dim>
					<dim>75</dim>
					<dim>75</dim>
				</port>
			</input>
			<output>
				<port id="2" precision="FP32">
					<dim>1</dim>
					<dim>24</dim>
					<dim>75</dim>
					<dim>75</dim>
				</port>
			</output>
		</layer>
		<layer id="70" name="Multiply_343254" type="Const" version="opset1">
			<data element_type="f32" shape="144, 24, 1, 1" offset="60828" size="13824" />
			<output>
				<port id="0" precision="FP32">
					<dim>144</dim>
					<dim>24</dim>
					<dim>1</dim>
					<dim>1</dim>
				</port>
			</output>
		</layer>
		<layer id="71" name="Multiply_342483" type="Convolution" version="opset1">
			<data strides="1, 1" dilations="1, 1" pads_begin="0, 0" pads_end="0, 0" auto_pad="same_upper" />
			<input>
				<port id="0" precision="FP32">
					<dim>1</dim>
					<dim>24</dim>
					<dim>75</dim>
					<dim>75</dim>
				</port>
				<port id="1" precision="FP32">
					<dim>144</dim>
					<dim>24</dim>
					<dim>1</dim>
					<dim>1</dim>
				</port>
			</input>
			<output>
				<port id="2" precision="FP32">
					<dim>1</dim>
					<dim>144</dim>
					<dim>75</dim>
					<dim>75</dim>
				</port>
			</output>
		</layer>
		<layer id="72" name="Constant_342491" type="Const" version="opset1">
			<data element_type="f32" shape="1, 144, 1, 1" offset="74652" size="576" />
			<output>
				<port id="0" precision="FP32">
					<dim>1</dim>
					<dim>144</dim>
					<dim>1</dim>
					<dim>1</dim>
				</port>
			</output>
		</layer>
		<layer id="73" name="Transpose_115800" type="Add" version="opset1">
			<data auto_broadcast="numpy" />
			<input>
				<port id="0" precision="FP32">
					<dim>1</dim>
					<dim>144</dim>
					<dim>75</dim>
					<dim>75</dim>
				</port>
				<port id="1" precision="FP32">
					<dim>1</dim>
					<dim>144</dim>
					<dim>1</dim>
					<dim>1</dim>
				</port>
			</input>
			<output>
				<port id="2" precision="FP32">
					<dim>1</dim>
					<dim>144</dim>
					<dim>75</dim>
					<dim>75</dim>
				</port>
			</output>
		</layer>
		<layer id="74" name="Clamp_115801" type="Clamp" version="opset1">
			<data min="0" max="6" />
			<input>
				<port id="0" precision="FP32">
					<dim>1</dim>
					<dim>144</dim>
					<dim>75</dim>
					<dim>75</dim>
				</port>
			</input>
			<output>
				<port id="1" precision="FP32">
					<dim>1</dim>
					<dim>144</dim>
					<dim>75</dim>
					<dim>75</dim>
				</port>
			</output>
		</layer>
		<layer id="75" name="Multiply_343260" type="Const" version="opset1">
			<data element_type="f32" shape="144, 1, 1, 3, 3" offset="75228" size="5184" />
			<output>
				<port id="0" precision="FP32">
					<dim>144</dim>
					<dim>1</dim>
					<dim>1</dim>
					<dim>3</dim>
					<dim>3</dim>
				</port>
			</output>
		</layer>
		<layer id="76" name="Multiply_342497" type="GroupConvolution" version="opset1">
			<data strides="2, 2" pads_begin="0, 0" pads_end="0, 0" dilations="1, 1" auto_pad="same_upper" />
			<input>
				<port id="0" precision="FP32">
					<dim>1</dim>
					<dim>144</dim>
					<dim>75</dim>
					<dim>75</dim>
				</port>
				<port id="1" precision="FP32">
					<dim>144</dim>
					<dim>1</dim>
					<dim>1</dim>
					<dim>3</dim>
					<dim>3</dim>
				</port>
			</input>
			<output>
				<port id="2" precision="FP32">
					<dim>1</dim>
					<dim>144</dim>
					<dim>38</dim>
					<dim>38</dim>
				</port>
			</output>
		</layer>
		<layer id="77" name="Constant_342505" type="Const" version="opset1">
			<data element_type="f32" shape="1, 144, 1, 1" offset="80412" size="576" />
			<output>
				<port id="0" precision="FP32">
					<dim>1</dim>
					<dim>144</dim>
					<dim>1</dim>
					<dim>1</dim>
				</port>
			</output>
		</layer>
		<layer id="78" name="Transpose_115826" type="Add" version="opset1">
			<data auto_broadcast="numpy" />
			<input>
				<port id="0" precision="FP32">
					<dim>1</dim>
					<dim>144</dim>
					<dim>38</dim>
					<dim>38</dim>
				</port>
				<port id="1" precision="FP32">
					<dim>1</dim>
					<dim>144</dim>
					<dim>1</dim>
					<dim>1</dim>
				</port>
			</input>
			<output>
				<port id="2" precision="FP32">
					<dim>1</dim>
					<dim>144</dim>
					<dim>38</dim>
					<dim>38</dim>
				</port>
			</output>
		</layer>
		<layer id="79" name="Clamp_115827" type="Clamp" version="opset1">
			<data min="0" max="6" />
			<input>
				<port id="0" precision="FP32">
					<dim>1</dim>
					<dim>144</dim>
					<dim>38</dim>
					<dim>38</dim>
				</port>
			</input>
			<output>
				<port id="1" precision="FP32">
					<dim>1</dim>
					<dim>144</dim>
					<dim>38</dim>
					<dim>38</dim>
				</port>
			</output>
		</layer>
		<layer id="80" name="Multiply_343265" type="Const" version="opset1">
			<data element_type="f32" shape="32, 144, 1, 1" offset="80988" size="18432" />
			<output>
				<port id="0" precision="FP32">
					<dim>32</dim>
					<dim>144</dim>
					<dim>1</dim>
					<dim>1</dim>
				</port>
			</output>
		</layer>
		<layer id="81" name="Multiply_342511" type="Convolution" version="opset1">
			<data strides="1, 1" dilations="1, 1" pads_begin="0, 0" pads_end="0, 0" auto_pad="same_upper" />
			<input>
				<port id="0" precision="FP32">
					<dim>1</dim>
					<dim>144</dim>
					<dim>38</dim>
					<dim>38</dim>
				</port>
				<port id="1" precision="FP32">
					<dim>32</dim>
					<dim>144</dim>
					<dim>1</dim>
					<dim>1</dim>
				</port>
			</input>
			<output>
				<port id="2" precision="FP32">
					<dim>1</dim>
					<dim>32</dim>
					<dim>38</dim>
					<dim>38</dim>
				</port>
			</output>
		</layer>
		<layer id="82" name="Constant_342519" type="Const" version="opset1">
			<data element_type="f32" shape="1, 32, 1, 1" offset="99420" size="128" />
			<output>
				<port id="0" precision="FP32">
					<dim>1</dim>
					<dim>32</dim>
					<dim>1</dim>
					<dim>1</dim>
				</port>
			</output>
		</layer>
		<layer id="83" name="Transpose_115852" type="Add" version="opset1">
			<data auto_broadcast="numpy" />
			<input>
				<port id="0" precision="FP32">
					<dim>1</dim>
					<dim>32</dim>
					<dim>38</dim>
					<dim>38</dim>
				</port>
				<port id="1" precision="FP32">
					<dim>1</dim>
					<dim>32</dim>
					<dim>1</dim>
					<dim>1</dim>
				</port>
			</input>
			<output>
				<port id="2" precision="FP32">
					<dim>1</dim>
					<dim>32</dim>
					<dim>38</dim>
					<dim>38</dim>
				</port>
			</output>
		</layer>
		<layer id="84" name="Multiply_343271" type="Const" version="opset1">
			<data element_type="f32" shape="192, 32, 1, 1" offset="99548" size="24576" />
			<output>
				<port id="0" precision="FP32">
					<dim>192</dim>
					<dim>32</dim>
					<dim>1</dim>
					<dim>1</dim>
				</port>
			</output>
		</layer>
		<layer id="85" name="Multiply_342525" type="Convolution" version="opset1">
			<data strides="1, 1" dilations="1, 1" pads_begin="0, 0" pads_end="0, 0" auto_pad="same_upper" />
			<input>
				<port id="0" precision="FP32">
					<dim>1</dim>
					<dim>32</dim>
					<dim>38</dim>
					<dim>38</dim>
				</port>
				<port id="1" precision="FP32">
					<dim>192</dim>
					<dim>32</dim>
					<dim>1</dim>
					<dim>1</dim>
				</port>
			</input>
			<output>
				<port id="2" precision="FP32">
					<dim>1</dim>
					<dim>192</dim>
					<dim>38</dim>
					<dim>38</dim>
				</port>
			</output>
		</layer>
		<layer id="86" name="Constant_342533" type="Const" version="opset1">
			<data element_type="f32" shape="1, 192, 1, 1" offset="124124" size="768" />
			<output>
				<port id="0" precision="FP32">
					<dim>1</dim>
					<dim>192</dim>
					<dim>1</dim>
					<dim>1</dim>
				</port>
			</output>
		</layer>
		<layer id="87" name="Transpose_115876" type="Add" version="opset1">
			<data auto_broadcast="numpy" />
			<input>
				<port id="0" precision="FP32">
					<dim>1</dim>
					<dim>192</dim>
					<dim>38</dim>
					<dim>38</dim>
				</port>
				<port id="1" precision="FP32">
					<dim>1</dim>
					<dim>192</dim>
					<dim>1</dim>
					<dim>1</dim>
				</port>
			</input>
			<output>
				<port id="2" precision="FP32">
					<dim>1</dim>
					<dim>192</dim>
					<dim>38</dim>
					<dim>38</dim>
				</port>
			</output>
		</layer>
		<layer id="88" name="Clamp_115877" type="Clamp" version="opset1">
			<data min="0" max="6" />
			<input>
				<port id="0" precision="FP32">
					<dim>1</dim>
					<dim>192</dim>
					<dim>38</dim>
					<dim>38</dim>
				</port>
			</input>
			<output>
				<port id="1" precision="FP32">
					<dim>1</dim>
					<dim>192</dim>
					<dim>38</dim>
					<dim>38</dim>
				</port>
			</output>
		</layer>
		<layer id="89" name="Multiply_343277" type="Const" version="opset1">
			<data element_type="f32" shape="192, 1, 1, 3, 3" offset="124892" size="6912" />
			<output>
				<port id="0" precision="FP32">
					<dim>192</dim>
					<dim>1</dim>
					<dim>1</dim>
					<dim>3</dim>
					<dim>3</dim>
				</port>
			</output>
		</layer>
		<layer id="90" name="Multiply_342539" type="GroupConvolution" version="opset1">
			<data strides="1, 1" pads_begin="0, 0" pads_end="0, 0" dilations="1, 1" auto_pad="same_upper" />
			<input>
				<port id="0" precision="FP32">
					<dim>1</dim>
					<dim>192</dim>
					<dim>38</dim>
					<dim>38</dim>
				</port>
				<port id="1" precision="FP32">
					<dim>192</dim>
					<dim>1</dim>
					<dim>1</dim>
					<dim>3</dim>
					<dim>3</dim>
				</port>
			</input>
			<output>
				<port id="2" precision="FP32">
					<dim>1</dim>
					<dim>192</dim>
					<dim>38</dim>
					<dim>38</dim>
				</port>
			</output>
		</layer>
		<layer id="91" name="Constant_342547" type="Const" version="opset1">
			<data element_type="f32" shape="1, 192, 1, 1" offset="131804" size="768" />
			<output>
				<port id="0" precision="FP32">
					<dim>1</dim>
					<dim>192</dim>
					<dim>1</dim>
					<dim>1</dim>
				</port>
			</output>
		</layer>
		<layer id="92" name="Transpose_115902" type="Add" version="opset1">
			<data auto_broadcast="numpy" />
			<input>
				<port id="0" precision="FP32">
					<dim>1</dim>
					<dim>192</dim>
					<dim>38</dim>
					<dim>38</dim>
				</port>
				<port id="1" precision="FP32">
					<dim>1</dim>
					<dim>192</dim>
					<dim>1</dim>
					<dim>1</dim>
				</port>
			</input>
			<output>
				<port id="2" precision="FP32">
					<dim>1</dim>
					<dim>192</dim>
					<dim>38</dim>
					<dim>38</dim>
				</port>
			</output>
		</layer>
		<layer id="93" name="Clamp_115903" type="Clamp" version="opset1">
			<data min="0" max="6" />
			<input>
				<port id="0" precision="FP32">
					<dim>1</dim>
					<dim>192</dim>
					<dim>38</dim>
					<dim>38</dim>
				</port>
			</input>
			<output>
				<port id="1" precision="FP32">
					<dim>1</dim>
					<dim>192</dim>
					<dim>38</dim>
					<dim>38</dim>
				</port>
			</output>
		</layer>
		<layer id="94" name="Multiply_343282" type="Const" version="opset1">
			<data element_type="f32" shape="32, 192, 1, 1" offset="132572" size="24576" />
			<output>
				<port id="0" precision="FP32">
					<dim>32</dim>
					<dim>192</dim>
					<dim>1</dim>
					<dim>1</dim>
				</port>
			</output>
		</layer>
		<layer id="95" name="Multiply_342553" type="Convolution" version="opset1">
			<data strides="1, 1" dilations="1, 1" pads_begin="0, 0" pads_end="0, 0" auto_pad="same_upper" />
			<input>
				<port id="0" precision="FP32">
					<dim>1</dim>
					<dim>192</dim>
					<dim>38</dim>
					<dim>38</dim>
				</port>
				<port id="1" precision="FP32">
					<dim>32</dim>
					<dim>192</dim>
					<dim>1</dim>
					<dim>1</dim>
				</port>
			</input>
			<output>
				<port id="2" precision="FP32">
					<dim>1</dim>
					<dim>32</dim>
					<dim>38</dim>
					<dim>38</dim>
				</port>
			</output>
		</layer>
		<layer id="96" name="Constant_342561" type="Const" version="opset1">
			<data element_type="f32" shape="1, 32, 1, 1" offset="157148" size="128" />
			<output>
				<port id="0" precision="FP32">
					<dim>1</dim>
					<dim>32</dim>
					<dim>1</dim>
					<dim>1</dim>
				</port>
			</output>
		</layer>
		<layer id="97" name="Transpose_115930" type="Add" version="opset1">
			<data auto_broadcast="numpy" />
			<input>
				<port id="0" precision="FP32">
					<dim>1</dim>
					<dim>32</dim>
					<dim>38</dim>
					<dim>38</dim>
				</port>
				<port id="1" precision="FP32">
					<dim>1</dim>
					<dim>32</dim>
					<dim>1</dim>
					<dim>1</dim>
				</port>
			</input>
			<output>
				<port id="2" precision="FP32">
					<dim>1</dim>
					<dim>32</dim>
					<dim>38</dim>
					<dim>38</dim>
				</port>
			</output>
		</layer>
		<layer id="98" name="Transpose_115932" type="Add" version="opset1">
			<data auto_broadcast="numpy" />
			<input>
				<port id="0" precision="FP32">
					<dim>1</dim>
					<dim>32</dim>
					<dim>38</dim>
					<dim>38</dim>
				</port>
				<port id="1" precision="FP32">
					<dim>1</dim>
					<dim>32</dim>
					<dim>38</dim>
					<dim>38</dim>
				</port>
			</input>
			<output>
				<port id="2" precision="FP32">
					<dim>1</dim>
					<dim>32</dim>
					<dim>38</dim>
					<dim>38</dim>
				</port>
			</output>
		</layer>
		<layer id="99" name="Multiply_343288" type="Const" version="opset1">
			<data element_type="f32" shape="192, 32, 1, 1" offset="157276" size="24576" />
			<output>
				<port id="0" precision="FP32">
					<dim>192</dim>
					<dim>32</dim>
					<dim>1</dim>
					<dim>1</dim>
				</port>
			</output>
		</layer>
		<layer id="100" name="Multiply_342567" type="Convolution" version="opset1">
			<data strides="1, 1" dilations="1, 1" pads_begin="0, 0" pads_end="0, 0" auto_pad="same_upper" />
			<input>
				<port id="0" precision="FP32">
					<dim>1</dim>
					<dim>32</dim>
					<dim>38</dim>
					<dim>38</dim>
				</port>
				<port id="1" precision="FP32">
					<dim>192</dim>
					<dim>32</dim>
					<dim>1</dim>
					<dim>1</dim>
				</port>
			</input>
			<output>
				<port id="2" precision="FP32">
					<dim>1</dim>
					<dim>192</dim>
					<dim>38</dim>
					<dim>38</dim>
				</port>
			</output>
		</layer>
		<layer id="101" name="Constant_342575" type="Const" version="opset1">
			<data element_type="f32" shape="1, 192, 1, 1" offset="181852" size="768" />
			<output>
				<port id="0" precision="FP32">
					<dim>1</dim>
					<dim>192</dim>
					<dim>1</dim>
					<dim>1</dim>
				</port>
			</output>
		</layer>
		<layer id="102" name="Transpose_115956" type="Add" version="opset1">
			<data auto_broadcast="numpy" />
			<input>
				<port id="0" precision="FP32">
					<dim>1</dim>
					<dim>192</dim>
					<dim>38</dim>
					<dim>38</dim>
				</port>
				<port id="1" precision="FP32">
					<dim>1</dim>
					<dim>192</dim>
					<dim>1</dim>
					<dim>1</dim>
				</port>
			</input>
			<output>
				<port id="2" precision="FP32">
					<dim>1</dim>
					<dim>192</dim>
					<dim>38</dim>
					<dim>38</dim>
				</port>
			</output>
		</layer>
		<layer id="103" name="Clamp_115957" type="Clamp" version="opset1">
			<data min="0" max="6" />
			<input>
				<port id="0" precision="FP32">
					<dim>1</dim>
					<dim>192</dim>
					<dim>38</dim>
					<dim>38</dim>
				</port>
			</input>
			<output>
				<port id="1" precision="FP32">
					<dim>1</dim>
					<dim>192</dim>
					<dim>38</dim>
					<dim>38</dim>
				</port>
			</output>
		</layer>
		<layer id="104" name="Multiply_343294" type="Const" version="opset1">
			<data element_type="f32" shape="192, 1, 1, 3, 3" offset="182620" size="6912" />
			<output>
				<port id="0" precision="FP32">
					<dim>192</dim>
					<dim>1</dim>
					<dim>1</dim>
					<dim>3</dim>
					<dim>3</dim>
				</port>
			</output>
		</layer>
		<layer id="105" name="Multiply_342581" type="GroupConvolution" version="opset1">
			<data strides="1, 1" pads_begin="0, 0" pads_end="0, 0" dilations="1, 1" auto_pad="same_upper" />
			<input>
				<port id="0" precision="FP32">
					<dim>1</dim>
					<dim>192</dim>
					<dim>38</dim>
					<dim>38</dim>
				</port>
				<port id="1" precision="FP32">
					<dim>192</dim>
					<dim>1</dim>
					<dim>1</dim>
					<dim>3</dim>
					<dim>3</dim>
				</port>
			</input>
			<output>
				<port id="2" precision="FP32">
					<dim>1</dim>
					<dim>192</dim>
					<dim>38</dim>
					<dim>38</dim>
				</port>
			</output>
		</layer>
		<layer id="106" name="Constant_342589" type="Const" version="opset1">
			<data element_type="f32" shape="1, 192, 1, 1" offset="189532" size="768" />
			<output>
				<port id="0" precision="FP32">
					<dim>1</dim>
					<dim>192</dim>
					<dim>1</dim>
					<dim>1</dim>
				</port>
			</output>
		</layer>
		<layer id="107" name="Transpose_115982" type="Add" version="opset1">
			<data auto_broadcast="numpy" />
			<input>
				<port id="0" precision="FP32">
					<dim>1</dim>
					<dim>192</dim>
					<dim>38</dim>
					<dim>38</dim>
				</port>
				<port id="1" precision="FP32">
					<dim>1</dim>
					<dim>192</dim>
					<dim>1</dim>
					<dim>1</dim>
				</port>
			</input>
			<output>
				<port id="2" precision="FP32">
					<dim>1</dim>
					<dim>192</dim>
					<dim>38</dim>
					<dim>38</dim>
				</port>
			</output>
		</layer>
		<layer id="108" name="Clamp_115983" type="Clamp" version="opset1">
			<data min="0" max="6" />
			<input>
				<port id="0" precision="FP32">
					<dim>1</dim>
					<dim>192</dim>
					<dim>38</dim>
					<dim>38</dim>
				</port>
			</input>
			<output>
				<port id="1" precision="FP32">
					<dim>1</dim>
					<dim>192</dim>
					<dim>38</dim>
					<dim>38</dim>
				</port>
			</output>
		</layer>
		<layer id="109" name="Multiply_343299" type="Const" version="opset1">
			<data element_type="f32" shape="32, 192, 1, 1" offset="190300" size="24576" />
			<output>
				<port id="0" precision="FP32">
					<dim>32</dim>
					<dim>192</dim>
					<dim>1</dim>
					<dim>1</dim>
				</port>
			</output>
		</layer>
		<layer id="110" name="Multiply_342595" type="Convolution" version="opset1">
			<data strides="1, 1" dilations="1, 1" pads_begin="0, 0" pads_end="0, 0" auto_pad="same_upper" />
			<input>
				<port id="0" precision="FP32">
					<dim>1</dim>
					<dim>192</dim>
					<dim>38</dim>
					<dim>38</dim>
				</port>
				<port id="1" precision="FP32">
					<dim>32</dim>
					<dim>192</dim>
					<dim>1</dim>
					<dim>1</dim>
				</port>
			</input>
			<output>
				<port id="2" precision="FP32">
					<dim>1</dim>
					<dim>32</dim>
					<dim>38</dim>
					<dim>38</dim>
				</port>
			</output>
		</layer>
		<layer id="111" name="Constant_342603" type="Const" version="opset1">
			<data element_type="f32" shape="1, 32, 1, 1" offset="214876" size="128" />
			<output>
				<port id="0" precision="FP32">
					<dim>1</dim>
					<dim>32</dim>
					<dim>1</dim>
					<dim>1</dim>
				</port>
			</output>
		</layer>
		<layer id="112" name="Transpose_116010" type="Add" version="opset1">
			<data auto_broadcast="numpy" />
			<input>
				<port id="0" precision="FP32">
					<dim>1</dim>
					<dim>32</dim>
					<dim>38</dim>
					<dim>38</dim>
				</port>
				<port id="1" precision="FP32">
					<dim>1</dim>
					<dim>32</dim>
					<dim>1</dim>
					<dim>1</dim>
				</port>
			</input>
			<output>
				<port id="2" precision="FP32">
					<dim>1</dim>
					<dim>32</dim>
					<dim>38</dim>
					<dim>38</dim>
				</port>
			</output>
		</layer>
		<layer id="113" name="Transpose_116012" type="Add" version="opset1">
			<data auto_broadcast="numpy" />
			<input>
				<port id="0" precision="FP32">
					<dim>1</dim>
					<dim>32</dim>
					<dim>38</dim>
					<dim>38</dim>
				</port>
				<port id="1" precision="FP32">
					<dim>1</dim>
					<dim>32</dim>
					<dim>38</dim>
					<dim>38</dim>
				</port>
			</input>
			<output>
				<port id="2" precision="FP32">
					<dim>1</dim>
					<dim>32</dim>
					<dim>38</dim>
					<dim>38</dim>
				</port>
			</output>
		</layer>
		<layer id="114" name="Multiply_343305" type="Const" version="opset1">
			<data element_type="f32" shape="192, 32, 1, 1" offset="215004" size="24576" />
			<output>
				<port id="0" precision="FP32">
					<dim>192</dim>
					<dim>32</dim>
					<dim>1</dim>
					<dim>1</dim>
				</port>
			</output>
		</layer>
		<layer id="115" name="Multiply_342609" type="Convolution" version="opset1">
			<data strides="1, 1" dilations="1, 1" pads_begin="0, 0" pads_end="0, 0" auto_pad="same_upper" />
			<input>
				<port id="0" precision="FP32">
					<dim>1</dim>
					<dim>32</dim>
					<dim>38</dim>
					<dim>38</dim>
				</port>
				<port id="1" precision="FP32">
					<dim>192</dim>
					<dim>32</dim>
					<dim>1</dim>
					<dim>1</dim>
				</port>
			</input>
			<output>
				<port id="2" precision="FP32">
					<dim>1</dim>
					<dim>192</dim>
					<dim>38</dim>
					<dim>38</dim>
				</port>
			</output>
		</layer>
		<layer id="116" name="Constant_342617" type="Const" version="opset1">
			<data element_type="f32" shape="1, 192, 1, 1" offset="239580" size="768" />
			<output>
				<port id="0" precision="FP32">
					<dim>1</dim>
					<dim>192</dim>
					<dim>1</dim>
					<dim>1</dim>
				</port>
			</output>
		</layer>
		<layer id="117" name="Transpose_116036" type="Add" version="opset1">
			<data auto_broadcast="numpy" />
			<input>
				<port id="0" precision="FP32">
					<dim>1</dim>
					<dim>192</dim>
					<dim>38</dim>
					<dim>38</dim>
				</port>
				<port id="1" precision="FP32">
					<dim>1</dim>
					<dim>192</dim>
					<dim>1</dim>
					<dim>1</dim>
				</port>
			</input>
			<output>
				<port id="2" precision="FP32">
					<dim>1</dim>
					<dim>192</dim>
					<dim>38</dim>
					<dim>38</dim>
				</port>
			</output>
		</layer>
		<layer id="118" name="Clamp_116037" type="Clamp" version="opset1">
			<data min="0" max="6" />
			<input>
				<port id="0" precision="FP32">
					<dim>1</dim>
					<dim>192</dim>
					<dim>38</dim>
					<dim>38</dim>
				</port>
			</input>
			<output>
				<port id="1" precision="FP32">
					<dim>1</dim>
					<dim>192</dim>
					<dim>38</dim>
					<dim>38</dim>
				</port>
			</output>
		</layer>
		<layer id="119" name="Multiply_343311" type="Const" version="opset1">
			<data element_type="f32" shape="192, 1, 1, 3, 3" offset="240348" size="6912" />
			<output>
				<port id="0" precision="FP32">
					<dim>192</dim>
					<dim>1</dim>
					<dim>1</dim>
					<dim>3</dim>
					<dim>3</dim>
				</port>
			</output>
		</layer>
		<layer id="120" name="Multiply_342623" type="GroupConvolution" version="opset1">
			<data strides="2, 2" pads_begin="0, 0" pads_end="0, 0" dilations="1, 1" auto_pad="same_upper" />
			<input>
				<port id="0" precision="FP32">
					<dim>1</dim>
					<dim>192</dim>
					<dim>38</dim>
					<dim>38</dim>
				</port>
				<port id="1" precision="FP32">
					<dim>192</dim>
					<dim>1</dim>
					<dim>1</dim>
					<dim>3</dim>
					<dim>3</dim>
				</port>
			</input>
			<output>
				<port id="2" precision="FP32">
					<dim>1</dim>
					<dim>192</dim>
					<dim>19</dim>
					<dim>19</dim>
				</port>
			</output>
		</layer>
		<layer id="121" name="Constant_342631" type="Const" version="opset1">
			<data element_type="f32" shape="1, 192, 1, 1" offset="247260" size="768" />
			<output>
				<port id="0" precision="FP32">
					<dim>1</dim>
					<dim>192</dim>
					<dim>1</dim>
					<dim>1</dim>
				</port>
			</output>
		</layer>
		<layer id="122" name="Transpose_116062" type="Add" version="opset1">
			<data auto_broadcast="numpy" />
			<input>
				<port id="0" precision="FP32">
					<dim>1</dim>
					<dim>192</dim>
					<dim>19</dim>
					<dim>19</dim>
				</port>
				<port id="1" precision="FP32">
					<dim>1</dim>
					<dim>192</dim>
					<dim>1</dim>
					<dim>1</dim>
				</port>
			</input>
			<output>
				<port id="2" precision="FP32">
					<dim>1</dim>
					<dim>192</dim>
					<dim>19</dim>
					<dim>19</dim>
				</port>
			</output>
		</layer>
		<layer id="123" name="Clamp_116063" type="Clamp" version="opset1">
			<data min="0" max="6" />
			<input>
				<port id="0" precision="FP32">
					<dim>1</dim>
					<dim>192</dim>
					<dim>19</dim>
					<dim>19</dim>
				</port>
			</input>
			<output>
				<port id="1" precision="FP32">
					<dim>1</dim>
					<dim>192</dim>
					<dim>19</dim>
					<dim>19</dim>
				</port>
			</output>
		</layer>
		<layer id="124" name="Multiply_343316" type="Const" version="opset1">
			<data element_type="f32" shape="64, 192, 1, 1" offset="248028" size="49152" />
			<output>
				<port id="0" precision="FP32">
					<dim>64</dim>
					<dim>192</dim>
					<dim>1</dim>
					<dim>1</dim>
				</port>
			</output>
		</layer>
		<layer id="125" name="Multiply_342637" type="Convolution" version="opset1">
			<data strides="1, 1" dilations="1, 1" pads_begin="0, 0" pads_end="0, 0" auto_pad="same_upper" />
			<input>
				<port id="0" precision="FP32">
					<dim>1</dim>
					<dim>192</dim>
					<dim>19</dim>
					<dim>19</dim>
				</port>
				<port id="1" precision="FP32">
					<dim>64</dim>
					<dim>192</dim>
					<dim>1</dim>
					<dim>1</dim>
				</port>
			</input>
			<output>
				<port id="2" precision="FP32">
					<dim>1</dim>
					<dim>64</dim>
					<dim>19</dim>
					<dim>19</dim>
				</port>
			</output>
		</layer>
		<layer id="126" name="Constant_342645" type="Const" version="opset1">
			<data element_type="f32" shape="1, 64, 1, 1" offset="297180" size="256" />
			<output>
				<port id="0" precision="FP32">
					<dim>1</dim>
					<dim>64</dim>
					<dim>1</dim>
					<dim>1</dim>
				</port>
			</output>
		</layer>
		<layer id="127" name="Transpose_116088" type="Add" version="opset1">
			<data auto_broadcast="numpy" />
			<input>
				<port id="0" precision="FP32">
					<dim>1</dim>
					<dim>64</dim>
					<dim>19</dim>
					<dim>19</dim>
				</port>
				<port id="1" precision="FP32">
					<dim>1</dim>
					<dim>64</dim>
					<dim>1</dim>
					<dim>1</dim>
				</port>
			</input>
			<output>
				<port id="2" precision="FP32">
					<dim>1</dim>
					<dim>64</dim>
					<dim>19</dim>
					<dim>19</dim>
				</port>
			</output>
		</layer>
		<layer id="128" name="Multiply_343322" type="Const" version="opset1">
			<data element_type="f32" shape="384, 64, 1, 1" offset="297436" size="98304" />
			<output>
				<port id="0" precision="FP32">
					<dim>384</dim>
					<dim>64</dim>
					<dim>1</dim>
					<dim>1</dim>
				</port>
			</output>
		</layer>
		<layer id="129" name="Multiply_342651" type="Convolution" version="opset1">
			<data strides="1, 1" dilations="1, 1" pads_begin="0, 0" pads_end="0, 0" auto_pad="same_upper" />
			<input>
				<port id="0" precision="FP32">
					<dim>1</dim>
					<dim>64</dim>
					<dim>19</dim>
					<dim>19</dim>
				</port>
				<port id="1" precision="FP32">
					<dim>384</dim>
					<dim>64</dim>
					<dim>1</dim>
					<dim>1</dim>
				</port>
			</input>
			<output>
				<port id="2" precision="FP32">
					<dim>1</dim>
					<dim>384</dim>
					<dim>19</dim>
					<dim>19</dim>
				</port>
			</output>
		</layer>
		<layer id="130" name="Constant_342659" type="Const" version="opset1">
			<data element_type="f32" shape="1, 384, 1, 1" offset="395740" size="1536" />
			<output>
				<port id="0" precision="FP32">
					<dim>1</dim>
					<dim>384</dim>
					<dim>1</dim>
					<dim>1</dim>
				</port>
			</output>
		</layer>
		<layer id="131" name="Transpose_116112" type="Add" version="opset1">
			<data auto_broadcast="numpy" />
			<input>
				<port id="0" precision="FP32">
					<dim>1</dim>
					<dim>384</dim>
					<dim>19</dim>
					<dim>19</dim>
				</port>
				<port id="1" precision="FP32">
					<dim>1</dim>
					<dim>384</dim>
					<dim>1</dim>
					<dim>1</dim>
				</port>
			</input>
			<output>
				<port id="2" precision="FP32">
					<dim>1</dim>
					<dim>384</dim>
					<dim>19</dim>
					<dim>19</dim>
				</port>
			</output>
		</layer>
		<layer id="132" name="Clamp_116113" type="Clamp" version="opset1">
			<data min="0" max="6" />
			<input>
				<port id="0" precision="FP32">
					<dim>1</dim>
					<dim>384</dim>
					<dim>19</dim>
					<dim>19</dim>
				</port>
			</input>
			<output>
				<port id="1" precision="FP32">
					<dim>1</dim>
					<dim>384</dim>
					<dim>19</dim>
					<dim>19</dim>
				</port>
			</output>
		</layer>
		<layer id="133" name="Multiply_343328" type="Const" version="opset1">
			<data element_type="f32" shape="384, 1, 1, 3, 3" offset="397276" size="13824" />
			<output>
				<port id="0" precision="FP32">
					<dim>384</dim>
					<dim>1</dim>
					<dim>1</dim>
					<dim>3</dim>
					<dim>3</dim>
				</port>
			</output>
		</layer>
		<layer id="134" name="Multiply_342665" type="GroupConvolution" version="opset1">
			<data strides="1, 1" pads_begin="0, 0" pads_end="0, 0" dilations="1, 1" auto_pad="same_upper" />
			<input>
				<port id="0" precision="FP32">
					<dim>1</dim>
					<dim>384</dim>
					<dim>19</dim>
					<dim>19</dim>
				</port>
				<port id="1" precision="FP32">
					<dim>384</dim>
					<dim>1</dim>
					<dim>1</dim>
					<dim>3</dim>
					<dim>3</dim>
				</port>
			</input>
			<output>
				<port id="2" precision="FP32">
					<dim>1</dim>
					<dim>384</dim>
					<dim>19</dim>
					<dim>19</dim>
				</port>
			</output>
		</layer>
		<layer id="135" name="Constant_342673" type="Const" version="opset1">
			<data element_type="f32" shape="1, 384, 1, 1" offset="411100" size="1536" />
			<output>
				<port id="0" precision="FP32">
					<dim>1</dim>
					<dim>384</dim>
					<dim>1</dim>
					<dim>1</dim>
				</port>
			</output>
		</layer>
		<layer id="136" name="Transpose_116138" type="Add" version="opset1">
			<data auto_broadcast="numpy" />
			<input>
				<port id="0" precision="FP32">
					<dim>1</dim>
					<dim>384</dim>
					<dim>19</dim>
					<dim>19</dim>
				</port>
				<port id="1" precision="FP32">
					<dim>1</dim>
					<dim>384</dim>
					<dim>1</dim>
					<dim>1</dim>
				</port>
			</input>
			<output>
				<port id="2" precision="FP32">
					<dim>1</dim>
					<dim>384</dim>
					<dim>19</dim>
					<dim>19</dim>
				</port>
			</output>
		</layer>
		<layer id="137" name="Clamp_116139" type="Clamp" version="opset1">
			<data min="0" max="6" />
			<input>
				<port id="0" precision="FP32">
					<dim>1</dim>
					<dim>384</dim>
					<dim>19</dim>
					<dim>19</dim>
				</port>
			</input>
			<output>
				<port id="1" precision="FP32">
					<dim>1</dim>
					<dim>384</dim>
					<dim>19</dim>
					<dim>19</dim>
				</port>
			</output>
		</layer>
		<layer id="138" name="Multiply_343333" type="Const" version="opset1">
			<data element_type="f32" shape="64, 384, 1, 1" offset="412636" size="98304" />
			<output>
				<port id="0" precision="FP32">
					<dim>64</dim>
					<dim>384</dim>
					<dim>1</dim>
					<dim>1</dim>
				</port>
			</output>
		</layer>
		<layer id="139" name="Multiply_342679" type="Convolution" version="opset1">
			<data strides="1, 1" dilations="1, 1" pads_begin="0, 0" pads_end="0, 0" auto_pad="same_upper" />
			<input>
				<port id="0" precision="FP32">
					<dim>1</dim>
					<dim>384</dim>
					<dim>19</dim>
					<dim>19</dim>
				</port>
				<port id="1" precision="FP32">
					<dim>64</dim>
					<dim>384</dim>
					<dim>1</dim>
					<dim>1</dim>
				</port>
			</input>
			<output>
				<port id="2" precision="FP32">
					<dim>1</dim>
					<dim>64</dim>
					<dim>19</dim>
					<dim>19</dim>
				</port>
			</output>
		</layer>
		<layer id="140" name="Constant_342687" type="Const" version="opset1">
			<data element_type="f32" shape="1, 64, 1, 1" offset="510940" size="256" />
			<output>
				<port id="0" precision="FP32">
					<dim>1</dim>
					<dim>64</dim>
					<dim>1</dim>
					<dim>1</dim>
				</port>
			</output>
		</layer>
		<layer id="141" name="Transpose_116166" type="Add" version="opset1">
			<data auto_broadcast="numpy" />
			<input>
				<port id="0" precision="FP32">
					<dim>1</dim>
					<dim>64</dim>
					<dim>19</dim>
					<dim>19</dim>
				</port>
				<port id="1" precision="FP32">
					<dim>1</dim>
					<dim>64</dim>
					<dim>1</dim>
					<dim>1</dim>
				</port>
			</input>
			<output>
				<port id="2" precision="FP32">
					<dim>1</dim>
					<dim>64</dim>
					<dim>19</dim>
					<dim>19</dim>
				</port>
			</output>
		</layer>
		<layer id="142" name="Transpose_116168" type="Add" version="opset1">
			<data auto_broadcast="numpy" />
			<input>
				<port id="0" precision="FP32">
					<dim>1</dim>
					<dim>64</dim>
					<dim>19</dim>
					<dim>19</dim>
				</port>
				<port id="1" precision="FP32">
					<dim>1</dim>
					<dim>64</dim>
					<dim>19</dim>
					<dim>19</dim>
				</port>
			</input>
			<output>
				<port id="2" precision="FP32">
					<dim>1</dim>
					<dim>64</dim>
					<dim>19</dim>
					<dim>19</dim>
				</port>
			</output>
		</layer>
		<layer id="143" name="Multiply_343339" type="Const" version="opset1">
			<data element_type="f32" shape="384, 64, 1, 1" offset="511196" size="98304" />
			<output>
				<port id="0" precision="FP32">
					<dim>384</dim>
					<dim>64</dim>
					<dim>1</dim>
					<dim>1</dim>
				</port>
			</output>
		</layer>
		<layer id="144" name="Multiply_342693" type="Convolution" version="opset1">
			<data strides="1, 1" dilations="1, 1" pads_begin="0, 0" pads_end="0, 0" auto_pad="same_upper" />
			<input>
				<port id="0" precision="FP32">
					<dim>1</dim>
					<dim>64</dim>
					<dim>19</dim>
					<dim>19</dim>
				</port>
				<port id="1" precision="FP32">
					<dim>384</dim>
					<dim>64</dim>
					<dim>1</dim>
					<dim>1</dim>
				</port>
			</input>
			<output>
				<port id="2" precision="FP32">
					<dim>1</dim>
					<dim>384</dim>
					<dim>19</dim>
					<dim>19</dim>
				</port>
			</output>
		</layer>
		<layer id="145" name="Constant_342701" type="Const" version="opset1">
			<data element_type="f32" shape="1, 384, 1, 1" offset="609500" size="1536" />
			<output>
				<port id="0" precision="FP32">
					<dim>1</dim>
					<dim>384</dim>
					<dim>1</dim>
					<dim>1</dim>
				</port>
			</output>
		</layer>
		<layer id="146" name="Transpose_116192" type="Add" version="opset1">
			<data auto_broadcast="numpy" />
			<input>
				<port id="0" precision="FP32">
					<dim>1</dim>
					<dim>384</dim>
					<dim>19</dim>
					<dim>19</dim>
				</port>
				<port id="1" precision="FP32">
					<dim>1</dim>
					<dim>384</dim>
					<dim>1</dim>
					<dim>1</dim>
				</port>
			</input>
			<output>
				<port id="2" precision="FP32">
					<dim>1</dim>
					<dim>384</dim>
					<dim>19</dim>
					<dim>19</dim>
				</port>
			</output>
		</layer>
		<layer id="147" name="Clamp_116193" type="Clamp" version="opset1">
			<data min="0" max="6" />
			<input>
				<port id="0" precision="FP32">
					<dim>1</dim>
					<dim>384</dim>
					<dim>19</dim>
					<dim>19</dim>
				</port>
			</input>
			<output>
				<port id="1" precision="FP32">
					<dim>1</dim>
					<dim>384</dim>
					<dim>19</dim>
					<dim>19</dim>
				</port>
			</output>
		</layer>
		<layer id="148" name="Multiply_343345" type="Const" version="opset1">
			<data element_type="f32" shape="384, 1, 1, 3, 3" offset="611036" size="13824" />
			<output>
				<port id="0" precision="FP32">
					<dim>384</dim>
					<dim>1</dim>
					<dim>1</dim>
					<dim>3</dim>
					<dim>3</dim>
				</port>
			</output>
		</layer>
		<layer id="149" name="Multiply_342707" type="GroupConvolution" version="opset1">
			<data strides="1, 1" pads_begin="0, 0" pads_end="0, 0" dilations="1, 1" auto_pad="same_upper" />
			<input>
				<port id="0" precision="FP32">
					<dim>1</dim>
					<dim>384</dim>
					<dim>19</dim>
					<dim>19</dim>
				</port>
				<port id="1" precision="FP32">
					<dim>384</dim>
					<dim>1</dim>
					<dim>1</dim>
					<dim>3</dim>
					<dim>3</dim>
				</port>
			</input>
			<output>
				<port id="2" precision="FP32">
					<dim>1</dim>
					<dim>384</dim>
					<dim>19</dim>
					<dim>19</dim>
				</port>
			</output>
		</layer>
		<layer id="150" name="Constant_342715" type="Const" version="opset1">
			<data element_type="f32" shape="1, 384, 1, 1" offset="624860" size="1536" />
			<output>
				<port id="0" precision="FP32">
					<dim>1</dim>
					<dim>384</dim>
					<dim>1</dim>
					<dim>1</dim>
				</port>
			</output>
		</layer>
		<layer id="151" name="Transpose_116218" type="Add" version="opset1">
			<data auto_broadcast="numpy" />
			<input>
				<port id="0" precision="FP32">
					<dim>1</dim>
					<dim>384</dim>
					<dim>19</dim>
					<dim>19</dim>
				</port>
				<port id="1" precision="FP32">
					<dim>1</dim>
					<dim>384</dim>
					<dim>1</dim>
					<dim>1</dim>
				</port>
			</input>
			<output>
				<port id="2" precision="FP32">
					<dim>1</dim>
					<dim>384</dim>
					<dim>19</dim>
					<dim>19</dim>
				</port>
			</output>
		</layer>
		<layer id="152" name="Clamp_116219" type="Clamp" version="opset1">
			<data min="0" max="6" />
			<input>
				<port id="0" precision="FP32">
					<dim>1</dim>
					<dim>384</dim>
					<dim>19</dim>
					<dim>19</dim>
				</port>
			</input>
			<output>
				<port id="1" precision="FP32">
					<dim>1</dim>
					<dim>384</dim>
					<dim>19</dim>
					<dim>19</dim>
				</port>
			</output>
		</layer>
		<layer id="153" name="Multiply_343350" type="Const" version="opset1">
			<data element_type="f32" shape="64, 384, 1, 1" offset="626396" size="98304" />
			<output>
				<port id="0" precision="FP32">
					<dim>64</dim>
					<dim>384</dim>
					<dim>1</dim>
					<dim>1</dim>
				</port>
			</output>
		</layer>
		<layer id="154" name="Multiply_342721" type="Convolution" version="opset1">
			<data strides="1, 1" dilations="1, 1" pads_begin="0, 0" pads_end="0, 0" auto_pad="same_upper" />
			<input>
				<port id="0" precision="FP32">
					<dim>1</dim>
					<dim>384</dim>
					<dim>19</dim>
					<dim>19</dim>
				</port>
				<port id="1" precision="FP32">
					<dim>64</dim>
					<dim>384</dim>
					<dim>1</dim>
					<dim>1</dim>
				</port>
			</input>
			<output>
				<port id="2" precision="FP32">
					<dim>1</dim>
					<dim>64</dim>
					<dim>19</dim>
					<dim>19</dim>
				</port>
			</output>
		</layer>
		<layer id="155" name="Constant_342729" type="Const" version="opset1">
			<data element_type="f32" shape="1, 64, 1, 1" offset="724700" size="256" />
			<output>
				<port id="0" precision="FP32">
					<dim>1</dim>
					<dim>64</dim>
					<dim>1</dim>
					<dim>1</dim>
				</port>
			</output>
		</layer>
		<layer id="156" name="Transpose_116246" type="Add" version="opset1">
			<data auto_broadcast="numpy" />
			<input>
				<port id="0" precision="FP32">
					<dim>1</dim>
					<dim>64</dim>
					<dim>19</dim>
					<dim>19</dim>
				</port>
				<port id="1" precision="FP32">
					<dim>1</dim>
					<dim>64</dim>
					<dim>1</dim>
					<dim>1</dim>
				</port>
			</input>
			<output>
				<port id="2" precision="FP32">
					<dim>1</dim>
					<dim>64</dim>
					<dim>19</dim>
					<dim>19</dim>
				</port>
			</output>
		</layer>
		<layer id="157" name="Transpose_116248" type="Add" version="opset1">
			<data auto_broadcast="numpy" />
			<input>
				<port id="0" precision="FP32">
					<dim>1</dim>
					<dim>64</dim>
					<dim>19</dim>
					<dim>19</dim>
				</port>
				<port id="1" precision="FP32">
					<dim>1</dim>
					<dim>64</dim>
					<dim>19</dim>
					<dim>19</dim>
				</port>
			</input>
			<output>
				<port id="2" precision="FP32">
					<dim>1</dim>
					<dim>64</dim>
					<dim>19</dim>
					<dim>19</dim>
				</port>
			</output>
		</layer>
		<layer id="158" name="Multiply_343356" type="Const" version="opset1">
			<data element_type="f32" shape="384, 64, 1, 1" offset="724956" size="98304" />
			<output>
				<port id="0" precision="FP32">
					<dim>384</dim>
					<dim>64</dim>
					<dim>1</dim>
					<dim>1</dim>
				</port>
			</output>
		</layer>
		<layer id="159" name="Multiply_342735" type="Convolution" version="opset1">
			<data strides="1, 1" dilations="1, 1" pads_begin="0, 0" pads_end="0, 0" auto_pad="same_upper" />
			<input>
				<port id="0" precision="FP32">
					<dim>1</dim>
					<dim>64</dim>
					<dim>19</dim>
					<dim>19</dim>
				</port>
				<port id="1" precision="FP32">
					<dim>384</dim>
					<dim>64</dim>
					<dim>1</dim>
					<dim>1</dim>
				</port>
			</input>
			<output>
				<port id="2" precision="FP32">
					<dim>1</dim>
					<dim>384</dim>
					<dim>19</dim>
					<dim>19</dim>
				</port>
			</output>
		</layer>
		<layer id="160" name="Constant_342743" type="Const" version="opset1">
			<data element_type="f32" shape="1, 384, 1, 1" offset="823260" size="1536" />
			<output>
				<port id="0" precision="FP32">
					<dim>1</dim>
					<dim>384</dim>
					<dim>1</dim>
					<dim>1</dim>
				</port>
			</output>
		</layer>
		<layer id="161" name="Transpose_116272" type="Add" version="opset1">
			<data auto_broadcast="numpy" />
			<input>
				<port id="0" precision="FP32">
					<dim>1</dim>
					<dim>384</dim>
					<dim>19</dim>
					<dim>19</dim>
				</port>
				<port id="1" precision="FP32">
					<dim>1</dim>
					<dim>384</dim>
					<dim>1</dim>
					<dim>1</dim>
				</port>
			</input>
			<output>
				<port id="2" precision="FP32">
					<dim>1</dim>
					<dim>384</dim>
					<dim>19</dim>
					<dim>19</dim>
				</port>
			</output>
		</layer>
		<layer id="162" name="Clamp_116273" type="Clamp" version="opset1">
			<data min="0" max="6" />
			<input>
				<port id="0" precision="FP32">
					<dim>1</dim>
					<dim>384</dim>
					<dim>19</dim>
					<dim>19</dim>
				</port>
			</input>
			<output>
				<port id="1" precision="FP32">
					<dim>1</dim>
					<dim>384</dim>
					<dim>19</dim>
					<dim>19</dim>
				</port>
			</output>
		</layer>
		<layer id="163" name="Multiply_343362" type="Const" version="opset1">
			<data element_type="f32" shape="384, 1, 1, 3, 3" offset="824796" size="13824" />
			<output>
				<port id="0" precision="FP32">
					<dim>384</dim>
					<dim>1</dim>
					<dim>1</dim>
					<dim>3</dim>
					<dim>3</dim>
				</port>
			</output>
		</layer>
		<layer id="164" name="Multiply_342749" type="GroupConvolution" version="opset1">
			<data strides="1, 1" pads_begin="0, 0" pads_end="0, 0" dilations="1, 1" auto_pad="same_upper" />
			<input>
				<port id="0" precision="FP32">
					<dim>1</dim>
					<dim>384</dim>
					<dim>19</dim>
					<dim>19</dim>
				</port>
				<port id="1" precision="FP32">
					<dim>384</dim>
					<dim>1</dim>
					<dim>1</dim>
					<dim>3</dim>
					<dim>3</dim>
				</port>
			</input>
			<output>
				<port id="2" precision="FP32">
					<dim>1</dim>
					<dim>384</dim>
					<dim>19</dim>
					<dim>19</dim>
				</port>
			</output>
		</layer>
		<layer id="165" name="Constant_342757" type="Const" version="opset1">
			<data element_type="f32" shape="1, 384, 1, 1" offset="838620" size="1536" />
			<output>
				<port id="0" precision="FP32">
					<dim>1</dim>
					<dim>384</dim>
					<dim>1</dim>
					<dim>1</dim>
				</port>
			</output>
		</layer>
		<layer id="166" name="Transpose_116298" type="Add" version="opset1">
			<data auto_broadcast="numpy" />
			<input>
				<port id="0" precision="FP32">
					<dim>1</dim>
					<dim>384</dim>
					<dim>19</dim>
					<dim>19</dim>
				</port>
				<port id="1" precision="FP32">
					<dim>1</dim>
					<dim>384</dim>
					<dim>1</dim>
					<dim>1</dim>
				</port>
			</input>
			<output>
				<port id="2" precision="FP32">
					<dim>1</dim>
					<dim>384</dim>
					<dim>19</dim>
					<dim>19</dim>
				</port>
			</output>
		</layer>
		<layer id="167" name="Clamp_116299" type="Clamp" version="opset1">
			<data min="0" max="6" />
			<input>
				<port id="0" precision="FP32">
					<dim>1</dim>
					<dim>384</dim>
					<dim>19</dim>
					<dim>19</dim>
				</port>
			</input>
			<output>
				<port id="1" precision="FP32">
					<dim>1</dim>
					<dim>384</dim>
					<dim>19</dim>
					<dim>19</dim>
				</port>
			</output>
		</layer>
		<layer id="168" name="Multiply_343367" type="Const" version="opset1">
			<data element_type="f32" shape="64, 384, 1, 1" offset="840156" size="98304" />
			<output>
				<port id="0" precision="FP32">
					<dim>64</dim>
					<dim>384</dim>
					<dim>1</dim>
					<dim>1</dim>
				</port>
			</output>
		</layer>
		<layer id="169" name="Multiply_342763" type="Convolution" version="opset1">
			<data strides="1, 1" dilations="1, 1" pads_begin="0, 0" pads_end="0, 0" auto_pad="same_upper" />
			<input>
				<port id="0" precision="FP32">
					<dim>1</dim>
					<dim>384</dim>
					<dim>19</dim>
					<dim>19</dim>
				</port>
				<port id="1" precision="FP32">
					<dim>64</dim>
					<dim>384</dim>
					<dim>1</dim>
					<dim>1</dim>
				</port>
			</input>
			<output>
				<port id="2" precision="FP32">
					<dim>1</dim>
					<dim>64</dim>
					<dim>19</dim>
					<dim>19</dim>
				</port>
			</output>
		</layer>
		<layer id="170" name="Constant_342771" type="Const" version="opset1">
			<data element_type="f32" shape="1, 64, 1, 1" offset="938460" size="256" />
			<output>
				<port id="0" precision="FP32">
					<dim>1</dim>
					<dim>64</dim>
					<dim>1</dim>
					<dim>1</dim>
				</port>
			</output>
		</layer>
		<layer id="171" name="Transpose_116326" type="Add" version="opset1">
			<data auto_broadcast="numpy" />
			<input>
				<port id="0" precision="FP32">
					<dim>1</dim>
					<dim>64</dim>
					<dim>19</dim>
					<dim>19</dim>
				</port>
				<port id="1" precision="FP32">
					<dim>1</dim>
					<dim>64</dim>
					<dim>1</dim>
					<dim>1</dim>
				</port>
			</input>
			<output>
				<port id="2" precision="FP32">
					<dim>1</dim>
					<dim>64</dim>
					<dim>19</dim>
					<dim>19</dim>
				</port>
			</output>
		</layer>
		<layer id="172" name="Transpose_116328" type="Add" version="opset1">
			<data auto_broadcast="numpy" />
			<input>
				<port id="0" precision="FP32">
					<dim>1</dim>
					<dim>64</dim>
					<dim>19</dim>
					<dim>19</dim>
				</port>
				<port id="1" precision="FP32">
					<dim>1</dim>
					<dim>64</dim>
					<dim>19</dim>
					<dim>19</dim>
				</port>
			</input>
			<output>
				<port id="2" precision="FP32">
					<dim>1</dim>
					<dim>64</dim>
					<dim>19</dim>
					<dim>19</dim>
				</port>
			</output>
		</layer>
		<layer id="173" name="Multiply_343373" type="Const" version="opset1">
			<data element_type="f32" shape="384, 64, 1, 1" offset="938716" size="98304" />
			<output>
				<port id="0" precision="FP32">
					<dim>384</dim>
					<dim>64</dim>
					<dim>1</dim>
					<dim>1</dim>
				</port>
			</output>
		</layer>
		<layer id="174" name="Multiply_342777" type="Convolution" version="opset1">
			<data strides="1, 1" dilations="1, 1" pads_begin="0, 0" pads_end="0, 0" auto_pad="same_upper" />
			<input>
				<port id="0" precision="FP32">
					<dim>1</dim>
					<dim>64</dim>
					<dim>19</dim>
					<dim>19</dim>
				</port>
				<port id="1" precision="FP32">
					<dim>384</dim>
					<dim>64</dim>
					<dim>1</dim>
					<dim>1</dim>
				</port>
			</input>
			<output>
				<port id="2" precision="FP32">
					<dim>1</dim>
					<dim>384</dim>
					<dim>19</dim>
					<dim>19</dim>
				</port>
			</output>
		</layer>
		<layer id="175" name="Constant_342785" type="Const" version="opset1">
			<data element_type="f32" shape="1, 384, 1, 1" offset="1037020" size="1536" />
			<output>
				<port id="0" precision="FP32">
					<dim>1</dim>
					<dim>384</dim>
					<dim>1</dim>
					<dim>1</dim>
				</port>
			</output>
		</layer>
		<layer id="176" name="Transpose_116352" type="Add" version="opset1">
			<data auto_broadcast="numpy" />
			<input>
				<port id="0" precision="FP32">
					<dim>1</dim>
					<dim>384</dim>
					<dim>19</dim>
					<dim>19</dim>
				</port>
				<port id="1" precision="FP32">
					<dim>1</dim>
					<dim>384</dim>
					<dim>1</dim>
					<dim>1</dim>
				</port>
			</input>
			<output>
				<port id="2" precision="FP32">
					<dim>1</dim>
					<dim>384</dim>
					<dim>19</dim>
					<dim>19</dim>
				</port>
			</output>
		</layer>
		<layer id="177" name="Clamp_116353" type="Clamp" version="opset1">
			<data min="0" max="6" />
			<input>
				<port id="0" precision="FP32">
					<dim>1</dim>
					<dim>384</dim>
					<dim>19</dim>
					<dim>19</dim>
				</port>
			</input>
			<output>
				<port id="1" precision="FP32">
					<dim>1</dim>
					<dim>384</dim>
					<dim>19</dim>
					<dim>19</dim>
				</port>
			</output>
		</layer>
		<layer id="178" name="Multiply_343379" type="Const" version="opset1">
			<data element_type="f32" shape="384, 1, 1, 3, 3" offset="1038556" size="13824" />
			<output>
				<port id="0" precision="FP32">
					<dim>384</dim>
					<dim>1</dim>
					<dim>1</dim>
					<dim>3</dim>
					<dim>3</dim>
				</port>
			</output>
		</layer>
		<layer id="179" name="Multiply_342791" type="GroupConvolution" version="opset1">
			<data strides="1, 1" pads_begin="0, 0" pads_end="0, 0" dilations="1, 1" auto_pad="same_upper" />
			<input>
				<port id="0" precision="FP32">
					<dim>1</dim>
					<dim>384</dim>
					<dim>19</dim>
					<dim>19</dim>
				</port>
				<port id="1" precision="FP32">
					<dim>384</dim>
					<dim>1</dim>
					<dim>1</dim>
					<dim>3</dim>
					<dim>3</dim>
				</port>
			</input>
			<output>
				<port id="2" precision="FP32">
					<dim>1</dim>
					<dim>384</dim>
					<dim>19</dim>
					<dim>19</dim>
				</port>
			</output>
		</layer>
		<layer id="180" name="Constant_342799" type="Const" version="opset1">
			<data element_type="f32" shape="1, 384, 1, 1" offset="1052380" size="1536" />
			<output>
				<port id="0" precision="FP32">
					<dim>1</dim>
					<dim>384</dim>
					<dim>1</dim>
					<dim>1</dim>
				</port>
			</output>
		</layer>
		<layer id="181" name="Transpose_116378" type="Add" version="opset1">
			<data auto_broadcast="numpy" />
			<input>
				<port id="0" precision="FP32">
					<dim>1</dim>
					<dim>384</dim>
					<dim>19</dim>
					<dim>19</dim>
				</port>
				<port id="1" precision="FP32">
					<dim>1</dim>
					<dim>384</dim>
					<dim>1</dim>
					<dim>1</dim>
				</port>
			</input>
			<output>
				<port id="2" precision="FP32">
					<dim>1</dim>
					<dim>384</dim>
					<dim>19</dim>
					<dim>19</dim>
				</port>
			</output>
		</layer>
		<layer id="182" name="Clamp_116379" type="Clamp" version="opset1">
			<data min="0" max="6" />
			<input>
				<port id="0" precision="FP32">
					<dim>1</dim>
					<dim>384</dim>
					<dim>19</dim>
					<dim>19</dim>
				</port>
			</input>
			<output>
				<port id="1" precision="FP32">
					<dim>1</dim>
					<dim>384</dim>
					<dim>19</dim>
					<dim>19</dim>
				</port>
			</output>
		</layer>
		<layer id="183" name="Multiply_343384" type="Const" version="opset1">
			<data element_type="f32" shape="96, 384, 1, 1" offset="1053916" size="147456" />
			<output>
				<port id="0" precision="FP32">
					<dim>96</dim>
					<dim>384</dim>
					<dim>1</dim>
					<dim>1</dim>
				</port>
			</output>
		</layer>
		<layer id="184" name="Multiply_342805" type="Convolution" version="opset1">
			<data strides="1, 1" dilations="1, 1" pads_begin="0, 0" pads_end="0, 0" auto_pad="same_upper" />
			<input>
				<port id="0" precision="FP32">
					<dim>1</dim>
					<dim>384</dim>
					<dim>19</dim>
					<dim>19</dim>
				</port>
				<port id="1" precision="FP32">
					<dim>96</dim>
					<dim>384</dim>
					<dim>1</dim>
					<dim>1</dim>
				</port>
			</input>
			<output>
				<port id="2" precision="FP32">
					<dim>1</dim>
					<dim>96</dim>
					<dim>19</dim>
					<dim>19</dim>
				</port>
			</output>
		</layer>
		<layer id="185" name="Constant_342813" type="Const" version="opset1">
			<data element_type="f32" shape="1, 96, 1, 1" offset="1201372" size="384" />
			<output>
				<port id="0" precision="FP32">
					<dim>1</dim>
					<dim>96</dim>
					<dim>1</dim>
					<dim>1</dim>
				</port>
			</output>
		</layer>
		<layer id="186" name="Transpose_116404" type="Add" version="opset1">
			<data auto_broadcast="numpy" />
			<input>
				<port id="0" precision="FP32">
					<dim>1</dim>
					<dim>96</dim>
					<dim>19</dim>
					<dim>19</dim>
				</port>
				<port id="1" precision="FP32">
					<dim>1</dim>
					<dim>96</dim>
					<dim>1</dim>
					<dim>1</dim>
				</port>
			</input>
			<output>
				<port id="2" precision="FP32">
					<dim>1</dim>
					<dim>96</dim>
					<dim>19</dim>
					<dim>19</dim>
				</port>
			</output>
		</layer>
		<layer id="187" name="Multiply_343390" type="Const" version="opset1">
			<data element_type="f32" shape="576, 96, 1, 1" offset="1201756" size="221184" />
			<output>
				<port id="0" precision="FP32">
					<dim>576</dim>
					<dim>96</dim>
					<dim>1</dim>
					<dim>1</dim>
				</port>
			</output>
		</layer>
		<layer id="188" name="Multiply_342819" type="Convolution" version="opset1">
			<data strides="1, 1" dilations="1, 1" pads_begin="0, 0" pads_end="0, 0" auto_pad="same_upper" />
			<input>
				<port id="0" precision="FP32">
					<dim>1</dim>
					<dim>96</dim>
					<dim>19</dim>
					<dim>19</dim>
				</port>
				<port id="1" precision="FP32">
					<dim>576</dim>
					<dim>96</dim>
					<dim>1</dim>
					<dim>1</dim>
				</port>
			</input>
			<output>
				<port id="2" precision="FP32">
					<dim>1</dim>
					<dim>576</dim>
					<dim>19</dim>
					<dim>19</dim>
				</port>
			</output>
		</layer>
		<layer id="189" name="Constant_342827" type="Const" version="opset1">
			<data element_type="f32" shape="1, 576, 1, 1" offset="1422940" size="2304" />
			<output>
				<port id="0" precision="FP32">
					<dim>1</dim>
					<dim>576</dim>
					<dim>1</dim>
					<dim>1</dim>
				</port>
			</output>
		</layer>
		<layer id="190" name="Transpose_116428" type="Add" version="opset1">
			<data auto_broadcast="numpy" />
			<input>
				<port id="0" precision="FP32">
					<dim>1</dim>
					<dim>576</dim>
					<dim>19</dim>
					<dim>19</dim>
				</port>
				<port id="1" precision="FP32">
					<dim>1</dim>
					<dim>576</dim>
					<dim>1</dim>
					<dim>1</dim>
				</port>
			</input>
			<output>
				<port id="2" precision="FP32">
					<dim>1</dim>
					<dim>576</dim>
					<dim>19</dim>
					<dim>19</dim>
				</port>
			</output>
		</layer>
		<layer id="191" name="Clamp_116429" type="Clamp" version="opset1">
			<data min="0" max="6" />
			<input>
				<port id="0" precision="FP32">
					<dim>1</dim>
					<dim>576</dim>
					<dim>19</dim>
					<dim>19</dim>
				</port>
			</input>
			<output>
				<port id="1" precision="FP32">
					<dim>1</dim>
					<dim>576</dim>
					<dim>19</dim>
					<dim>19</dim>
				</port>
			</output>
		</layer>
		<layer id="192" name="Multiply_343396" type="Const" version="opset1">
			<data element_type="f32" shape="576, 1, 1, 3, 3" offset="1425244" size="20736" />
			<output>
				<port id="0" precision="FP32">
					<dim>576</dim>
					<dim>1</dim>
					<dim>1</dim>
					<dim>3</dim>
					<dim>3</dim>
				</port>
			</output>
		</layer>
		<layer id="193" name="Multiply_342833" type="GroupConvolution" version="opset1">
			<data strides="1, 1" pads_begin="0, 0" pads_end="0, 0" dilations="1, 1" auto_pad="same_upper" />
			<input>
				<port id="0" precision="FP32">
					<dim>1</dim>
					<dim>576</dim>
					<dim>19</dim>
					<dim>19</dim>
				</port>
				<port id="1" precision="FP32">
					<dim>576</dim>
					<dim>1</dim>
					<dim>1</dim>
					<dim>3</dim>
					<dim>3</dim>
				</port>
			</input>
			<output>
				<port id="2" precision="FP32">
					<dim>1</dim>
					<dim>576</dim>
					<dim>19</dim>
					<dim>19</dim>
				</port>
			</output>
		</layer>
		<layer id="194" name="Constant_342841" type="Const" version="opset1">
			<data element_type="f32" shape="1, 576, 1, 1" offset="1445980" size="2304" />
			<output>
				<port id="0" precision="FP32">
					<dim>1</dim>
					<dim>576</dim>
					<dim>1</dim>
					<dim>1</dim>
				</port>
			</output>
		</layer>
		<layer id="195" name="Transpose_116454" type="Add" version="opset1">
			<data auto_broadcast="numpy" />
			<input>
				<port id="0" precision="FP32">
					<dim>1</dim>
					<dim>576</dim>
					<dim>19</dim>
					<dim>19</dim>
				</port>
				<port id="1" precision="FP32">
					<dim>1</dim>
					<dim>576</dim>
					<dim>1</dim>
					<dim>1</dim>
				</port>
			</input>
			<output>
				<port id="2" precision="FP32">
					<dim>1</dim>
					<dim>576</dim>
					<dim>19</dim>
					<dim>19</dim>
				</port>
			</output>
		</layer>
		<layer id="196" name="Clamp_116455" type="Clamp" version="opset1">
			<data min="0" max="6" />
			<input>
				<port id="0" precision="FP32">
					<dim>1</dim>
					<dim>576</dim>
					<dim>19</dim>
					<dim>19</dim>
				</port>
			</input>
			<output>
				<port id="1" precision="FP32">
					<dim>1</dim>
					<dim>576</dim>
					<dim>19</dim>
					<dim>19</dim>
				</port>
			</output>
		</layer>
		<layer id="197" name="Multiply_343401" type="Const" version="opset1">
			<data element_type="f32" shape="96, 576, 1, 1" offset="1448284" size="221184" />
			<output>
				<port id="0" precision="FP32">
					<dim>96</dim>
					<dim>576</dim>
					<dim>1</dim>
					<dim>1</dim>
				</port>
			</output>
		</layer>
		<layer id="198" name="Multiply_342847" type="Convolution" version="opset1">
			<data strides="1, 1" dilations="1, 1" pads_begin="0, 0" pads_end="0, 0" auto_pad="same_upper" />
			<input>
				<port id="0" precision="FP32">
					<dim>1</dim>
					<dim>576</dim>
					<dim>19</dim>
					<dim>19</dim>
				</port>
				<port id="1" precision="FP32">
					<dim>96</dim>
					<dim>576</dim>
					<dim>1</dim>
					<dim>1</dim>
				</port>
			</input>
			<output>
				<port id="2" precision="FP32">
					<dim>1</dim>
					<dim>96</dim>
					<dim>19</dim>
					<dim>19</dim>
				</port>
			</output>
		</layer>
		<layer id="199" name="Constant_342855" type="Const" version="opset1">
			<data element_type="f32" shape="1, 96, 1, 1" offset="1669468" size="384" />
			<output>
				<port id="0" precision="FP32">
					<dim>1</dim>
					<dim>96</dim>
					<dim>1</dim>
					<dim>1</dim>
				</port>
			</output>
		</layer>
		<layer id="200" name="Transpose_116482" type="Add" version="opset1">
			<data auto_broadcast="numpy" />
			<input>
				<port id="0" precision="FP32">
					<dim>1</dim>
					<dim>96</dim>
					<dim>19</dim>
					<dim>19</dim>
				</port>
				<port id="1" precision="FP32">
					<dim>1</dim>
					<dim>96</dim>
					<dim>1</dim>
					<dim>1</dim>
				</port>
			</input>
			<output>
				<port id="2" precision="FP32">
					<dim>1</dim>
					<dim>96</dim>
					<dim>19</dim>
					<dim>19</dim>
				</port>
			</output>
		</layer>
		<layer id="201" name="Transpose_116484" type="Add" version="opset1">
			<data auto_broadcast="numpy" />
			<input>
				<port id="0" precision="FP32">
					<dim>1</dim>
					<dim>96</dim>
					<dim>19</dim>
					<dim>19</dim>
				</port>
				<port id="1" precision="FP32">
					<dim>1</dim>
					<dim>96</dim>
					<dim>19</dim>
					<dim>19</dim>
				</port>
			</input>
			<output>
				<port id="2" precision="FP32">
					<dim>1</dim>
					<dim>96</dim>
					<dim>19</dim>
					<dim>19</dim>
				</port>
			</output>
		</layer>
		<layer id="202" name="Multiply_343407" type="Const" version="opset1">
			<data element_type="f32" shape="576, 96, 1, 1" offset="1669852" size="221184" />
			<output>
				<port id="0" precision="FP32">
					<dim>576</dim>
					<dim>96</dim>
					<dim>1</dim>
					<dim>1</dim>
				</port>
			</output>
		</layer>
		<layer id="203" name="Multiply_342861" type="Convolution" version="opset1">
			<data strides="1, 1" dilations="1, 1" pads_begin="0, 0" pads_end="0, 0" auto_pad="same_upper" />
			<input>
				<port id="0" precision="FP32">
					<dim>1</dim>
					<dim>96</dim>
					<dim>19</dim>
					<dim>19</dim>
				</port>
				<port id="1" precision="FP32">
					<dim>576</dim>
					<dim>96</dim>
					<dim>1</dim>
					<dim>1</dim>
				</port>
			</input>
			<output>
				<port id="2" precision="FP32">
					<dim>1</dim>
					<dim>576</dim>
					<dim>19</dim>
					<dim>19</dim>
				</port>
			</output>
		</layer>
		<layer id="204" name="Constant_342869" type="Const" version="opset1">
			<data element_type="f32" shape="1, 576, 1, 1" offset="1891036" size="2304" />
			<output>
				<port id="0" precision="FP32">
					<dim>1</dim>
					<dim>576</dim>
					<dim>1</dim>
					<dim>1</dim>
				</port>
			</output>
		</layer>
		<layer id="205" name="Transpose_116508" type="Add" version="opset1">
			<data auto_broadcast="numpy" />
			<input>
				<port id="0" precision="FP32">
					<dim>1</dim>
					<dim>576</dim>
					<dim>19</dim>
					<dim>19</dim>
				</port>
				<port id="1" precision="FP32">
					<dim>1</dim>
					<dim>576</dim>
					<dim>1</dim>
					<dim>1</dim>
				</port>
			</input>
			<output>
				<port id="2" precision="FP32">
					<dim>1</dim>
					<dim>576</dim>
					<dim>19</dim>
					<dim>19</dim>
				</port>
			</output>
		</layer>
		<layer id="206" name="Clamp_116509" type="Clamp" version="opset1">
			<data min="0" max="6" />
			<input>
				<port id="0" precision="FP32">
					<dim>1</dim>
					<dim>576</dim>
					<dim>19</dim>
					<dim>19</dim>
				</port>
			</input>
			<output>
				<port id="1" precision="FP32">
					<dim>1</dim>
					<dim>576</dim>
					<dim>19</dim>
					<dim>19</dim>
				</port>
			</output>
		</layer>
		<layer id="207" name="Multiply_343413" type="Const" version="opset1">
			<data element_type="f32" shape="576, 1, 1, 3, 3" offset="1893340" size="20736" />
			<output>
				<port id="0" precision="FP32">
					<dim>576</dim>
					<dim>1</dim>
					<dim>1</dim>
					<dim>3</dim>
					<dim>3</dim>
				</port>
			</output>
		</layer>
		<layer id="208" name="Multiply_342875" type="GroupConvolution" version="opset1">
			<data strides="1, 1" pads_begin="0, 0" pads_end="0, 0" dilations="1, 1" auto_pad="same_upper" />
			<input>
				<port id="0" precision="FP32">
					<dim>1</dim>
					<dim>576</dim>
					<dim>19</dim>
					<dim>19</dim>
				</port>
				<port id="1" precision="FP32">
					<dim>576</dim>
					<dim>1</dim>
					<dim>1</dim>
					<dim>3</dim>
					<dim>3</dim>
				</port>
			</input>
			<output>
				<port id="2" precision="FP32">
					<dim>1</dim>
					<dim>576</dim>
					<dim>19</dim>
					<dim>19</dim>
				</port>
			</output>
		</layer>
		<layer id="209" name="Constant_342883" type="Const" version="opset1">
			<data element_type="f32" shape="1, 576, 1, 1" offset="1914076" size="2304" />
			<output>
				<port id="0" precision="FP32">
					<dim>1</dim>
					<dim>576</dim>
					<dim>1</dim>
					<dim>1</dim>
				</port>
			</output>
		</layer>
		<layer id="210" name="Transpose_116534" type="Add" version="opset1">
			<data auto_broadcast="numpy" />
			<input>
				<port id="0" precision="FP32">
					<dim>1</dim>
					<dim>576</dim>
					<dim>19</dim>
					<dim>19</dim>
				</port>
				<port id="1" precision="FP32">
					<dim>1</dim>
					<dim>576</dim>
					<dim>1</dim>
					<dim>1</dim>
				</port>
			</input>
			<output>
				<port id="2" precision="FP32">
					<dim>1</dim>
					<dim>576</dim>
					<dim>19</dim>
					<dim>19</dim>
				</port>
			</output>
		</layer>
		<layer id="211" name="Clamp_116535" type="Clamp" version="opset1">
			<data min="0" max="6" />
			<input>
				<port id="0" precision="FP32">
					<dim>1</dim>
					<dim>576</dim>
					<dim>19</dim>
					<dim>19</dim>
				</port>
			</input>
			<output>
				<port id="1" precision="FP32">
					<dim>1</dim>
					<dim>576</dim>
					<dim>19</dim>
					<dim>19</dim>
				</port>
			</output>
		</layer>
		<layer id="212" name="Multiply_343418" type="Const" version="opset1">
			<data element_type="f32" shape="96, 576, 1, 1" offset="1916380" size="221184" />
			<output>
				<port id="0" precision="FP32">
					<dim>96</dim>
					<dim>576</dim>
					<dim>1</dim>
					<dim>1</dim>
				</port>
			</output>
		</layer>
		<layer id="213" name="Multiply_342889" type="Convolution" version="opset1">
			<data strides="1, 1" dilations="1, 1" pads_begin="0, 0" pads_end="0, 0" auto_pad="same_upper" />
			<input>
				<port id="0" precision="FP32">
					<dim>1</dim>
					<dim>576</dim>
					<dim>19</dim>
					<dim>19</dim>
				</port>
				<port id="1" precision="FP32">
					<dim>96</dim>
					<dim>576</dim>
					<dim>1</dim>
					<dim>1</dim>
				</port>
			</input>
			<output>
				<port id="2" precision="FP32">
					<dim>1</dim>
					<dim>96</dim>
					<dim>19</dim>
					<dim>19</dim>
				</port>
			</output>
		</layer>
		<layer id="214" name="Constant_342897" type="Const" version="opset1">
			<data element_type="f32" shape="1, 96, 1, 1" offset="2137564" size="384" />
			<output>
				<port id="0" precision="FP32">
					<dim>1</dim>
					<dim>96</dim>
					<dim>1</dim>
					<dim>1</dim>
				</port>
			</output>
		</layer>
		<layer id="215" name="Transpose_116562" type="Add" version="opset1">
			<data auto_broadcast="numpy" />
			<input>
				<port id="0" precision="FP32">
					<dim>1</dim>
					<dim>96</dim>
					<dim>19</dim>
					<dim>19</dim>
				</port>
				<port id="1" precision="FP32">
					<dim>1</dim>
					<dim>96</dim>
					<dim>1</dim>
					<dim>1</dim>
				</port>
			</input>
			<output>
				<port id="2" precision="FP32">
					<dim>1</dim>
					<dim>96</dim>
					<dim>19</dim>
					<dim>19</dim>
				</port>
			</output>
		</layer>
		<layer id="216" name="Transpose_116564" type="Add" version="opset1">
			<data auto_broadcast="numpy" />
			<input>
				<port id="0" precision="FP32">
					<dim>1</dim>
					<dim>96</dim>
					<dim>19</dim>
					<dim>19</dim>
				</port>
				<port id="1" precision="FP32">
					<dim>1</dim>
					<dim>96</dim>
					<dim>19</dim>
					<dim>19</dim>
				</port>
			</input>
			<output>
				<port id="2" precision="FP32">
					<dim>1</dim>
					<dim>96</dim>
					<dim>19</dim>
					<dim>19</dim>
				</port>
			</output>
		</layer>
		<layer id="217" name="Multiply_343424" type="Const" version="opset1">
			<data element_type="f32" shape="576, 96, 1, 1" offset="2137948" size="221184" />
			<output>
				<port id="0" precision="FP32">
					<dim>576</dim>
					<dim>96</dim>
					<dim>1</dim>
					<dim>1</dim>
				</port>
			</output>
		</layer>
		<layer id="218" name="Multiply_342903" type="Convolution" version="opset1">
			<data strides="1, 1" dilations="1, 1" pads_begin="0, 0" pads_end="0, 0" auto_pad="same_upper" />
			<input>
				<port id="0" precision="FP32">
					<dim>1</dim>
					<dim>96</dim>
					<dim>19</dim>
					<dim>19</dim>
				</port>
				<port id="1" precision="FP32">
					<dim>576</dim>
					<dim>96</dim>
					<dim>1</dim>
					<dim>1</dim>
				</port>
			</input>
			<output>
				<port id="2" precision="FP32">
					<dim>1</dim>
					<dim>576</dim>
					<dim>19</dim>
					<dim>19</dim>
				</port>
			</output>
		</layer>
		<layer id="219" name="Constant_342911" type="Const" version="opset1">
			<data element_type="f32" shape="1, 576, 1, 1" offset="2359132" size="2304" />
			<output>
				<port id="0" precision="FP32">
					<dim>1</dim>
					<dim>576</dim>
					<dim>1</dim>
					<dim>1</dim>
				</port>
			</output>
		</layer>
		<layer id="220" name="Transpose_116588" type="Add" version="opset1">
			<data auto_broadcast="numpy" />
			<input>
				<port id="0" precision="FP32">
					<dim>1</dim>
					<dim>576</dim>
					<dim>19</dim>
					<dim>19</dim>
				</port>
				<port id="1" precision="FP32">
					<dim>1</dim>
					<dim>576</dim>
					<dim>1</dim>
					<dim>1</dim>
				</port>
			</input>
			<output>
				<port id="2" precision="FP32">
					<dim>1</dim>
					<dim>576</dim>
					<dim>19</dim>
					<dim>19</dim>
				</port>
			</output>
		</layer>
		<layer id="221" name="Clamp_116589" type="Clamp" version="opset1">
			<data min="0" max="6" />
			<input>
				<port id="0" precision="FP32">
					<dim>1</dim>
					<dim>576</dim>
					<dim>19</dim>
					<dim>19</dim>
				</port>
			</input>
			<output>
				<port id="1" precision="FP32">
					<dim>1</dim>
					<dim>576</dim>
					<dim>19</dim>
					<dim>19</dim>
				</port>
			</output>
		</layer>
		<layer id="222" name="Transpose_4859" type="Const" version="opset1">
			<data element_type="f32" shape="273, 576, 1, 1" offset="2361436" size="628992" />
			<output>
				<port id="0" precision="FP32">
					<dim>273</dim>
					<dim>576</dim>
					<dim>1</dim>
					<dim>1</dim>
				</port>
			</output>
		</layer>
		<layer id="223" name="Convolution_4860" type="Convolution" version="opset1">
			<data strides="1, 1" dilations="1, 1" pads_begin="0, 0" pads_end="0, 0" auto_pad="same_upper" />
			<input>
				<port id="0" precision="FP32">
					<dim>1</dim>
					<dim>576</dim>
					<dim>19</dim>
					<dim>19</dim>
				</port>
				<port id="1" precision="FP32">
					<dim>273</dim>
					<dim>576</dim>
					<dim>1</dim>
					<dim>1</dim>
				</port>
			</input>
			<output>
				<port id="2" precision="FP32">
					<dim>1</dim>
					<dim>273</dim>
					<dim>19</dim>
					<dim>19</dim>
				</port>
			</output>
		</layer>
		<layer id="224" name="Constant_169443" type="Const" version="opset1">
			<data element_type="i64" shape="4" offset="2990428" size="32" />
			<output>
				<port id="0" precision="I64">
					<dim>4</dim>
				</port>
			</output>
		</layer>
		<layer id="225" name="Transpose_169444" type="Transpose" version="opset1">
			<input>
				<port id="0" precision="FP32">
					<dim>1</dim>
					<dim>273</dim>
					<dim>19</dim>
					<dim>19</dim>
				</port>
				<port id="1" precision="I64">
					<dim>4</dim>
				</port>
			</input>
			<output>
				<port id="2" precision="FP32">
					<dim>1</dim>
					<dim>19</dim>
					<dim>19</dim>
					<dim>273</dim>
				</port>
			</output>
		</layer>
		<layer id="226" name="Transpose_169446" type="Const" version="opset1">
			<data element_type="f32" shape="1, 1, 1, 273" offset="2990460" size="1092" />
			<output>
				<port id="0" precision="FP32">
					<dim>1</dim>
					<dim>1</dim>
					<dim>1</dim>
					<dim>273</dim>
				</port>
			</output>
		</layer>
		<layer id="227" name="BoxPredictor/ConvolutionalClassHead_0/ClassPredictor/BiasAdd" type="Add" version="opset1">
			<data auto_broadcast="numpy" />
			<input>
				<port id="0" precision="FP32">
					<dim>1</dim>
					<dim>19</dim>
					<dim>19</dim>
					<dim>273</dim>
				</port>
				<port id="1" precision="FP32">
					<dim>1</dim>
					<dim>1</dim>
					<dim>1</dim>
					<dim>273</dim>
				</port>
			</input>
			<output>
				<port id="2" precision="FP32">
					<dim>1</dim>
					<dim>19</dim>
					<dim>19</dim>
					<dim>273</dim>
				</port>
			</output>
		</layer>
		<layer id="228" name="BoxPredictor/ConvolutionalClassHead_0/Reshape/shape" type="Const" version="opset1">
			<data element_type="i32" shape="3" offset="2991552" size="12" />
			<output>
				<port id="0" precision="I32">
					<dim>3</dim>
				</port>
			</output>
		</layer>
		<layer id="229" name="BoxPredictor/ConvolutionalClassHead_0/Reshape" type="Reshape" version="opset1">
			<data special_zero="false" />
			<input>
				<port id="0" precision="FP32">
					<dim>1</dim>
					<dim>19</dim>
					<dim>19</dim>
					<dim>273</dim>
				</port>
				<port id="1" precision="I32">
					<dim>3</dim>
				</port>
			</input>
			<output>
				<port id="2" precision="FP32">
					<dim>1</dim>
					<dim>1083</dim>
					<dim>91</dim>
				</port>
			</output>
		</layer>
		<layer id="230" name="Multiply_343430" type="Const" version="opset1">
			<data element_type="f32" shape="576, 1, 1, 3, 3" offset="2991564" size="20736" />
			<output>
				<port id="0" precision="FP32">
					<dim>576</dim>
					<dim>1</dim>
					<dim>1</dim>
					<dim>3</dim>
					<dim>3</dim>
				</port>
			</output>
		</layer>
		<layer id="231" name="Multiply_342917" type="GroupConvolution" version="opset1">
			<data strides="2, 2" pads_begin="0, 0" pads_end="0, 0" dilations="1, 1" auto_pad="same_upper" />
			<input>
				<port id="0" precision="FP32">
					<dim>1</dim>
					<dim>576</dim>
					<dim>19</dim>
					<dim>19</dim>
				</port>
				<port id="1" precision="FP32">
					<dim>576</dim>
					<dim>1</dim>
					<dim>1</dim>
					<dim>3</dim>
					<dim>3</dim>
				</port>
			</input>
			<output>
				<port id="2" precision="FP32">
					<dim>1</dim>
					<dim>576</dim>
					<dim>10</dim>
					<dim>10</dim>
				</port>
			</output>
		</layer>
		<layer id="232" name="Constant_342925" type="Const" version="opset1">
			<data element_type="f32" shape="1, 576, 1, 1" offset="3012300" size="2304" />
			<output>
				<port id="0" precision="FP32">
					<dim>1</dim>
					<dim>576</dim>
					<dim>1</dim>
					<dim>1</dim>
				</port>
			</output>
		</layer>
		<layer id="233" name="Transpose_116620" type="Add" version="opset1">
			<data auto_broadcast="numpy" />
			<input>
				<port id="0" precision="FP32">
					<dim>1</dim>
					<dim>576</dim>
					<dim>10</dim>
					<dim>10</dim>
				</port>
				<port id="1" precision="FP32">
					<dim>1</dim>
					<dim>576</dim>
					<dim>1</dim>
					<dim>1</dim>
				</port>
			</input>
			<output>
				<port id="2" precision="FP32">
					<dim>1</dim>
					<dim>576</dim>
					<dim>10</dim>
					<dim>10</dim>
				</port>
			</output>
		</layer>
		<layer id="234" name="Clamp_116621" type="Clamp" version="opset1">
			<data min="0" max="6" />
			<input>
				<port id="0" precision="FP32">
					<dim>1</dim>
					<dim>576</dim>
					<dim>10</dim>
					<dim>10</dim>
				</port>
			</input>
			<output>
				<port id="1" precision="FP32">
					<dim>1</dim>
					<dim>576</dim>
					<dim>10</dim>
					<dim>10</dim>
				</port>
			</output>
		</layer>
		<layer id="235" name="Multiply_343435" type="Const" version="opset1">
			<data element_type="f32" shape="160, 576, 1, 1" offset="3014604" size="368640" />
			<output>
				<port id="0" precision="FP32">
					<dim>160</dim>
					<dim>576</dim>
					<dim>1</dim>
					<dim>1</dim>
				</port>
			</output>
		</layer>
		<layer id="236" name="Multiply_342931" type="Convolution" version="opset1">
			<data strides="1, 1" dilations="1, 1" pads_begin="0, 0" pads_end="0, 0" auto_pad="same_upper" />
			<input>
				<port id="0" precision="FP32">
					<dim>1</dim>
					<dim>576</dim>
					<dim>10</dim>
					<dim>10</dim>
				</port>
				<port id="1" precision="FP32">
					<dim>160</dim>
					<dim>576</dim>
					<dim>1</dim>
					<dim>1</dim>
				</port>
			</input>
			<output>
				<port id="2" precision="FP32">
					<dim>1</dim>
					<dim>160</dim>
					<dim>10</dim>
					<dim>10</dim>
				</port>
			</output>
		</layer>
		<layer id="237" name="Constant_342939" type="Const" version="opset1">
			<data element_type="f32" shape="1, 160, 1, 1" offset="3383244" size="640" />
			<output>
				<port id="0" precision="FP32">
					<dim>1</dim>
					<dim>160</dim>
					<dim>1</dim>
					<dim>1</dim>
				</port>
			</output>
		</layer>
		<layer id="238" name="Transpose_116646" type="Add" version="opset1">
			<data auto_broadcast="numpy" />
			<input>
				<port id="0" precision="FP32">
					<dim>1</dim>
					<dim>160</dim>
					<dim>10</dim>
					<dim>10</dim>
				</port>
				<port id="1" precision="FP32">
					<dim>1</dim>
					<dim>160</dim>
					<dim>1</dim>
					<dim>1</dim>
				</port>
			</input>
			<output>
				<port id="2" precision="FP32">
					<dim>1</dim>
					<dim>160</dim>
					<dim>10</dim>
					<dim>10</dim>
				</port>
			</output>
		</layer>
		<layer id="239" name="Multiply_343441" type="Const" version="opset1">
			<data element_type="f32" shape="960, 160, 1, 1" offset="3383884" size="614400" />
			<output>
				<port id="0" precision="FP32">
					<dim>960</dim>
					<dim>160</dim>
					<dim>1</dim>
					<dim>1</dim>
				</port>
			</output>
		</layer>
		<layer id="240" name="Multiply_342945" type="Convolution" version="opset1">
			<data strides="1, 1" dilations="1, 1" pads_begin="0, 0" pads_end="0, 0" auto_pad="same_upper" />
			<input>
				<port id="0" precision="FP32">
					<dim>1</dim>
					<dim>160</dim>
					<dim>10</dim>
					<dim>10</dim>
				</port>
				<port id="1" precision="FP32">
					<dim>960</dim>
					<dim>160</dim>
					<dim>1</dim>
					<dim>1</dim>
				</port>
			</input>
			<output>
				<port id="2" precision="FP32">
					<dim>1</dim>
					<dim>960</dim>
					<dim>10</dim>
					<dim>10</dim>
				</port>
			</output>
		</layer>
		<layer id="241" name="Constant_342953" type="Const" version="opset1">
			<data element_type="f32" shape="1, 960, 1, 1" offset="3998284" size="3840" />
			<output>
				<port id="0" precision="FP32">
					<dim>1</dim>
					<dim>960</dim>
					<dim>1</dim>
					<dim>1</dim>
				</port>
			</output>
		</layer>
		<layer id="242" name="Transpose_116670" type="Add" version="opset1">
			<data auto_broadcast="numpy" />
			<input>
				<port id="0" precision="FP32">
					<dim>1</dim>
					<dim>960</dim>
					<dim>10</dim>
					<dim>10</dim>
				</port>
				<port id="1" precision="FP32">
					<dim>1</dim>
					<dim>960</dim>
					<dim>1</dim>
					<dim>1</dim>
				</port>
			</input>
			<output>
				<port id="2" precision="FP32">
					<dim>1</dim>
					<dim>960</dim>
					<dim>10</dim>
					<dim>10</dim>
				</port>
			</output>
		</layer>
		<layer id="243" name="Clamp_116671" type="Clamp" version="opset1">
			<data min="0" max="6" />
			<input>
				<port id="0" precision="FP32">
					<dim>1</dim>
					<dim>960</dim>
					<dim>10</dim>
					<dim>10</dim>
				</port>
			</input>
			<output>
				<port id="1" precision="FP32">
					<dim>1</dim>
					<dim>960</dim>
					<dim>10</dim>
					<dim>10</dim>
				</port>
			</output>
		</layer>
		<layer id="244" name="Multiply_343447" type="Const" version="opset1">
			<data element_type="f32" shape="960, 1, 1, 3, 3" offset="4002124" size="34560" />
			<output>
				<port id="0" precision="FP32">
					<dim>960</dim>
					<dim>1</dim>
					<dim>1</dim>
					<dim>3</dim>
					<dim>3</dim>
				</port>
			</output>
		</layer>
		<layer id="245" name="Multiply_342959" type="GroupConvolution" version="opset1">
			<data strides="1, 1" pads_begin="0, 0" pads_end="0, 0" dilations="1, 1" auto_pad="same_upper" />
			<input>
				<port id="0" precision="FP32">
					<dim>1</dim>
					<dim>960</dim>
					<dim>10</dim>
					<dim>10</dim>
				</port>
				<port id="1" precision="FP32">
					<dim>960</dim>
					<dim>1</dim>
					<dim>1</dim>
					<dim>3</dim>
					<dim>3</dim>
				</port>
			</input>
			<output>
				<port id="2" precision="FP32">
					<dim>1</dim>
					<dim>960</dim>
					<dim>10</dim>
					<dim>10</dim>
				</port>
			</output>
		</layer>
		<layer id="246" name="Constant_342967" type="Const" version="opset1">
			<data element_type="f32" shape="1, 960, 1, 1" offset="4036684" size="3840" />
			<output>
				<port id="0" precision="FP32">
					<dim>1</dim>
					<dim>960</dim>
					<dim>1</dim>
					<dim>1</dim>
				</port>
			</output>
		</layer>
		<layer id="247" name="Transpose_116696" type="Add" version="opset1">
			<data auto_broadcast="numpy" />
			<input>
				<port id="0" precision="FP32">
					<dim>1</dim>
					<dim>960</dim>
					<dim>10</dim>
					<dim>10</dim>
				</port>
				<port id="1" precision="FP32">
					<dim>1</dim>
					<dim>960</dim>
					<dim>1</dim>
					<dim>1</dim>
				</port>
			</input>
			<output>
				<port id="2" precision="FP32">
					<dim>1</dim>
					<dim>960</dim>
					<dim>10</dim>
					<dim>10</dim>
				</port>
			</output>
		</layer>
		<layer id="248" name="Clamp_116697" type="Clamp" version="opset1">
			<data min="0" max="6" />
			<input>
				<port id="0" precision="FP32">
					<dim>1</dim>
					<dim>960</dim>
					<dim>10</dim>
					<dim>10</dim>
				</port>
			</input>
			<output>
				<port id="1" precision="FP32">
					<dim>1</dim>
					<dim>960</dim>
					<dim>10</dim>
					<dim>10</dim>
				</port>
			</output>
		</layer>
		<layer id="249" name="Multiply_343452" type="Const" version="opset1">
			<data element_type="f32" shape="160, 960, 1, 1" offset="4040524" size="614400" />
			<output>
				<port id="0" precision="FP32">
					<dim>160</dim>
					<dim>960</dim>
					<dim>1</dim>
					<dim>1</dim>
				</port>
			</output>
		</layer>
		<layer id="250" name="Multiply_342973" type="Convolution" version="opset1">
			<data strides="1, 1" dilations="1, 1" pads_begin="0, 0" pads_end="0, 0" auto_pad="same_upper" />
			<input>
				<port id="0" precision="FP32">
					<dim>1</dim>
					<dim>960</dim>
					<dim>10</dim>
					<dim>10</dim>
				</port>
				<port id="1" precision="FP32">
					<dim>160</dim>
					<dim>960</dim>
					<dim>1</dim>
					<dim>1</dim>
				</port>
			</input>
			<output>
				<port id="2" precision="FP32">
					<dim>1</dim>
					<dim>160</dim>
					<dim>10</dim>
					<dim>10</dim>
				</port>
			</output>
		</layer>
		<layer id="251" name="Constant_342981" type="Const" version="opset1">
			<data element_type="f32" shape="1, 160, 1, 1" offset="4654924" size="640" />
			<output>
				<port id="0" precision="FP32">
					<dim>1</dim>
					<dim>160</dim>
					<dim>1</dim>
					<dim>1</dim>
				</port>
			</output>
		</layer>
		<layer id="252" name="Transpose_116724" type="Add" version="opset1">
			<data auto_broadcast="numpy" />
			<input>
				<port id="0" precision="FP32">
					<dim>1</dim>
					<dim>160</dim>
					<dim>10</dim>
					<dim>10</dim>
				</port>
				<port id="1" precision="FP32">
					<dim>1</dim>
					<dim>160</dim>
					<dim>1</dim>
					<dim>1</dim>
				</port>
			</input>
			<output>
				<port id="2" precision="FP32">
					<dim>1</dim>
					<dim>160</dim>
					<dim>10</dim>
					<dim>10</dim>
				</port>
			</output>
		</layer>
		<layer id="253" name="Transpose_116726" type="Add" version="opset1">
			<data auto_broadcast="numpy" />
			<input>
				<port id="0" precision="FP32">
					<dim>1</dim>
					<dim>160</dim>
					<dim>10</dim>
					<dim>10</dim>
				</port>
				<port id="1" precision="FP32">
					<dim>1</dim>
					<dim>160</dim>
					<dim>10</dim>
					<dim>10</dim>
				</port>
			</input>
			<output>
				<port id="2" precision="FP32">
					<dim>1</dim>
					<dim>160</dim>
					<dim>10</dim>
					<dim>10</dim>
				</port>
			</output>
		</layer>
		<layer id="254" name="Multiply_343458" type="Const" version="opset1">
			<data element_type="f32" shape="960, 160, 1, 1" offset="4655564" size="614400" />
			<output>
				<port id="0" precision="FP32">
					<dim>960</dim>
					<dim>160</dim>
					<dim>1</dim>
					<dim>1</dim>
				</port>
			</output>
		</layer>
		<layer id="255" name="Multiply_342987" type="Convolution" version="opset1">
			<data strides="1, 1" dilations="1, 1" pads_begin="0, 0" pads_end="0, 0" auto_pad="same_upper" />
			<input>
				<port id="0" precision="FP32">
					<dim>1</dim>
					<dim>160</dim>
					<dim>10</dim>
					<dim>10</dim>
				</port>
				<port id="1" precision="FP32">
					<dim>960</dim>
					<dim>160</dim>
					<dim>1</dim>
					<dim>1</dim>
				</port>
			</input>
			<output>
				<port id="2" precision="FP32">
					<dim>1</dim>
					<dim>960</dim>
					<dim>10</dim>
					<dim>10</dim>
				</port>
			</output>
		</layer>
		<layer id="256" name="Constant_342995" type="Const" version="opset1">
			<data element_type="f32" shape="1, 960, 1, 1" offset="5269964" size="3840" />
			<output>
				<port id="0" precision="FP32">
					<dim>1</dim>
					<dim>960</dim>
					<dim>1</dim>
					<dim>1</dim>
				</port>
			</output>
		</layer>
		<layer id="257" name="Transpose_116750" type="Add" version="opset1">
			<data auto_broadcast="numpy" />
			<input>
				<port id="0" precision="FP32">
					<dim>1</dim>
					<dim>960</dim>
					<dim>10</dim>
					<dim>10</dim>
				</port>
				<port id="1" precision="FP32">
					<dim>1</dim>
					<dim>960</dim>
					<dim>1</dim>
					<dim>1</dim>
				</port>
			</input>
			<output>
				<port id="2" precision="FP32">
					<dim>1</dim>
					<dim>960</dim>
					<dim>10</dim>
					<dim>10</dim>
				</port>
			</output>
		</layer>
		<layer id="258" name="Clamp_116751" type="Clamp" version="opset1">
			<data min="0" max="6" />
			<input>
				<port id="0" precision="FP32">
					<dim>1</dim>
					<dim>960</dim>
					<dim>10</dim>
					<dim>10</dim>
				</port>
			</input>
			<output>
				<port id="1" precision="FP32">
					<dim>1</dim>
					<dim>960</dim>
					<dim>10</dim>
					<dim>10</dim>
				</port>
			</output>
		</layer>
		<layer id="259" name="Multiply_343464" type="Const" version="opset1">
			<data element_type="f32" shape="960, 1, 1, 3, 3" offset="5273804" size="34560" />
			<output>
				<port id="0" precision="FP32">
					<dim>960</dim>
					<dim>1</dim>
					<dim>1</dim>
					<dim>3</dim>
					<dim>3</dim>
				</port>
			</output>
		</layer>
		<layer id="260" name="Multiply_343001" type="GroupConvolution" version="opset1">
			<data strides="1, 1" pads_begin="0, 0" pads_end="0, 0" dilations="1, 1" auto_pad="same_upper" />
			<input>
				<port id="0" precision="FP32">
					<dim>1</dim>
					<dim>960</dim>
					<dim>10</dim>
					<dim>10</dim>
				</port>
				<port id="1" precision="FP32">
					<dim>960</dim>
					<dim>1</dim>
					<dim>1</dim>
					<dim>3</dim>
					<dim>3</dim>
				</port>
			</input>
			<output>
				<port id="2" precision="FP32">
					<dim>1</dim>
					<dim>960</dim>
					<dim>10</dim>
					<dim>10</dim>
				</port>
			</output>
		</layer>
		<layer id="261" name="Constant_343009" type="Const" version="opset1">
			<data element_type="f32" shape="1, 960, 1, 1" offset="5308364" size="3840" />
			<output>
				<port id="0" precision="FP32">
					<dim>1</dim>
					<dim>960</dim>
					<dim>1</dim>
					<dim>1</dim>
				</port>
			</output>
		</layer>
		<layer id="262" name="Transpose_116776" type="Add" version="opset1">
			<data auto_broadcast="numpy" />
			<input>
				<port id="0" precision="FP32">
					<dim>1</dim>
					<dim>960</dim>
					<dim>10</dim>
					<dim>10</dim>
				</port>
				<port id="1" precision="FP32">
					<dim>1</dim>
					<dim>960</dim>
					<dim>1</dim>
					<dim>1</dim>
				</port>
			</input>
			<output>
				<port id="2" precision="FP32">
					<dim>1</dim>
					<dim>960</dim>
					<dim>10</dim>
					<dim>10</dim>
				</port>
			</output>
		</layer>
		<layer id="263" name="Clamp_116777" type="Clamp" version="opset1">
			<data min="0" max="6" />
			<input>
				<port id="0" precision="FP32">
					<dim>1</dim>
					<dim>960</dim>
					<dim>10</dim>
					<dim>10</dim>
				</port>
			</input>
			<output>
				<port id="1" precision="FP32">
					<dim>1</dim>
					<dim>960</dim>
					<dim>10</dim>
					<dim>10</dim>
				</port>
			</output>
		</layer>
		<layer id="264" name="Multiply_343469" type="Const" version="opset1">
			<data element_type="f32" shape="160, 960, 1, 1" offset="5312204" size="614400" />
			<output>
				<port id="0" precision="FP32">
					<dim>160</dim>
					<dim>960</dim>
					<dim>1</dim>
					<dim>1</dim>
				</port>
			</output>
		</layer>
		<layer id="265" name="Multiply_343015" type="Convolution" version="opset1">
			<data strides="1, 1" dilations="1, 1" pads_begin="0, 0" pads_end="0, 0" auto_pad="same_upper" />
			<input>
				<port id="0" precision="FP32">
					<dim>1</dim>
					<dim>960</dim>
					<dim>10</dim>
					<dim>10</dim>
				</port>
				<port id="1" precision="FP32">
					<dim>160</dim>
					<dim>960</dim>
					<dim>1</dim>
					<dim>1</dim>
				</port>
			</input>
			<output>
				<port id="2" precision="FP32">
					<dim>1</dim>
					<dim>160</dim>
					<dim>10</dim>
					<dim>10</dim>
				</port>
			</output>
		</layer>
		<layer id="266" name="Constant_343023" type="Const" version="opset1">
			<data element_type="f32" shape="1, 160, 1, 1" offset="5926604" size="640" />
			<output>
				<port id="0" precision="FP32">
					<dim>1</dim>
					<dim>160</dim>
					<dim>1</dim>
					<dim>1</dim>
				</port>
			</output>
		</layer>
		<layer id="267" name="Transpose_116804" type="Add" version="opset1">
			<data auto_broadcast="numpy" />
			<input>
				<port id="0" precision="FP32">
					<dim>1</dim>
					<dim>160</dim>
					<dim>10</dim>
					<dim>10</dim>
				</port>
				<port id="1" precision="FP32">
					<dim>1</dim>
					<dim>160</dim>
					<dim>1</dim>
					<dim>1</dim>
				</port>
			</input>
			<output>
				<port id="2" precision="FP32">
					<dim>1</dim>
					<dim>160</dim>
					<dim>10</dim>
					<dim>10</dim>
				</port>
			</output>
		</layer>
		<layer id="268" name="Transpose_116806" type="Add" version="opset1">
			<data auto_broadcast="numpy" />
			<input>
				<port id="0" precision="FP32">
					<dim>1</dim>
					<dim>160</dim>
					<dim>10</dim>
					<dim>10</dim>
				</port>
				<port id="1" precision="FP32">
					<dim>1</dim>
					<dim>160</dim>
					<dim>10</dim>
					<dim>10</dim>
				</port>
			</input>
			<output>
				<port id="2" precision="FP32">
					<dim>1</dim>
					<dim>160</dim>
					<dim>10</dim>
					<dim>10</dim>
				</port>
			</output>
		</layer>
		<layer id="269" name="Multiply_343475" type="Const" version="opset1">
			<data element_type="f32" shape="960, 160, 1, 1" offset="5927244" size="614400" />
			<output>
				<port id="0" precision="FP32">
					<dim>960</dim>
					<dim>160</dim>
					<dim>1</dim>
					<dim>1</dim>
				</port>
			</output>
		</layer>
		<layer id="270" name="Multiply_343029" type="Convolution" version="opset1">
			<data strides="1, 1" dilations="1, 1" pads_begin="0, 0" pads_end="0, 0" auto_pad="same_upper" />
			<input>
				<port id="0" precision="FP32">
					<dim>1</dim>
					<dim>160</dim>
					<dim>10</dim>
					<dim>10</dim>
				</port>
				<port id="1" precision="FP32">
					<dim>960</dim>
					<dim>160</dim>
					<dim>1</dim>
					<dim>1</dim>
				</port>
			</input>
			<output>
				<port id="2" precision="FP32">
					<dim>1</dim>
					<dim>960</dim>
					<dim>10</dim>
					<dim>10</dim>
				</port>
			</output>
		</layer>
		<layer id="271" name="Constant_343037" type="Const" version="opset1">
			<data element_type="f32" shape="1, 960, 1, 1" offset="6541644" size="3840" />
			<output>
				<port id="0" precision="FP32">
					<dim>1</dim>
					<dim>960</dim>
					<dim>1</dim>
					<dim>1</dim>
				</port>
			</output>
		</layer>
		<layer id="272" name="Transpose_116830" type="Add" version="opset1">
			<data auto_broadcast="numpy" />
			<input>
				<port id="0" precision="FP32">
					<dim>1</dim>
					<dim>960</dim>
					<dim>10</dim>
					<dim>10</dim>
				</port>
				<port id="1" precision="FP32">
					<dim>1</dim>
					<dim>960</dim>
					<dim>1</dim>
					<dim>1</dim>
				</port>
			</input>
			<output>
				<port id="2" precision="FP32">
					<dim>1</dim>
					<dim>960</dim>
					<dim>10</dim>
					<dim>10</dim>
				</port>
			</output>
		</layer>
		<layer id="273" name="Clamp_116831" type="Clamp" version="opset1">
			<data min="0" max="6" />
			<input>
				<port id="0" precision="FP32">
					<dim>1</dim>
					<dim>960</dim>
					<dim>10</dim>
					<dim>10</dim>
				</port>
			</input>
			<output>
				<port id="1" precision="FP32">
					<dim>1</dim>
					<dim>960</dim>
					<dim>10</dim>
					<dim>10</dim>
				</port>
			</output>
		</layer>
		<layer id="274" name="Multiply_343481" type="Const" version="opset1">
			<data element_type="f32" shape="960, 1, 1, 3, 3" offset="6545484" size="34560" />
			<output>
				<port id="0" precision="FP32">
					<dim>960</dim>
					<dim>1</dim>
					<dim>1</dim>
					<dim>3</dim>
					<dim>3</dim>
				</port>
			</output>
		</layer>
		<layer id="275" name="Multiply_343043" type="GroupConvolution" version="opset1">
			<data strides="1, 1" pads_begin="0, 0" pads_end="0, 0" dilations="1, 1" auto_pad="same_upper" />
			<input>
				<port id="0" precision="FP32">
					<dim>1</dim>
					<dim>960</dim>
					<dim>10</dim>
					<dim>10</dim>
				</port>
				<port id="1" precision="FP32">
					<dim>960</dim>
					<dim>1</dim>
					<dim>1</dim>
					<dim>3</dim>
					<dim>3</dim>
				</port>
			</input>
			<output>
				<port id="2" precision="FP32">
					<dim>1</dim>
					<dim>960</dim>
					<dim>10</dim>
					<dim>10</dim>
				</port>
			</output>
		</layer>
		<layer id="276" name="Constant_343051" type="Const" version="opset1">
			<data element_type="f32" shape="1, 960, 1, 1" offset="6580044" size="3840" />
			<output>
				<port id="0" precision="FP32">
					<dim>1</dim>
					<dim>960</dim>
					<dim>1</dim>
					<dim>1</dim>
				</port>
			</output>
		</layer>
		<layer id="277" name="Transpose_116856" type="Add" version="opset1">
			<data auto_broadcast="numpy" />
			<input>
				<port id="0" precision="FP32">
					<dim>1</dim>
					<dim>960</dim>
					<dim>10</dim>
					<dim>10</dim>
				</port>
				<port id="1" precision="FP32">
					<dim>1</dim>
					<dim>960</dim>
					<dim>1</dim>
					<dim>1</dim>
				</port>
			</input>
			<output>
				<port id="2" precision="FP32">
					<dim>1</dim>
					<dim>960</dim>
					<dim>10</dim>
					<dim>10</dim>
				</port>
			</output>
		</layer>
		<layer id="278" name="Clamp_116857" type="Clamp" version="opset1">
			<data min="0" max="6" />
			<input>
				<port id="0" precision="FP32">
					<dim>1</dim>
					<dim>960</dim>
					<dim>10</dim>
					<dim>10</dim>
				</port>
			</input>
			<output>
				<port id="1" precision="FP32">
					<dim>1</dim>
					<dim>960</dim>
					<dim>10</dim>
					<dim>10</dim>
				</port>
			</output>
		</layer>
		<layer id="279" name="Multiply_343486" type="Const" version="opset1">
			<data element_type="f32" shape="320, 960, 1, 1" offset="6583884" size="1228800" />
			<output>
				<port id="0" precision="FP32">
					<dim>320</dim>
					<dim>960</dim>
					<dim>1</dim>
					<dim>1</dim>
				</port>
			</output>
		</layer>
		<layer id="280" name="Multiply_343057" type="Convolution" version="opset1">
			<data strides="1, 1" dilations="1, 1" pads_begin="0, 0" pads_end="0, 0" auto_pad="same_upper" />
			<input>
				<port id="0" precision="FP32">
					<dim>1</dim>
					<dim>960</dim>
					<dim>10</dim>
					<dim>10</dim>
				</port>
				<port id="1" precision="FP32">
					<dim>320</dim>
					<dim>960</dim>
					<dim>1</dim>
					<dim>1</dim>
				</port>
			</input>
			<output>
				<port id="2" precision="FP32">
					<dim>1</dim>
					<dim>320</dim>
					<dim>10</dim>
					<dim>10</dim>
				</port>
			</output>
		</layer>
		<layer id="281" name="Constant_343065" type="Const" version="opset1">
			<data element_type="f32" shape="1, 320, 1, 1" offset="7812684" size="1280" />
			<output>
				<port id="0" precision="FP32">
					<dim>1</dim>
					<dim>320</dim>
					<dim>1</dim>
					<dim>1</dim>
				</port>
			</output>
		</layer>
		<layer id="282" name="Transpose_116882" type="Add" version="opset1">
			<data auto_broadcast="numpy" />
			<input>
				<port id="0" precision="FP32">
					<dim>1</dim>
					<dim>320</dim>
					<dim>10</dim>
					<dim>10</dim>
				</port>
				<port id="1" precision="FP32">
					<dim>1</dim>
					<dim>320</dim>
					<dim>1</dim>
					<dim>1</dim>
				</port>
			</input>
			<output>
				<port id="2" precision="FP32">
					<dim>1</dim>
					<dim>320</dim>
					<dim>10</dim>
					<dim>10</dim>
				</port>
			</output>
		</layer>
		<layer id="283" name="Multiply_343492" type="Const" version="opset1">
			<data element_type="f32" shape="1280, 320, 1, 1" offset="7813964" size="1638400" />
			<output>
				<port id="0" precision="FP32">
					<dim>1280</dim>
					<dim>320</dim>
					<dim>1</dim>
					<dim>1</dim>
				</port>
			</output>
		</layer>
		<layer id="284" name="Multiply_343071" type="Convolution" version="opset1">
			<data strides="1, 1" dilations="1, 1" pads_begin="0, 0" pads_end="0, 0" auto_pad="same_upper" />
			<input>
				<port id="0" precision="FP32">
					<dim>1</dim>
					<dim>320</dim>
					<dim>10</dim>
					<dim>10</dim>
				</port>
				<port id="1" precision="FP32">
					<dim>1280</dim>
					<dim>320</dim>
					<dim>1</dim>
					<dim>1</dim>
				</port>
			</input>
			<output>
				<port id="2" precision="FP32">
					<dim>1</dim>
					<dim>1280</dim>
					<dim>10</dim>
					<dim>10</dim>
				</port>
			</output>
		</layer>
		<layer id="285" name="Constant_343079" type="Const" version="opset1">
			<data element_type="f32" shape="1, 1280, 1, 1" offset="9452364" size="5120" />
			<output>
				<port id="0" precision="FP32">
					<dim>1</dim>
					<dim>1280</dim>
					<dim>1</dim>
					<dim>1</dim>
				</port>
			</output>
		</layer>
		<layer id="286" name="Transpose_116906" type="Add" version="opset1">
			<data auto_broadcast="numpy" />
			<input>
				<port id="0" precision="FP32">
					<dim>1</dim>
					<dim>1280</dim>
					<dim>10</dim>
					<dim>10</dim>
				</port>
				<port id="1" precision="FP32">
					<dim>1</dim>
					<dim>1280</dim>
					<dim>1</dim>
					<dim>1</dim>
				</port>
			</input>
			<output>
				<port id="2" precision="FP32">
					<dim>1</dim>
					<dim>1280</dim>
					<dim>10</dim>
					<dim>10</dim>
				</port>
			</output>
		</layer>
		<layer id="287" name="Clamp_116907" type="Clamp" version="opset1">
			<data min="0" max="6" />
			<input>
				<port id="0" precision="FP32">
					<dim>1</dim>
					<dim>1280</dim>
					<dim>10</dim>
					<dim>10</dim>
				</port>
			</input>
			<output>
				<port id="1" precision="FP32">
					<dim>1</dim>
					<dim>1280</dim>
					<dim>10</dim>
					<dim>10</dim>
				</port>
			</output>
		</layer>
		<layer id="288" name="Transpose_4847" type="Const" version="opset1">
			<data element_type="f32" shape="546, 1280, 1, 1" offset="9457484" size="2795520" />
			<output>
				<port id="0" precision="FP32">
					<dim>546</dim>
					<dim>1280</dim>
					<dim>1</dim>
					<dim>1</dim>
				</port>
			</output>
		</layer>
		<layer id="289" name="Convolution_4848" type="Convolution" version="opset1">
			<data strides="1, 1" dilations="1, 1" pads_begin="0, 0" pads_end="0, 0" auto_pad="same_upper" />
			<input>
				<port id="0" precision="FP32">
					<dim>1</dim>
					<dim>1280</dim>
					<dim>10</dim>
					<dim>10</dim>
				</port>
				<port id="1" precision="FP32">
					<dim>546</dim>
					<dim>1280</dim>
					<dim>1</dim>
					<dim>1</dim>
				</port>
			</input>
			<output>
				<port id="2" precision="FP32">
					<dim>1</dim>
					<dim>546</dim>
					<dim>10</dim>
					<dim>10</dim>
				</port>
			</output>
		</layer>
		<layer id="290" name="Constant_169511" type="Const" version="opset1">
			<data element_type="i64" shape="4" offset="2990428" size="32" />
			<output>
				<port id="0" precision="I64">
					<dim>4</dim>
				</port>
			</output>
		</layer>
		<layer id="291" name="Transpose_169512" type="Transpose" version="opset1">
			<input>
				<port id="0" precision="FP32">
					<dim>1</dim>
					<dim>546</dim>
					<dim>10</dim>
					<dim>10</dim>
				</port>
				<port id="1" precision="I64">
					<dim>4</dim>
				</port>
			</input>
			<output>
				<port id="2" precision="FP32">
					<dim>1</dim>
					<dim>10</dim>
					<dim>10</dim>
					<dim>546</dim>
				</port>
			</output>
		</layer>
		<layer id="292" name="Transpose_169514" type="Const" version="opset1">
			<data element_type="f32" shape="1, 1, 1, 546" offset="12253004" size="2184" />
			<output>
				<port id="0" precision="FP32">
					<dim>1</dim>
					<dim>1</dim>
					<dim>1</dim>
					<dim>546</dim>
				</port>
			</output>
		</layer>
		<layer id="293" name="BoxPredictor/ConvolutionalClassHead_1/ClassPredictor/BiasAdd" type="Add" version="opset1">
			<data auto_broadcast="numpy" />
			<input>
				<port id="0" precision="FP32">
					<dim>1</dim>
					<dim>10</dim>
					<dim>10</dim>
					<dim>546</dim>
				</port>
				<port id="1" precision="FP32">
					<dim>1</dim>
					<dim>1</dim>
					<dim>1</dim>
					<dim>546</dim>
				</port>
			</input>
			<output>
				<port id="2" precision="FP32">
					<dim>1</dim>
					<dim>10</dim>
					<dim>10</dim>
					<dim>546</dim>
				</port>
			</output>
		</layer>
		<layer id="294" name="BoxPredictor/ConvolutionalClassHead_1/Reshape/shape" type="Const" version="opset1">
			<data element_type="i32" shape="3" offset="2991552" size="12" />
			<output>
				<port id="0" precision="I32">
					<dim>3</dim>
				</port>
			</output>
		</layer>
		<layer id="295" name="BoxPredictor/ConvolutionalClassHead_1/Reshape" type="Reshape" version="opset1">
			<data special_zero="false" />
			<input>
				<port id="0" precision="FP32">
					<dim>1</dim>
					<dim>10</dim>
					<dim>10</dim>
					<dim>546</dim>
				</port>
				<port id="1" precision="I32">
					<dim>3</dim>
				</port>
			</input>
			<output>
				<port id="2" precision="FP32">
					<dim>1</dim>
					<dim>600</dim>
					<dim>91</dim>
				</port>
			</output>
		</layer>
		<layer id="296" name="Multiply_343498" type="Const" version="opset1">
			<data element_type="f32" shape="256, 1280, 1, 1" offset="12255188" size="1310720" />
			<output>
				<port id="0" precision="FP32">
					<dim>256</dim>
					<dim>1280</dim>
					<dim>1</dim>
					<dim>1</dim>
				</port>
			</output>
		</layer>
		<layer id="297" name="Multiply_343085" type="Convolution" version="opset1">
			<data strides="1, 1" dilations="1, 1" pads_begin="0, 0" pads_end="0, 0" auto_pad="same_upper" />
			<input>
				<port id="0" precision="FP32">
					<dim>1</dim>
					<dim>1280</dim>
					<dim>10</dim>
					<dim>10</dim>
				</port>
				<port id="1" precision="FP32">
					<dim>256</dim>
					<dim>1280</dim>
					<dim>1</dim>
					<dim>1</dim>
				</port>
			</input>
			<output>
				<port id="2" precision="FP32">
					<dim>1</dim>
					<dim>256</dim>
					<dim>10</dim>
					<dim>10</dim>
				</port>
			</output>
		</layer>
		<layer id="298" name="Constant_343093" type="Const" version="opset1">
			<data element_type="f32" shape="1, 256, 1, 1" offset="13565908" size="1024" />
			<output>
				<port id="0" precision="FP32">
					<dim>1</dim>
					<dim>256</dim>
					<dim>1</dim>
					<dim>1</dim>
				</port>
			</output>
		</layer>
		<layer id="299" name="Transpose_116938" type="Add" version="opset1">
			<data auto_broadcast="numpy" />
			<input>
				<port id="0" precision="FP32">
					<dim>1</dim>
					<dim>256</dim>
					<dim>10</dim>
					<dim>10</dim>
				</port>
				<port id="1" precision="FP32">
					<dim>1</dim>
					<dim>256</dim>
					<dim>1</dim>
					<dim>1</dim>
				</port>
			</input>
			<output>
				<port id="2" precision="FP32">
					<dim>1</dim>
					<dim>256</dim>
					<dim>10</dim>
					<dim>10</dim>
				</port>
			</output>
		</layer>
		<layer id="300" name="Clamp_116939" type="Clamp" version="opset1">
			<data min="0" max="6" />
			<input>
				<port id="0" precision="FP32">
					<dim>1</dim>
					<dim>256</dim>
					<dim>10</dim>
					<dim>10</dim>
				</port>
			</input>
			<output>
				<port id="1" precision="FP32">
					<dim>1</dim>
					<dim>256</dim>
					<dim>10</dim>
					<dim>10</dim>
				</port>
			</output>
		</layer>
		<layer id="301" name="Multiply_343504" type="Const" version="opset1">
			<data element_type="f32" shape="512, 256, 3, 3" offset="13566932" size="4718592" />
			<output>
				<port id="0" precision="FP32">
					<dim>512</dim>
					<dim>256</dim>
					<dim>3</dim>
					<dim>3</dim>
				</port>
			</output>
		</layer>
		<layer id="302" name="Multiply_343099" type="Convolution" version="opset1">
			<data strides="2, 2" dilations="1, 1" pads_begin="0, 0" pads_end="0, 0" auto_pad="same_upper" />
			<input>
				<port id="0" precision="FP32">
					<dim>1</dim>
					<dim>256</dim>
					<dim>10</dim>
					<dim>10</dim>
				</port>
				<port id="1" precision="FP32">
					<dim>512</dim>
					<dim>256</dim>
					<dim>3</dim>
					<dim>3</dim>
				</port>
			</input>
			<output>
				<port id="2" precision="FP32">
					<dim>1</dim>
					<dim>512</dim>
					<dim>5</dim>
					<dim>5</dim>
				</port>
			</output>
		</layer>
		<layer id="303" name="Constant_343107" type="Const" version="opset1">
			<data element_type="f32" shape="1, 512, 1, 1" offset="18285524" size="2048" />
			<output>
				<port id="0" precision="FP32">
					<dim>1</dim>
					<dim>512</dim>
					<dim>1</dim>
					<dim>1</dim>
				</port>
			</output>
		</layer>
		<layer id="304" name="Transpose_116964" type="Add" version="opset1">
			<data auto_broadcast="numpy" />
			<input>
				<port id="0" precision="FP32">
					<dim>1</dim>
					<dim>512</dim>
					<dim>5</dim>
					<dim>5</dim>
				</port>
				<port id="1" precision="FP32">
					<dim>1</dim>
					<dim>512</dim>
					<dim>1</dim>
					<dim>1</dim>
				</port>
			</input>
			<output>
				<port id="2" precision="FP32">
					<dim>1</dim>
					<dim>512</dim>
					<dim>5</dim>
					<dim>5</dim>
				</port>
			</output>
		</layer>
		<layer id="305" name="Clamp_116965" type="Clamp" version="opset1">
			<data min="0" max="6" />
			<input>
				<port id="0" precision="FP32">
					<dim>1</dim>
					<dim>512</dim>
					<dim>5</dim>
					<dim>5</dim>
				</port>
			</input>
			<output>
				<port id="1" precision="FP32">
					<dim>1</dim>
					<dim>512</dim>
					<dim>5</dim>
					<dim>5</dim>
				</port>
			</output>
		</layer>
		<layer id="306" name="Transpose_4835" type="Const" version="opset1">
			<data element_type="f32" shape="546, 512, 1, 1" offset="18287572" size="1118208" />
			<output>
				<port id="0" precision="FP32">
					<dim>546</dim>
					<dim>512</dim>
					<dim>1</dim>
					<dim>1</dim>
				</port>
			</output>
		</layer>
		<layer id="307" name="Convolution_4836" type="Convolution" version="opset1">
			<data strides="1, 1" dilations="1, 1" pads_begin="0, 0" pads_end="0, 0" auto_pad="same_upper" />
			<input>
				<port id="0" precision="FP32">
					<dim>1</dim>
					<dim>512</dim>
					<dim>5</dim>
					<dim>5</dim>
				</port>
				<port id="1" precision="FP32">
					<dim>546</dim>
					<dim>512</dim>
					<dim>1</dim>
					<dim>1</dim>
				</port>
			</input>
			<output>
				<port id="2" precision="FP32">
					<dim>1</dim>
					<dim>546</dim>
					<dim>5</dim>
					<dim>5</dim>
				</port>
			</output>
		</layer>
		<layer id="308" name="Constant_169515" type="Const" version="opset1">
			<data element_type="i64" shape="4" offset="2990428" size="32" />
			<output>
				<port id="0" precision="I64">
					<dim>4</dim>
				</port>
			</output>
		</layer>
		<layer id="309" name="Transpose_169516" type="Transpose" version="opset1">
			<input>
				<port id="0" precision="FP32">
					<dim>1</dim>
					<dim>546</dim>
					<dim>5</dim>
					<dim>5</dim>
				</port>
				<port id="1" precision="I64">
					<dim>4</dim>
				</port>
			</input>
			<output>
				<port id="2" precision="FP32">
					<dim>1</dim>
					<dim>5</dim>
					<dim>5</dim>
					<dim>546</dim>
				</port>
			</output>
		</layer>
		<layer id="310" name="Transpose_169518" type="Const" version="opset1">
			<data element_type="f32" shape="1, 1, 1, 546" offset="19405780" size="2184" />
			<output>
				<port id="0" precision="FP32">
					<dim>1</dim>
					<dim>1</dim>
					<dim>1</dim>
					<dim>546</dim>
				</port>
			</output>
		</layer>
		<layer id="311" name="BoxPredictor/ConvolutionalClassHead_2/ClassPredictor/BiasAdd" type="Add" version="opset1">
			<data auto_broadcast="numpy" />
			<input>
				<port id="0" precision="FP32">
					<dim>1</dim>
					<dim>5</dim>
					<dim>5</dim>
					<dim>546</dim>
				</port>
				<port id="1" precision="FP32">
					<dim>1</dim>
					<dim>1</dim>
					<dim>1</dim>
					<dim>546</dim>
				</port>
			</input>
			<output>
				<port id="2" precision="FP32">
					<dim>1</dim>
					<dim>5</dim>
					<dim>5</dim>
					<dim>546</dim>
				</port>
			</output>
		</layer>
		<layer id="312" name="BoxPredictor/ConvolutionalClassHead_2/Reshape/shape" type="Const" version="opset1">
			<data element_type="i32" shape="3" offset="2991552" size="12" />
			<output>
				<port id="0" precision="I32">
					<dim>3</dim>
				</port>
			</output>
		</layer>
		<layer id="313" name="BoxPredictor/ConvolutionalClassHead_2/Reshape" type="Reshape" version="opset1">
			<data special_zero="false" />
			<input>
				<port id="0" precision="FP32">
					<dim>1</dim>
					<dim>5</dim>
					<dim>5</dim>
					<dim>546</dim>
				</port>
				<port id="1" precision="I32">
					<dim>3</dim>
				</port>
			</input>
			<output>
				<port id="2" precision="FP32">
					<dim>1</dim>
					<dim>150</dim>
					<dim>91</dim>
				</port>
			</output>
		</layer>
		<layer id="314" name="Multiply_343510" type="Const" version="opset1">
			<data element_type="f32" shape="128, 512, 1, 1" offset="19407964" size="262144" />
			<output>
				<port id="0" precision="FP32">
					<dim>128</dim>
					<dim>512</dim>
					<dim>1</dim>
					<dim>1</dim>
				</port>
			</output>
		</layer>
		<layer id="315" name="Multiply_343113" type="Convolution" version="opset1">
			<data strides="1, 1" dilations="1, 1" pads_begin="0, 0" pads_end="0, 0" auto_pad="same_upper" />
			<input>
				<port id="0" precision="FP32">
					<dim>1</dim>
					<dim>512</dim>
					<dim>5</dim>
					<dim>5</dim>
				</port>
				<port id="1" precision="FP32">
					<dim>128</dim>
					<dim>512</dim>
					<dim>1</dim>
					<dim>1</dim>
				</port>
			</input>
			<output>
				<port id="2" precision="FP32">
					<dim>1</dim>
					<dim>128</dim>
					<dim>5</dim>
					<dim>5</dim>
				</port>
			</output>
		</layer>
		<layer id="316" name="Constant_343121" type="Const" version="opset1">
			<data element_type="f32" shape="1, 128, 1, 1" offset="19670108" size="512" />
			<output>
				<port id="0" precision="FP32">
					<dim>1</dim>
					<dim>128</dim>
					<dim>1</dim>
					<dim>1</dim>
				</port>
			</output>
		</layer>
		<layer id="317" name="Transpose_116996" type="Add" version="opset1">
			<data auto_broadcast="numpy" />
			<input>
				<port id="0" precision="FP32">
					<dim>1</dim>
					<dim>128</dim>
					<dim>5</dim>
					<dim>5</dim>
				</port>
				<port id="1" precision="FP32">
					<dim>1</dim>
					<dim>128</dim>
					<dim>1</dim>
					<dim>1</dim>
				</port>
			</input>
			<output>
				<port id="2" precision="FP32">
					<dim>1</dim>
					<dim>128</dim>
					<dim>5</dim>
					<dim>5</dim>
				</port>
			</output>
		</layer>
		<layer id="318" name="Clamp_116997" type="Clamp" version="opset1">
			<data min="0" max="6" />
			<input>
				<port id="0" precision="FP32">
					<dim>1</dim>
					<dim>128</dim>
					<dim>5</dim>
					<dim>5</dim>
				</port>
			</input>
			<output>
				<port id="1" precision="FP32">
					<dim>1</dim>
					<dim>128</dim>
					<dim>5</dim>
					<dim>5</dim>
				</port>
			</output>
		</layer>
		<layer id="319" name="Multiply_343516" type="Const" version="opset1">
			<data element_type="f32" shape="256, 128, 3, 3" offset="19670620" size="1179648" />
			<output>
				<port id="0" precision="FP32">
					<dim>256</dim>
					<dim>128</dim>
					<dim>3</dim>
					<dim>3</dim>
				</port>
			</output>
		</layer>
		<layer id="320" name="Multiply_343127" type="Convolution" version="opset1">
			<data strides="2, 2" dilations="1, 1" pads_begin="0, 0" pads_end="0, 0" auto_pad="same_upper" />
			<input>
				<port id="0" precision="FP32">
					<dim>1</dim>
					<dim>128</dim>
					<dim>5</dim>
					<dim>5</dim>
				</port>
				<port id="1" precision="FP32">
					<dim>256</dim>
					<dim>128</dim>
					<dim>3</dim>
					<dim>3</dim>
				</port>
			</input>
			<output>
				<port id="2" precision="FP32">
					<dim>1</dim>
					<dim>256</dim>
					<dim>3</dim>
					<dim>3</dim>
				</port>
			</output>
		</layer>
		<layer id="321" name="Constant_343135" type="Const" version="opset1">
			<data element_type="f32" shape="1, 256, 1, 1" offset="20850268" size="1024" />
			<output>
				<port id="0" precision="FP32">
					<dim>1</dim>
					<dim>256</dim>
					<dim>1</dim>
					<dim>1</dim>
				</port>
			</output>
		</layer>
		<layer id="322" name="Transpose_117022" type="Add" version="opset1">
			<data auto_broadcast="numpy" />
			<input>
				<port id="0" precision="FP32">
					<dim>1</dim>
					<dim>256</dim>
					<dim>3</dim>
					<dim>3</dim>
				</port>
				<port id="1" precision="FP32">
					<dim>1</dim>
					<dim>256</dim>
					<dim>1</dim>
					<dim>1</dim>
				</port>
			</input>
			<output>
				<port id="2" precision="FP32">
					<dim>1</dim>
					<dim>256</dim>
					<dim>3</dim>
					<dim>3</dim>
				</port>
			</output>
		</layer>
		<layer id="323" name="Clamp_117023" type="Clamp" version="opset1">
			<data min="0" max="6" />
			<input>
				<port id="0" precision="FP32">
					<dim>1</dim>
					<dim>256</dim>
					<dim>3</dim>
					<dim>3</dim>
				</port>
			</input>
			<output>
				<port id="1" precision="FP32">
					<dim>1</dim>
					<dim>256</dim>
					<dim>3</dim>
					<dim>3</dim>
				</port>
			</output>
		</layer>
		<layer id="324" name="Transpose_4823" type="Const" version="opset1">
			<data element_type="f32" shape="546, 256, 1, 1" offset="20851292" size="559104" />
			<output>
				<port id="0" precision="FP32">
					<dim>546</dim>
					<dim>256</dim>
					<dim>1</dim>
					<dim>1</dim>
				</port>
			</output>
		</layer>
		<layer id="325" name="Convolution_4824" type="Convolution" version="opset1">
			<data strides="1, 1" dilations="1, 1" pads_begin="0, 0" pads_end="0, 0" auto_pad="same_upper" />
			<input>
				<port id="0" precision="FP32">
					<dim>1</dim>
					<dim>256</dim>
					<dim>3</dim>
					<dim>3</dim>
				</port>
				<port id="1" precision="FP32">
					<dim>546</dim>
					<dim>256</dim>
					<dim>1</dim>
					<dim>1</dim>
				</port>
			</input>
			<output>
				<port id="2" precision="FP32">
					<dim>1</dim>
					<dim>546</dim>
					<dim>3</dim>
					<dim>3</dim>
				</port>
			</output>
		</layer>
		<layer id="326" name="Constant_169519" type="Const" version="opset1">
			<data element_type="i64" shape="4" offset="2990428" size="32" />
			<output>
				<port id="0" precision="I64">
					<dim>4</dim>
				</port>
			</output>
		</layer>
		<layer id="327" name="Transpose_169520" type="Transpose" version="opset1">
			<input>
				<port id="0" precision="FP32">
					<dim>1</dim>
					<dim>546</dim>
					<dim>3</dim>
					<dim>3</dim>
				</port>
				<port id="1" precision="I64">
					<dim>4</dim>
				</port>
			</input>
			<output>
				<port id="2" precision="FP32">
					<dim>1</dim>
					<dim>3</dim>
					<dim>3</dim>
					<dim>546</dim>
				</port>
			</output>
		</layer>
		<layer id="328" name="Transpose_169522" type="Const" version="opset1">
			<data element_type="f32" shape="1, 1, 1, 546" offset="21410396" size="2184" />
			<output>
				<port id="0" precision="FP32">
					<dim>1</dim>
					<dim>1</dim>
					<dim>1</dim>
					<dim>546</dim>
				</port>
			</output>
		</layer>
		<layer id="329" name="BoxPredictor/ConvolutionalClassHead_3/ClassPredictor/BiasAdd" type="Add" version="opset1">
			<data auto_broadcast="numpy" />
			<input>
				<port id="0" precision="FP32">
					<dim>1</dim>
					<dim>3</dim>
					<dim>3</dim>
					<dim>546</dim>
				</port>
				<port id="1" precision="FP32">
					<dim>1</dim>
					<dim>1</dim>
					<dim>1</dim>
					<dim>546</dim>
				</port>
			</input>
			<output>
				<port id="2" precision="FP32">
					<dim>1</dim>
					<dim>3</dim>
					<dim>3</dim>
					<dim>546</dim>
				</port>
			</output>
		</layer>
		<layer id="330" name="BoxPredictor/ConvolutionalClassHead_3/Reshape/shape" type="Const" version="opset1">
			<data element_type="i32" shape="3" offset="2991552" size="12" />
			<output>
				<port id="0" precision="I32">
					<dim>3</dim>
				</port>
			</output>
		</layer>
		<layer id="331" name="BoxPredictor/ConvolutionalClassHead_3/Reshape" type="Reshape" version="opset1">
			<data special_zero="false" />
			<input>
				<port id="0" precision="FP32">
					<dim>1</dim>
					<dim>3</dim>
					<dim>3</dim>
					<dim>546</dim>
				</port>
				<port id="1" precision="I32">
					<dim>3</dim>
				</port>
			</input>
			<output>
				<port id="2" precision="FP32">
					<dim>1</dim>
					<dim>54</dim>
					<dim>91</dim>
				</port>
			</output>
		</layer>
		<layer id="332" name="Multiply_343522" type="Const" version="opset1">
			<data element_type="f32" shape="128, 256, 1, 1" offset="21412580" size="131072" />
			<output>
				<port id="0" precision="FP32">
					<dim>128</dim>
					<dim>256</dim>
					<dim>1</dim>
					<dim>1</dim>
				</port>
			</output>
		</layer>
		<layer id="333" name="Multiply_343141" type="Convolution" version="opset1">
			<data strides="1, 1" dilations="1, 1" pads_begin="0, 0" pads_end="0, 0" auto_pad="same_upper" />
			<input>
				<port id="0" precision="FP32">
					<dim>1</dim>
					<dim>256</dim>
					<dim>3</dim>
					<dim>3</dim>
				</port>
				<port id="1" precision="FP32">
					<dim>128</dim>
					<dim>256</dim>
					<dim>1</dim>
					<dim>1</dim>
				</port>
			</input>
			<output>
				<port id="2" precision="FP32">
					<dim>1</dim>
					<dim>128</dim>
					<dim>3</dim>
					<dim>3</dim>
				</port>
			</output>
		</layer>
		<layer id="334" name="Constant_343149" type="Const" version="opset1">
			<data element_type="f32" shape="1, 128, 1, 1" offset="21543652" size="512" />
			<output>
				<port id="0" precision="FP32">
					<dim>1</dim>
					<dim>128</dim>
					<dim>1</dim>
					<dim>1</dim>
				</port>
			</output>
		</layer>
		<layer id="335" name="Transpose_117054" type="Add" version="opset1">
			<data auto_broadcast="numpy" />
			<input>
				<port id="0" precision="FP32">
					<dim>1</dim>
					<dim>128</dim>
					<dim>3</dim>
					<dim>3</dim>
				</port>
				<port id="1" precision="FP32">
					<dim>1</dim>
					<dim>128</dim>
					<dim>1</dim>
					<dim>1</dim>
				</port>
			</input>
			<output>
				<port id="2" precision="FP32">
					<dim>1</dim>
					<dim>128</dim>
					<dim>3</dim>
					<dim>3</dim>
				</port>
			</output>
		</layer>
		<layer id="336" name="Clamp_117055" type="Clamp" version="opset1">
			<data min="0" max="6" />
			<input>
				<port id="0" precision="FP32">
					<dim>1</dim>
					<dim>128</dim>
					<dim>3</dim>
					<dim>3</dim>
				</port>
			</input>
			<output>
				<port id="1" precision="FP32">
					<dim>1</dim>
					<dim>128</dim>
					<dim>3</dim>
					<dim>3</dim>
				</port>
			</output>
		</layer>
		<layer id="337" name="Multiply_343528" type="Const" version="opset1">
			<data element_type="f32" shape="256, 128, 3, 3" offset="21544164" size="1179648" />
			<output>
				<port id="0" precision="FP32">
					<dim>256</dim>
					<dim>128</dim>
					<dim>3</dim>
					<dim>3</dim>
				</port>
			</output>
		</layer>
		<layer id="338" name="Multiply_343155" type="Convolution" version="opset1">
			<data strides="2, 2" dilations="1, 1" pads_begin="0, 0" pads_end="0, 0" auto_pad="same_upper" />
			<input>
				<port id="0" precision="FP32">
					<dim>1</dim>
					<dim>128</dim>
					<dim>3</dim>
					<dim>3</dim>
				</port>
				<port id="1" precision="FP32">
					<dim>256</dim>
					<dim>128</dim>
					<dim>3</dim>
					<dim>3</dim>
				</port>
			</input>
			<output>
				<port id="2" precision="FP32">
					<dim>1</dim>
					<dim>256</dim>
					<dim>2</dim>
					<dim>2</dim>
				</port>
			</output>
		</layer>
		<layer id="339" name="Constant_343163" type="Const" version="opset1">
			<data element_type="f32" shape="1, 256, 1, 1" offset="22723812" size="1024" />
			<output>
				<port id="0" precision="FP32">
					<dim>1</dim>
					<dim>256</dim>
					<dim>1</dim>
					<dim>1</dim>
				</port>
			</output>
		</layer>
		<layer id="340" name="Transpose_117080" type="Add" version="opset1">
			<data auto_broadcast="numpy" />
			<input>
				<port id="0" precision="FP32">
					<dim>1</dim>
					<dim>256</dim>
					<dim>2</dim>
					<dim>2</dim>
				</port>
				<port id="1" precision="FP32">
					<dim>1</dim>
					<dim>256</dim>
					<dim>1</dim>
					<dim>1</dim>
				</port>
			</input>
			<output>
				<port id="2" precision="FP32">
					<dim>1</dim>
					<dim>256</dim>
					<dim>2</dim>
					<dim>2</dim>
				</port>
			</output>
		</layer>
		<layer id="341" name="Clamp_117081" type="Clamp" version="opset1">
			<data min="0" max="6" />
			<input>
				<port id="0" precision="FP32">
					<dim>1</dim>
					<dim>256</dim>
					<dim>2</dim>
					<dim>2</dim>
				</port>
			</input>
			<output>
				<port id="1" precision="FP32">
					<dim>1</dim>
					<dim>256</dim>
					<dim>2</dim>
					<dim>2</dim>
				</port>
			</output>
		</layer>
		<layer id="342" name="Transpose_4811" type="Const" version="opset1">
			<data element_type="f32" shape="546, 256, 1, 1" offset="22724836" size="559104" />
			<output>
				<port id="0" precision="FP32">
					<dim>546</dim>
					<dim>256</dim>
					<dim>1</dim>
					<dim>1</dim>
				</port>
			</output>
		</layer>
		<layer id="343" name="Convolution_4812" type="Convolution" version="opset1">
			<data strides="1, 1" dilations="1, 1" pads_begin="0, 0" pads_end="0, 0" auto_pad="same_upper" />
			<input>
				<port id="0" precision="FP32">
					<dim>1</dim>
					<dim>256</dim>
					<dim>2</dim>
					<dim>2</dim>
				</port>
				<port id="1" precision="FP32">
					<dim>546</dim>
					<dim>256</dim>
					<dim>1</dim>
					<dim>1</dim>
				</port>
			</input>
			<output>
				<port id="2" precision="FP32">
					<dim>1</dim>
					<dim>546</dim>
					<dim>2</dim>
					<dim>2</dim>
				</port>
			</output>
		</layer>
		<layer id="344" name="Constant_169523" type="Const" version="opset1">
			<data element_type="i64" shape="4" offset="2990428" size="32" />
			<output>
				<port id="0" precision="I64">
					<dim>4</dim>
				</port>
			</output>
		</layer>
		<layer id="345" name="Transpose_169524" type="Transpose" version="opset1">
			<input>
				<port id="0" precision="FP32">
					<dim>1</dim>
					<dim>546</dim>
					<dim>2</dim>
					<dim>2</dim>
				</port>
				<port id="1" precision="I64">
					<dim>4</dim>
				</port>
			</input>
			<output>
				<port id="2" precision="FP32">
					<dim>1</dim>
					<dim>2</dim>
					<dim>2</dim>
					<dim>546</dim>
				</port>
			</output>
		</layer>
		<layer id="346" name="Transpose_169526" type="Const" version="opset1">
			<data element_type="f32" shape="1, 1, 1, 546" offset="23283940" size="2184" />
			<output>
				<port id="0" precision="FP32">
					<dim>1</dim>
					<dim>1</dim>
					<dim>1</dim>
					<dim>546</dim>
				</port>
			</output>
		</layer>
		<layer id="347" name="BoxPredictor/ConvolutionalClassHead_4/ClassPredictor/BiasAdd" type="Add" version="opset1">
			<data auto_broadcast="numpy" />
			<input>
				<port id="0" precision="FP32">
					<dim>1</dim>
					<dim>2</dim>
					<dim>2</dim>
					<dim>546</dim>
				</port>
				<port id="1" precision="FP32">
					<dim>1</dim>
					<dim>1</dim>
					<dim>1</dim>
					<dim>546</dim>
				</port>
			</input>
			<output>
				<port id="2" precision="FP32">
					<dim>1</dim>
					<dim>2</dim>
					<dim>2</dim>
					<dim>546</dim>
				</port>
			</output>
		</layer>
		<layer id="348" name="BoxPredictor/ConvolutionalClassHead_4/Reshape/shape" type="Const" version="opset1">
			<data element_type="i32" shape="3" offset="2991552" size="12" />
			<output>
				<port id="0" precision="I32">
					<dim>3</dim>
				</port>
			</output>
		</layer>
		<layer id="349" name="BoxPredictor/ConvolutionalClassHead_4/Reshape" type="Reshape" version="opset1">
			<data special_zero="false" />
			<input>
				<port id="0" precision="FP32">
					<dim>1</dim>
					<dim>2</dim>
					<dim>2</dim>
					<dim>546</dim>
				</port>
				<port id="1" precision="I32">
					<dim>3</dim>
				</port>
			</input>
			<output>
				<port id="2" precision="FP32">
					<dim>1</dim>
					<dim>24</dim>
					<dim>91</dim>
				</port>
			</output>
		</layer>
…
		<edge from-layer="5723" from-port="2" to-layer="5810" to-port="0" />
		<edge from-layer="5723" from-port="2" to-layer="5741" to-port="0" />
		<edge from-layer="5723" from-port="2" to-layer="5960" to-port="0" />
		<edge from-layer="5723" from-port="2" to-layer="5903" to-port="0" />
		<edge from-layer="5723" from-port="2" to-layer="5831" to-port="0" />
		<edge from-layer="5723" from-port="2" to-layer="5801" to-port="0" />
		<edge from-layer="5723" from-port="2" to-layer="5744" to-port="0" />
		<edge from-layer="5723" from-port="2" to-layer="5906" to-port="0" />
		<edge from-layer="5723" from-port="2" to-layer="5957" to-port="0" />
		<edge from-layer="5723" from-port="2" to-layer="5828" to-port="0" />
		<edge from-layer="5723" from-port="2" to-layer="5804" to-port="0" />
		<edge from-layer="5723" from-port="2" to-layer="5909" to-port="0" />
		<edge from-layer="5723" from-port="2" to-layer="5747" to-port="0" />
		<edge from-layer="5723" from-port="2" to-layer="5963" to-port="0" />
		<edge from-layer="5723" from-port="2" to-layer="5825" to-port="0" />
		<edge from-layer="5723" from-port="2" to-layer="5912" to-port="0" />
		<edge from-layer="5723" from-port="2" to-layer="5798" to-port="0" />
		<edge from-layer="5723" from-port="2" to-layer="5954" to-port="0" />
		<edge from-layer="5723" from-port="2" to-layer="5750" to-port="0" />
		<edge from-layer="5723" from-port="2" to-layer="5915" to-port="0" />
		<edge from-layer="5723" from-port="2" to-layer="5795" to-port="0" />
		<edge from-layer="5723" from-port="2" to-layer="5966" to-port="0" />
		<edge from-layer="5723" from-port="2" to-layer="5792" to-port="0" />
		<edge from-layer="5723" from-port="2" to-layer="5918" to-port="0" />
		<edge from-layer="5723" from-port="2" to-layer="5951" to-port="0" />
		<edge from-layer="5723" from-port="2" to-layer="5975" to-port="0" />
		<edge from-layer="5723" from-port="2" to-layer="5822" to-port="0" />
		<edge from-layer="5723" from-port="2" to-layer="5921" to-port="0" />
		<edge from-layer="5723" from-port="2" to-layer="5780" to-port="0" />
		<edge from-layer="5723" from-port="2" to-layer="5942" to-port="0" />
		<edge from-layer="5723" from-port="2" to-layer="5753" to-port="0" />
		<edge from-layer="5723" from-port="2" to-layer="5924" to-port="0" />
		<edge from-layer="5723" from-port="2" to-layer="5777" to-port="0" />
		<edge from-layer="5723" from-port="2" to-layer="5993" to-port="0" />
		<edge from-layer="5723" from-port="2" to-layer="5819" to-port="0" />
		<edge from-layer="5723" from-port="2" to-layer="5927" to-port="0" />
		<edge from-layer="5723" from-port="2" to-layer="5756" to-port="0" />
		<edge from-layer="5723" from-port="2" to-layer="5990" to-port="0" />
		<edge from-layer="5723" from-port="2" to-layer="5759" to-port="0" />
		<edge from-layer="5723" from-port="2" to-layer="5930" to-port="0" />
		<edge from-layer="5723" from-port="2" to-layer="5762" to-port="0" />
		<edge from-layer="5723" from-port="2" to-layer="5987" to-port="0" />
		<edge from-layer="5723" from-port="2" to-layer="5816" to-port="0" />
		<edge from-layer="5723" from-port="2" to-layer="5933" to-port="0" />
		<edge from-layer="5723" from-port="2" to-layer="5765" to-port="0" />
		<edge from-layer="5723" from-port="2" to-layer="5984" to-port="0" />
		<edge from-layer="5723" from-port="2" to-layer="5768" to-port="0" />
		<edge from-layer="5723" from-port="2" to-layer="5936" to-port="0" />
		<edge from-layer="5723" from-port="2" to-layer="5771" to-port="0" />
		<edge from-layer="5723" from-port="2" to-layer="5981" to-port="0" />
		<edge from-layer="5723" from-port="2" to-layer="5813" to-port="0" />
		<edge from-layer="5723" from-port="2" to-layer="5939" to-port="0" />
		<edge from-layer="5723" from-port="2" to-layer="5774" to-port="0" />
		<edge from-layer="5723" from-port="2" to-layer="5978" to-port="0" />
		<edge from-layer="5724" from-port="1" to-layer="5726" to-port="1" />
		<edge from-layer="5725" from-port="0" to-layer="5726" to-port="2" />
		<edge from-layer="5726" from-port="3" to-layer="5994" to-port="0" />
		<edge from-layer="5727" from-port="1" to-layer="5729" to-port="1" />
		<edge from-layer="5728" from-port="0" to-layer="5729" to-port="2" />
		<edge from-layer="5729" from-port="3" to-layer="5994" to-port="1" />
		<edge from-layer="5730" from-port="1" to-layer="5732" to-port="1" />
		<edge from-layer="5731" from-port="0" to-layer="5732" to-port="2" />
		<edge from-layer="5732" from-port="3" to-layer="5994" to-port="2" />
		<edge from-layer="5733" from-port="1" to-layer="5735" to-port="1" />
		<edge from-layer="5734" from-port="0" to-layer="5735" to-port="2" />
		<edge from-layer="5735" from-port="3" to-layer="5994" to-port="3" />
		<edge from-layer="5736" from-port="1" to-layer="5738" to-port="1" />
		<edge from-layer="5737" from-port="0" to-layer="5738" to-port="2" />
		<edge from-layer="5738" from-port="3" to-layer="5994" to-port="4" />
		<edge from-layer="5739" from-port="1" to-layer="5741" to-port="1" />
		<edge from-layer="5740" from-port="0" to-layer="5741" to-port="2" />
		<edge from-layer="5741" from-port="3" to-layer="5994" to-port="5" />
		<edge from-layer="5742" from-port="1" to-layer="5744" to-port="1" />
		<edge from-layer="5743" from-port="0" to-layer="5744" to-port="2" />
		<edge from-layer="5744" from-port="3" to-layer="5994" to-port="6" />
		<edge from-layer="5745" from-port="1" to-layer="5747" to-port="1" />
		<edge from-layer="5746" from-port="0" to-layer="5747" to-port="2" />
		<edge from-layer="5747" from-port="3" to-layer="5994" to-port="7" />
		<edge from-layer="5748" from-port="1" to-layer="5750" to-port="1" />
		<edge from-layer="5749" from-port="0" to-layer="5750" to-port="2" />
		<edge from-layer="5750" from-port="3" to-layer="5994" to-port="8" />
		<edge from-layer="5751" from-port="1" to-layer="5753" to-port="1" />
		<edge from-layer="5752" from-port="0" to-layer="5753" to-port="2" />
		<edge from-layer="5753" from-port="3" to-layer="5994" to-port="9" />
		<edge from-layer="5754" from-port="1" to-layer="5756" to-port="1" />
		<edge from-layer="5755" from-port="0" to-layer="5756" to-port="2" />
		<edge from-layer="5756" from-port="3" to-layer="5994" to-port="10" />
		<edge from-layer="5757" from-port="1" to-layer="5759" to-port="1" />
		<edge from-layer="5758" from-port="0" to-layer="5759" to-port="2" />
		<edge from-layer="5759" from-port="3" to-layer="5994" to-port="11" />
		<edge from-layer="5760" from-port="1" to-layer="5762" to-port="1" />
		<edge from-layer="5761" from-port="0" to-layer="5762" to-port="2" />
		<edge from-layer="5762" from-port="3" to-layer="5994" to-port="12" />
		<edge from-layer="5763" from-port="1" to-layer="5765" to-port="1" />
		<edge from-layer="5764" from-port="0" to-layer="5765" to-port="2" />
		<edge from-layer="5765" from-port="3" to-layer="5994" to-port="13" />
		<edge from-layer="5766" from-port="1" to-layer="5768" to-port="1" />
		<edge from-layer="5767" from-port="0" to-layer="5768" to-port="2" />
		<edge from-layer="5768" from-port="3" to-layer="5994" to-port="14" />
		<edge from-layer="5769" from-port="1" to-layer="5771" to-port="1" />
		<edge from-layer="5770" from-port="0" to-layer="5771" to-port="2" />
		<edge from-layer="5771" from-port="3" to-layer="5994" to-port="15" />
		<edge from-layer="5772" from-port="1" to-layer="5774" to-port="1" />
		<edge from-layer="5773" from-port="0" to-layer="5774" to-port="2" />
		<edge from-layer="5774" from-port="3" to-layer="5994" to-port="16" />
		<edge from-layer="5775" from-port="1" to-layer="5777" to-port="1" />
		<edge from-layer="5776" from-port="0" to-layer="5777" to-port="2" />
		<edge from-layer="5777" from-port="3" to-layer="5994" to-port="17" />
		<edge from-layer="5778" from-port="1" to-layer="5780" to-port="1" />
		<edge from-layer="5779" from-port="0" to-layer="5780" to-port="2" />
		<edge from-layer="5780" from-port="3" to-layer="5994" to-port="18" />
		<edge from-layer="5781" from-port="1" to-layer="5783" to-port="1" />
		<edge from-layer="5782" from-port="0" to-layer="5783" to-port="2" />
		<edge from-layer="5783" from-port="3" to-layer="5994" to-port="19" />
		<edge from-layer="5784" from-port="1" to-layer="5786" to-port="1" />
		<edge from-layer="5785" from-port="0" to-layer="5786" to-port="2" />
		<edge from-layer="5786" from-port="3" to-layer="5994" to-port="20" />
		<edge from-layer="5787" from-port="1" to-layer="5789" to-port="1" />
		<edge from-layer="5788" from-port="0" to-layer="5789" to-port="2" />
		<edge from-layer="5789" from-port="3" to-layer="5994" to-port="21" />
		<edge from-layer="5790" from-port="1" to-layer="5792" to-port="1" />
		<edge from-layer="5791" from-port="0" to-layer="5792" to-port="2" />
		<edge from-layer="5792" from-port="3" to-layer="5994" to-port="22" />
		<edge from-layer="5793" from-port="1" to-layer="5795" to-port="1" />
		<edge from-layer="5794" from-port="0" to-layer="5795" to-port="2" />
		<edge from-layer="5795" from-port="3" to-layer="5994" to-port="23" />
		<edge from-layer="5796" from-port="1" to-layer="5798" to-port="1" />
		<edge from-layer="5797" from-port="0" to-layer="5798" to-port="2" />
		<edge from-layer="5798" from-port="3" to-layer="5994" to-port="24" />
		<edge from-layer="5799" from-port="1" to-layer="5801" to-port="1" />
		<edge from-layer="5800" from-port="0" to-layer="5801" to-port="2" />
		<edge from-layer="5801" from-port="3" to-layer="5994" to-port="25" />
		<edge from-layer="5802" from-port="1" to-layer="5804" to-port="1" />
		<edge from-layer="5803" from-port="0" to-layer="5804" to-port="2" />
		<edge from-layer="5804" from-port="3" to-layer="5994" to-port="26" />
		<edge from-layer="5805" from-port="1" to-layer="5807" to-port="1" />
		<edge from-layer="5806" from-port="0" to-layer="5807" to-port="2" />
		<edge from-layer="5807" from-port="3" to-layer="5994" to-port="27" />
		<edge from-layer="5808" from-port="1" to-layer="5810" to-port="1" />
		<edge from-layer="5809" from-port="0" to-layer="5810" to-port="2" />
		<edge from-layer="5810" from-port="3" to-layer="5994" to-port="28" />
		<edge from-layer="5811" from-port="1" to-layer="5813" to-port="1" />
		<edge from-layer="5812" from-port="0" to-layer="5813" to-port="2" />
		<edge from-layer="5813" from-port="3" to-layer="5994" to-port="29" />
		<edge from-layer="5814" from-port="1" to-layer="5816" to-port="1" />
		<edge from-layer="5815" from-port="0" to-layer="5816" to-port="2" />
		<edge from-layer="5816" from-port="3" to-layer="5994" to-port="30" />
		<edge from-layer="5817" from-port="1" to-layer="5819" to-port="1" />
		<edge from-layer="5818" from-port="0" to-layer="5819" to-port="2" />
		<edge from-layer="5819" from-port="3" to-layer="5994" to-port="31" />
		<edge from-layer="5820" from-port="1" to-layer="5822" to-port="1" />
		<edge from-layer="5821" from-port="0" to-layer="5822" to-port="2" />
		<edge from-layer="5822" from-port="3" to-layer="5994" to-port="32" />
		<edge from-layer="5823" from-port="1" to-layer="5825" to-port="1" />
		<edge from-layer="5824" from-port="0" to-layer="5825" to-port="2" />
		<edge from-layer="5825" from-port="3" to-layer="5994" to-port="33" />
		<edge from-layer="5826" from-port="1" to-layer="5828" to-port="1" />
		<edge from-layer="5827" from-port="0" to-layer="5828" to-port="2" />
		<edge from-layer="5828" from-port="3" to-layer="5994" to-port="34" />
		<edge from-layer="5829" from-port="1" to-layer="5831" to-port="1" />
		<edge from-layer="5830" from-port="0" to-layer="5831" to-port="2" />
		<edge from-layer="5831" from-port="3" to-layer="5994" to-port="35" />
		<edge from-layer="5832" from-port="1" to-layer="5834" to-port="1" />
		<edge from-layer="5833" from-port="0" to-layer="5834" to-port="2" />
		<edge from-layer="5834" from-port="3" to-layer="5994" to-port="36" />
		<edge from-layer="5835" from-port="1" to-layer="5837" to-port="1" />
		<edge from-layer="5836" from-port="0" to-layer="5837" to-port="2" />
		<edge from-layer="5837" from-port="3" to-layer="5994" to-port="37" />
		<edge from-layer="5838" from-port="1" to-layer="5840" to-port="1" />
		<edge from-layer="5839" from-port="0" to-layer="5840" to-port="2" />
		<edge from-layer="5840" from-port="3" to-layer="5994" to-port="38" />
		<edge from-layer="5841" from-port="1" to-layer="5843" to-port="1" />
		<edge from-layer="5842" from-port="0" to-layer="5843" to-port="2" />
		<edge from-layer="5843" from-port="3" to-layer="5994" to-port="39" />
		<edge from-layer="5844" from-port="1" to-layer="5846" to-port="1" />
		<edge from-layer="5845" from-port="0" to-layer="5846" to-port="2" />
		<edge from-layer="5846" from-port="3" to-layer="5994" to-port="40" />
		<edge from-layer="5847" from-port="1" to-layer="5849" to-port="1" />
		<edge from-layer="5848" from-port="0" to-layer="5849" to-port="2" />
		<edge from-layer="5849" from-port="3" to-layer="5994" to-port="41" />
		<edge from-layer="5850" from-port="1" to-layer="5852" to-port="1" />
		<edge from-layer="5851" from-port="0" to-layer="5852" to-port="2" />
		<edge from-layer="5852" from-port="3" to-layer="5994" to-port="42" />
		<edge from-layer="5853" from-port="1" to-layer="5855" to-port="1" />
		<edge from-layer="5854" from-port="0" to-layer="5855" to-port="2" />
		<edge from-layer="5855" from-port="3" to-layer="5994" to-port="43" />
		<edge from-layer="5856" from-port="1" to-layer="5858" to-port="1" />
		<edge from-layer="5857" from-port="0" to-layer="5858" to-port="2" />
		<edge from-layer="5858" from-port="3" to-layer="5994" to-port="44" />
		<edge from-layer="5859" from-port="1" to-layer="5861" to-port="1" />
		<edge from-layer="5860" from-port="0" to-layer="5861" to-port="2" />
		<edge from-layer="5861" from-port="3" to-layer="5994" to-port="45" />
		<edge from-layer="5862" from-port="1" to-layer="5864" to-port="1" />
		<edge from-layer="5863" from-port="0" to-layer="5864" to-port="2" />
		<edge from-layer="5864" from-port="3" to-layer="5994" to-port="46" />
		<edge from-layer="5865" from-port="1" to-layer="5867" to-port="1" />
		<edge from-layer="5866" from-port="0" to-layer="5867" to-port="2" />
		<edge from-layer="5867" from-port="3" to-layer="5994" to-port="47" />
		<edge from-layer="5868" from-port="1" to-layer="5870" to-port="1" />
		<edge from-layer="5869" from-port="0" to-layer="5870" to-port="2" />
		<edge from-layer="5870" from-port="3" to-layer="5994" to-port="48" />
		<edge from-layer="5871" from-port="1" to-layer="5873" to-port="1" />
		<edge from-layer="5872" from-port="0" to-layer="5873" to-port="2" />
		<edge from-layer="5873" from-port="3" to-layer="5994" to-port="49" />
		<edge from-layer="5874" from-port="1" to-layer="5876" to-port="1" />
		<edge from-layer="5875" from-port="0" to-layer="5876" to-port="2" />
		<edge from-layer="5876" from-port="3" to-layer="5994" to-port="50" />
		<edge from-layer="5877" from-port="1" to-layer="5879" to-port="1" />
		<edge from-layer="5878" from-port="0" to-layer="5879" to-port="2" />
		<edge from-layer="5879" from-port="3" to-layer="5994" to-port="51" />
		<edge from-layer="5880" from-port="1" to-layer="5882" to-port="1" />
		<edge from-layer="5881" from-port="0" to-layer="5882" to-port="2" />
		<edge from-layer="5882" from-port="3" to-layer="5994" to-port="52" />
		<edge from-layer="5883" from-port="1" to-layer="5885" to-port="1" />
		<edge from-layer="5884" from-port="0" to-layer="5885" to-port="2" />
		<edge from-layer="5885" from-port="3" to-layer="5994" to-port="53" />
		<edge from-layer="5886" from-port="1" to-layer="5888" to-port="1" />
		<edge from-layer="5887" from-port="0" to-layer="5888" to-port="2" />
		<edge from-layer="5888" from-port="3" to-layer="5994" to-port="54" />
		<edge from-layer="5889" from-port="1" to-layer="5891" to-port="1" />
		<edge from-layer="5890" from-port="0" to-layer="5891" to-port="2" />
		<edge from-layer="5891" from-port="3" to-layer="5994" to-port="55" />
		<edge from-layer="5892" from-port="1" to-layer="5894" to-port="1" />
		<edge from-layer="5893" from-port="0" to-layer="5894" to-port="2" />
		<edge from-layer="5894" from-port="3" to-layer="5994" to-port="56" />
		<edge from-layer="5895" from-port="1" to-layer="5897" to-port="1" />
		<edge from-layer="5896" from-port="0" to-layer="5897" to-port="2" />
		<edge from-layer="5897" from-port="3" to-layer="5994" to-port="57" />
		<edge from-layer="5898" from-port="1" to-layer="5900" to-port="1" />
		<edge from-layer="5899" from-port="0" to-layer="5900" to-port="2" />
		<edge from-layer="5900" from-port="3" to-layer="5994" to-port="58" />
		<edge from-layer="5901" from-port="1" to-layer="5903" to-port="1" />
		<edge from-layer="5902" from-port="0" to-layer="5903" to-port="2" />
		<edge from-layer="5903" from-port="3" to-layer="5994" to-port="59" />
		<edge from-layer="5904" from-port="1" to-layer="5906" to-port="1" />
		<edge from-layer="5905" from-port="0" to-layer="5906" to-port="2" />
		<edge from-layer="5906" from-port="3" to-layer="5994" to-port="60" />
		<edge from-layer="5907" from-port="1" to-layer="5909" to-port="1" />
		<edge from-layer="5908" from-port="0" to-layer="5909" to-port="2" />
		<edge from-layer="5909" from-port="3" to-layer="5994" to-port="61" />
		<edge from-layer="5910" from-port="1" to-layer="5912" to-port="1" />
		<edge from-layer="5911" from-port="0" to-layer="5912" to-port="2" />
		<edge from-layer="5912" from-port="3" to-layer="5994" to-port="62" />
		<edge from-layer="5913" from-port="1" to-layer="5915" to-port="1" />
		<edge from-layer="5914" from-port="0" to-layer="5915" to-port="2" />
		<edge from-layer="5915" from-port="3" to-layer="5994" to-port="63" />
		<edge from-layer="5916" from-port="1" to-layer="5918" to-port="1" />
		<edge from-layer="5917" from-port="0" to-layer="5918" to-port="2" />
		<edge from-layer="5918" from-port="3" to-layer="5994" to-port="64" />
		<edge from-layer="5919" from-port="1" to-layer="5921" to-port="1" />
		<edge from-layer="5920" from-port="0" to-layer="5921" to-port="2" />
		<edge from-layer="5921" from-port="3" to-layer="5994" to-port="65" />
		<edge from-layer="5922" from-port="1" to-layer="5924" to-port="1" />
		<edge from-layer="5923" from-port="0" to-layer="5924" to-port="2" />
		<edge from-layer="5924" from-port="3" to-layer="5994" to-port="66" />
		<edge from-layer="5925" from-port="1" to-layer="5927" to-port="1" />
		<edge from-layer="5926" from-port="0" to-layer="5927" to-port="2" />
		<edge from-layer="5927" from-port="3" to-layer="5994" to-port="67" />
		<edge from-layer="5928" from-port="1" to-layer="5930" to-port="1" />
		<edge from-layer="5929" from-port="0" to-layer="5930" to-port="2" />
		<edge from-layer="5930" from-port="3" to-layer="5994" to-port="68" />
		<edge from-layer="5931" from-port="1" to-layer="5933" to-port="1" />
		<edge from-layer="5932" from-port="0" to-layer="5933" to-port="2" />
		<edge from-layer="5933" from-port="3" to-layer="5994" to-port="69" />
		<edge from-layer="5934" from-port="1" to-layer="5936" to-port="1" />
		<edge from-layer="5935" from-port="0" to-layer="5936" to-port="2" />
		<edge from-layer="5936" from-port="3" to-layer="5994" to-port="70" />
		<edge from-layer="5937" from-port="1" to-layer="5939" to-port="1" />
		<edge from-layer="5938" from-port="0" to-layer="5939" to-port="2" />
		<edge from-layer="5939" from-port="3" to-layer="5994" to-port="71" />
		<edge from-layer="5940" from-port="1" to-layer="5942" to-port="1" />
		<edge from-layer="5941" from-port="0" to-layer="5942" to-port="2" />
		<edge from-layer="5942" from-port="3" to-layer="5994" to-port="72" />
		<edge from-layer="5943" from-port="1" to-layer="5945" to-port="1" />
		<edge from-layer="5944" from-port="0" to-layer="5945" to-port="2" />
		<edge from-layer="5945" from-port="3" to-layer="5994" to-port="73" />
		<edge from-layer="5946" from-port="1" to-layer="5948" to-port="1" />
		<edge from-layer="5947" from-port="0" to-layer="5948" to-port="2" />
		<edge from-layer="5948" from-port="3" to-layer="5994" to-port="74" />
		<edge from-layer="5949" from-port="1" to-layer="5951" to-port="1" />
		<edge from-layer="5950" from-port="0" to-layer="5951" to-port="2" />
		<edge from-layer="5951" from-port="3" to-layer="5994" to-port="75" />
		<edge from-layer="5952" from-port="1" to-layer="5954" to-port="1" />
		<edge from-layer="5953" from-port="0" to-layer="5954" to-port="2" />
		<edge from-layer="5954" from-port="3" to-layer="5994" to-port="76" />
		<edge from-layer="5955" from-port="1" to-layer="5957" to-port="1" />
		<edge from-layer="5956" from-port="0" to-layer="5957" to-port="2" />
		<edge from-layer="5957" from-port="3" to-layer="5994" to-port="77" />
		<edge from-layer="5958" from-port="1" to-layer="5960" to-port="1" />
		<edge from-layer="5959" from-port="0" to-layer="5960" to-port="2" />
		<edge from-layer="5960" from-port="3" to-layer="5994" to-port="78" />
		<edge from-layer="5961" from-port="1" to-layer="5963" to-port="1" />
		<edge from-layer="5962" from-port="0" to-layer="5963" to-port="2" />
		<edge from-layer="5963" from-port="3" to-layer="5994" to-port="79" />
		<edge from-layer="5964" from-port="1" to-layer="5966" to-port="1" />
		<edge from-layer="5965" from-port="0" to-layer="5966" to-port="2" />
		<edge from-layer="5966" from-port="3" to-layer="5994" to-port="80" />
		<edge from-layer="5967" from-port="1" to-layer="5969" to-port="1" />
		<edge from-layer="5968" from-port="0" to-layer="5969" to-port="2" />
		<edge from-layer="5969" from-port="3" to-layer="5994" to-port="81" />
		<edge from-layer="5970" from-port="1" to-layer="5972" to-port="1" />
		<edge from-layer="5971" from-port="0" to-layer="5972" to-port="2" />
		<edge from-layer="5972" from-port="3" to-layer="5994" to-port="82" />
		<edge from-layer="5973" from-port="1" to-layer="5975" to-port="1" />
		<edge from-layer="5974" from-port="0" to-layer="5975" to-port="2" />
		<edge from-layer="5975" from-port="3" to-layer="5994" to-port="83" />
		<edge from-layer="5976" from-port="1" to-layer="5978" to-port="1" />
		<edge from-layer="5977" from-port="0" to-layer="5978" to-port="2" />
		<edge from-layer="5978" from-port="3" to-layer="5994" to-port="84" />
		<edge from-layer="5979" from-port="1" to-layer="5981" to-port="1" />
		<edge from-layer="5980" from-port="0" to-layer="5981" to-port="2" />
		<edge from-layer="5981" from-port="3" to-layer="5994" to-port="85" />
		<edge from-layer="5982" from-port="1" to-layer="5984" to-port="1" />
		<edge from-layer="5983" from-port="0" to-layer="5984" to-port="2" />
		<edge from-layer="5984" from-port="3" to-layer="5994" to-port="86" />
		<edge from-layer="5985" from-port="1" to-layer="5987" to-port="1" />
		<edge from-layer="5986" from-port="0" to-layer="5987" to-port="2" />
		<edge from-layer="5987" from-port="3" to-layer="5994" to-port="87" />
		<edge from-layer="5988" from-port="1" to-layer="5990" to-port="1" />
		<edge from-layer="5989" from-port="0" to-layer="5990" to-port="2" />
		<edge from-layer="5990" from-port="3" to-layer="5994" to-port="88" />
		<edge from-layer="5991" from-port="1" to-layer="5993" to-port="1" />
		<edge from-layer="5992" from-port="0" to-layer="5993" to-port="2" />
		<edge from-layer="5993" from-port="3" to-layer="5994" to-port="89" />
		<edge from-layer="5994" from-port="90" to-layer="5996" to-port="0" />
		<edge from-layer="5995" from-port="0" to-layer="5996" to-port="2" />
		<edge from-layer="5996" from-port="3" to-layer="5998" to-port="0" />
		<edge from-layer="5997" from-port="0" to-layer="5998" to-port="2" />
		<edge from-layer="5998" from-port="3" to-layer="6000" to-port="0" />
		<edge from-layer="5999" from-port="0" to-layer="6000" to-port="2" />
		<edge from-layer="6000" from-port="3" to-layer="6002" to-port="0" />
		<edge from-layer="6001" from-port="0" to-layer="6002" to-port="2" />
		<edge from-layer="6002" from-port="3" to-layer="6004" to-port="0" />
		<edge from-layer="6003" from-port="0" to-layer="6004" to-port="2" />
		<edge from-layer="6004" from-port="3" to-layer="6028" to-port="0" />
		<edge from-layer="6004" from-port="3" to-layer="6032" to-port="0" />
		<edge from-layer="6004" from-port="3" to-layer="6006" to-port="0" />
		<edge from-layer="6005" from-port="0" to-layer="6032" to-port="1" />
		<edge from-layer="6006" from-port="1" to-layer="6010" to-port="0" />
		<edge from-layer="6007" from-port="0" to-layer="6010" to-port="1" />
		<edge from-layer="6008" from-port="0" to-layer="6010" to-port="2" />
		<edge from-layer="6009" from-port="0" to-layer="6010" to-port="3" />
		<edge from-layer="6010" from-port="4" to-layer="6012" to-port="0" />
		<edge from-layer="6011" from-port="0" to-layer="6012" to-port="1" />
		<edge from-layer="6012" from-port="2" to-layer="6014" to-port="0" />
		<edge from-layer="6013" from-port="0" to-layer="6014" to-port="1" />
		<edge from-layer="6014" from-port="2" to-layer="6016" to-port="0" />
		<edge from-layer="6015" from-port="0" to-layer="6016" to-port="1" />
		<edge from-layer="6016" from-port="2" to-layer="6018" to-port="0" />
		<edge from-layer="6017" from-port="0" to-layer="6018" to-port="1" />
		<edge from-layer="6018" from-port="2" to-layer="6021" to-port="0" />
		<edge from-layer="6019" from-port="0" to-layer="6021" to-port="1" />
		<edge from-layer="6020" from-port="0" to-layer="6021" to-port="2" />
		<edge from-layer="6021" from-port="3" to-layer="6023" to-port="0" />
		<edge from-layer="6022" from-port="0" to-layer="6023" to-port="1" />
		<edge from-layer="6023" from-port="2" to-layer="6025" to-port="0" />
		<edge from-layer="6024" from-port="0" to-layer="6025" to-port="1" />
		<edge from-layer="6025" from-port="2" to-layer="6030" to-port="2" />
		<edge from-layer="6025" from-port="2" to-layer="6027" to-port="0" />
		<edge from-layer="6025" from-port="2" to-layer="6029" to-port="1" />
		<edge from-layer="6026" from-port="0" to-layer="6027" to-port="1" />
		<edge from-layer="6027" from-port="2" to-layer="6030" to-port="0" />
		<edge from-layer="6028" from-port="1" to-layer="6029" to-port="0" />
		<edge from-layer="6029" from-port="2" to-layer="6030" to-port="1" />
		<edge from-layer="6030" from-port="3" to-layer="6032" to-port="2" />
		<edge from-layer="6031" from-port="0" to-layer="6032" to-port="3" />
		<edge from-layer="6032" from-port="4" to-layer="6061" to-port="0" />
		<edge from-layer="6032" from-port="4" to-layer="6035" to-port="0" />
		<edge from-layer="6033" from-port="0" to-layer="6053" to-port="0" />
		<edge from-layer="6034" from-port="0" to-layer="6040" to-port="0" />
		<edge from-layer="6035" from-port="1" to-layer="6047" to-port="0" />
		<edge from-layer="6035" from-port="1" to-layer="6039" to-port="0" />
		<edge from-layer="6036" from-port="0" to-layer="6039" to-port="1" />
		<edge from-layer="6037" from-port="0" to-layer="6039" to-port="2" />
		<edge from-layer="6038" from-port="0" to-layer="6039" to-port="3" />
		<edge from-layer="6039" from-port="4" to-layer="6040" to-port="1" />
		<edge from-layer="6040" from-port="2" to-layer="6042" to-port="0" />
		<edge from-layer="6041" from-port="0" to-layer="6042" to-port="1" />
		<edge from-layer="6041" from-port="0" to-layer="6049" to-port="1" />
		<edge from-layer="6042" from-port="2" to-layer="6050" to-port="0" />
		<edge from-layer="6043" from-port="0" to-layer="6048" to-port="0" />
		<edge from-layer="6044" from-port="0" to-layer="6047" to-port="1" />
		<edge from-layer="6045" from-port="0" to-layer="6047" to-port="2" />
		<edge from-layer="6046" from-port="0" to-layer="6047" to-port="3" />
		<edge from-layer="6047" from-port="4" to-layer="6048" to-port="1" />
		<edge from-layer="6048" from-port="2" to-layer="6049" to-port="0" />
		<edge from-layer="6049" from-port="2" to-layer="6050" to-port="1" />
		<edge from-layer="6050" from-port="2" to-layer="6052" to-port="0" />
		<edge from-layer="6051" from-port="0" to-layer="6052" to-port="1" />
		<edge from-layer="6052" from-port="2" to-layer="6053" to-port="1" />
		<edge from-layer="6053" from-port="2" to-layer="6054" to-port="0" />
		<edge from-layer="6054" from-port="1" to-layer="6057" to-port="0" />
		<edge from-layer="6054" from-port="1" to-layer="6059" to-port="0" />
		<edge from-layer="6055" from-port="0" to-layer="6057" to-port="1" />
		<edge from-layer="6056" from-port="0" to-layer="6057" to-port="2" />
		<edge from-layer="6056" from-port="0" to-layer="6059" to-port="2" />
		<edge from-layer="6057" from-port="3" to-layer="6061" to-port="1" />
		<edge from-layer="6058" from-port="0" to-layer="6059" to-port="1" />
		<edge from-layer="6059" from-port="3" to-layer="6061" to-port="2" />
		<edge from-layer="6060" from-port="0" to-layer="6061" to-port="3" />
		<edge from-layer="6061" from-port="4" to-layer="6063" to-port="0" />
		<edge from-layer="6062" from-port="0" to-layer="6063" to-port="1" />
		<edge from-layer="6063" from-port="2" to-layer="6064" to-port="0" />
		<edge from-layer="6065" from-port="0" to-layer="6067" to-port="0" />
		<edge from-layer="6066" from-port="0" to-layer="6067" to-port="2" />
		<edge from-layer="6067" from-port="3" to-layer="6069" to-port="0" />
		<edge from-layer="6068" from-port="0" to-layer="6069" to-port="2" />
		<edge from-layer="6069" from-port="3" to-layer="6071" to-port="0" />
		<edge from-layer="6070" from-port="0" to-layer="6071" to-port="2" />
		<edge from-layer="6071" from-port="3" to-layer="6073" to-port="0" />
		<edge from-layer="6072" from-port="0" to-layer="6073" to-port="2" />
		<edge from-layer="6073" from-port="3" to-layer="6075" to-port="0" />
		<edge from-layer="6074" from-port="0" to-layer="6075" to-port="2" />
		<edge from-layer="6075" from-port="3" to-layer="6101" to-port="0" />
		<edge from-layer="6075" from-port="3" to-layer="6077" to-port="0" />
		<edge from-layer="6075" from-port="3" to-layer="6097" to-port="0" />
		<edge from-layer="6076" from-port="0" to-layer="6101" to-port="1" />
		<edge from-layer="6077" from-port="1" to-layer="6081" to-port="0" />
		<edge from-layer="6078" from-port="0" to-layer="6081" to-port="1" />
		<edge from-layer="6079" from-port="0" to-layer="6081" to-port="2" />
		<edge from-layer="6080" from-port="0" to-layer="6081" to-port="3" />
		<edge from-layer="6081" from-port="4" to-layer="6083" to-port="0" />
		<edge from-layer="6082" from-port="0" to-layer="6083" to-port="1" />
		<edge from-layer="6083" from-port="2" to-layer="6085" to-port="0" />
		<edge from-layer="6084" from-port="0" to-layer="6085" to-port="1" />
		<edge from-layer="6085" from-port="2" to-layer="6087" to-port="0" />
		<edge from-layer="6086" from-port="0" to-layer="6087" to-port="1" />
		<edge from-layer="6087" from-port="2" to-layer="6089" to-port="0" />
		<edge from-layer="6088" from-port="0" to-layer="6089" to-port="1" />
		<edge from-layer="6089" from-port="2" to-layer="6092" to-port="0" />
		<edge from-layer="6090" from-port="0" to-layer="6092" to-port="1" />
		<edge from-layer="6091" from-port="0" to-layer="6092" to-port="2" />
		<edge from-layer="6092" from-port="3" to-layer="6094" to-port="0" />
		<edge from-layer="6093" from-port="0" to-layer="6094" to-port="1" />
		<edge from-layer="6094" from-port="2" to-layer="6096" to-port="0" />
		<edge from-layer="6094" from-port="2" to-layer="6099" to-port="2" />
		<edge from-layer="6094" from-port="2" to-layer="6098" to-port="1" />
		<edge from-layer="6095" from-port="0" to-layer="6096" to-port="1" />
		<edge from-layer="6096" from-port="2" to-layer="6099" to-port="0" />
		<edge from-layer="6097" from-port="1" to-layer="6098" to-port="0" />
		<edge from-layer="6098" from-port="2" to-layer="6099" to-port="1" />
		<edge from-layer="6099" from-port="3" to-layer="6101" to-port="2" />
		<edge from-layer="6100" from-port="0" to-layer="6101" to-port="3" />
		<edge from-layer="6101" from-port="4" to-layer="6105" to-port="0" />
		<edge from-layer="6101" from-port="4" to-layer="6121" to-port="0" />
		<edge from-layer="6102" from-port="0" to-layer="6121" to-port="1" />
		<edge from-layer="6103" from-port="0" to-layer="6115" to-port="0" />
		<edge from-layer="6104" from-port="0" to-layer="6110" to-port="0" />
		<edge from-layer="6105" from-port="1" to-layer="6109" to-port="0" />
		<edge from-layer="6106" from-port="0" to-layer="6109" to-port="1" />
		<edge from-layer="6107" from-port="0" to-layer="6109" to-port="2" />
		<edge from-layer="6108" from-port="0" to-layer="6109" to-port="3" />
		<edge from-layer="6109" from-port="4" to-layer="6110" to-port="1" />
		<edge from-layer="6110" from-port="2" to-layer="6112" to-port="0" />
		<edge from-layer="6111" from-port="0" to-layer="6112" to-port="1" />
		<edge from-layer="6112" from-port="2" to-layer="6114" to-port="0" />
		<edge from-layer="6113" from-port="0" to-layer="6114" to-port="1" />
		<edge from-layer="6114" from-port="2" to-layer="6115" to-port="1" />
		<edge from-layer="6115" from-port="2" to-layer="6116" to-port="0" />
		<edge from-layer="6116" from-port="1" to-layer="6119" to-port="0" />
		<edge from-layer="6117" from-port="0" to-layer="6119" to-port="1" />
		<edge from-layer="6118" from-port="0" to-layer="6119" to-port="2" />
		<edge from-layer="6119" from-port="3" to-layer="6121" to-port="2" />
		<edge from-layer="6120" from-port="0" to-layer="6121" to-port="3" />
		<edge from-layer="6121" from-port="4" to-layer="6123" to-port="0" />
		<edge from-layer="6122" from-port="0" to-layer="6123" to-port="1" />
		<edge from-layer="6123" from-port="2" to-layer="6125" to-port="0" />
		<edge from-layer="6124" from-port="0" to-layer="6125" to-port="1" />
		<edge from-layer="6125" from-port="2" to-layer="6126" to-port="0" />
		<edge from-layer="6127" from-port="0" to-layer="6128" to-port="2" />
		<edge from-layer="6128" from-port="3" to-layer="6130" to-port="0" />
		<edge from-layer="6129" from-port="0" to-layer="6130" to-port="2" />
		<edge from-layer="6130" from-port="3" to-layer="6132" to-port="0" />
		<edge from-layer="6130" from-port="3" to-layer="6158" to-port="0" />
		<edge from-layer="6130" from-port="3" to-layer="6154" to-port="0" />
		<edge from-layer="6131" from-port="0" to-layer="6158" to-port="1" />
		<edge from-layer="6132" from-port="1" to-layer="6136" to-port="0" />
		<edge from-layer="6133" from-port="0" to-layer="6136" to-port="1" />
		<edge from-layer="6134" from-port="0" to-layer="6136" to-port="2" />
		<edge from-layer="6135" from-port="0" to-layer="6136" to-port="3" />
		<edge from-layer="6136" from-port="4" to-layer="6138" to-port="0" />
		<edge from-layer="6137" from-port="0" to-layer="6138" to-port="1" />
		<edge from-layer="6138" from-port="2" to-layer="6140" to-port="0" />
		<edge from-layer="6139" from-port="0" to-layer="6140" to-port="1" />
		<edge from-layer="6140" from-port="2" to-layer="6142" to-port="0" />
		<edge from-layer="6141" from-port="0" to-layer="6142" to-port="1" />
		<edge from-layer="6142" from-port="2" to-layer="6144" to-port="0" />
		<edge from-layer="6143" from-port="0" to-layer="6144" to-port="1" />
		<edge from-layer="6144" from-port="2" to-layer="6147" to-port="0" />
		<edge from-layer="6145" from-port="0" to-layer="6147" to-port="1" />
		<edge from-layer="6146" from-port="0" to-layer="6147" to-port="2" />
		<edge from-layer="6147" from-port="3" to-layer="6149" to-port="0" />
		<edge from-layer="6148" from-port="0" to-layer="6149" to-port="1" />
		<edge from-layer="6149" from-port="2" to-layer="6151" to-port="0" />
		<edge from-layer="6150" from-port="0" to-layer="6151" to-port="1" />
		<edge from-layer="6151" from-port="2" to-layer="6156" to-port="2" />
		<edge from-layer="6151" from-port="2" to-layer="6155" to-port="1" />
		<edge from-layer="6151" from-port="2" to-layer="6153" to-port="0" />
		<edge from-layer="6152" from-port="0" to-layer="6153" to-port="1" />
		<edge from-layer="6153" from-port="2" to-layer="6156" to-port="0" />
		<edge from-layer="6154" from-port="1" to-layer="6155" to-port="0" />
		<edge from-layer="6155" from-port="2" to-layer="6156" to-port="1" />
		<edge from-layer="6156" from-port="3" to-layer="6158" to-port="2" />
		<edge from-layer="6157" from-port="0" to-layer="6158" to-port="3" />
		<edge from-layer="6158" from-port="4" to-layer="6187" to-port="0" />
		<edge from-layer="6158" from-port="4" to-layer="6161" to-port="0" />
		<edge from-layer="6159" from-port="0" to-layer="6179" to-port="0" />
		<edge from-layer="6160" from-port="0" to-layer="6166" to-port="0" />
		<edge from-layer="6161" from-port="1" to-layer="6173" to-port="0" />
		<edge from-layer="6161" from-port="1" to-layer="6165" to-port="0" />
		<edge from-layer="6162" from-port="0" to-layer="6165" to-port="1" />
		<edge from-layer="6163" from-port="0" to-layer="6165" to-port="2" />
		<edge from-layer="6164" from-port="0" to-layer="6165" to-port="3" />
		<edge from-layer="6165" from-port="4" to-layer="6166" to-port="1" />
		<edge from-layer="6166" from-port="2" to-layer="6168" to-port="0" />
		<edge from-layer="6167" from-port="0" to-layer="6168" to-port="1" />
		<edge from-layer="6167" from-port="0" to-layer="6175" to-port="1" />
		<edge from-layer="6168" from-port="2" to-layer="6176" to-port="0" />
		<edge from-layer="6169" from-port="0" to-layer="6174" to-port="0" />
		<edge from-layer="6170" from-port="0" to-layer="6173" to-port="1" />
		<edge from-layer="6171" from-port="0" to-layer="6173" to-port="2" />
		<edge from-layer="6172" from-port="0" to-layer="6173" to-port="3" />
		<edge from-layer="6173" from-port="4" to-layer="6174" to-port="1" />
		<edge from-layer="6174" from-port="2" to-layer="6175" to-port="0" />
		<edge from-layer="6175" from-port="2" to-layer="6176" to-port="1" />
		<edge from-layer="6176" from-port="2" to-layer="6178" to-port="0" />
		<edge from-layer="6177" from-port="0" to-layer="6178" to-port="1" />
		<edge from-layer="6178" from-port="2" to-layer="6179" to-port="1" />
		<edge from-layer="6179" from-port="2" to-layer="6180" to-port="0" />
		<edge from-layer="6180" from-port="1" to-layer="6183" to-port="0" />
		<edge from-layer="6180" from-port="1" to-layer="6185" to-port="0" />
		<edge from-layer="6181" from-port="0" to-layer="6183" to-port="1" />
		<edge from-layer="6182" from-port="0" to-layer="6183" to-port="2" />
		<edge from-layer="6182" from-port="0" to-layer="6185" to-port="2" />
		<edge from-layer="6183" from-port="3" to-layer="6187" to-port="1" />
		<edge from-layer="6184" from-port="0" to-layer="6185" to-port="1" />
		<edge from-layer="6185" from-port="3" to-layer="6187" to-port="2" />
		<edge from-layer="6186" from-port="0" to-layer="6187" to-port="3" />
		<edge from-layer="6187" from-port="4" to-layer="6189" to-port="0" />
		<edge from-layer="6188" from-port="0" to-layer="6189" to-port="1" />
		<edge from-layer="6189" from-port="2" to-layer="6190" to-port="0" />
		<edge from-layer="6191" from-port="0" to-layer="6283" to-port="0" />
		<edge from-layer="6192" from-port="2" to-layer="6193" to-port="0" />
		<edge from-layer="6193" from-port="2" to-layer="6194" to-port="0" />
		<edge from-layer="6194" from-port="2" to-layer="6195" to-port="0" />
		<edge from-layer="6195" from-port="2" to-layer="6196" to-port="0" />
		<edge from-layer="6196" from-port="2" to-layer="6197" to-port="0" />
		<edge from-layer="6197" from-port="2" to-layer="6198" to-port="0" />
		<edge from-layer="6198" from-port="2" to-layer="6199" to-port="0" />
		<edge from-layer="6199" from-port="2" to-layer="6200" to-port="0" />
		<edge from-layer="6200" from-port="2" to-layer="6201" to-port="0" />
		<edge from-layer="6201" from-port="2" to-layer="6202" to-port="0" />
		<edge from-layer="6202" from-port="2" to-layer="6203" to-port="0" />
		<edge from-layer="6203" from-port="2" to-layer="6204" to-port="0" />
		<edge from-layer="6204" from-port="2" to-layer="6205" to-port="0" />
		<edge from-layer="6205" from-port="2" to-layer="6206" to-port="0" />
		<edge from-layer="6206" from-port="2" to-layer="6207" to-port="0" />
		<edge from-layer="6207" from-port="2" to-layer="6208" to-port="0" />
		<edge from-layer="6208" from-port="2" to-layer="6209" to-port="0" />
		<edge from-layer="6209" from-port="2" to-layer="6210" to-port="0" />
		<edge from-layer="6210" from-port="2" to-layer="6211" to-port="0" />
		<edge from-layer="6211" from-port="2" to-layer="6212" to-port="0" />
		<edge from-layer="6212" from-port="2" to-layer="6213" to-port="0" />
		<edge from-layer="6213" from-port="2" to-layer="6214" to-port="0" />
		<edge from-layer="6214" from-port="2" to-layer="6215" to-port="0" />
		<edge from-layer="6215" from-port="2" to-layer="6216" to-port="0" />
		<edge from-layer="6216" from-port="2" to-layer="6217" to-port="0" />
		<edge from-layer="6217" from-port="2" to-layer="6218" to-port="0" />
		<edge from-layer="6218" from-port="2" to-layer="6219" to-port="0" />
		<edge from-layer="6219" from-port="2" to-layer="6220" to-port="0" />
		<edge from-layer="6220" from-port="2" to-layer="6221" to-port="0" />
		<edge from-layer="6221" from-port="2" to-layer="6222" to-port="0" />
		<edge from-layer="6222" from-port="2" to-layer="6223" to-port="0" />
		<edge from-layer="6223" from-port="2" to-layer="6224" to-port="0" />
		<edge from-layer="6224" from-port="2" to-layer="6225" to-port="0" />
		<edge from-layer="6225" from-port="2" to-layer="6226" to-port="0" />
		<edge from-layer="6226" from-port="2" to-layer="6227" to-port="0" />
		<edge from-layer="6227" from-port="2" to-layer="6228" to-port="0" />
		<edge from-layer="6228" from-port="2" to-layer="6229" to-port="0" />
		<edge from-layer="6229" from-port="2" to-layer="6230" to-port="0" />
		<edge from-layer="6230" from-port="2" to-layer="6231" to-port="0" />
		<edge from-layer="6231" from-port="2" to-layer="6232" to-port="0" />
		<edge from-layer="6232" from-port="2" to-layer="6233" to-port="0" />
		<edge from-layer="6233" from-port="2" to-layer="6234" to-port="0" />
		<edge from-layer="6234" from-port="2" to-layer="6235" to-port="0" />
		<edge from-layer="6235" from-port="2" to-layer="6236" to-port="0" />
		<edge from-layer="6236" from-port="2" to-layer="6237" to-port="0" />
		<edge from-layer="6237" from-port="2" to-layer="6238" to-port="0" />
		<edge from-layer="6238" from-port="2" to-layer="6239" to-port="0" />
		<edge from-layer="6239" from-port="2" to-layer="6240" to-port="0" />
		<edge from-layer="6240" from-port="2" to-layer="6241" to-port="0" />
		<edge from-layer="6241" from-port="2" to-layer="6242" to-port="0" />
		<edge from-layer="6242" from-port="2" to-layer="6243" to-port="0" />
		<edge from-layer="6243" from-port="2" to-layer="6244" to-port="0" />
		<edge from-layer="6244" from-port="2" to-layer="6245" to-port="0" />
		<edge from-layer="6245" from-port="2" to-layer="6246" to-port="0" />
		<edge from-layer="6246" from-port="2" to-layer="6247" to-port="0" />
		<edge from-layer="6247" from-port="2" to-layer="6248" to-port="0" />
		<edge from-layer="6248" from-port="2" to-layer="6249" to-port="0" />
		<edge from-layer="6249" from-port="2" to-layer="6250" to-port="0" />
		<edge from-layer="6250" from-port="2" to-layer="6251" to-port="0" />
		<edge from-layer="6251" from-port="2" to-layer="6252" to-port="0" />
		<edge from-layer="6252" from-port="2" to-layer="6253" to-port="0" />
		<edge from-layer="6253" from-port="2" to-layer="6254" to-port="0" />
		<edge from-layer="6254" from-port="2" to-layer="6255" to-port="0" />
		<edge from-layer="6255" from-port="2" to-layer="6256" to-port="0" />
		<edge from-layer="6256" from-port="2" to-layer="6257" to-port="0" />
		<edge from-layer="6257" from-port="2" to-layer="6258" to-port="0" />
		<edge from-layer="6258" from-port="2" to-layer="6259" to-port="0" />
		<edge from-layer="6259" from-port="2" to-layer="6260" to-port="0" />
		<edge from-layer="6260" from-port="2" to-layer="6261" to-port="0" />
		<edge from-layer="6261" from-port="2" to-layer="6262" to-port="0" />
		<edge from-layer="6262" from-port="2" to-layer="6263" to-port="0" />
		<edge from-layer="6263" from-port="2" to-layer="6264" to-port="0" />
		<edge from-layer="6264" from-port="2" to-layer="6265" to-port="0" />
		<edge from-layer="6265" from-port="2" to-layer="6266" to-port="0" />
		<edge from-layer="6266" from-port="2" to-layer="6267" to-port="0" />
		<edge from-layer="6267" from-port="2" to-layer="6268" to-port="0" />
		<edge from-layer="6268" from-port="2" to-layer="6269" to-port="0" />
		<edge from-layer="6269" from-port="2" to-layer="6270" to-port="0" />
		<edge from-layer="6270" from-port="2" to-layer="6271" to-port="0" />
		<edge from-layer="6271" from-port="2" to-layer="6272" to-port="0" />
		<edge from-layer="6272" from-port="2" to-layer="6273" to-port="0" />
		<edge from-layer="6273" from-port="2" to-layer="6274" to-port="0" />
		<edge from-layer="6274" from-port="2" to-layer="6275" to-port="0" />
		<edge from-layer="6275" from-port="2" to-layer="6276" to-port="0" />
		<edge from-layer="6276" from-port="2" to-layer="6277" to-port="0" />
		<edge from-layer="6277" from-port="2" to-layer="6278" to-port="0" />
		<edge from-layer="6278" from-port="2" to-layer="6279" to-port="0" />
		<edge from-layer="6279" from-port="2" to-layer="6280" to-port="0" />
		<edge from-layer="6280" from-port="2" to-layer="6281" to-port="0" />
		<edge from-layer="6281" from-port="1" to-layer="6283" to-port="1" />
		<edge from-layer="6282" from-port="0" to-layer="6283" to-port="2" />
		<edge from-layer="6283" from-port="3" to-layer="6285" to-port="0" />
		<edge from-layer="6284" from-port="0" to-layer="6285" to-port="2" />
		<edge from-layer="6285" from-port="3" to-layer="6287" to-port="0" />
		<edge from-layer="6286" from-port="0" to-layer="6287" to-port="2" />
		<edge from-layer="6287" from-port="3" to-layer="6289" to-port="0" />
		<edge from-layer="6288" from-port="0" to-layer="6289" to-port="2" />
		<edge from-layer="6289" from-port="3" to-layer="6291" to-port="0" />
		<edge from-layer="6290" from-port="0" to-layer="6291" to-port="2" />
		<edge from-layer="6291" from-port="3" to-layer="6293" to-port="0" />
		<edge from-layer="6292" from-port="0" to-layer="6293" to-port="2" />
		<edge from-layer="6293" from-port="3" to-layer="6295" to-port="0" />
		<edge from-layer="6293" from-port="3" to-layer="6319" to-port="0" />
		<edge from-layer="6293" from-port="3" to-layer="6315" to-port="0" />
		<edge from-layer="6294" from-port="0" to-layer="6319" to-port="1" />
		<edge from-layer="6295" from-port="1" to-layer="6299" to-port="0" />
		<edge from-layer="6296" from-port="0" to-layer="6299" to-port="1" />
		<edge from-layer="6297" from-port="0" to-layer="6299" to-port="2" />
		<edge from-layer="6298" from-port="0" to-layer="6299" to-port="3" />
		<edge from-layer="6299" from-port="4" to-layer="6301" to-port="0" />
		<edge from-layer="6300" from-port="0" to-layer="6301" to-port="1" />
		<edge from-layer="6301" from-port="2" to-layer="6303" to-port="0" />
		<edge from-layer="6302" from-port="0" to-layer="6303" to-port="1" />
		<edge from-layer="6303" from-port="2" to-layer="6305" to-port="0" />
		<edge from-layer="6304" from-port="0" to-layer="6305" to-port="1" />
		<edge from-layer="6305" from-port="2" to-layer="6307" to-port="0" />
		<edge from-layer="6306" from-port="0" to-layer="6307" to-port="1" />
		<edge from-layer="6307" from-port="2" to-layer="6310" to-port="0" />
		<edge from-layer="6308" from-port="0" to-layer="6310" to-port="1" />
		<edge from-layer="6309" from-port="0" to-layer="6310" to-port="2" />
		<edge from-layer="6310" from-port="3" to-layer="6312" to-port="0" />
		<edge from-layer="6311" from-port="0" to-layer="6312" to-port="1" />
		<edge from-layer="6312" from-port="2" to-layer="6314" to-port="0" />
		<edge from-layer="6312" from-port="2" to-layer="6316" to-port="1" />
		<edge from-layer="6312" from-port="2" to-layer="6317" to-port="2" />
		<edge from-layer="6313" from-port="0" to-layer="6314" to-port="1" />
		<edge from-layer="6314" from-port="2" to-layer="6317" to-port="0" />
		<edge from-layer="6315" from-port="1" to-layer="6316" to-port="0" />
		<edge from-layer="6316" from-port="2" to-layer="6317" to-port="1" />
		<edge from-layer="6317" from-port="3" to-layer="6319" to-port="2" />
		<edge from-layer="6318" from-port="0" to-layer="6319" to-port="3" />
		<edge from-layer="6319" from-port="4" to-layer="6323" to-port="0" />
		<edge from-layer="6319" from-port="4" to-layer="6339" to-port="0" />
		<edge from-layer="6320" from-port="0" to-layer="6339" to-port="1" />
		<edge from-layer="6321" from-port="0" to-layer="6333" to-port="0" />
		<edge from-layer="6322" from-port="0" to-layer="6328" to-port="0" />
		<edge from-layer="6323" from-port="1" to-layer="6327" to-port="0" />
		<edge from-layer="6324" from-port="0" to-layer="6327" to-port="1" />
		<edge from-layer="6325" from-port="0" to-layer="6327" to-port="2" />
		<edge from-layer="6326" from-port="0" to-layer="6327" to-port="3" />
		<edge from-layer="6327" from-port="4" to-layer="6328" to-port="1" />
		<edge from-layer="6328" from-port="2" to-layer="6330" to-port="0" />
		<edge from-layer="6329" from-port="0" to-layer="6330" to-port="1" />
		<edge from-layer="6330" from-port="2" to-layer="6332" to-port="0" />
		<edge from-layer="6331" from-port="0" to-layer="6332" to-port="1" />
		<edge from-layer="6332" from-port="2" to-layer="6333" to-port="1" />
		<edge from-layer="6333" from-port="2" to-layer="6334" to-port="0" />
		<edge from-layer="6334" from-port="1" to-layer="6337" to-port="0" />
		<edge from-layer="6335" from-port="0" to-layer="6337" to-port="1" />
		<edge from-layer="6336" from-port="0" to-layer="6337" to-port="2" />
		<edge from-layer="6337" from-port="3" to-layer="6339" to-port="2" />
		<edge from-layer="6338" from-port="0" to-layer="6339" to-port="3" />
		<edge from-layer="6339" from-port="4" to-layer="6341" to-port="0" />
		<edge from-layer="6340" from-port="0" to-layer="6341" to-port="1" />
		<edge from-layer="6341" from-port="2" to-layer="6342" to-port="0" />
		<edge from-layer="6342" from-port="1" to-layer="6343" to-port="0" />
		<edge from-layer="6343" from-port="1" to-layer="6344" to-port="0" />
	</edges>
	<rt_info>
		<MO_version value="2023.0.0-10926-b4452d56304-releases/2023/0" />
		<Runtime_version value="2023.0.0-10926-b4452d56304-releases/2023/0" />
		<conversion_parameters>
			<is_python_api_used value="False" />
			<saved_model_dir value="DIR" />
		</conversion_parameters>
		<legacy_frontend value="False" />
	</rt_info>
</net>
