<?xml version="1.0"?>
<net name="ssd_mobilenet_v1_coco" version="11">
	<layers>
		<layer id="0" name="image_tensor" type="Parameter" version="opset1">
			<data shape="1,300,300,3" element_type="u8" />
			<rt_info>
				<attribute name="old_api_map_element_type" version="0" value="f32" />
				<attribute name="old_api_map_order" version="0" value="0, 2, 3, 1" />
			</rt_info>
			<output>
				<port id="0" precision="U8" names="image_tensor,image_tensor:0">
					<dim>1</dim>
					<dim>300</dim>
					<dim>300</dim>
					<dim>3</dim>
					<rt_info>
						<attribute name="layout" version="0" layout="[N,H,W,C]" />
					</rt_info>
				</port>
			</output>
		</layer>
		<layer id="1" name="Preprocessor/mul/x" type="Const" version="opset1">
			<data element_type="f32" shape="1, 1, 1, 1" offset="0" size="4" />
			<output>
				<port id="0" precision="FP32" names="Preprocessor/mul/x:0">
					<dim>1</dim>
					<dim>1</dim>
					<dim>1</dim>
					<dim>1</dim>
				</port>
			</output>
		</layer>
		<layer id="2" name="Convert_2040" type="Convert" version="opset1">
			<data destination_type="f32" />
			<input>
				<port id="0" precision="U8">
					<dim>1</dim>
					<dim>300</dim>
					<dim>300</dim>
					<dim>3</dim>
				</port>
			</input>
			<output>
				<port id="1" precision="FP32">
					<dim>1</dim>
					<dim>300</dim>
					<dim>300</dim>
					<dim>3</dim>
				</port>
			</output>
		</layer>
		<layer id="3" name="image_tensor/Transpose([0 3 1 2])/value1617122077" type="Const" version="opset1">
			<data element_type="i64" shape="4" offset="4" size="32" />
			<output>
				<port id="0" precision="I64">
					<dim>4</dim>
				</port>
			</output>
		</layer>
		<layer id="4" name="ToFloat" type="Transpose" version="opset1">
			<input>
				<port id="0" precision="FP32">
					<dim>1</dim>
					<dim>300</dim>
					<dim>300</dim>
					<dim>3</dim>
				</port>
				<port id="1" precision="I64">
					<dim>4</dim>
				</port>
			</input>
			<output>
				<port id="2" precision="FP32">
					<dim>1</dim>
					<dim>3</dim>
					<dim>300</dim>
					<dim>300</dim>
				</port>
			</output>
		</layer>
		<layer id="5" name="Preprocessor/mul" type="Multiply" version="opset1">
			<data auto_broadcast="numpy" />
			<input>
				<port id="0" precision="FP32">
					<dim>1</dim>
					<dim>1</dim>
					<dim>1</dim>
					<dim>1</dim>
				</port>
				<port id="1" precision="FP32">
					<dim>1</dim>
					<dim>3</dim>
					<dim>300</dim>
					<dim>300</dim>
				</port>
			</input>
			<output>
				<port id="2" precision="FP32" names="Preprocessor/mul:0">
					<dim>1</dim>
					<dim>3</dim>
					<dim>300</dim>
					<dim>300</dim>
				</port>
			</output>
		</layer>
		<layer id="6" name="Preprocessor/sub/y" type="Const" version="opset1">
			<data element_type="f32" shape="1, 1, 1, 1" offset="36" size="4" />
			<output>
				<port id="0" precision="FP32" names="Preprocessor/sub/y:0">
					<dim>1</dim>
					<dim>1</dim>
					<dim>1</dim>
					<dim>1</dim>
				</port>
			</output>
		</layer>
		<layer id="7" name="Preprocessor/sub" type="Add" version="opset1">
			<data auto_broadcast="numpy" />
			<input>
				<port id="0" precision="FP32">
					<dim>1</dim>
					<dim>3</dim>
					<dim>300</dim>
					<dim>300</dim>
				</port>
				<port id="1" precision="FP32">
					<dim>1</dim>
					<dim>1</dim>
					<dim>1</dim>
					<dim>1</dim>
				</port>
			</input>
			<output>
				<port id="2" precision="FP32" names="Preprocessor/sub:0">
					<dim>1</dim>
					<dim>3</dim>
					<dim>300</dim>
					<dim>300</dim>
				</port>
			</output>
		</layer>
		<layer id="8" name="FeatureExtractor/MobilenetV1/Conv2d_0/weights/read/_166__cf__169" type="Const" version="opset1">
			<data element_type="f32" shape="32, 3, 3, 3" offset="40" size="3456" />
			<output>
				<port id="0" precision="FP32" names="FeatureExtractor/MobilenetV1/Conv2d_0/weights/read/_166__cf__169:0">
					<dim>32</dim>
					<dim>3</dim>
					<dim>3</dim>
					<dim>3</dim>
				</port>
			</output>
		</layer>
		<layer id="9" name="FeatureExtractor/MobilenetV1/MobilenetV1/Conv2d_0/BatchNorm/batchnorm/mul_1" type="Convolution" version="opset1">
			<data strides="2, 2" dilations="1, 1" pads_begin="0, 0" pads_end="0, 0" auto_pad="same_upper" />
			<input>
				<port id="0" precision="FP32">
					<dim>1</dim>
					<dim>3</dim>
					<dim>300</dim>
					<dim>300</dim>
				</port>
				<port id="1" precision="FP32">
					<dim>32</dim>
					<dim>3</dim>
					<dim>3</dim>
					<dim>3</dim>
				</port>
			</input>
			<output>
				<port id="2" precision="FP32" names="FeatureExtractor/MobilenetV1/MobilenetV1/Conv2d_0/BatchNorm/batchnorm/mul_1:0">
					<dim>1</dim>
					<dim>32</dim>
					<dim>150</dim>
					<dim>150</dim>
				</port>
			</output>
		</layer>
		<layer id="10" name="FeatureExtractor/MobilenetV1/MobilenetV1/Conv2d_0/BatchNorm/batchnorm/sub/_165__cf__168" type="Const" version="opset1">
			<data element_type="f32" shape="1, 32, 1, 1" offset="3496" size="128" />
			<output>
				<port id="0" precision="FP32" names="FeatureExtractor/MobilenetV1/MobilenetV1/Conv2d_0/BatchNorm/batchnorm/sub/_165__cf__168:0">
					<dim>1</dim>
					<dim>32</dim>
					<dim>1</dim>
					<dim>1</dim>
				</port>
			</output>
		</layer>
		<layer id="11" name="FeatureExtractor/MobilenetV1/MobilenetV1/Conv2d_0/BatchNorm/batchnorm/add_1" type="Add" version="opset1">
			<data auto_broadcast="numpy" />
			<input>
				<port id="0" precision="FP32">
					<dim>1</dim>
					<dim>32</dim>
					<dim>150</dim>
					<dim>150</dim>
				</port>
				<port id="1" precision="FP32">
					<dim>1</dim>
					<dim>32</dim>
					<dim>1</dim>
					<dim>1</dim>
				</port>
			</input>
			<output>
				<port id="2" precision="FP32" names="FeatureExtractor/MobilenetV1/MobilenetV1/Conv2d_0/BatchNorm/batchnorm/add_1:0">
					<dim>1</dim>
					<dim>32</dim>
					<dim>150</dim>
					<dim>150</dim>
				</port>
			</output>
		</layer>
		<layer id="12" name="FeatureExtractor/MobilenetV1/MobilenetV1/Conv2d_0/Relu6" type="Clamp" version="opset1">
			<data min="0" max="6" />
			<input>
				<port id="0" precision="FP32">
					<dim>1</dim>
					<dim>32</dim>
					<dim>150</dim>
					<dim>150</dim>
				</port>
			</input>
			<output>
				<port id="1" precision="FP32" names="FeatureExtractor/MobilenetV1/MobilenetV1/Conv2d_0/Relu6:0">
					<dim>1</dim>
					<dim>32</dim>
					<dim>150</dim>
					<dim>150</dim>
				</port>
			</output>
		</layer>
		<layer id="13" name="FeatureExtractor/MobilenetV1/MobilenetV1/Conv2d_1_depthwise/BatchNorm/batchnorm/mul_1_copy" type="Const" version="opset1">
			<data element_type="f32" shape="32, 1, 1, 3, 3" offset="3624" size="1152" />
			<output>
				<port id="0" precision="FP32" names="FeatureExtractor/MobilenetV1/Conv2d_1_depthwise/depthwise_weights/read/_163__cf__166:0">
					<dim>32</dim>
					<dim>1</dim>
					<dim>1</dim>
					<dim>3</dim>
					<dim>3</dim>
				</port>
			</output>
		</layer>
		<layer id="14" name="FeatureExtractor/MobilenetV1/MobilenetV1/Conv2d_1_depthwise/depthwise" type="GroupConvolution" version="opset1">
			<data strides="1, 1" pads_begin="0, 0" pads_end="0, 0" dilations="1, 1" auto_pad="same_upper" />
			<input>
				<port id="0" precision="FP32">
					<dim>1</dim>
					<dim>32</dim>
					<dim>150</dim>
					<dim>150</dim>
				</port>
				<port id="1" precision="FP32">
					<dim>32</dim>
					<dim>1</dim>
					<dim>1</dim>
					<dim>3</dim>
					<dim>3</dim>
				</port>
			</input>
			<output>
				<port id="2" precision="FP32" names="FeatureExtractor/MobilenetV1/MobilenetV1/Conv2d_1_depthwise/BatchNorm/batchnorm/mul_1:0">
					<dim>1</dim>
					<dim>32</dim>
					<dim>150</dim>
					<dim>150</dim>
				</port>
			</output>
		</layer>
		<layer id="15" name="FeatureExtractor/MobilenetV1/MobilenetV1/Conv2d_1_depthwise/BatchNorm/batchnorm/sub/_162__cf__165" type="Const" version="opset1">
			<data element_type="f32" shape="1, 32, 1, 1" offset="4776" size="128" />
			<output>
				<port id="0" precision="FP32" names="FeatureExtractor/MobilenetV1/MobilenetV1/Conv2d_1_depthwise/BatchNorm/batchnorm/sub/_162__cf__165:0">
					<dim>1</dim>
					<dim>32</dim>
					<dim>1</dim>
					<dim>1</dim>
				</port>
			</output>
		</layer>
		<layer id="16" name="FeatureExtractor/MobilenetV1/MobilenetV1/Conv2d_1_depthwise/BatchNorm/batchnorm/add_1" type="Add" version="opset1">
			<data auto_broadcast="numpy" />
			<input>
				<port id="0" precision="FP32">
					<dim>1</dim>
					<dim>32</dim>
					<dim>150</dim>
					<dim>150</dim>
				</port>
				<port id="1" precision="FP32">
					<dim>1</dim>
					<dim>32</dim>
					<dim>1</dim>
					<dim>1</dim>
				</port>
			</input>
			<output>
				<port id="2" precision="FP32" names="FeatureExtractor/MobilenetV1/MobilenetV1/Conv2d_1_depthwise/BatchNorm/batchnorm/add_1:0">
					<dim>1</dim>
					<dim>32</dim>
					<dim>150</dim>
					<dim>150</dim>
				</port>
			</output>
		</layer>
		<layer id="17" name="FeatureExtractor/MobilenetV1/MobilenetV1/Conv2d_1_depthwise/Relu6" type="Clamp" version="opset1">
			<data min="0" max="6" />
			<input>
				<port id="0" precision="FP32">
					<dim>1</dim>
					<dim>32</dim>
					<dim>150</dim>
					<dim>150</dim>
				</port>
			</input>
			<output>
				<port id="1" precision="FP32" names="FeatureExtractor/MobilenetV1/MobilenetV1/Conv2d_1_depthwise/Relu6:0">
					<dim>1</dim>
					<dim>32</dim>
					<dim>150</dim>
					<dim>150</dim>
				</port>
			</output>
		</layer>
		<layer id="18" name="FeatureExtractor/MobilenetV1/Conv2d_1_pointwise/weights/read/_160__cf__163" type="Const" version="opset1">
			<data element_type="f32" shape="64, 32, 1, 1" offset="4904" size="8192" />
			<output>
				<port id="0" precision="FP32" names="FeatureExtractor/MobilenetV1/Conv2d_1_pointwise/weights/read/_160__cf__163:0">
					<dim>64</dim>
					<dim>32</dim>
					<dim>1</dim>
					<dim>1</dim>
				</port>
			</output>
		</layer>
		<layer id="19" name="FeatureExtractor/MobilenetV1/MobilenetV1/Conv2d_1_pointwise/BatchNorm/batchnorm/mul_1" type="Convolution" version="opset1">
			<data strides="1, 1" dilations="1, 1" pads_begin="0, 0" pads_end="0, 0" auto_pad="same_upper" />
			<input>
				<port id="0" precision="FP32">
					<dim>1</dim>
					<dim>32</dim>
					<dim>150</dim>
					<dim>150</dim>
				</port>
				<port id="1" precision="FP32">
					<dim>64</dim>
					<dim>32</dim>
					<dim>1</dim>
					<dim>1</dim>
				</port>
			</input>
			<output>
				<port id="2" precision="FP32" names="FeatureExtractor/MobilenetV1/MobilenetV1/Conv2d_1_pointwise/BatchNorm/batchnorm/mul_1:0">
					<dim>1</dim>
					<dim>64</dim>
					<dim>150</dim>
					<dim>150</dim>
				</port>
			</output>
		</layer>
		<layer id="20" name="FeatureExtractor/MobilenetV1/MobilenetV1/Conv2d_1_pointwise/BatchNorm/batchnorm/sub/_159__cf__162" type="Const" version="opset1">
			<data element_type="f32" shape="1, 64, 1, 1" offset="13096" size="256" />
			<output>
				<port id="0" precision="FP32" names="FeatureExtractor/MobilenetV1/MobilenetV1/Conv2d_1_pointwise/BatchNorm/batchnorm/sub/_159__cf__162:0">
					<dim>1</dim>
					<dim>64</dim>
					<dim>1</dim>
					<dim>1</dim>
				</port>
			</output>
		</layer>
		<layer id="21" name="FeatureExtractor/MobilenetV1/MobilenetV1/Conv2d_1_pointwise/BatchNorm/batchnorm/add_1" type="Add" version="opset1">
			<data auto_broadcast="numpy" />
			<input>
				<port id="0" precision="FP32">
					<dim>1</dim>
					<dim>64</dim>
					<dim>150</dim>
					<dim>150</dim>
				</port>
				<port id="1" precision="FP32">
					<dim>1</dim>
					<dim>64</dim>
					<dim>1</dim>
					<dim>1</dim>
				</port>
			</input>
			<output>
				<port id="2" precision="FP32" names="FeatureExtractor/MobilenetV1/MobilenetV1/Conv2d_1_pointwise/BatchNorm/batchnorm/add_1:0">
					<dim>1</dim>
					<dim>64</dim>
					<dim>150</dim>
					<dim>150</dim>
				</port>
			</output>
		</layer>
		<layer id="22" name="FeatureExtractor/MobilenetV1/MobilenetV1/Conv2d_1_pointwise/Relu6" type="Clamp" version="opset1">
			<data min="0" max="6" />
			<input>
				<port id="0" precision="FP32">
					<dim>1</dim>
					<dim>64</dim>
					<dim>150</dim>
					<dim>150</dim>
				</port>
			</input>
			<output>
				<port id="1" precision="FP32" names="FeatureExtractor/MobilenetV1/MobilenetV1/Conv2d_1_pointwise/Relu6:0">
					<dim>1</dim>
					<dim>64</dim>
					<dim>150</dim>
					<dim>150</dim>
				</port>
			</output>
		</layer>
		<layer id="23" name="FeatureExtractor/MobilenetV1/MobilenetV1/Conv2d_2_depthwise/BatchNorm/batchnorm/mul_1_copy" type="Const" version="opset1">
			<data element_type="f32" shape="64, 1, 1, 3, 3" offset="13352" size="2304" />
			<output>
				<port id="0" precision="FP32" names="FeatureExtractor/MobilenetV1/Conv2d_2_depthwise/depthwise_weights/read/_157__cf__160:0">
					<dim>64</dim>
					<dim>1</dim>
					<dim>1</dim>
					<dim>3</dim>
					<dim>3</dim>
				</port>
			</output>
		</layer>
		<layer id="24" name="FeatureExtractor/MobilenetV1/MobilenetV1/Conv2d_2_depthwise/depthwise" type="GroupConvolution" version="opset1">
			<data strides="2, 2" pads_begin="0, 0" pads_end="0, 0" dilations="1, 1" auto_pad="same_upper" />
			<input>
				<port id="0" precision="FP32">
					<dim>1</dim>
					<dim>64</dim>
					<dim>150</dim>
					<dim>150</dim>
				</port>
				<port id="1" precision="FP32">
					<dim>64</dim>
					<dim>1</dim>
					<dim>1</dim>
					<dim>3</dim>
					<dim>3</dim>
				</port>
			</input>
			<output>
				<port id="2" precision="FP32" names="FeatureExtractor/MobilenetV1/MobilenetV1/Conv2d_2_depthwise/BatchNorm/batchnorm/mul_1:0">
					<dim>1</dim>
					<dim>64</dim>
					<dim>75</dim>
					<dim>75</dim>
				</port>
			</output>
		</layer>
		<layer id="25" name="FeatureExtractor/MobilenetV1/MobilenetV1/Conv2d_2_depthwise/BatchNorm/batchnorm/sub/_156__cf__159" type="Const" version="opset1">
			<data element_type="f32" shape="1, 64, 1, 1" offset="15656" size="256" />
			<output>
				<port id="0" precision="FP32" names="FeatureExtractor/MobilenetV1/MobilenetV1/Conv2d_2_depthwise/BatchNorm/batchnorm/sub/_156__cf__159:0">
					<dim>1</dim>
					<dim>64</dim>
					<dim>1</dim>
					<dim>1</dim>
				</port>
			</output>
		</layer>
		<layer id="26" name="FeatureExtractor/MobilenetV1/MobilenetV1/Conv2d_2_depthwise/BatchNorm/batchnorm/add_1" type="Add" version="opset1">
			<data auto_broadcast="numpy" />
			<input>
				<port id="0" precision="FP32">
					<dim>1</dim>
					<dim>64</dim>
					<dim>75</dim>
					<dim>75</dim>
				</port>
				<port id="1" precision="FP32">
					<dim>1</dim>
					<dim>64</dim>
					<dim>1</dim>
					<dim>1</dim>
				</port>
			</input>
			<output>
				<port id="2" precision="FP32" names="FeatureExtractor/MobilenetV1/MobilenetV1/Conv2d_2_depthwise/BatchNorm/batchnorm/add_1:0">
					<dim>1</dim>
					<dim>64</dim>
					<dim>75</dim>
					<dim>75</dim>
				</port>
			</output>
		</layer>
		<layer id="27" name="FeatureExtractor/MobilenetV1/MobilenetV1/Conv2d_2_depthwise/Relu6" type="Clamp" version="opset1">
			<data min="0" max="6" />
			<input>
				<port id="0" precision="FP32">
					<dim>1</dim>
					<dim>64</dim>
					<dim>75</dim>
					<dim>75</dim>
				</port>
			</input>
			<output>
				<port id="1" precision="FP32" names="FeatureExtractor/MobilenetV1/MobilenetV1/Conv2d_2_depthwise/Relu6:0">
					<dim>1</dim>
					<dim>64</dim>
					<dim>75</dim>
					<dim>75</dim>
				</port>
			</output>
		</layer>
		<layer id="28" name="FeatureExtractor/MobilenetV1/Conv2d_2_pointwise/weights/read/_154__cf__157" type="Const" version="opset1">
			<data element_type="f32" shape="128, 64, 1, 1" offset="15912" size="32768" />
			<output>
				<port id="0" precision="FP32" names="FeatureExtractor/MobilenetV1/Conv2d_2_pointwise/weights/read/_154__cf__157:0">
					<dim>128</dim>
					<dim>64</dim>
					<dim>1</dim>
					<dim>1</dim>
				</port>
			</output>
		</layer>
		<layer id="29" name="FeatureExtractor/MobilenetV1/MobilenetV1/Conv2d_2_pointwise/BatchNorm/batchnorm/mul_1" type="Convolution" version="opset1">
			<data strides="1, 1" dilations="1, 1" pads_begin="0, 0" pads_end="0, 0" auto_pad="same_upper" />
			<input>
				<port id="0" precision="FP32">
					<dim>1</dim>
					<dim>64</dim>
					<dim>75</dim>
					<dim>75</dim>
				</port>
				<port id="1" precision="FP32">
					<dim>128</dim>
					<dim>64</dim>
					<dim>1</dim>
					<dim>1</dim>
				</port>
			</input>
			<output>
				<port id="2" precision="FP32" names="FeatureExtractor/MobilenetV1/MobilenetV1/Conv2d_2_pointwise/BatchNorm/batchnorm/mul_1:0">
					<dim>1</dim>
					<dim>128</dim>
					<dim>75</dim>
					<dim>75</dim>
				</port>
			</output>
		</layer>
		<layer id="30" name="FeatureExtractor/MobilenetV1/MobilenetV1/Conv2d_2_pointwise/BatchNorm/batchnorm/sub/_153__cf__156" type="Const" version="opset1">
			<data element_type="f32" shape="1, 128, 1, 1" offset="48680" size="512" />
			<output>
				<port id="0" precision="FP32" names="FeatureExtractor/MobilenetV1/MobilenetV1/Conv2d_2_pointwise/BatchNorm/batchnorm/sub/_153__cf__156:0">
					<dim>1</dim>
					<dim>128</dim>
					<dim>1</dim>
					<dim>1</dim>
				</port>
			</output>
		</layer>
		<layer id="31" name="FeatureExtractor/MobilenetV1/MobilenetV1/Conv2d_2_pointwise/BatchNorm/batchnorm/add_1" type="Add" version="opset1">
			<data auto_broadcast="numpy" />
			<input>
				<port id="0" precision="FP32">
					<dim>1</dim>
					<dim>128</dim>
					<dim>75</dim>
					<dim>75</dim>
				</port>
				<port id="1" precision="FP32">
					<dim>1</dim>
					<dim>128</dim>
					<dim>1</dim>
					<dim>1</dim>
				</port>
			</input>
			<output>
				<port id="2" precision="FP32" names="FeatureExtractor/MobilenetV1/MobilenetV1/Conv2d_2_pointwise/BatchNorm/batchnorm/add_1:0">
					<dim>1</dim>
					<dim>128</dim>
					<dim>75</dim>
					<dim>75</dim>
				</port>
			</output>
		</layer>
		<layer id="32" name="FeatureExtractor/MobilenetV1/MobilenetV1/Conv2d_2_pointwise/Relu6" type="Clamp" version="opset1">
			<data min="0" max="6" />
			<input>
				<port id="0" precision="FP32">
					<dim>1</dim>
					<dim>128</dim>
					<dim>75</dim>
					<dim>75</dim>
				</port>
			</input>
			<output>
				<port id="1" precision="FP32" names="FeatureExtractor/MobilenetV1/MobilenetV1/Conv2d_2_pointwise/Relu6:0">
					<dim>1</dim>
					<dim>128</dim>
					<dim>75</dim>
					<dim>75</dim>
				</port>
			</output>
		</layer>
		<layer id="33" name="FeatureExtractor/MobilenetV1/MobilenetV1/Conv2d_3_depthwise/BatchNorm/batchnorm/mul_1_copy" type="Const" version="opset1">
			<data element_type="f32" shape="128, 1, 1, 3, 3" offset="49192" size="4608" />
			<output>
				<port id="0" precision="FP32" names="FeatureExtractor/MobilenetV1/Conv2d_3_depthwise/depthwise_weights/read/_151__cf__154:0">
					<dim>128</dim>
					<dim>1</dim>
					<dim>1</dim>
					<dim>3</dim>
					<dim>3</dim>
				</port>
			</output>
		</layer>
		<layer id="34" name="FeatureExtractor/MobilenetV1/MobilenetV1/Conv2d_3_depthwise/depthwise" type="GroupConvolution" version="opset1">
			<data strides="1, 1" pads_begin="0, 0" pads_end="0, 0" dilations="1, 1" auto_pad="same_upper" />
			<input>
				<port id="0" precision="FP32">
					<dim>1</dim>
					<dim>128</dim>
					<dim>75</dim>
					<dim>75</dim>
				</port>
				<port id="1" precision="FP32">
					<dim>128</dim>
					<dim>1</dim>
					<dim>1</dim>
					<dim>3</dim>
					<dim>3</dim>
				</port>
			</input>
			<output>
				<port id="2" precision="FP32" names="FeatureExtractor/MobilenetV1/MobilenetV1/Conv2d_3_depthwise/BatchNorm/batchnorm/mul_1:0">
					<dim>1</dim>
					<dim>128</dim>
					<dim>75</dim>
					<dim>75</dim>
				</port>
			</output>
		</layer>
		<layer id="35" name="FeatureExtractor/MobilenetV1/MobilenetV1/Conv2d_3_depthwise/BatchNorm/batchnorm/sub/_150__cf__153" type="Const" version="opset1">
			<data element_type="f32" shape="1, 128, 1, 1" offset="53800" size="512" />
			<output>
				<port id="0" precision="FP32" names="FeatureExtractor/MobilenetV1/MobilenetV1/Conv2d_3_depthwise/BatchNorm/batchnorm/sub/_150__cf__153:0">
					<dim>1</dim>
					<dim>128</dim>
					<dim>1</dim>
					<dim>1</dim>
				</port>
			</output>
		</layer>
		<layer id="36" name="FeatureExtractor/MobilenetV1/MobilenetV1/Conv2d_3_depthwise/BatchNorm/batchnorm/add_1" type="Add" version="opset1">
			<data auto_broadcast="numpy" />
			<input>
				<port id="0" precision="FP32">
					<dim>1</dim>
					<dim>128</dim>
					<dim>75</dim>
					<dim>75</dim>
				</port>
				<port id="1" precision="FP32">
					<dim>1</dim>
					<dim>128</dim>
					<dim>1</dim>
					<dim>1</dim>
				</port>
			</input>
			<output>
				<port id="2" precision="FP32" names="FeatureExtractor/MobilenetV1/MobilenetV1/Conv2d_3_depthwise/BatchNorm/batchnorm/add_1:0">
					<dim>1</dim>
					<dim>128</dim>
					<dim>75</dim>
					<dim>75</dim>
				</port>
			</output>
		</layer>
		<layer id="37" name="FeatureExtractor/MobilenetV1/MobilenetV1/Conv2d_3_depthwise/Relu6" type="Clamp" version="opset1">
			<data min="0" max="6" />
			<input>
				<port id="0" precision="FP32">
					<dim>1</dim>
					<dim>128</dim>
					<dim>75</dim>
					<dim>75</dim>
				</port>
			</input>
			<output>
				<port id="1" precision="FP32" names="FeatureExtractor/MobilenetV1/MobilenetV1/Conv2d_3_depthwise/Relu6:0">
					<dim>1</dim>
					<dim>128</dim>
					<dim>75</dim>
					<dim>75</dim>
				</port>
			</output>
		</layer>
		<layer id="38" name="FeatureExtractor/MobilenetV1/Conv2d_3_pointwise/weights/read/_148__cf__151" type="Const" version="opset1">
			<data element_type="f32" shape="128, 128, 1, 1" offset="54312" size="65536" />
			<output>
				<port id="0" precision="FP32" names="FeatureExtractor/MobilenetV1/Conv2d_3_pointwise/weights/read/_148__cf__151:0">
					<dim>128</dim>
					<dim>128</dim>
					<dim>1</dim>
					<dim>1</dim>
				</port>
			</output>
		</layer>
		<layer id="39" name="FeatureExtractor/MobilenetV1/MobilenetV1/Conv2d_3_pointwise/BatchNorm/batchnorm/mul_1" type="Convolution" version="opset1">
			<data strides="1, 1" dilations="1, 1" pads_begin="0, 0" pads_end="0, 0" auto_pad="same_upper" />
			<input>
				<port id="0" precision="FP32">
					<dim>1</dim>
					<dim>128</dim>
					<dim>75</dim>
					<dim>75</dim>
				</port>
				<port id="1" precision="FP32">
					<dim>128</dim>
					<dim>128</dim>
					<dim>1</dim>
					<dim>1</dim>
				</port>
			</input>
			<output>
				<port id="2" precision="FP32" names="FeatureExtractor/MobilenetV1/MobilenetV1/Conv2d_3_pointwise/BatchNorm/batchnorm/mul_1:0">
					<dim>1</dim>
					<dim>128</dim>
					<dim>75</dim>
					<dim>75</dim>
				</port>
			</output>
		</layer>
		<layer id="40" name="FeatureExtractor/MobilenetV1/MobilenetV1/Conv2d_3_pointwise/BatchNorm/batchnorm/sub/_147__cf__150" type="Const" version="opset1">
			<data element_type="f32" shape="1, 128, 1, 1" offset="119848" size="512" />
			<output>
				<port id="0" precision="FP32" names="FeatureExtractor/MobilenetV1/MobilenetV1/Conv2d_3_pointwise/BatchNorm/batchnorm/sub/_147__cf__150:0">
					<dim>1</dim>
					<dim>128</dim>
					<dim>1</dim>
					<dim>1</dim>
				</port>
			</output>
		</layer>
		<layer id="41" name="FeatureExtractor/MobilenetV1/MobilenetV1/Conv2d_3_pointwise/BatchNorm/batchnorm/add_1" type="Add" version="opset1">
			<data auto_broadcast="numpy" />
			<input>
				<port id="0" precision="FP32">
					<dim>1</dim>
					<dim>128</dim>
					<dim>75</dim>
					<dim>75</dim>
				</port>
				<port id="1" precision="FP32">
					<dim>1</dim>
					<dim>128</dim>
					<dim>1</dim>
					<dim>1</dim>
				</port>
			</input>
			<output>
				<port id="2" precision="FP32" names="FeatureExtractor/MobilenetV1/MobilenetV1/Conv2d_3_pointwise/BatchNorm/batchnorm/add_1:0">
					<dim>1</dim>
					<dim>128</dim>
					<dim>75</dim>
					<dim>75</dim>
				</port>
			</output>
		</layer>
		<layer id="42" name="FeatureExtractor/MobilenetV1/MobilenetV1/Conv2d_3_pointwise/Relu6" type="Clamp" version="opset1">
			<data min="0" max="6" />
			<input>
				<port id="0" precision="FP32">
					<dim>1</dim>
					<dim>128</dim>
					<dim>75</dim>
					<dim>75</dim>
				</port>
			</input>
			<output>
				<port id="1" precision="FP32" names="FeatureExtractor/MobilenetV1/MobilenetV1/Conv2d_3_pointwise/Relu6:0">
					<dim>1</dim>
					<dim>128</dim>
					<dim>75</dim>
					<dim>75</dim>
				</port>
			</output>
		</layer>
		<layer id="43" name="FeatureExtractor/MobilenetV1/MobilenetV1/Conv2d_4_depthwise/BatchNorm/batchnorm/mul_1_copy" type="Const" version="opset1">
			<data element_type="f32" shape="128, 1, 1, 3, 3" offset="120360" size="4608" />
			<output>
				<port id="0" precision="FP32" names="FeatureExtractor/MobilenetV1/Conv2d_4_depthwise/depthwise_weights/read/_145__cf__148:0">
					<dim>128</dim>
					<dim>1</dim>
					<dim>1</dim>
					<dim>3</dim>
					<dim>3</dim>
				</port>
			</output>
		</layer>
		<layer id="44" name="FeatureExtractor/MobilenetV1/MobilenetV1/Conv2d_4_depthwise/depthwise" type="GroupConvolution" version="opset1">
			<data strides="2, 2" pads_begin="0, 0" pads_end="0, 0" dilations="1, 1" auto_pad="same_upper" />
			<input>
				<port id="0" precision="FP32">
					<dim>1</dim>
					<dim>128</dim>
					<dim>75</dim>
					<dim>75</dim>
				</port>
				<port id="1" precision="FP32">
					<dim>128</dim>
					<dim>1</dim>
					<dim>1</dim>
					<dim>3</dim>
					<dim>3</dim>
				</port>
			</input>
			<output>
				<port id="2" precision="FP32" names="FeatureExtractor/MobilenetV1/MobilenetV1/Conv2d_4_depthwise/BatchNorm/batchnorm/mul_1:0">
					<dim>1</dim>
					<dim>128</dim>
					<dim>38</dim>
					<dim>38</dim>
				</port>
			</output>
		</layer>
		<layer id="45" name="FeatureExtractor/MobilenetV1/MobilenetV1/Conv2d_4_depthwise/BatchNorm/batchnorm/sub/_144__cf__147" type="Const" version="opset1">
			<data element_type="f32" shape="1, 128, 1, 1" offset="124968" size="512" />
			<output>
				<port id="0" precision="FP32" names="FeatureExtractor/MobilenetV1/MobilenetV1/Conv2d_4_depthwise/BatchNorm/batchnorm/sub/_144__cf__147:0">
					<dim>1</dim>
					<dim>128</dim>
					<dim>1</dim>
					<dim>1</dim>
				</port>
			</output>
		</layer>
		<layer id="46" name="FeatureExtractor/MobilenetV1/MobilenetV1/Conv2d_4_depthwise/BatchNorm/batchnorm/add_1" type="Add" version="opset1">
			<data auto_broadcast="numpy" />
			<input>
				<port id="0" precision="FP32">
					<dim>1</dim>
					<dim>128</dim>
					<dim>38</dim>
					<dim>38</dim>
				</port>
				<port id="1" precision="FP32">
					<dim>1</dim>
					<dim>128</dim>
					<dim>1</dim>
					<dim>1</dim>
				</port>
			</input>
			<output>
				<port id="2" precision="FP32" names="FeatureExtractor/MobilenetV1/MobilenetV1/Conv2d_4_depthwise/BatchNorm/batchnorm/add_1:0">
					<dim>1</dim>
					<dim>128</dim>
					<dim>38</dim>
					<dim>38</dim>
				</port>
			</output>
		</layer>
		<layer id="47" name="FeatureExtractor/MobilenetV1/MobilenetV1/Conv2d_4_depthwise/Relu6" type="Clamp" version="opset1">
			<data min="0" max="6" />
			<input>
				<port id="0" precision="FP32">
					<dim>1</dim>
					<dim>128</dim>
					<dim>38</dim>
					<dim>38</dim>
				</port>
			</input>
			<output>
				<port id="1" precision="FP32" names="FeatureExtractor/MobilenetV1/MobilenetV1/Conv2d_4_depthwise/Relu6:0">
					<dim>1</dim>
					<dim>128</dim>
					<dim>38</dim>
					<dim>38</dim>
				</port>
			</output>
		</layer>
		<layer id="48" name="FeatureExtractor/MobilenetV1/Conv2d_4_pointwise/weights/read/_142__cf__145" type="Const" version="opset1">
			<data element_type="f32" shape="256, 128, 1, 1" offset="125480" size="131072" />
			<output>
				<port id="0" precision="FP32" names="FeatureExtractor/MobilenetV1/Conv2d_4_pointwise/weights/read/_142__cf__145:0">
					<dim>256</dim>
					<dim>128</dim>
					<dim>1</dim>
					<dim>1</dim>
				</port>
			</output>
		</layer>
		<layer id="49" name="FeatureExtractor/MobilenetV1/MobilenetV1/Conv2d_4_pointwise/BatchNorm/batchnorm/mul_1" type="Convolution" version="opset1">
			<data strides="1, 1" dilations="1, 1" pads_begin="0, 0" pads_end="0, 0" auto_pad="same_upper" />
			<input>
				<port id="0" precision="FP32">
					<dim>1</dim>
					<dim>128</dim>
					<dim>38</dim>
					<dim>38</dim>
				</port>
				<port id="1" precision="FP32">
					<dim>256</dim>
					<dim>128</dim>
					<dim>1</dim>
					<dim>1</dim>
				</port>
			</input>
			<output>
				<port id="2" precision="FP32" names="FeatureExtractor/MobilenetV1/MobilenetV1/Conv2d_4_pointwise/BatchNorm/batchnorm/mul_1:0">
					<dim>1</dim>
					<dim>256</dim>
					<dim>38</dim>
					<dim>38</dim>
				</port>
			</output>
		</layer>
		<layer id="50" name="FeatureExtractor/MobilenetV1/MobilenetV1/Conv2d_4_pointwise/BatchNorm/batchnorm/sub/_141__cf__144" type="Const" version="opset1">
			<data element_type="f32" shape="1, 256, 1, 1" offset="256552" size="1024" />
			<output>
				<port id="0" precision="FP32" names="FeatureExtractor/MobilenetV1/MobilenetV1/Conv2d_4_pointwise/BatchNorm/batchnorm/sub/_141__cf__144:0">
					<dim>1</dim>
					<dim>256</dim>
					<dim>1</dim>
					<dim>1</dim>
				</port>
			</output>
		</layer>
		<layer id="51" name="FeatureExtractor/MobilenetV1/MobilenetV1/Conv2d_4_pointwise/BatchNorm/batchnorm/add_1" type="Add" version="opset1">
			<data auto_broadcast="numpy" />
			<input>
				<port id="0" precision="FP32">
					<dim>1</dim>
					<dim>256</dim>
					<dim>38</dim>
					<dim>38</dim>
				</port>
				<port id="1" precision="FP32">
					<dim>1</dim>
					<dim>256</dim>
					<dim>1</dim>
					<dim>1</dim>
				</port>
			</input>
			<output>
				<port id="2" precision="FP32" names="FeatureExtractor/MobilenetV1/MobilenetV1/Conv2d_4_pointwise/BatchNorm/batchnorm/add_1:0">
					<dim>1</dim>
					<dim>256</dim>
					<dim>38</dim>
					<dim>38</dim>
				</port>
			</output>
		</layer>
		<layer id="52" name="FeatureExtractor/MobilenetV1/MobilenetV1/Conv2d_4_pointwise/Relu6" type="Clamp" version="opset1">
			<data min="0" max="6" />
			<input>
				<port id="0" precision="FP32">
					<dim>1</dim>
					<dim>256</dim>
					<dim>38</dim>
					<dim>38</dim>
				</port>
			</input>
			<output>
				<port id="1" precision="FP32" names="FeatureExtractor/MobilenetV1/MobilenetV1/Conv2d_4_pointwise/Relu6:0">
					<dim>1</dim>
					<dim>256</dim>
					<dim>38</dim>
					<dim>38</dim>
				</port>
			</output>
		</layer>
		<layer id="53" name="FeatureExtractor/MobilenetV1/MobilenetV1/Conv2d_5_depthwise/BatchNorm/batchnorm/mul_1_copy" type="Const" version="opset1">
			<data element_type="f32" shape="256, 1, 1, 3, 3" offset="257576" size="9216" />
			<output>
				<port id="0" precision="FP32" names="FeatureExtractor/MobilenetV1/Conv2d_5_depthwise/depthwise_weights/read/_139__cf__142:0">
					<dim>256</dim>
					<dim>1</dim>
					<dim>1</dim>
					<dim>3</dim>
					<dim>3</dim>
				</port>
			</output>
		</layer>
		<layer id="54" name="FeatureExtractor/MobilenetV1/MobilenetV1/Conv2d_5_depthwise/depthwise" type="GroupConvolution" version="opset1">
			<data strides="1, 1" pads_begin="0, 0" pads_end="0, 0" dilations="1, 1" auto_pad="same_upper" />
			<input>
				<port id="0" precision="FP32">
					<dim>1</dim>
					<dim>256</dim>
					<dim>38</dim>
					<dim>38</dim>
				</port>
				<port id="1" precision="FP32">
					<dim>256</dim>
					<dim>1</dim>
					<dim>1</dim>
					<dim>3</dim>
					<dim>3</dim>
				</port>
			</input>
			<output>
				<port id="2" precision="FP32" names="FeatureExtractor/MobilenetV1/MobilenetV1/Conv2d_5_depthwise/BatchNorm/batchnorm/mul_1:0">
					<dim>1</dim>
					<dim>256</dim>
					<dim>38</dim>
					<dim>38</dim>
				</port>
			</output>
		</layer>
		<layer id="55" name="FeatureExtractor/MobilenetV1/MobilenetV1/Conv2d_5_depthwise/BatchNorm/batchnorm/sub/_138__cf__141" type="Const" version="opset1">
			<data element_type="f32" shape="1, 256, 1, 1" offset="266792" size="1024" />
			<output>
				<port id="0" precision="FP32" names="FeatureExtractor/MobilenetV1/MobilenetV1/Conv2d_5_depthwise/BatchNorm/batchnorm/sub/_138__cf__141:0">
					<dim>1</dim>
					<dim>256</dim>
					<dim>1</dim>
					<dim>1</dim>
				</port>
			</output>
		</layer>
		<layer id="56" name="FeatureExtractor/MobilenetV1/MobilenetV1/Conv2d_5_depthwise/BatchNorm/batchnorm/add_1" type="Add" version="opset1">
			<data auto_broadcast="numpy" />
			<input>
				<port id="0" precision="FP32">
					<dim>1</dim>
					<dim>256</dim>
					<dim>38</dim>
					<dim>38</dim>
				</port>
				<port id="1" precision="FP32">
					<dim>1</dim>
					<dim>256</dim>
					<dim>1</dim>
					<dim>1</dim>
				</port>
			</input>
			<output>
				<port id="2" precision="FP32" names="FeatureExtractor/MobilenetV1/MobilenetV1/Conv2d_5_depthwise/BatchNorm/batchnorm/add_1:0">
					<dim>1</dim>
					<dim>256</dim>
					<dim>38</dim>
					<dim>38</dim>
				</port>
			</output>
		</layer>
		<layer id="57" name="FeatureExtractor/MobilenetV1/MobilenetV1/Conv2d_5_depthwise/Relu6" type="Clamp" version="opset1">
			<data min="0" max="6" />
			<input>
				<port id="0" precision="FP32">
					<dim>1</dim>
					<dim>256</dim>
					<dim>38</dim>
					<dim>38</dim>
				</port>
			</input>
			<output>
				<port id="1" precision="FP32" names="FeatureExtractor/MobilenetV1/MobilenetV1/Conv2d_5_depthwise/Relu6:0">
					<dim>1</dim>
					<dim>256</dim>
					<dim>38</dim>
					<dim>38</dim>
				</port>
			</output>
		</layer>
		<layer id="58" name="FeatureExtractor/MobilenetV1/Conv2d_5_pointwise/weights/read/_136__cf__139" type="Const" version="opset1">
			<data element_type="f32" shape="256, 256, 1, 1" offset="267816" size="262144" />
			<output>
				<port id="0" precision="FP32" names="FeatureExtractor/MobilenetV1/Conv2d_5_pointwise/weights/read/_136__cf__139:0">
					<dim>256</dim>
					<dim>256</dim>
					<dim>1</dim>
					<dim>1</dim>
				</port>
			</output>
		</layer>
		<layer id="59" name="FeatureExtractor/MobilenetV1/MobilenetV1/Conv2d_5_pointwise/BatchNorm/batchnorm/mul_1" type="Convolution" version="opset1">
			<data strides="1, 1" dilations="1, 1" pads_begin="0, 0" pads_end="0, 0" auto_pad="same_upper" />
			<input>
				<port id="0" precision="FP32">
					<dim>1</dim>
					<dim>256</dim>
					<dim>38</dim>
					<dim>38</dim>
				</port>
				<port id="1" precision="FP32">
					<dim>256</dim>
					<dim>256</dim>
					<dim>1</dim>
					<dim>1</dim>
				</port>
			</input>
			<output>
				<port id="2" precision="FP32" names="FeatureExtractor/MobilenetV1/MobilenetV1/Conv2d_5_pointwise/BatchNorm/batchnorm/mul_1:0">
					<dim>1</dim>
					<dim>256</dim>
					<dim>38</dim>
					<dim>38</dim>
				</port>
			</output>
		</layer>
		<layer id="60" name="FeatureExtractor/MobilenetV1/MobilenetV1/Conv2d_5_pointwise/BatchNorm/batchnorm/sub/_135__cf__138" type="Const" version="opset1">
			<data element_type="f32" shape="1, 256, 1, 1" offset="529960" size="1024" />
			<output>
				<port id="0" precision="FP32" names="FeatureExtractor/MobilenetV1/MobilenetV1/Conv2d_5_pointwise/BatchNorm/batchnorm/sub/_135__cf__138:0">
					<dim>1</dim>
					<dim>256</dim>
					<dim>1</dim>
					<dim>1</dim>
				</port>
			</output>
		</layer>
		<layer id="61" name="FeatureExtractor/MobilenetV1/MobilenetV1/Conv2d_5_pointwise/BatchNorm/batchnorm/add_1" type="Add" version="opset1">
			<data auto_broadcast="numpy" />
			<input>
				<port id="0" precision="FP32">
					<dim>1</dim>
					<dim>256</dim>
					<dim>38</dim>
					<dim>38</dim>
				</port>
				<port id="1" precision="FP32">
					<dim>1</dim>
					<dim>256</dim>
					<dim>1</dim>
					<dim>1</dim>
				</port>
			</input>
			<output>
				<port id="2" precision="FP32" names="FeatureExtractor/MobilenetV1/MobilenetV1/Conv2d_5_pointwise/BatchNorm/batchnorm/add_1:0">
					<dim>1</dim>
					<dim>256</dim>
					<dim>38</dim>
					<dim>38</dim>
				</port>
			</output>
		</layer>
		<layer id="62" name="FeatureExtractor/MobilenetV1/MobilenetV1/Conv2d_5_pointwise/Relu6" type="Clamp" version="opset1">
			<data min="0" max="6" />
			<input>
				<port id="0" precision="FP32">
					<dim>1</dim>
					<dim>256</dim>
					<dim>38</dim>
					<dim>38</dim>
				</port>
			</input>
			<output>
				<port id="1" precision="FP32" names="FeatureExtractor/MobilenetV1/MobilenetV1/Conv2d_5_pointwise/Relu6:0">
					<dim>1</dim>
					<dim>256</dim>
					<dim>38</dim>
					<dim>38</dim>
				</port>
			</output>
		</layer>
		<layer id="63" name="FeatureExtractor/MobilenetV1/MobilenetV1/Conv2d_6_depthwise/BatchNorm/batchnorm/mul_1_copy" type="Const" version="opset1">
			<data element_type="f32" shape="256, 1, 1, 3, 3" offset="530984" size="9216" />
			<output>
				<port id="0" precision="FP32" names="FeatureExtractor/MobilenetV1/Conv2d_6_depthwise/depthwise_weights/read/_133__cf__136:0">
					<dim>256</dim>
					<dim>1</dim>
					<dim>1</dim>
					<dim>3</dim>
					<dim>3</dim>
				</port>
			</output>
		</layer>
		<layer id="64" name="FeatureExtractor/MobilenetV1/MobilenetV1/Conv2d_6_depthwise/depthwise" type="GroupConvolution" version="opset1">
			<data strides="2, 2" pads_begin="0, 0" pads_end="0, 0" dilations="1, 1" auto_pad="same_upper" />
			<input>
				<port id="0" precision="FP32">
					<dim>1</dim>
					<dim>256</dim>
					<dim>38</dim>
					<dim>38</dim>
				</port>
				<port id="1" precision="FP32">
					<dim>256</dim>
					<dim>1</dim>
					<dim>1</dim>
					<dim>3</dim>
					<dim>3</dim>
				</port>
			</input>
			<output>
				<port id="2" precision="FP32" names="FeatureExtractor/MobilenetV1/MobilenetV1/Conv2d_6_depthwise/BatchNorm/batchnorm/mul_1:0">
					<dim>1</dim>
					<dim>256</dim>
					<dim>19</dim>
					<dim>19</dim>
				</port>
			</output>
		</layer>
		<layer id="65" name="FeatureExtractor/MobilenetV1/MobilenetV1/Conv2d_6_depthwise/BatchNorm/batchnorm/sub/_132__cf__135" type="Const" version="opset1">
			<data element_type="f32" shape="1, 256, 1, 1" offset="540200" size="1024" />
			<output>
				<port id="0" precision="FP32" names="FeatureExtractor/MobilenetV1/MobilenetV1/Conv2d_6_depthwise/BatchNorm/batchnorm/sub/_132__cf__135:0">
					<dim>1</dim>
					<dim>256</dim>
					<dim>1</dim>
					<dim>1</dim>
				</port>
			</output>
		</layer>
		<layer id="66" name="FeatureExtractor/MobilenetV1/MobilenetV1/Conv2d_6_depthwise/BatchNorm/batchnorm/add_1" type="Add" version="opset1">
			<data auto_broadcast="numpy" />
			<input>
				<port id="0" precision="FP32">
					<dim>1</dim>
					<dim>256</dim>
					<dim>19</dim>
					<dim>19</dim>
				</port>
				<port id="1" precision="FP32">
					<dim>1</dim>
					<dim>256</dim>
					<dim>1</dim>
					<dim>1</dim>
				</port>
			</input>
			<output>
				<port id="2" precision="FP32" names="FeatureExtractor/MobilenetV1/MobilenetV1/Conv2d_6_depthwise/BatchNorm/batchnorm/add_1:0">
					<dim>1</dim>
					<dim>256</dim>
					<dim>19</dim>
					<dim>19</dim>
				</port>
			</output>
		</layer>
		<layer id="67" name="FeatureExtractor/MobilenetV1/MobilenetV1/Conv2d_6_depthwise/Relu6" type="Clamp" version="opset1">
			<data min="0" max="6" />
			<input>
				<port id="0" precision="FP32">
					<dim>1</dim>
					<dim>256</dim>
					<dim>19</dim>
					<dim>19</dim>
				</port>
			</input>
			<output>
				<port id="1" precision="FP32" names="FeatureExtractor/MobilenetV1/MobilenetV1/Conv2d_6_depthwise/Relu6:0">
					<dim>1</dim>
					<dim>256</dim>
					<dim>19</dim>
					<dim>19</dim>
				</port>
			</output>
		</layer>
		<layer id="68" name="FeatureExtractor/MobilenetV1/Conv2d_6_pointwise/weights/read/_130__cf__133" type="Const" version="opset1">
			<data element_type="f32" shape="512, 256, 1, 1" offset="541224" size="524288" />
			<output>
				<port id="0" precision="FP32" names="FeatureExtractor/MobilenetV1/Conv2d_6_pointwise/weights/read/_130__cf__133:0">
					<dim>512</dim>
					<dim>256</dim>
					<dim>1</dim>
					<dim>1</dim>
				</port>
			</output>
		</layer>
		<layer id="69" name="FeatureExtractor/MobilenetV1/MobilenetV1/Conv2d_6_pointwise/BatchNorm/batchnorm/mul_1" type="Convolution" version="opset1">
			<data strides="1, 1" dilations="1, 1" pads_begin="0, 0" pads_end="0, 0" auto_pad="same_upper" />
			<input>
				<port id="0" precision="FP32">
					<dim>1</dim>
					<dim>256</dim>
					<dim>19</dim>
					<dim>19</dim>
				</port>
				<port id="1" precision="FP32">
					<dim>512</dim>
					<dim>256</dim>
					<dim>1</dim>
					<dim>1</dim>
				</port>
			</input>
			<output>
				<port id="2" precision="FP32" names="FeatureExtractor/MobilenetV1/MobilenetV1/Conv2d_6_pointwise/BatchNorm/batchnorm/mul_1:0">
					<dim>1</dim>
					<dim>512</dim>
					<dim>19</dim>
					<dim>19</dim>
				</port>
			</output>
		</layer>
		<layer id="70" name="FeatureExtractor/MobilenetV1/MobilenetV1/Conv2d_6_pointwise/BatchNorm/batchnorm/sub/_129__cf__132" type="Const" version="opset1">
			<data element_type="f32" shape="1, 512, 1, 1" offset="1065512" size="2048" />
			<output>
				<port id="0" precision="FP32" names="FeatureExtractor/MobilenetV1/MobilenetV1/Conv2d_6_pointwise/BatchNorm/batchnorm/sub/_129__cf__132:0">
					<dim>1</dim>
					<dim>512</dim>
					<dim>1</dim>
					<dim>1</dim>
				</port>
			</output>
		</layer>
		<layer id="71" name="FeatureExtractor/MobilenetV1/MobilenetV1/Conv2d_6_pointwise/BatchNorm/batchnorm/add_1" type="Add" version="opset1">
			<data auto_broadcast="numpy" />
			<input>
				<port id="0" precision="FP32">
					<dim>1</dim>
					<dim>512</dim>
					<dim>19</dim>
					<dim>19</dim>
				</port>
				<port id="1" precision="FP32">
					<dim>1</dim>
					<dim>512</dim>
					<dim>1</dim>
					<dim>1</dim>
				</port>
			</input>
			<output>
				<port id="2" precision="FP32" names="FeatureExtractor/MobilenetV1/MobilenetV1/Conv2d_6_pointwise/BatchNorm/batchnorm/add_1:0">
					<dim>1</dim>
					<dim>512</dim>
					<dim>19</dim>
					<dim>19</dim>
				</port>
			</output>
		</layer>
		<layer id="72" name="FeatureExtractor/MobilenetV1/MobilenetV1/Conv2d_6_pointwise/Relu6" type="Clamp" version="opset1">
			<data min="0" max="6" />
			<input>
				<port id="0" precision="FP32">
					<dim>1</dim>
					<dim>512</dim>
					<dim>19</dim>
					<dim>19</dim>
				</port>
			</input>
			<output>
				<port id="1" precision="FP32" names="FeatureExtractor/MobilenetV1/MobilenetV1/Conv2d_6_pointwise/Relu6:0">
					<dim>1</dim>
					<dim>512</dim>
					<dim>19</dim>
					<dim>19</dim>
				</port>
			</output>
		</layer>
		<layer id="73" name="FeatureExtractor/MobilenetV1/MobilenetV1/Conv2d_7_depthwise/BatchNorm/batchnorm/mul_1_copy" type="Const" version="opset1">
			<data element_type="f32" shape="512, 1, 1, 3, 3" offset="1067560" size="18432" />
			<output>
				<port id="0" precision="FP32" names="FeatureExtractor/MobilenetV1/Conv2d_7_depthwise/depthwise_weights/read/_127__cf__130:0">
					<dim>512</dim>
					<dim>1</dim>
					<dim>1</dim>
					<dim>3</dim>
					<dim>3</dim>
				</port>
			</output>
		</layer>
		<layer id="74" name="FeatureExtractor/MobilenetV1/MobilenetV1/Conv2d_7_depthwise/depthwise" type="GroupConvolution" version="opset1">
			<data strides="1, 1" pads_begin="0, 0" pads_end="0, 0" dilations="1, 1" auto_pad="same_upper" />
			<input>
				<port id="0" precision="FP32">
					<dim>1</dim>
					<dim>512</dim>
					<dim>19</dim>
					<dim>19</dim>
				</port>
				<port id="1" precision="FP32">
					<dim>512</dim>
					<dim>1</dim>
					<dim>1</dim>
					<dim>3</dim>
					<dim>3</dim>
				</port>
			</input>
			<output>
				<port id="2" precision="FP32" names="FeatureExtractor/MobilenetV1/MobilenetV1/Conv2d_7_depthwise/BatchNorm/batchnorm/mul_1:0">
					<dim>1</dim>
					<dim>512</dim>
					<dim>19</dim>
					<dim>19</dim>
				</port>
			</output>
		</layer>
		<layer id="75" name="FeatureExtractor/MobilenetV1/MobilenetV1/Conv2d_7_depthwise/BatchNorm/batchnorm/sub/_126__cf__129" type="Const" version="opset1">
			<data element_type="f32" shape="1, 512, 1, 1" offset="1085992" size="2048" />
			<output>
				<port id="0" precision="FP32" names="FeatureExtractor/MobilenetV1/MobilenetV1/Conv2d_7_depthwise/BatchNorm/batchnorm/sub/_126__cf__129:0">
					<dim>1</dim>
					<dim>512</dim>
					<dim>1</dim>
					<dim>1</dim>
				</port>
			</output>
		</layer>
		<layer id="76" name="FeatureExtractor/MobilenetV1/MobilenetV1/Conv2d_7_depthwise/BatchNorm/batchnorm/add_1" type="Add" version="opset1">
			<data auto_broadcast="numpy" />
			<input>
				<port id="0" precision="FP32">
					<dim>1</dim>
					<dim>512</dim>
					<dim>19</dim>
					<dim>19</dim>
				</port>
				<port id="1" precision="FP32">
					<dim>1</dim>
					<dim>512</dim>
					<dim>1</dim>
					<dim>1</dim>
				</port>
			</input>
			<output>
				<port id="2" precision="FP32" names="FeatureExtractor/MobilenetV1/MobilenetV1/Conv2d_7_depthwise/BatchNorm/batchnorm/add_1:0">
					<dim>1</dim>
					<dim>512</dim>
					<dim>19</dim>
					<dim>19</dim>
				</port>
			</output>
		</layer>
		<layer id="77" name="FeatureExtractor/MobilenetV1/MobilenetV1/Conv2d_7_depthwise/Relu6" type="Clamp" version="opset1">
			<data min="0" max="6" />
			<input>
				<port id="0" precision="FP32">
					<dim>1</dim>
					<dim>512</dim>
					<dim>19</dim>
					<dim>19</dim>
				</port>
			</input>
			<output>
				<port id="1" precision="FP32" names="FeatureExtractor/MobilenetV1/MobilenetV1/Conv2d_7_depthwise/Relu6:0">
					<dim>1</dim>
					<dim>512</dim>
					<dim>19</dim>
					<dim>19</dim>
				</port>
			</output>
		</layer>
		<layer id="78" name="FeatureExtractor/MobilenetV1/Conv2d_7_pointwise/weights/read/_124__cf__127" type="Const" version="opset1">
			<data element_type="f32" shape="512, 512, 1, 1" offset="1088040" size="1048576" />
			<output>
				<port id="0" precision="FP32" names="FeatureExtractor/MobilenetV1/Conv2d_7_pointwise/weights/read/_124__cf__127:0">
					<dim>512</dim>
					<dim>512</dim>
					<dim>1</dim>
					<dim>1</dim>
				</port>
			</output>
		</layer>
		<layer id="79" name="FeatureExtractor/MobilenetV1/MobilenetV1/Conv2d_7_pointwise/BatchNorm/batchnorm/mul_1" type="Convolution" version="opset1">
			<data strides="1, 1" dilations="1, 1" pads_begin="0, 0" pads_end="0, 0" auto_pad="same_upper" />
			<input>
				<port id="0" precision="FP32">
					<dim>1</dim>
					<dim>512</dim>
					<dim>19</dim>
					<dim>19</dim>
				</port>
				<port id="1" precision="FP32">
					<dim>512</dim>
					<dim>512</dim>
					<dim>1</dim>
					<dim>1</dim>
				</port>
			</input>
			<output>
				<port id="2" precision="FP32" names="FeatureExtractor/MobilenetV1/MobilenetV1/Conv2d_7_pointwise/BatchNorm/batchnorm/mul_1:0">
					<dim>1</dim>
					<dim>512</dim>
					<dim>19</dim>
					<dim>19</dim>
				</port>
			</output>
		</layer>
		<layer id="80" name="FeatureExtractor/MobilenetV1/MobilenetV1/Conv2d_7_pointwise/BatchNorm/batchnorm/sub/_123__cf__126" type="Const" version="opset1">
			<data element_type="f32" shape="1, 512, 1, 1" offset="2136616" size="2048" />
			<output>
				<port id="0" precision="FP32" names="FeatureExtractor/MobilenetV1/MobilenetV1/Conv2d_7_pointwise/BatchNorm/batchnorm/sub/_123__cf__126:0">
					<dim>1</dim>
					<dim>512</dim>
					<dim>1</dim>
					<dim>1</dim>
				</port>
			</output>
		</layer>
		<layer id="81" name="FeatureExtractor/MobilenetV1/MobilenetV1/Conv2d_7_pointwise/BatchNorm/batchnorm/add_1" type="Add" version="opset1">
			<data auto_broadcast="numpy" />
			<input>
				<port id="0" precision="FP32">
					<dim>1</dim>
					<dim>512</dim>
					<dim>19</dim>
					<dim>19</dim>
				</port>
				<port id="1" precision="FP32">
					<dim>1</dim>
					<dim>512</dim>
					<dim>1</dim>
					<dim>1</dim>
				</port>
			</input>
			<output>
				<port id="2" precision="FP32" names="FeatureExtractor/MobilenetV1/MobilenetV1/Conv2d_7_pointwise/BatchNorm/batchnorm/add_1:0">
					<dim>1</dim>
					<dim>512</dim>
					<dim>19</dim>
					<dim>19</dim>
				</port>
			</output>
		</layer>
		<layer id="82" name="FeatureExtractor/MobilenetV1/MobilenetV1/Conv2d_7_pointwise/Relu6" type="Clamp" version="opset1">
			<data min="0" max="6" />
			<input>
				<port id="0" precision="FP32">
					<dim>1</dim>
					<dim>512</dim>
					<dim>19</dim>
					<dim>19</dim>
				</port>
			</input>
			<output>
				<port id="1" precision="FP32" names="FeatureExtractor/MobilenetV1/MobilenetV1/Conv2d_7_pointwise/Relu6:0">
					<dim>1</dim>
					<dim>512</dim>
					<dim>19</dim>
					<dim>19</dim>
				</port>
			</output>
		</layer>
		<layer id="83" name="FeatureExtractor/MobilenetV1/MobilenetV1/Conv2d_8_depthwise/BatchNorm/batchnorm/mul_1_copy" type="Const" version="opset1">
			<data element_type="f32" shape="512, 1, 1, 3, 3" offset="2138664" size="18432" />
			<output>
				<port id="0" precision="FP32" names="FeatureExtractor/MobilenetV1/Conv2d_8_depthwise/depthwise_weights/read/_121__cf__124:0">
					<dim>512</dim>
					<dim>1</dim>
					<dim>1</dim>
					<dim>3</dim>
					<dim>3</dim>
				</port>
			</output>
		</layer>
		<layer id="84" name="FeatureExtractor/MobilenetV1/MobilenetV1/Conv2d_8_depthwise/depthwise" type="GroupConvolution" version="opset1">
			<data strides="1, 1" pads_begin="0, 0" pads_end="0, 0" dilations="1, 1" auto_pad="same_upper" />
			<input>
				<port id="0" precision="FP32">
					<dim>1</dim>
					<dim>512</dim>
					<dim>19</dim>
					<dim>19</dim>
				</port>
				<port id="1" precision="FP32">
					<dim>512</dim>
					<dim>1</dim>
					<dim>1</dim>
					<dim>3</dim>
					<dim>3</dim>
				</port>
			</input>
			<output>
				<port id="2" precision="FP32" names="FeatureExtractor/MobilenetV1/MobilenetV1/Conv2d_8_depthwise/BatchNorm/batchnorm/mul_1:0">
					<dim>1</dim>
					<dim>512</dim>
					<dim>19</dim>
					<dim>19</dim>
				</port>
			</output>
		</layer>
		<layer id="85" name="FeatureExtractor/MobilenetV1/MobilenetV1/Conv2d_8_depthwise/BatchNorm/batchnorm/sub/_120__cf__123" type="Const" version="opset1">
			<data element_type="f32" shape="1, 512, 1, 1" offset="2157096" size="2048" />
			<output>
				<port id="0" precision="FP32" names="FeatureExtractor/MobilenetV1/MobilenetV1/Conv2d_8_depthwise/BatchNorm/batchnorm/sub/_120__cf__123:0">
					<dim>1</dim>
					<dim>512</dim>
					<dim>1</dim>
					<dim>1</dim>
				</port>
			</output>
		</layer>
		<layer id="86" name="FeatureExtractor/MobilenetV1/MobilenetV1/Conv2d_8_depthwise/BatchNorm/batchnorm/add_1" type="Add" version="opset1">
			<data auto_broadcast="numpy" />
			<input>
				<port id="0" precision="FP32">
					<dim>1</dim>
					<dim>512</dim>
					<dim>19</dim>
					<dim>19</dim>
				</port>
				<port id="1" precision="FP32">
					<dim>1</dim>
					<dim>512</dim>
					<dim>1</dim>
					<dim>1</dim>
				</port>
			</input>
			<output>
				<port id="2" precision="FP32" names="FeatureExtractor/MobilenetV1/MobilenetV1/Conv2d_8_depthwise/BatchNorm/batchnorm/add_1:0">
					<dim>1</dim>
					<dim>512</dim>
					<dim>19</dim>
					<dim>19</dim>
				</port>
			</output>
		</layer>
		<layer id="87" name="FeatureExtractor/MobilenetV1/MobilenetV1/Conv2d_8_depthwise/Relu6" type="Clamp" version="opset1">
			<data min="0" max="6" />
			<input>
				<port id="0" precision="FP32">
					<dim>1</dim>
					<dim>512</dim>
					<dim>19</dim>
					<dim>19</dim>
				</port>
			</input>
			<output>
				<port id="1" precision="FP32" names="FeatureExtractor/MobilenetV1/MobilenetV1/Conv2d_8_depthwise/Relu6:0">
					<dim>1</dim>
					<dim>512</dim>
					<dim>19</dim>
					<dim>19</dim>
				</port>
			</output>
		</layer>
		<layer id="88" name="FeatureExtractor/MobilenetV1/Conv2d_8_pointwise/weights/read/_118__cf__121" type="Const" version="opset1">
			<data element_type="f32" shape="512, 512, 1, 1" offset="2159144" size="1048576" />
			<output>
				<port id="0" precision="FP32" names="FeatureExtractor/MobilenetV1/Conv2d_8_pointwise/weights/read/_118__cf__121:0">
					<dim>512</dim>
					<dim>512</dim>
					<dim>1</dim>
					<dim>1</dim>
				</port>
			</output>
		</layer>
		<layer id="89" name="FeatureExtractor/MobilenetV1/MobilenetV1/Conv2d_8_pointwise/BatchNorm/batchnorm/mul_1" type="Convolution" version="opset1">
			<data strides="1, 1" dilations="1, 1" pads_begin="0, 0" pads_end="0, 0" auto_pad="same_upper" />
			<input>
				<port id="0" precision="FP32">
					<dim>1</dim>
					<dim>512</dim>
					<dim>19</dim>
					<dim>19</dim>
				</port>
				<port id="1" precision="FP32">
					<dim>512</dim>
					<dim>512</dim>
					<dim>1</dim>
					<dim>1</dim>
				</port>
			</input>
			<output>
				<port id="2" precision="FP32" names="FeatureExtractor/MobilenetV1/MobilenetV1/Conv2d_8_pointwise/BatchNorm/batchnorm/mul_1:0">
					<dim>1</dim>
					<dim>512</dim>
					<dim>19</dim>
					<dim>19</dim>
				</port>
			</output>
		</layer>
		<layer id="90" name="FeatureExtractor/MobilenetV1/MobilenetV1/Conv2d_8_pointwise/BatchNorm/batchnorm/sub/_117__cf__120" type="Const" version="opset1">
			<data element_type="f32" shape="1, 512, 1, 1" offset="3207720" size="2048" />
			<output>
				<port id="0" precision="FP32" names="FeatureExtractor/MobilenetV1/MobilenetV1/Conv2d_8_pointwise/BatchNorm/batchnorm/sub/_117__cf__120:0">
					<dim>1</dim>
					<dim>512</dim>
					<dim>1</dim>
					<dim>1</dim>
				</port>
			</output>
		</layer>
		<layer id="91" name="FeatureExtractor/MobilenetV1/MobilenetV1/Conv2d_8_pointwise/BatchNorm/batchnorm/add_1" type="Add" version="opset1">
			<data auto_broadcast="numpy" />
			<input>
				<port id="0" precision="FP32">
					<dim>1</dim>
					<dim>512</dim>
					<dim>19</dim>
					<dim>19</dim>
				</port>
				<port id="1" precision="FP32">
					<dim>1</dim>
					<dim>512</dim>
					<dim>1</dim>
					<dim>1</dim>
				</port>
			</input>
			<output>
				<port id="2" precision="FP32" names="FeatureExtractor/MobilenetV1/MobilenetV1/Conv2d_8_pointwise/BatchNorm/batchnorm/add_1:0">
					<dim>1</dim>
					<dim>512</dim>
					<dim>19</dim>
					<dim>19</dim>
				</port>
			</output>
		</layer>
		<layer id="92" name="FeatureExtractor/MobilenetV1/MobilenetV1/Conv2d_8_pointwise/Relu6" type="Clamp" version="opset1">
			<data min="0" max="6" />
			<input>
				<port id="0" precision="FP32">
					<dim>1</dim>
					<dim>512</dim>
					<dim>19</dim>
					<dim>19</dim>
				</port>
			</input>
			<output>
				<port id="1" precision="FP32" names="FeatureExtractor/MobilenetV1/MobilenetV1/Conv2d_8_pointwise/Relu6:0">
					<dim>1</dim>
					<dim>512</dim>
					<dim>19</dim>
					<dim>19</dim>
				</port>
			</output>
		</layer>
		<layer id="93" name="FeatureExtractor/MobilenetV1/MobilenetV1/Conv2d_9_depthwise/BatchNorm/batchnorm/mul_1_copy" type="Const" version="opset1">
			<data element_type="f32" shape="512, 1, 1, 3, 3" offset="3209768" size="18432" />
			<output>
				<port id="0" precision="FP32" names="FeatureExtractor/MobilenetV1/Conv2d_9_depthwise/depthwise_weights/read/_115__cf__118:0">
					<dim>512</dim>
					<dim>1</dim>
					<dim>1</dim>
					<dim>3</dim>
					<dim>3</dim>
				</port>
			</output>
		</layer>
		<layer id="94" name="FeatureExtractor/MobilenetV1/MobilenetV1/Conv2d_9_depthwise/depthwise" type="GroupConvolution" version="opset1">
			<data strides="1, 1" pads_begin="0, 0" pads_end="0, 0" dilations="1, 1" auto_pad="same_upper" />
			<input>
				<port id="0" precision="FP32">
					<dim>1</dim>
					<dim>512</dim>
					<dim>19</dim>
					<dim>19</dim>
				</port>
				<port id="1" precision="FP32">
					<dim>512</dim>
					<dim>1</dim>
					<dim>1</dim>
					<dim>3</dim>
					<dim>3</dim>
				</port>
			</input>
			<output>
				<port id="2" precision="FP32" names="FeatureExtractor/MobilenetV1/MobilenetV1/Conv2d_9_depthwise/BatchNorm/batchnorm/mul_1:0">
					<dim>1</dim>
					<dim>512</dim>
					<dim>19</dim>
					<dim>19</dim>
				</port>
			</output>
		</layer>
		<layer id="95" name="FeatureExtractor/MobilenetV1/MobilenetV1/Conv2d_9_depthwise/BatchNorm/batchnorm/sub/_114__cf__117" type="Const" version="opset1">
			<data element_type="f32" shape="1, 512, 1, 1" offset="3228200" size="2048" />
			<output>
				<port id="0" precision="FP32" names="FeatureExtractor/MobilenetV1/MobilenetV1/Conv2d_9_depthwise/BatchNorm/batchnorm/sub/_114__cf__117:0">
					<dim>1</dim>
					<dim>512</dim>
					<dim>1</dim>
					<dim>1</dim>
				</port>
			</output>
		</layer>
		<layer id="96" name="FeatureExtractor/MobilenetV1/MobilenetV1/Conv2d_9_depthwise/BatchNorm/batchnorm/add_1" type="Add" version="opset1">
			<data auto_broadcast="numpy" />
			<input>
				<port id="0" precision="FP32">
					<dim>1</dim>
					<dim>512</dim>
					<dim>19</dim>
					<dim>19</dim>
				</port>
				<port id="1" precision="FP32">
					<dim>1</dim>
					<dim>512</dim>
					<dim>1</dim>
					<dim>1</dim>
				</port>
			</input>
			<output>
				<port id="2" precision="FP32" names="FeatureExtractor/MobilenetV1/MobilenetV1/Conv2d_9_depthwise/BatchNorm/batchnorm/add_1:0">
					<dim>1</dim>
					<dim>512</dim>
					<dim>19</dim>
					<dim>19</dim>
				</port>
			</output>
		</layer>
		<layer id="97" name="FeatureExtractor/MobilenetV1/MobilenetV1/Conv2d_9_depthwise/Relu6" type="Clamp" version="opset1">
			<data min="0" max="6" />
			<input>
				<port id="0" precision="FP32">
					<dim>1</dim>
					<dim>512</dim>
					<dim>19</dim>
					<dim>19</dim>
				</port>
			</input>
			<output>
				<port id="1" precision="FP32" names="FeatureExtractor/MobilenetV1/MobilenetV1/Conv2d_9_depthwise/Relu6:0">
					<dim>1</dim>
					<dim>512</dim>
					<dim>19</dim>
					<dim>19</dim>
				</port>
			</output>
		</layer>
		<layer id="98" name="FeatureExtractor/MobilenetV1/Conv2d_9_pointwise/weights/read/_112__cf__115" type="Const" version="opset1">
			<data element_type="f32" shape="512, 512, 1, 1" offset="3230248" size="1048576" />
			<output>
				<port id="0" precision="FP32" names="FeatureExtractor/MobilenetV1/Conv2d_9_pointwise/weights/read/_112__cf__115:0">
					<dim>512</dim>
					<dim>512</dim>
					<dim>1</dim>
					<dim>1</dim>
				</port>
			</output>
		</layer>
		<layer id="99" name="FeatureExtractor/MobilenetV1/MobilenetV1/Conv2d_9_pointwise/BatchNorm/batchnorm/mul_1" type="Convolution" version="opset1">
			<data strides="1, 1" dilations="1, 1" pads_begin="0, 0" pads_end="0, 0" auto_pad="same_upper" />
			<input>
				<port id="0" precision="FP32">
					<dim>1</dim>
					<dim>512</dim>
					<dim>19</dim>
					<dim>19</dim>
				</port>
				<port id="1" precision="FP32">
					<dim>512</dim>
					<dim>512</dim>
					<dim>1</dim>
					<dim>1</dim>
				</port>
			</input>
			<output>
				<port id="2" precision="FP32" names="FeatureExtractor/MobilenetV1/MobilenetV1/Conv2d_9_pointwise/BatchNorm/batchnorm/mul_1:0">
					<dim>1</dim>
					<dim>512</dim>
					<dim>19</dim>
					<dim>19</dim>
				</port>
			</output>
		</layer>
		<layer id="100" name="FeatureExtractor/MobilenetV1/MobilenetV1/Conv2d_9_pointwise/BatchNorm/batchnorm/sub/_111__cf__114" type="Const" version="opset1">
			<data element_type="f32" shape="1, 512, 1, 1" offset="4278824" size="2048" />
			<output>
				<port id="0" precision="FP32" names="FeatureExtractor/MobilenetV1/MobilenetV1/Conv2d_9_pointwise/BatchNorm/batchnorm/sub/_111__cf__114:0">
					<dim>1</dim>
					<dim>512</dim>
					<dim>1</dim>
					<dim>1</dim>
				</port>
			</output>
		</layer>
		<layer id="101" name="FeatureExtractor/MobilenetV1/MobilenetV1/Conv2d_9_pointwise/BatchNorm/batchnorm/add_1" type="Add" version="opset1">
			<data auto_broadcast="numpy" />
			<input>
				<port id="0" precision="FP32">
					<dim>1</dim>
					<dim>512</dim>
					<dim>19</dim>
					<dim>19</dim>
				</port>
				<port id="1" precision="FP32">
					<dim>1</dim>
					<dim>512</dim>
					<dim>1</dim>
					<dim>1</dim>
				</port>
			</input>
			<output>
				<port id="2" precision="FP32" names="FeatureExtractor/MobilenetV1/MobilenetV1/Conv2d_9_pointwise/BatchNorm/batchnorm/add_1:0">
					<dim>1</dim>
					<dim>512</dim>
					<dim>19</dim>
					<dim>19</dim>
				</port>
			</output>
		</layer>
		<layer id="102" name="FeatureExtractor/MobilenetV1/MobilenetV1/Conv2d_9_pointwise/Relu6" type="Clamp" version="opset1">
			<data min="0" max="6" />
			<input>
				<port id="0" precision="FP32">
					<dim>1</dim>
					<dim>512</dim>
					<dim>19</dim>
					<dim>19</dim>
				</port>
			</input>
			<output>
				<port id="1" precision="FP32" names="FeatureExtractor/MobilenetV1/MobilenetV1/Conv2d_9_pointwise/Relu6:0">
					<dim>1</dim>
					<dim>512</dim>
					<dim>19</dim>
					<dim>19</dim>
				</port>
			</output>
		</layer>
		<layer id="103" name="FeatureExtractor/MobilenetV1/MobilenetV1/Conv2d_10_depthwise/BatchNorm/batchnorm/mul_1_copy" type="Const" version="opset1">
			<data element_type="f32" shape="512, 1, 1, 3, 3" offset="4280872" size="18432" />
			<output>
				<port id="0" precision="FP32" names="FeatureExtractor/MobilenetV1/Conv2d_10_depthwise/depthwise_weights/read/_109__cf__112:0">
					<dim>512</dim>
					<dim>1</dim>
					<dim>1</dim>
					<dim>3</dim>
					<dim>3</dim>
				</port>
			</output>
		</layer>
		<layer id="104" name="FeatureExtractor/MobilenetV1/MobilenetV1/Conv2d_10_depthwise/depthwise" type="GroupConvolution" version="opset1">
			<data strides="1, 1" pads_begin="0, 0" pads_end="0, 0" dilations="1, 1" auto_pad="same_upper" />
			<input>
				<port id="0" precision="FP32">
					<dim>1</dim>
					<dim>512</dim>
					<dim>19</dim>
					<dim>19</dim>
				</port>
				<port id="1" precision="FP32">
					<dim>512</dim>
					<dim>1</dim>
					<dim>1</dim>
					<dim>3</dim>
					<dim>3</dim>
				</port>
			</input>
			<output>
				<port id="2" precision="FP32" names="FeatureExtractor/MobilenetV1/MobilenetV1/Conv2d_10_depthwise/BatchNorm/batchnorm/mul_1:0">
					<dim>1</dim>
					<dim>512</dim>
					<dim>19</dim>
					<dim>19</dim>
				</port>
			</output>
		</layer>
		<layer id="105" name="FeatureExtractor/MobilenetV1/MobilenetV1/Conv2d_10_depthwise/BatchNorm/batchnorm/sub/_108__cf__111" type="Const" version="opset1">
			<data element_type="f32" shape="1, 512, 1, 1" offset="4299304" size="2048" />
			<output>
				<port id="0" precision="FP32" names="FeatureExtractor/MobilenetV1/MobilenetV1/Conv2d_10_depthwise/BatchNorm/batchnorm/sub/_108__cf__111:0">
					<dim>1</dim>
					<dim>512</dim>
					<dim>1</dim>
					<dim>1</dim>
				</port>
			</output>
		</layer>
		<layer id="106" name="FeatureExtractor/MobilenetV1/MobilenetV1/Conv2d_10_depthwise/BatchNorm/batchnorm/add_1" type="Add" version="opset1">
			<data auto_broadcast="numpy" />
			<input>
				<port id="0" precision="FP32">
					<dim>1</dim>
					<dim>512</dim>
					<dim>19</dim>
					<dim>19</dim>
				</port>
				<port id="1" precision="FP32">
					<dim>1</dim>
					<dim>512</dim>
					<dim>1</dim>
					<dim>1</dim>
				</port>
			</input>
			<output>
				<port id="2" precision="FP32" names="FeatureExtractor/MobilenetV1/MobilenetV1/Conv2d_10_depthwise/BatchNorm/batchnorm/add_1:0">
					<dim>1</dim>
					<dim>512</dim>
					<dim>19</dim>
					<dim>19</dim>
				</port>
			</output>
		</layer>
		<layer id="107" name="FeatureExtractor/MobilenetV1/MobilenetV1/Conv2d_10_depthwise/Relu6" type="Clamp" version="opset1">
			<data min="0" max="6" />
			<input>
				<port id="0" precision="FP32">
					<dim>1</dim>
					<dim>512</dim>
					<dim>19</dim>
					<dim>19</dim>
				</port>
			</input>
			<output>
				<port id="1" precision="FP32" names="FeatureExtractor/MobilenetV1/MobilenetV1/Conv2d_10_depthwise/Relu6:0">
					<dim>1</dim>
					<dim>512</dim>
					<dim>19</dim>
					<dim>19</dim>
				</port>
			</output>
		</layer>
		<layer id="108" name="FeatureExtractor/MobilenetV1/Conv2d_10_pointwise/weights/read/_106__cf__109" type="Const" version="opset1">
			<data element_type="f32" shape="512, 512, 1, 1" offset="4301352" size="1048576" />
			<output>
				<port id="0" precision="FP32" names="FeatureExtractor/MobilenetV1/Conv2d_10_pointwise/weights/read/_106__cf__109:0">
					<dim>512</dim>
					<dim>512</dim>
					<dim>1</dim>
					<dim>1</dim>
				</port>
			</output>
		</layer>
		<layer id="109" name="FeatureExtractor/MobilenetV1/MobilenetV1/Conv2d_10_pointwise/BatchNorm/batchnorm/mul_1" type="Convolution" version="opset1">
			<data strides="1, 1" dilations="1, 1" pads_begin="0, 0" pads_end="0, 0" auto_pad="same_upper" />
			<input>
				<port id="0" precision="FP32">
					<dim>1</dim>
					<dim>512</dim>
					<dim>19</dim>
					<dim>19</dim>
				</port>
				<port id="1" precision="FP32">
					<dim>512</dim>
					<dim>512</dim>
					<dim>1</dim>
					<dim>1</dim>
				</port>
			</input>
			<output>
				<port id="2" precision="FP32" names="FeatureExtractor/MobilenetV1/MobilenetV1/Conv2d_10_pointwise/BatchNorm/batchnorm/mul_1:0">
					<dim>1</dim>
					<dim>512</dim>
					<dim>19</dim>
					<dim>19</dim>
				</port>
			</output>
		</layer>
		<layer id="110" name="FeatureExtractor/MobilenetV1/MobilenetV1/Conv2d_10_pointwise/BatchNorm/batchnorm/sub/_105__cf__108" type="Const" version="opset1">
			<data element_type="f32" shape="1, 512, 1, 1" offset="5349928" size="2048" />
			<output>
				<port id="0" precision="FP32" names="FeatureExtractor/MobilenetV1/MobilenetV1/Conv2d_10_pointwise/BatchNorm/batchnorm/sub/_105__cf__108:0">
					<dim>1</dim>
					<dim>512</dim>
					<dim>1</dim>
					<dim>1</dim>
				</port>
			</output>
		</layer>
		<layer id="111" name="FeatureExtractor/MobilenetV1/MobilenetV1/Conv2d_10_pointwise/BatchNorm/batchnorm/add_1" type="Add" version="opset1">
			<data auto_broadcast="numpy" />
			<input>
				<port id="0" precision="FP32">
					<dim>1</dim>
					<dim>512</dim>
					<dim>19</dim>
					<dim>19</dim>
				</port>
				<port id="1" precision="FP32">
					<dim>1</dim>
					<dim>512</dim>
					<dim>1</dim>
					<dim>1</dim>
				</port>
			</input>
			<output>
				<port id="2" precision="FP32" names="FeatureExtractor/MobilenetV1/MobilenetV1/Conv2d_10_pointwise/BatchNorm/batchnorm/add_1:0">
					<dim>1</dim>
					<dim>512</dim>
					<dim>19</dim>
					<dim>19</dim>
				</port>
			</output>
		</layer>
		<layer id="112" name="FeatureExtractor/MobilenetV1/MobilenetV1/Conv2d_10_pointwise/Relu6" type="Clamp" version="opset1">
			<data min="0" max="6" />
			<input>
				<port id="0" precision="FP32">
					<dim>1</dim>
					<dim>512</dim>
					<dim>19</dim>
					<dim>19</dim>
				</port>
			</input>
			<output>
				<port id="1" precision="FP32" names="FeatureExtractor/MobilenetV1/MobilenetV1/Conv2d_10_pointwise/Relu6:0">
					<dim>1</dim>
					<dim>512</dim>
					<dim>19</dim>
					<dim>19</dim>
				</port>
			</output>
		</layer>
		<layer id="113" name="FeatureExtractor/MobilenetV1/MobilenetV1/Conv2d_11_depthwise/BatchNorm/batchnorm/mul_1_copy" type="Const" version="opset1">
			<data element_type="f32" shape="512, 1, 1, 3, 3" offset="5351976" size="18432" />
			<output>
				<port id="0" precision="FP32" names="FeatureExtractor/MobilenetV1/Conv2d_11_depthwise/depthwise_weights/read/_103__cf__106:0">
					<dim>512</dim>
					<dim>1</dim>
					<dim>1</dim>
					<dim>3</dim>
					<dim>3</dim>
				</port>
			</output>
		</layer>
		<layer id="114" name="FeatureExtractor/MobilenetV1/MobilenetV1/Conv2d_11_depthwise/depthwise" type="GroupConvolution" version="opset1">
			<data strides="1, 1" pads_begin="0, 0" pads_end="0, 0" dilations="1, 1" auto_pad="same_upper" />
			<input>
				<port id="0" precision="FP32">
					<dim>1</dim>
					<dim>512</dim>
					<dim>19</dim>
					<dim>19</dim>
				</port>
				<port id="1" precision="FP32">
					<dim>512</dim>
					<dim>1</dim>
					<dim>1</dim>
					<dim>3</dim>
					<dim>3</dim>
				</port>
			</input>
			<output>
				<port id="2" precision="FP32" names="FeatureExtractor/MobilenetV1/MobilenetV1/Conv2d_11_depthwise/BatchNorm/batchnorm/mul_1:0">
					<dim>1</dim>
					<dim>512</dim>
					<dim>19</dim>
					<dim>19</dim>
				</port>
			</output>
		</layer>
		<layer id="115" name="FeatureExtractor/MobilenetV1/MobilenetV1/Conv2d_11_depthwise/BatchNorm/batchnorm/sub/_102__cf__105" type="Const" version="opset1">
			<data element_type="f32" shape="1, 512, 1, 1" offset="5370408" size="2048" />
			<output>
				<port id="0" precision="FP32" names="FeatureExtractor/MobilenetV1/MobilenetV1/Conv2d_11_depthwise/BatchNorm/batchnorm/sub/_102__cf__105:0">
					<dim>1</dim>
					<dim>512</dim>
					<dim>1</dim>
					<dim>1</dim>
				</port>
			</output>
		</layer>
		<layer id="116" name="FeatureExtractor/MobilenetV1/MobilenetV1/Conv2d_11_depthwise/BatchNorm/batchnorm/add_1" type="Add" version="opset1">
			<data auto_broadcast="numpy" />
			<input>
				<port id="0" precision="FP32">
					<dim>1</dim>
					<dim>512</dim>
					<dim>19</dim>
					<dim>19</dim>
				</port>
				<port id="1" precision="FP32">
					<dim>1</dim>
					<dim>512</dim>
					<dim>1</dim>
					<dim>1</dim>
				</port>
			</input>
			<output>
				<port id="2" precision="FP32" names="FeatureExtractor/MobilenetV1/MobilenetV1/Conv2d_11_depthwise/BatchNorm/batchnorm/add_1:0">
					<dim>1</dim>
					<dim>512</dim>
					<dim>19</dim>
					<dim>19</dim>
				</port>
			</output>
		</layer>
		<layer id="117" name="FeatureExtractor/MobilenetV1/MobilenetV1/Conv2d_11_depthwise/Relu6" type="Clamp" version="opset1">
			<data min="0" max="6" />
			<input>
				<port id="0" precision="FP32">
					<dim>1</dim>
					<dim>512</dim>
					<dim>19</dim>
					<dim>19</dim>
				</port>
			</input>
			<output>
				<port id="1" precision="FP32" names="FeatureExtractor/MobilenetV1/MobilenetV1/Conv2d_11_depthwise/Relu6:0">
					<dim>1</dim>
					<dim>512</dim>
					<dim>19</dim>
					<dim>19</dim>
				</port>
			</output>
		</layer>
		<layer id="118" name="FeatureExtractor/MobilenetV1/Conv2d_11_pointwise/weights/read/_100__cf__103" type="Const" version="opset1">
			<data element_type="f32" shape="512, 512, 1, 1" offset="5372456" size="1048576" />
			<output>
				<port id="0" precision="FP32" names="FeatureExtractor/MobilenetV1/Conv2d_11_pointwise/weights/read/_100__cf__103:0">
					<dim>512</dim>
					<dim>512</dim>
					<dim>1</dim>
					<dim>1</dim>
				</port>
			</output>
		</layer>
		<layer id="119" name="FeatureExtractor/MobilenetV1/MobilenetV1/Conv2d_11_pointwise/BatchNorm/batchnorm/mul_1" type="Convolution" version="opset1">
			<data strides="1, 1" dilations="1, 1" pads_begin="0, 0" pads_end="0, 0" auto_pad="same_upper" />
			<input>
				<port id="0" precision="FP32">
					<dim>1</dim>
					<dim>512</dim>
					<dim>19</dim>
					<dim>19</dim>
				</port>
				<port id="1" precision="FP32">
					<dim>512</dim>
					<dim>512</dim>
					<dim>1</dim>
					<dim>1</dim>
				</port>
			</input>
			<output>
				<port id="2" precision="FP32" names="FeatureExtractor/MobilenetV1/MobilenetV1/Conv2d_11_pointwise/BatchNorm/batchnorm/mul_1:0">
					<dim>1</dim>
					<dim>512</dim>
					<dim>19</dim>
					<dim>19</dim>
				</port>
			</output>
		</layer>
		<layer id="120" name="FeatureExtractor/MobilenetV1/MobilenetV1/Conv2d_11_pointwise/BatchNorm/batchnorm/sub/_99__cf__102" type="Const" version="opset1">
			<data element_type="f32" shape="1, 512, 1, 1" offset="6421032" size="2048" />
			<output>
				<port id="0" precision="FP32" names="FeatureExtractor/MobilenetV1/MobilenetV1/Conv2d_11_pointwise/BatchNorm/batchnorm/sub/_99__cf__102:0">
					<dim>1</dim>
					<dim>512</dim>
					<dim>1</dim>
					<dim>1</dim>
				</port>
			</output>
		</layer>
		<layer id="121" name="FeatureExtractor/MobilenetV1/MobilenetV1/Conv2d_11_pointwise/BatchNorm/batchnorm/add_1" type="Add" version="opset1">
			<data auto_broadcast="numpy" />
			<input>
				<port id="0" precision="FP32">
					<dim>1</dim>
					<dim>512</dim>
					<dim>19</dim>
					<dim>19</dim>
				</port>
				<port id="1" precision="FP32">
					<dim>1</dim>
					<dim>512</dim>
					<dim>1</dim>
					<dim>1</dim>
				</port>
			</input>
			<output>
				<port id="2" precision="FP32" names="FeatureExtractor/MobilenetV1/MobilenetV1/Conv2d_11_pointwise/BatchNorm/batchnorm/add_1:0">
					<dim>1</dim>
					<dim>512</dim>
					<dim>19</dim>
					<dim>19</dim>
				</port>
			</output>
		</layer>
		<layer id="122" name="FeatureExtractor/MobilenetV1/MobilenetV1/Conv2d_11_pointwise/Relu6" type="Clamp" version="opset1">
			<data min="0" max="6" />
			<input>
				<port id="0" precision="FP32">
					<dim>1</dim>
					<dim>512</dim>
					<dim>19</dim>
					<dim>19</dim>
				</port>
			</input>
			<output>
				<port id="1" precision="FP32" names="FeatureExtractor/MobilenetV1/MobilenetV1/Conv2d_11_pointwise/Relu6:0">
					<dim>1</dim>
					<dim>512</dim>
					<dim>19</dim>
					<dim>19</dim>
				</port>
			</output>
		</layer>
		<layer id="123" name="BoxPredictor_0/BoxEncodingPredictor/weights/read/_178__cf__181/ReshapeBack" type="Const" version="opset1">
			<data element_type="f32" shape="12, 512, 1, 1" offset="6423080" size="24576" />
			<output>
				<port id="0" precision="FP32" names="BoxPredictor_0/BoxEncodingPredictor/weights/read/_178__cf__181:0">
					<dim>12</dim>
					<dim>512</dim>
					<dim>1</dim>
					<dim>1</dim>
				</port>
			</output>
		</layer>
		<layer id="124" name="BoxPredictor_0/BoxEncodingPredictor/Conv2D" type="Convolution" version="opset1">
			<data strides="1, 1" dilations="1, 1" pads_begin="0, 0" pads_end="0, 0" auto_pad="same_upper" />
			<input>
				<port id="0" precision="FP32">
					<dim>1</dim>
					<dim>512</dim>
					<dim>19</dim>
					<dim>19</dim>
				</port>
				<port id="1" precision="FP32">
					<dim>12</dim>
					<dim>512</dim>
					<dim>1</dim>
					<dim>1</dim>
				</port>
			</input>
			<output>
				<port id="2" precision="FP32" names="BoxPredictor_0/BoxEncodingPredictor/Conv2D:0">
					<dim>1</dim>
					<dim>12</dim>
					<dim>19</dim>
					<dim>19</dim>
				</port>
			</output>
		</layer>
		<layer id="125" name="BoxPredictor_0/BoxEncodingPredictor/biases/read/_177__cf__180/ReshapeBack" type="Const" version="opset1">
			<data element_type="f32" shape="1, 12, 1, 1" offset="6447656" size="48" />
			<output>
				<port id="0" precision="FP32" names="BoxPredictor_0/BoxEncodingPredictor/biases/read/_177__cf__180:0">
					<dim>1</dim>
					<dim>12</dim>
					<dim>1</dim>
					<dim>1</dim>
				</port>
			</output>
		</layer>
		<layer id="126" name="BoxPredictor_0/BoxEncodingPredictor/BiasAdd/Add" type="Add" version="opset1">
			<data auto_broadcast="numpy" />
			<input>
				<port id="0" precision="FP32">
					<dim>1</dim>
					<dim>12</dim>
					<dim>19</dim>
					<dim>19</dim>
				</port>
				<port id="1" precision="FP32">
					<dim>1</dim>
					<dim>12</dim>
					<dim>1</dim>
					<dim>1</dim>
				</port>
			</input>
			<output>
				<port id="2" precision="FP32">
					<dim>1</dim>
					<dim>12</dim>
					<dim>19</dim>
					<dim>19</dim>
				</port>
			</output>
		</layer>
		<layer id="127" name="BoxPredictor_0/BoxEncodingPredictor/BiasAdd/Add/Transpose/value1573722149" type="Const" version="opset1">
			<data element_type="i64" shape="4" offset="6447704" size="32" />
			<output>
				<port id="0" precision="I64">
					<dim>4</dim>
				</port>
			</output>
		</layer>
		<layer id="128" name="BoxPredictor_0/BoxEncodingPredictor/BiasAdd/Add/Transpose" type="Transpose" version="opset1">
			<input>
				<port id="0" precision="FP32">
					<dim>1</dim>
					<dim>12</dim>
					<dim>19</dim>
					<dim>19</dim>
				</port>
				<port id="1" precision="I64">
					<dim>4</dim>
				</port>
			</input>
			<output>
				<port id="2" precision="FP32" names="BoxPredictor_0/BoxEncodingPredictor/BiasAdd:0">
					<dim>1</dim>
					<dim>19</dim>
					<dim>19</dim>
					<dim>12</dim>
				</port>
			</output>
		</layer>
		<layer id="129" name="7077" type="Const" version="opset1">
			<data element_type="i64" shape="4" offset="6447736" size="32" />
			<output>
				<port id="0" precision="I64">
					<dim>4</dim>
				</port>
			</output>
		</layer>
		<layer id="130" name="BoxPredictor_0/BoxEncodingPredictor/BiasAdd/Reshape" type="Reshape" version="opset1">
			<data special_zero="true" />
			<input>
				<port id="0" precision="FP32">
					<dim>1</dim>
					<dim>19</dim>
					<dim>19</dim>
					<dim>12</dim>
				</port>
				<port id="1" precision="I64">
					<dim>4</dim>
				</port>
			</input>
			<output>
				<port id="2" precision="FP32" names="BoxPredictor_0/Reshape:0">
					<dim>1</dim>
					<dim>1083</dim>
					<dim>1</dim>
					<dim>4</dim>
				</port>
			</output>
		</layer>
		<layer id="131" name="FeatureExtractor/MobilenetV1/MobilenetV1/Conv2d_12_depthwise/BatchNorm/batchnorm/mul_1_copy" type="Const" version="opset1">
			<data element_type="f32" shape="512, 1, 1, 3, 3" offset="6447768" size="18432" />
			<output>
				<port id="0" precision="FP32" names="FeatureExtractor/MobilenetV1/Conv2d_12_depthwise/depthwise_weights/read/_97__cf__100:0">
					<dim>512</dim>
					<dim>1</dim>
					<dim>1</dim>
					<dim>3</dim>
					<dim>3</dim>
				</port>
			</output>
		</layer>
		<layer id="132" name="FeatureExtractor/MobilenetV1/MobilenetV1/Conv2d_12_depthwise/depthwise" type="GroupConvolution" version="opset1">
			<data strides="2, 2" pads_begin="0, 0" pads_end="0, 0" dilations="1, 1" auto_pad="same_upper" />
			<input>
				<port id="0" precision="FP32">
					<dim>1</dim>
					<dim>512</dim>
					<dim>19</dim>
					<dim>19</dim>
				</port>
				<port id="1" precision="FP32">
					<dim>512</dim>
					<dim>1</dim>
					<dim>1</dim>
					<dim>3</dim>
					<dim>3</dim>
				</port>
			</input>
			<output>
				<port id="2" precision="FP32" names="FeatureExtractor/MobilenetV1/MobilenetV1/Conv2d_12_depthwise/BatchNorm/batchnorm/mul_1:0">
					<dim>1</dim>
					<dim>512</dim>
					<dim>10</dim>
					<dim>10</dim>
				</port>
			</output>
		</layer>
		<layer id="133" name="FeatureExtractor/MobilenetV1/MobilenetV1/Conv2d_12_depthwise/BatchNorm/batchnorm/sub/_96__cf__99" type="Const" version="opset1">
			<data element_type="f32" shape="1, 512, 1, 1" offset="6466200" size="2048" />
			<output>
				<port id="0" precision="FP32" names="FeatureExtractor/MobilenetV1/MobilenetV1/Conv2d_12_depthwise/BatchNorm/batchnorm/sub/_96__cf__99:0">
					<dim>1</dim>
					<dim>512</dim>
					<dim>1</dim>
					<dim>1</dim>
				</port>
			</output>
		</layer>
		<layer id="134" name="FeatureExtractor/MobilenetV1/MobilenetV1/Conv2d_12_depthwise/BatchNorm/batchnorm/add_1" type="Add" version="opset1">
			<data auto_broadcast="numpy" />
			<input>
				<port id="0" precision="FP32">
					<dim>1</dim>
					<dim>512</dim>
					<dim>10</dim>
					<dim>10</dim>
				</port>
				<port id="1" precision="FP32">
					<dim>1</dim>
					<dim>512</dim>
					<dim>1</dim>
					<dim>1</dim>
				</port>
			</input>
			<output>
				<port id="2" precision="FP32" names="FeatureExtractor/MobilenetV1/MobilenetV1/Conv2d_12_depthwise/BatchNorm/batchnorm/add_1:0">
					<dim>1</dim>
					<dim>512</dim>
					<dim>10</dim>
					<dim>10</dim>
				</port>
			</output>
		</layer>
		<layer id="135" name="FeatureExtractor/MobilenetV1/MobilenetV1/Conv2d_12_depthwise/Relu6" type="Clamp" version="opset1">
			<data min="0" max="6" />
			<input>
				<port id="0" precision="FP32">
					<dim>1</dim>
					<dim>512</dim>
					<dim>10</dim>
					<dim>10</dim>
				</port>
			</input>
			<output>
				<port id="1" precision="FP32" names="FeatureExtractor/MobilenetV1/MobilenetV1/Conv2d_12_depthwise/Relu6:0">
					<dim>1</dim>
					<dim>512</dim>
					<dim>10</dim>
					<dim>10</dim>
				</port>
			</output>
		</layer>
		<layer id="136" name="FeatureExtractor/MobilenetV1/Conv2d_12_pointwise/weights/read/_94__cf__97" type="Const" version="opset1">
			<data element_type="f32" shape="1024, 512, 1, 1" offset="6468248" size="2097152" />
			<output>
				<port id="0" precision="FP32" names="FeatureExtractor/MobilenetV1/Conv2d_12_pointwise/weights/read/_94__cf__97:0">
					<dim>1024</dim>
					<dim>512</dim>
					<dim>1</dim>
					<dim>1</dim>
				</port>
			</output>
		</layer>
		<layer id="137" name="FeatureExtractor/MobilenetV1/MobilenetV1/Conv2d_12_pointwise/BatchNorm/batchnorm/mul_1" type="Convolution" version="opset1">
			<data strides="1, 1" dilations="1, 1" pads_begin="0, 0" pads_end="0, 0" auto_pad="same_upper" />
			<input>
				<port id="0" precision="FP32">
					<dim>1</dim>
					<dim>512</dim>
					<dim>10</dim>
					<dim>10</dim>
				</port>
				<port id="1" precision="FP32">
					<dim>1024</dim>
					<dim>512</dim>
					<dim>1</dim>
					<dim>1</dim>
				</port>
			</input>
			<output>
				<port id="2" precision="FP32" names="FeatureExtractor/MobilenetV1/MobilenetV1/Conv2d_12_pointwise/BatchNorm/batchnorm/mul_1:0">
					<dim>1</dim>
					<dim>1024</dim>
					<dim>10</dim>
					<dim>10</dim>
				</port>
			</output>
		</layer>
		<layer id="138" name="FeatureExtractor/MobilenetV1/MobilenetV1/Conv2d_12_pointwise/BatchNorm/batchnorm/sub/_93__cf__96" type="Const" version="opset1">
			<data element_type="f32" shape="1, 1024, 1, 1" offset="8565400" size="4096" />
			<output>
				<port id="0" precision="FP32" names="FeatureExtractor/MobilenetV1/MobilenetV1/Conv2d_12_pointwise/BatchNorm/batchnorm/sub/_93__cf__96:0">
					<dim>1</dim>
					<dim>1024</dim>
					<dim>1</dim>
					<dim>1</dim>
				</port>
			</output>
		</layer>
		<layer id="139" name="FeatureExtractor/MobilenetV1/MobilenetV1/Conv2d_12_pointwise/BatchNorm/batchnorm/add_1" type="Add" version="opset1">
			<data auto_broadcast="numpy" />
			<input>
				<port id="0" precision="FP32">
					<dim>1</dim>
					<dim>1024</dim>
					<dim>10</dim>
					<dim>10</dim>
				</port>
				<port id="1" precision="FP32">
					<dim>1</dim>
					<dim>1024</dim>
					<dim>1</dim>
					<dim>1</dim>
				</port>
			</input>
			<output>
				<port id="2" precision="FP32" names="FeatureExtractor/MobilenetV1/MobilenetV1/Conv2d_12_pointwise/BatchNorm/batchnorm/add_1:0">
					<dim>1</dim>
					<dim>1024</dim>
					<dim>10</dim>
					<dim>10</dim>
				</port>
			</output>
		</layer>
		<layer id="140" name="FeatureExtractor/MobilenetV1/MobilenetV1/Conv2d_12_pointwise/Relu6" type="Clamp" version="opset1">
			<data min="0" max="6" />
			<input>
				<port id="0" precision="FP32">
					<dim>1</dim>
					<dim>1024</dim>
					<dim>10</dim>
					<dim>10</dim>
				</port>
			</input>
			<output>
				<port id="1" precision="FP32" names="FeatureExtractor/MobilenetV1/MobilenetV1/Conv2d_12_pointwise/Relu6:0">
					<dim>1</dim>
					<dim>1024</dim>
					<dim>10</dim>
					<dim>10</dim>
				</port>
			</output>
		</layer>
		<layer id="141" name="FeatureExtractor/MobilenetV1/MobilenetV1/Conv2d_13_depthwise/BatchNorm/batchnorm/mul_1_copy" type="Const" version="opset1">
			<data element_type="f32" shape="1024, 1, 1, 3, 3" offset="8569496" size="36864" />
			<output>
				<port id="0" precision="FP32" names="FeatureExtractor/MobilenetV1/Conv2d_13_depthwise/depthwise_weights/read/_91__cf__94:0">
					<dim>1024</dim>
					<dim>1</dim>
					<dim>1</dim>
					<dim>3</dim>
					<dim>3</dim>
				</port>
			</output>
		</layer>
		<layer id="142" name="FeatureExtractor/MobilenetV1/MobilenetV1/Conv2d_13_depthwise/depthwise" type="GroupConvolution" version="opset1">
			<data strides="1, 1" pads_begin="0, 0" pads_end="0, 0" dilations="1, 1" auto_pad="same_upper" />
			<input>
				<port id="0" precision="FP32">
					<dim>1</dim>
					<dim>1024</dim>
					<dim>10</dim>
					<dim>10</dim>
				</port>
				<port id="1" precision="FP32">
					<dim>1024</dim>
					<dim>1</dim>
					<dim>1</dim>
					<dim>3</dim>
					<dim>3</dim>
				</port>
			</input>
			<output>
				<port id="2" precision="FP32" names="FeatureExtractor/MobilenetV1/MobilenetV1/Conv2d_13_depthwise/BatchNorm/batchnorm/mul_1:0">
					<dim>1</dim>
					<dim>1024</dim>
					<dim>10</dim>
					<dim>10</dim>
				</port>
			</output>
		</layer>
		<layer id="143" name="FeatureExtractor/MobilenetV1/MobilenetV1/Conv2d_13_depthwise/BatchNorm/batchnorm/sub/_90__cf__93" type="Const" version="opset1">
			<data element_type="f32" shape="1, 1024, 1, 1" offset="8606360" size="4096" />
			<output>
				<port id="0" precision="FP32" names="FeatureExtractor/MobilenetV1/MobilenetV1/Conv2d_13_depthwise/BatchNorm/batchnorm/sub/_90__cf__93:0">
					<dim>1</dim>
					<dim>1024</dim>
					<dim>1</dim>
					<dim>1</dim>
				</port>
			</output>
		</layer>
		<layer id="144" name="FeatureExtractor/MobilenetV1/MobilenetV1/Conv2d_13_depthwise/BatchNorm/batchnorm/add_1" type="Add" version="opset1">
			<data auto_broadcast="numpy" />
			<input>
				<port id="0" precision="FP32">
					<dim>1</dim>
					<dim>1024</dim>
					<dim>10</dim>
					<dim>10</dim>
				</port>
				<port id="1" precision="FP32">
					<dim>1</dim>
					<dim>1024</dim>
					<dim>1</dim>
					<dim>1</dim>
				</port>
			</input>
			<output>
				<port id="2" precision="FP32" names="FeatureExtractor/MobilenetV1/MobilenetV1/Conv2d_13_depthwise/BatchNorm/batchnorm/add_1:0">
					<dim>1</dim>
					<dim>1024</dim>
					<dim>10</dim>
					<dim>10</dim>
				</port>
			</output>
		</layer>
		<layer id="145" name="FeatureExtractor/MobilenetV1/MobilenetV1/Conv2d_13_depthwise/Relu6" type="Clamp" version="opset1">
			<data min="0" max="6" />
			<input>
				<port id="0" precision="FP32">
					<dim>1</dim>
					<dim>1024</dim>
					<dim>10</dim>
					<dim>10</dim>
				</port>
			</input>
			<output>
				<port id="1" precision="FP32" names="FeatureExtractor/MobilenetV1/MobilenetV1/Conv2d_13_depthwise/Relu6:0">
					<dim>1</dim>
					<dim>1024</dim>
					<dim>10</dim>
					<dim>10</dim>
				</port>
			</output>
		</layer>
		<layer id="146" name="FeatureExtractor/MobilenetV1/Conv2d_13_pointwise/weights/read/_88__cf__91" type="Const" version="opset1">
			<data element_type="f32" shape="1024, 1024, 1, 1" offset="8610456" size="4194304" />
			<output>
				<port id="0" precision="FP32" names="FeatureExtractor/MobilenetV1/Conv2d_13_pointwise/weights/read/_88__cf__91:0">
					<dim>1024</dim>
					<dim>1024</dim>
					<dim>1</dim>
					<dim>1</dim>
				</port>
			</output>
		</layer>
		<layer id="147" name="FeatureExtractor/MobilenetV1/MobilenetV1/Conv2d_13_pointwise/BatchNorm/batchnorm/mul_1" type="Convolution" version="opset1">
			<data strides="1, 1" dilations="1, 1" pads_begin="0, 0" pads_end="0, 0" auto_pad="same_upper" />
			<input>
				<port id="0" precision="FP32">
					<dim>1</dim>
					<dim>1024</dim>
					<dim>10</dim>
					<dim>10</dim>
				</port>
				<port id="1" precision="FP32">
					<dim>1024</dim>
					<dim>1024</dim>
					<dim>1</dim>
					<dim>1</dim>
				</port>
			</input>
			<output>
				<port id="2" precision="FP32" names="FeatureExtractor/MobilenetV1/MobilenetV1/Conv2d_13_pointwise/BatchNorm/batchnorm/mul_1:0">
					<dim>1</dim>
					<dim>1024</dim>
					<dim>10</dim>
					<dim>10</dim>
				</port>
			</output>
		</layer>
		<layer id="148" name="FeatureExtractor/MobilenetV1/MobilenetV1/Conv2d_13_pointwise/BatchNorm/batchnorm/sub/_87__cf__90" type="Const" version="opset1">
			<data element_type="f32" shape="1, 1024, 1, 1" offset="12804760" size="4096" />
			<output>
				<port id="0" precision="FP32" names="FeatureExtractor/MobilenetV1/MobilenetV1/Conv2d_13_pointwise/BatchNorm/batchnorm/sub/_87__cf__90:0">
					<dim>1</dim>
					<dim>1024</dim>
					<dim>1</dim>
					<dim>1</dim>
				</port>
			</output>
		</layer>
		<layer id="149" name="FeatureExtractor/MobilenetV1/MobilenetV1/Conv2d_13_pointwise/BatchNorm/batchnorm/add_1" type="Add" version="opset1">
			<data auto_broadcast="numpy" />
			<input>
				<port id="0" precision="FP32">
					<dim>1</dim>
					<dim>1024</dim>
					<dim>10</dim>
					<dim>10</dim>
				</port>
				<port id="1" precision="FP32">
					<dim>1</dim>
					<dim>1024</dim>
					<dim>1</dim>
					<dim>1</dim>
				</port>
			</input>
			<output>
				<port id="2" precision="FP32" names="FeatureExtractor/MobilenetV1/MobilenetV1/Conv2d_13_pointwise/BatchNorm/batchnorm/add_1:0">
					<dim>1</dim>
					<dim>1024</dim>
					<dim>10</dim>
					<dim>10</dim>
				</port>
			</output>
		</layer>
		<layer id="150" name="FeatureExtractor/MobilenetV1/MobilenetV1/Conv2d_13_pointwise/Relu6" type="Clamp" version="opset1">
			<data min="0" max="6" />
			<input>
				<port id="0" precision="FP32">
					<dim>1</dim>
					<dim>1024</dim>
					<dim>10</dim>
					<dim>10</dim>
				</port>
			</input>
			<output>
				<port id="1" precision="FP32" names="FeatureExtractor/MobilenetV1/MobilenetV1/Conv2d_13_pointwise/Relu6:0">
					<dim>1</dim>
					<dim>1024</dim>
					<dim>10</dim>
					<dim>10</dim>
				</port>
			</output>
		</layer>
		<layer id="151" name="BoxPredictor_1/BoxEncodingPredictor/weights/read/_176__cf__179/ReshapeBack" type="Const" version="opset1">
			<data element_type="f32" shape="24, 1024, 1, 1" offset="12808856" size="98304" />
			<output>
				<port id="0" precision="FP32" names="BoxPredictor_1/BoxEncodingPredictor/weights/read/_176__cf__179:0">
					<dim>24</dim>
					<dim>1024</dim>
					<dim>1</dim>
					<dim>1</dim>
				</port>
			</output>
		</layer>
		<layer id="152" name="BoxPredictor_1/BoxEncodingPredictor/Conv2D" type="Convolution" version="opset1">
			<data strides="1, 1" dilations="1, 1" pads_begin="0, 0" pads_end="0, 0" auto_pad="same_upper" />
			<input>
				<port id="0" precision="FP32">
					<dim>1</dim>
					<dim>1024</dim>
					<dim>10</dim>
					<dim>10</dim>
				</port>
				<port id="1" precision="FP32">
					<dim>24</dim>
					<dim>1024</dim>
					<dim>1</dim>
					<dim>1</dim>
				</port>
			</input>
			<output>
				<port id="2" precision="FP32" names="BoxPredictor_1/BoxEncodingPredictor/Conv2D:0">
					<dim>1</dim>
					<dim>24</dim>
					<dim>10</dim>
					<dim>10</dim>
				</port>
			</output>
		</layer>
		<layer id="153" name="BoxPredictor_1/BoxEncodingPredictor/biases/read/_175__cf__178/ReshapeBack" type="Const" version="opset1">
			<data element_type="f32" shape="1, 24, 1, 1" offset="12907160" size="96" />
			<output>
				<port id="0" precision="FP32" names="BoxPredictor_1/BoxEncodingPredictor/biases/read/_175__cf__178:0">
					<dim>1</dim>
					<dim>24</dim>
					<dim>1</dim>
					<dim>1</dim>
				</port>
			</output>
		</layer>
		<layer id="154" name="BoxPredictor_1/BoxEncodingPredictor/BiasAdd/Add" type="Add" version="opset1">
			<data auto_broadcast="numpy" />
			<input>
				<port id="0" precision="FP32">
					<dim>1</dim>
					<dim>24</dim>
					<dim>10</dim>
					<dim>10</dim>
				</port>
				<port id="1" precision="FP32">
					<dim>1</dim>
					<dim>24</dim>
					<dim>1</dim>
					<dim>1</dim>
				</port>
			</input>
			<output>
				<port id="2" precision="FP32">
					<dim>1</dim>
					<dim>24</dim>
					<dim>10</dim>
					<dim>10</dim>
				</port>
			</output>
		</layer>
		<layer id="155" name="BoxPredictor_1/BoxEncodingPredictor/BiasAdd/Add/Transpose/value1574521882" type="Const" version="opset1">
			<data element_type="i64" shape="4" offset="6447704" size="32" />
			<output>
				<port id="0" precision="I64">
					<dim>4</dim>
				</port>
			</output>
		</layer>
		<layer id="156" name="BoxPredictor_1/BoxEncodingPredictor/BiasAdd/Add/Transpose" type="Transpose" version="opset1">
			<input>
				<port id="0" precision="FP32">
					<dim>1</dim>
					<dim>24</dim>
					<dim>10</dim>
					<dim>10</dim>
				</port>
				<port id="1" precision="I64">
					<dim>4</dim>
				</port>
			</input>
			<output>
				<port id="2" precision="FP32" names="BoxPredictor_1/BoxEncodingPredictor/BiasAdd:0">
					<dim>1</dim>
					<dim>10</dim>
					<dim>10</dim>
					<dim>24</dim>
				</port>
			</output>
		</layer>
		<layer id="157" name="7081" type="Const" version="opset1">
			<data element_type="i64" shape="4" offset="6447736" size="32" />
			<output>
				<port id="0" precision="I64">
					<dim>4</dim>
				</port>
			</output>
		</layer>
		<layer id="158" name="BoxPredictor_1/BoxEncodingPredictor/BiasAdd/Reshape" type="Reshape" version="opset1">
			<data special_zero="true" />
			<input>
				<port id="0" precision="FP32">
					<dim>1</dim>
					<dim>10</dim>
					<dim>10</dim>
					<dim>24</dim>
				</port>
				<port id="1" precision="I64">
					<dim>4</dim>
				</port>
			</input>
			<output>
				<port id="2" precision="FP32" names="BoxPredictor_1/Reshape:0">
					<dim>1</dim>
					<dim>600</dim>
					<dim>1</dim>
					<dim>4</dim>
				</port>
			</output>
		</layer>
		<layer id="159" name="FeatureExtractor/MobilenetV1/Conv2d_13_pointwise_1_Conv2d_2_1x1_256/weights/read/_85__cf__88" type="Const" version="opset1">
			<data element_type="f32" shape="256, 1024, 1, 1" offset="12907256" size="1048576" />
			<output>
				<port id="0" precision="FP32" names="FeatureExtractor/MobilenetV1/Conv2d_13_pointwise_1_Conv2d_2_1x1_256/weights/read/_85__cf__88:0">
					<dim>256</dim>
					<dim>1024</dim>
					<dim>1</dim>
					<dim>1</dim>
				</port>
			</output>
		</layer>
		<layer id="160" name="FeatureExtractor/MobilenetV1/Conv2d_13_pointwise_1_Conv2d_2_1x1_256/BatchNorm/batchnorm/mul_1" type="Convolution" version="opset1">
			<data strides="1, 1" dilations="1, 1" pads_begin="0, 0" pads_end="0, 0" auto_pad="same_upper" />
			<input>
				<port id="0" precision="FP32">
					<dim>1</dim>
					<dim>1024</dim>
					<dim>10</dim>
					<dim>10</dim>
				</port>
				<port id="1" precision="FP32">
					<dim>256</dim>
					<dim>1024</dim>
					<dim>1</dim>
					<dim>1</dim>
				</port>
			</input>
			<output>
				<port id="2" precision="FP32" names="FeatureExtractor/MobilenetV1/Conv2d_13_pointwise_1_Conv2d_2_1x1_256/BatchNorm/batchnorm/mul_1:0">
					<dim>1</dim>
					<dim>256</dim>
					<dim>10</dim>
					<dim>10</dim>
				</port>
			</output>
		</layer>
		<layer id="161" name="FeatureExtractor/MobilenetV1/Conv2d_13_pointwise_1_Conv2d_2_1x1_256/BatchNorm/batchnorm/sub/_84__cf__87" type="Const" version="opset1">
			<data element_type="f32" shape="1, 256, 1, 1" offset="13955832" size="1024" />
			<output>
				<port id="0" precision="FP32" names="FeatureExtractor/MobilenetV1/Conv2d_13_pointwise_1_Conv2d_2_1x1_256/BatchNorm/batchnorm/sub/_84__cf__87:0">
					<dim>1</dim>
					<dim>256</dim>
					<dim>1</dim>
					<dim>1</dim>
				</port>
			</output>
		</layer>
		<layer id="162" name="FeatureExtractor/MobilenetV1/Conv2d_13_pointwise_1_Conv2d_2_1x1_256/BatchNorm/batchnorm/add_1" type="Add" version="opset1">
			<data auto_broadcast="numpy" />
			<input>
				<port id="0" precision="FP32">
					<dim>1</dim>
					<dim>256</dim>
					<dim>10</dim>
					<dim>10</dim>
				</port>
				<port id="1" precision="FP32">
					<dim>1</dim>
					<dim>256</dim>
					<dim>1</dim>
					<dim>1</dim>
				</port>
			</input>
			<output>
				<port id="2" precision="FP32" names="FeatureExtractor/MobilenetV1/Conv2d_13_pointwise_1_Conv2d_2_1x1_256/BatchNorm/batchnorm/add_1:0">
					<dim>1</dim>
					<dim>256</dim>
					<dim>10</dim>
					<dim>10</dim>
				</port>
			</output>
		</layer>
		<layer id="163" name="FeatureExtractor/MobilenetV1/Conv2d_13_pointwise_1_Conv2d_2_1x1_256/Relu6" type="Clamp" version="opset1">
			<data min="0" max="6" />
			<input>
				<port id="0" precision="FP32">
					<dim>1</dim>
					<dim>256</dim>
					<dim>10</dim>
					<dim>10</dim>
				</port>
			</input>
			<output>
				<port id="1" precision="FP32" names="FeatureExtractor/MobilenetV1/Conv2d_13_pointwise_1_Conv2d_2_1x1_256/Relu6:0">
					<dim>1</dim>
					<dim>256</dim>
					<dim>10</dim>
					<dim>10</dim>
				</port>
			</output>
		</layer>
		<layer id="164" name="FeatureExtractor/MobilenetV1/Conv2d_13_pointwise_2_Conv2d_2_3x3_s2_512/weights/read/_82__cf__85" type="Const" version="opset1">
			<data element_type="f32" shape="512, 256, 3, 3" offset="13956856" size="4718592" />
			<output>
				<port id="0" precision="FP32" names="FeatureExtractor/MobilenetV1/Conv2d_13_pointwise_2_Conv2d_2_3x3_s2_512/weights/read/_82__cf__85:0">
					<dim>512</dim>
					<dim>256</dim>
					<dim>3</dim>
					<dim>3</dim>
				</port>
			</output>
		</layer>
		<layer id="165" name="FeatureExtractor/MobilenetV1/Conv2d_13_pointwise_2_Conv2d_2_3x3_s2_512/BatchNorm/batchnorm/mul_1" type="Convolution" version="opset1">
			<data strides="2, 2" dilations="1, 1" pads_begin="0, 0" pads_end="0, 0" auto_pad="same_upper" />
			<input>
				<port id="0" precision="FP32">
					<dim>1</dim>
					<dim>256</dim>
					<dim>10</dim>
					<dim>10</dim>
				</port>
				<port id="1" precision="FP32">
					<dim>512</dim>
					<dim>256</dim>
					<dim>3</dim>
					<dim>3</dim>
				</port>
			</input>
			<output>
				<port id="2" precision="FP32" names="FeatureExtractor/MobilenetV1/Conv2d_13_pointwise_2_Conv2d_2_3x3_s2_512/BatchNorm/batchnorm/mul_1:0">
					<dim>1</dim>
					<dim>512</dim>
					<dim>5</dim>
					<dim>5</dim>
				</port>
			</output>
		</layer>
		<layer id="166" name="FeatureExtractor/MobilenetV1/Conv2d_13_pointwise_2_Conv2d_2_3x3_s2_512/BatchNorm/batchnorm/sub/_81__cf__84" type="Const" version="opset1">
			<data element_type="f32" shape="1, 512, 1, 1" offset="18675448" size="2048" />
			<output>
				<port id="0" precision="FP32" names="FeatureExtractor/MobilenetV1/Conv2d_13_pointwise_2_Conv2d_2_3x3_s2_512/BatchNorm/batchnorm/sub/_81__cf__84:0">
					<dim>1</dim>
					<dim>512</dim>
					<dim>1</dim>
					<dim>1</dim>
				</port>
			</output>
		</layer>
		<layer id="167" name="FeatureExtractor/MobilenetV1/Conv2d_13_pointwise_2_Conv2d_2_3x3_s2_512/BatchNorm/batchnorm/add_1" type="Add" version="opset1">
			<data auto_broadcast="numpy" />
			<input>
				<port id="0" precision="FP32">
					<dim>1</dim>
					<dim>512</dim>
					<dim>5</dim>
					<dim>5</dim>
				</port>
				<port id="1" precision="FP32">
					<dim>1</dim>
					<dim>512</dim>
					<dim>1</dim>
					<dim>1</dim>
				</port>
			</input>
			<output>
				<port id="2" precision="FP32" names="FeatureExtractor/MobilenetV1/Conv2d_13_pointwise_2_Conv2d_2_3x3_s2_512/BatchNorm/batchnorm/add_1:0">
					<dim>1</dim>
					<dim>512</dim>
					<dim>5</dim>
					<dim>5</dim>
				</port>
			</output>
		</layer>
		<layer id="168" name="FeatureExtractor/MobilenetV1/Conv2d_13_pointwise_2_Conv2d_2_3x3_s2_512/Relu6" type="Clamp" version="opset1">
			<data min="0" max="6" />
			<input>
				<port id="0" precision="FP32">
					<dim>1</dim>
					<dim>512</dim>
					<dim>5</dim>
					<dim>5</dim>
				</port>
			</input>
			<output>
				<port id="1" precision="FP32" names="FeatureExtractor/MobilenetV1/Conv2d_13_pointwise_2_Conv2d_2_3x3_s2_512/Relu6:0">
					<dim>1</dim>
					<dim>512</dim>
					<dim>5</dim>
					<dim>5</dim>
				</port>
			</output>
		</layer>
		<layer id="169" name="BoxPredictor_2/BoxEncodingPredictor/weights/read/_174__cf__177/ReshapeBack" type="Const" version="opset1">
			<data element_type="f32" shape="24, 512, 1, 1" offset="18677496" size="49152" />
			<output>
				<port id="0" precision="FP32" names="BoxPredictor_2/BoxEncodingPredictor/weights/read/_174__cf__177:0">
					<dim>24</dim>
					<dim>512</dim>
					<dim>1</dim>
					<dim>1</dim>
				</port>
			</output>
		</layer>
		<layer id="170" name="BoxPredictor_2/BoxEncodingPredictor/Conv2D" type="Convolution" version="opset1">
			<data strides="1, 1" dilations="1, 1" pads_begin="0, 0" pads_end="0, 0" auto_pad="same_upper" />
			<input>
				<port id="0" precision="FP32">
					<dim>1</dim>
					<dim>512</dim>
					<dim>5</dim>
					<dim>5</dim>
				</port>
				<port id="1" precision="FP32">
					<dim>24</dim>
					<dim>512</dim>
					<dim>1</dim>
					<dim>1</dim>
				</port>
			</input>
			<output>
				<port id="2" precision="FP32" names="BoxPredictor_2/BoxEncodingPredictor/Conv2D:0">
					<dim>1</dim>
					<dim>24</dim>
					<dim>5</dim>
					<dim>5</dim>
				</port>
			</output>
		</layer>
		<layer id="171" name="BoxPredictor_2/BoxEncodingPredictor/biases/read/_173__cf__176/ReshapeBack" type="Const" version="opset1">
			<data element_type="f32" shape="1, 24, 1, 1" offset="18726648" size="96" />
			<output>
				<port id="0" precision="FP32" names="BoxPredictor_2/BoxEncodingPredictor/biases/read/_173__cf__176:0">
					<dim>1</dim>
					<dim>24</dim>
					<dim>1</dim>
					<dim>1</dim>
				</port>
			</output>
		</layer>
		<layer id="172" name="BoxPredictor_2/BoxEncodingPredictor/BiasAdd/Add" type="Add" version="opset1">
			<data auto_broadcast="numpy" />
			<input>
				<port id="0" precision="FP32">
					<dim>1</dim>
					<dim>24</dim>
					<dim>5</dim>
					<dim>5</dim>
				</port>
				<port id="1" precision="FP32">
					<dim>1</dim>
					<dim>24</dim>
					<dim>1</dim>
					<dim>1</dim>
				</port>
			</input>
			<output>
				<port id="2" precision="FP32">
					<dim>1</dim>
					<dim>24</dim>
					<dim>5</dim>
					<dim>5</dim>
				</port>
			</output>
		</layer>
		<layer id="173" name="BoxPredictor_2/BoxEncodingPredictor/BiasAdd/Add/Transpose/value1575321918" type="Const" version="opset1">
			<data element_type="i64" shape="4" offset="6447704" size="32" />
			<output>
				<port id="0" precision="I64">
					<dim>4</dim>
				</port>
			</output>
		</layer>
		<layer id="174" name="BoxPredictor_2/BoxEncodingPredictor/BiasAdd/Add/Transpose" type="Transpose" version="opset1">
			<input>
				<port id="0" precision="FP32">
					<dim>1</dim>
					<dim>24</dim>
					<dim>5</dim>
					<dim>5</dim>
				</port>
				<port id="1" precision="I64">
					<dim>4</dim>
				</port>
			</input>
			<output>
				<port id="2" precision="FP32" names="BoxPredictor_2/BoxEncodingPredictor/BiasAdd:0">
					<dim>1</dim>
					<dim>5</dim>
					<dim>5</dim>
					<dim>24</dim>
				</port>
			</output>
		</layer>
		<layer id="175" name="7085" type="Const" version="opset1">
			<data element_type="i64" shape="4" offset="6447736" size="32" />
			<output>
				<port id="0" precision="I64">
					<dim>4</dim>
				</port>
			</output>
		</layer>
		<layer id="176" name="BoxPredictor_2/BoxEncodingPredictor/BiasAdd/Reshape" type="Reshape" version="opset1">
			<data special_zero="true" />
			<input>
				<port id="0" precision="FP32">
					<dim>1</dim>
					<dim>5</dim>
					<dim>5</dim>
					<dim>24</dim>
				</port>
				<port id="1" precision="I64">
					<dim>4</dim>
				</port>
			</input>
			<output>
				<port id="2" precision="FP32" names="BoxPredictor_2/Reshape:0">
					<dim>1</dim>
					<dim>150</dim>
					<dim>1</dim>
					<dim>4</dim>
				</port>
			</output>
		</layer>
		<layer id="177" name="FeatureExtractor/MobilenetV1/Conv2d_13_pointwise_1_Conv2d_3_1x1_128/weights/read/_79__cf__82" type="Const" version="opset1">
			<data element_type="f32" shape="128, 512, 1, 1" offset="18726744" size="262144" />
			<output>
				<port id="0" precision="FP32" names="FeatureExtractor/MobilenetV1/Conv2d_13_pointwise_1_Conv2d_3_1x1_128/weights/read/_79__cf__82:0">
					<dim>128</dim>
					<dim>512</dim>
					<dim>1</dim>
					<dim>1</dim>
				</port>
			</output>
		</layer>
		<layer id="178" name="FeatureExtractor/MobilenetV1/Conv2d_13_pointwise_1_Conv2d_3_1x1_128/BatchNorm/batchnorm/mul_1" type="Convolution" version="opset1">
			<data strides="1, 1" dilations="1, 1" pads_begin="0, 0" pads_end="0, 0" auto_pad="same_upper" />
			<input>
				<port id="0" precision="FP32">
					<dim>1</dim>
					<dim>512</dim>
					<dim>5</dim>
					<dim>5</dim>
				</port>
				<port id="1" precision="FP32">
					<dim>128</dim>
					<dim>512</dim>
					<dim>1</dim>
					<dim>1</dim>
				</port>
			</input>
			<output>
				<port id="2" precision="FP32" names="FeatureExtractor/MobilenetV1/Conv2d_13_pointwise_1_Conv2d_3_1x1_128/BatchNorm/batchnorm/mul_1:0">
					<dim>1</dim>
					<dim>128</dim>
					<dim>5</dim>
					<dim>5</dim>
				</port>
			</output>
		</layer>
		<layer id="179" name="FeatureExtractor/MobilenetV1/Conv2d_13_pointwise_1_Conv2d_3_1x1_128/BatchNorm/batchnorm/sub/_78__cf__81" type="Const" version="opset1">
			<data element_type="f32" shape="1, 128, 1, 1" offset="18988888" size="512" />
			<output>
				<port id="0" precision="FP32" names="FeatureExtractor/MobilenetV1/Conv2d_13_pointwise_1_Conv2d_3_1x1_128/BatchNorm/batchnorm/sub/_78__cf__81:0">
					<dim>1</dim>
					<dim>128</dim>
					<dim>1</dim>
					<dim>1</dim>
				</port>
			</output>
		</layer>
		<layer id="180" name="FeatureExtractor/MobilenetV1/Conv2d_13_pointwise_1_Conv2d_3_1x1_128/BatchNorm/batchnorm/add_1" type="Add" version="opset1">
			<data auto_broadcast="numpy" />
			<input>
				<port id="0" precision="FP32">
					<dim>1</dim>
					<dim>128</dim>
					<dim>5</dim>
					<dim>5</dim>
				</port>
				<port id="1" precision="FP32">
					<dim>1</dim>
					<dim>128</dim>
					<dim>1</dim>
					<dim>1</dim>
				</port>
			</input>
			<output>
				<port id="2" precision="FP32" names="FeatureExtractor/MobilenetV1/Conv2d_13_pointwise_1_Conv2d_3_1x1_128/BatchNorm/batchnorm/add_1:0">
					<dim>1</dim>
					<dim>128</dim>
					<dim>5</dim>
					<dim>5</dim>
				</port>
			</output>
		</layer>
		<layer id="181" name="FeatureExtractor/MobilenetV1/Conv2d_13_pointwise_1_Conv2d_3_1x1_128/Relu6" type="Clamp" version="opset1">
			<data min="0" max="6" />
			<input>
				<port id="0" precision="FP32">
					<dim>1</dim>
					<dim>128</dim>
					<dim>5</dim>
					<dim>5</dim>
				</port>
			</input>
			<output>
				<port id="1" precision="FP32" names="FeatureExtractor/MobilenetV1/Conv2d_13_pointwise_1_Conv2d_3_1x1_128/Relu6:0">
					<dim>1</dim>
					<dim>128</dim>
					<dim>5</dim>
					<dim>5</dim>
				</port>
			</output>
		</layer>
		<layer id="182" name="FeatureExtractor/MobilenetV1/Conv2d_13_pointwise_2_Conv2d_3_3x3_s2_256/weights/read/_76__cf__79" type="Const" version="opset1">
			<data element_type="f32" shape="256, 128, 3, 3" offset="18989400" size="1179648" />
			<output>
				<port id="0" precision="FP32" names="FeatureExtractor/MobilenetV1/Conv2d_13_pointwise_2_Conv2d_3_3x3_s2_256/weights/read/_76__cf__79:0">
					<dim>256</dim>
					<dim>128</dim>
					<dim>3</dim>
					<dim>3</dim>
				</port>
			</output>
		</layer>
		<layer id="183" name="FeatureExtractor/MobilenetV1/Conv2d_13_pointwise_2_Conv2d_3_3x3_s2_256/BatchNorm/batchnorm/mul_1" type="Convolution" version="opset1">
			<data strides="2, 2" dilations="1, 1" pads_begin="0, 0" pads_end="0, 0" auto_pad="same_upper" />
			<input>
				<port id="0" precision="FP32">
					<dim>1</dim>
					<dim>128</dim>
					<dim>5</dim>
					<dim>5</dim>
				</port>
				<port id="1" precision="FP32">
					<dim>256</dim>
					<dim>128</dim>
					<dim>3</dim>
					<dim>3</dim>
				</port>
			</input>
			<output>
				<port id="2" precision="FP32" names="FeatureExtractor/MobilenetV1/Conv2d_13_pointwise_2_Conv2d_3_3x3_s2_256/BatchNorm/batchnorm/mul_1:0">
					<dim>1</dim>
					<dim>256</dim>
					<dim>3</dim>
					<dim>3</dim>
				</port>
			</output>
		</layer>
		<layer id="184" name="FeatureExtractor/MobilenetV1/Conv2d_13_pointwise_2_Conv2d_3_3x3_s2_256/BatchNorm/batchnorm/sub/_75__cf__78" type="Const" version="opset1">
			<data element_type="f32" shape="1, 256, 1, 1" offset="20169048" size="1024" />
			<output>
				<port id="0" precision="FP32" names="FeatureExtractor/MobilenetV1/Conv2d_13_pointwise_2_Conv2d_3_3x3_s2_256/BatchNorm/batchnorm/sub/_75__cf__78:0">
					<dim>1</dim>
					<dim>256</dim>
					<dim>1</dim>
					<dim>1</dim>
				</port>
			</output>
		</layer>
		<layer id="185" name="FeatureExtractor/MobilenetV1/Conv2d_13_pointwise_2_Conv2d_3_3x3_s2_256/BatchNorm/batchnorm/add_1" type="Add" version="opset1">
			<data auto_broadcast="numpy" />
			<input>
				<port id="0" precision="FP32">
					<dim>1</dim>
					<dim>256</dim>
					<dim>3</dim>
					<dim>3</dim>
				</port>
				<port id="1" precision="FP32">
					<dim>1</dim>
					<dim>256</dim>
					<dim>1</dim>
					<dim>1</dim>
				</port>
			</input>
			<output>
				<port id="2" precision="FP32" names="FeatureExtractor/MobilenetV1/Conv2d_13_pointwise_2_Conv2d_3_3x3_s2_256/BatchNorm/batchnorm/add_1:0">
					<dim>1</dim>
					<dim>256</dim>
					<dim>3</dim>
					<dim>3</dim>
				</port>
			</output>
		</layer>
		<layer id="186" name="FeatureExtractor/MobilenetV1/Conv2d_13_pointwise_2_Conv2d_3_3x3_s2_256/Relu6" type="Clamp" version="opset1">
			<data min="0" max="6" />
			<input>
				<port id="0" precision="FP32">
					<dim>1</dim>
					<dim>256</dim>
					<dim>3</dim>
					<dim>3</dim>
				</port>
			</input>
			<output>
				<port id="1" precision="FP32" names="FeatureExtractor/MobilenetV1/Conv2d_13_pointwise_2_Conv2d_3_3x3_s2_256/Relu6:0">
					<dim>1</dim>
					<dim>256</dim>
					<dim>3</dim>
					<dim>3</dim>
				</port>
			</output>
		</layer>
		<layer id="187" name="BoxPredictor_3/BoxEncodingPredictor/weights/read/_172__cf__175/ReshapeBack" type="Const" version="opset1">
			<data element_type="f32" shape="24, 256, 1, 1" offset="20170072" size="24576" />
			<output>
				<port id="0" precision="FP32" names="BoxPredictor_3/BoxEncodingPredictor/weights/read/_172__cf__175:0">
					<dim>24</dim>
					<dim>256</dim>
					<dim>1</dim>
					<dim>1</dim>
				</port>
			</output>
		</layer>
		<layer id="188" name="BoxPredictor_3/BoxEncodingPredictor/Conv2D" type="Convolution" version="opset1">
			<data strides="1, 1" dilations="1, 1" pads_begin="0, 0" pads_end="0, 0" auto_pad="same_upper" />
			<input>
				<port id="0" precision="FP32">
					<dim>1</dim>
					<dim>256</dim>
					<dim>3</dim>
					<dim>3</dim>
				</port>
				<port id="1" precision="FP32">
					<dim>24</dim>
					<dim>256</dim>
					<dim>1</dim>
					<dim>1</dim>
				</port>
			</input>
			<output>
				<port id="2" precision="FP32" names="BoxPredictor_3/BoxEncodingPredictor/Conv2D:0">
					<dim>1</dim>
					<dim>24</dim>
					<dim>3</dim>
					<dim>3</dim>
				</port>
			</output>
		</layer>
		<layer id="189" name="BoxPredictor_3/BoxEncodingPredictor/biases/read/_171__cf__174/ReshapeBack" type="Const" version="opset1">
			<data element_type="f32" shape="1, 24, 1, 1" offset="20194648" size="96" />
			<output>
				<port id="0" precision="FP32" names="BoxPredictor_3/BoxEncodingPredictor/biases/read/_171__cf__174:0">
					<dim>1</dim>
					<dim>24</dim>
					<dim>1</dim>
					<dim>1</dim>
				</port>
			</output>
		</layer>
		<layer id="190" name="BoxPredictor_3/BoxEncodingPredictor/BiasAdd/Add" type="Add" version="opset1">
			<data auto_broadcast="numpy" />
			<input>
				<port id="0" precision="FP32">
					<dim>1</dim>
					<dim>24</dim>
					<dim>3</dim>
					<dim>3</dim>
				</port>
				<port id="1" precision="FP32">
					<dim>1</dim>
					<dim>24</dim>
					<dim>1</dim>
					<dim>1</dim>
				</port>
			</input>
			<output>
				<port id="2" precision="FP32">
					<dim>1</dim>
					<dim>24</dim>
					<dim>3</dim>
					<dim>3</dim>
				</port>
			</output>
		</layer>
		<layer id="191" name="BoxPredictor_3/BoxEncodingPredictor/BiasAdd/Add/Transpose/value1576122023" type="Const" version="opset1">
			<data element_type="i64" shape="4" offset="6447704" size="32" />
			<output>
				<port id="0" precision="I64">
					<dim>4</dim>
				</port>
			</output>
		</layer>
		<layer id="192" name="BoxPredictor_3/BoxEncodingPredictor/BiasAdd/Add/Transpose" type="Transpose" version="opset1">
			<input>
				<port id="0" precision="FP32">
					<dim>1</dim>
					<dim>24</dim>
					<dim>3</dim>
					<dim>3</dim>
				</port>
				<port id="1" precision="I64">
					<dim>4</dim>
				</port>
			</input>
			<output>
				<port id="2" precision="FP32" names="BoxPredictor_3/BoxEncodingPredictor/BiasAdd:0">
					<dim>1</dim>
					<dim>3</dim>
					<dim>3</dim>
					<dim>24</dim>
				</port>
			</output>
		</layer>
		<layer id="193" name="7089" type="Const" version="opset1">
			<data element_type="i64" shape="4" offset="6447736" size="32" />
			<output>
				<port id="0" precision="I64">
					<dim>4</dim>
				</port>
			</output>
		</layer>
		<layer id="194" name="BoxPredictor_3/BoxEncodingPredictor/BiasAdd/Reshape" type="Reshape" version="opset1">
			<data special_zero="true" />
			<input>
				<port id="0" precision="FP32">
					<dim>1</dim>
					<dim>3</dim>
					<dim>3</dim>
					<dim>24</dim>
				</port>
				<port id="1" precision="I64">
					<dim>4</dim>
				</port>
			</input>
			<output>
				<port id="2" precision="FP32" names="BoxPredictor_3/Reshape:0">
					<dim>1</dim>
					<dim>54</dim>
					<dim>1</dim>
					<dim>4</dim>
				</port>
			</output>
		</layer>
		<layer id="195" name="FeatureExtractor/MobilenetV1/Conv2d_13_pointwise_1_Conv2d_4_1x1_128/weights/read/_73__cf__76" type="Const" version="opset1">
			<data element_type="f32" shape="128, 256, 1, 1" offset="20194744" size="131072" />
			<output>
				<port id="0" precision="FP32" names="FeatureExtractor/MobilenetV1/Conv2d_13_pointwise_1_Conv2d_4_1x1_128/weights/read/_73__cf__76:0">
					<dim>128</dim>
					<dim>256</dim>
					<dim>1</dim>
					<dim>1</dim>
				</port>
			</output>
		</layer>
		<layer id="196" name="FeatureExtractor/MobilenetV1/Conv2d_13_pointwise_1_Conv2d_4_1x1_128/BatchNorm/batchnorm/mul_1" type="Convolution" version="opset1">
			<data strides="1, 1" dilations="1, 1" pads_begin="0, 0" pads_end="0, 0" auto_pad="same_upper" />
			<input>
				<port id="0" precision="FP32">
					<dim>1</dim>
					<dim>256</dim>
					<dim>3</dim>
					<dim>3</dim>
				</port>
				<port id="1" precision="FP32">
					<dim>128</dim>
					<dim>256</dim>
					<dim>1</dim>
					<dim>1</dim>
				</port>
			</input>
			<output>
				<port id="2" precision="FP32" names="FeatureExtractor/MobilenetV1/Conv2d_13_pointwise_1_Conv2d_4_1x1_128/BatchNorm/batchnorm/mul_1:0">
					<dim>1</dim>
					<dim>128</dim>
					<dim>3</dim>
					<dim>3</dim>
				</port>
			</output>
		</layer>
		<layer id="197" name="FeatureExtractor/MobilenetV1/Conv2d_13_pointwise_1_Conv2d_4_1x1_128/BatchNorm/batchnorm/sub/_72__cf__75" type="Const" version="opset1">
			<data element_type="f32" shape="1, 128, 1, 1" offset="20325816" size="512" />
			<output>
				<port id="0" precision="FP32" names="FeatureExtractor/MobilenetV1/Conv2d_13_pointwise_1_Conv2d_4_1x1_128/BatchNorm/batchnorm/sub/_72__cf__75:0">
					<dim>1</dim>
					<dim>128</dim>
					<dim>1</dim>
					<dim>1</dim>
				</port>
			</output>
		</layer>
		<layer id="198" name="FeatureExtractor/MobilenetV1/Conv2d_13_pointwise_1_Conv2d_4_1x1_128/BatchNorm/batchnorm/add_1" type="Add" version="opset1">
			<data auto_broadcast="numpy" />
			<input>
				<port id="0" precision="FP32">
					<dim>1</dim>
					<dim>128</dim>
					<dim>3</dim>
					<dim>3</dim>
				</port>
				<port id="1" precision="FP32">
					<dim>1</dim>
					<dim>128</dim>
					<dim>1</dim>
					<dim>1</dim>
				</port>
			</input>
			<output>
				<port id="2" precision="FP32" names="FeatureExtractor/MobilenetV1/Conv2d_13_pointwise_1_Conv2d_4_1x1_128/BatchNorm/batchnorm/add_1:0">
					<dim>1</dim>
					<dim>128</dim>
					<dim>3</dim>
					<dim>3</dim>
				</port>
			</output>
		</layer>
		<layer id="199" name="FeatureExtractor/MobilenetV1/Conv2d_13_pointwise_1_Conv2d_4_1x1_128/Relu6" type="Clamp" version="opset1">
			<data min="0" max="6" />
			<input>
				<port id="0" precision="FP32">
					<dim>1</dim>
					<dim>128</dim>
					<dim>3</dim>
					<dim>3</dim>
				</port>
			</input>
			<output>
				<port id="1" precision="FP32" names="FeatureExtractor/MobilenetV1/Conv2d_13_pointwise_1_Conv2d_4_1x1_128/Relu6:0">
					<dim>1</dim>
					<dim>128</dim>
					<dim>3</dim>
					<dim>3</dim>
				</port>
			</output>
		</layer>
		<layer id="200" name="FeatureExtractor/MobilenetV1/Conv2d_13_pointwise_2_Conv2d_4_3x3_s2_256/weights/read/_70__cf__73" type="Const" version="opset1">
			<data element_type="f32" shape="256, 128, 3, 3" offset="20326328" size="1179648" />
			<output>
				<port id="0" precision="FP32" names="FeatureExtractor/MobilenetV1/Conv2d_13_pointwise_2_Conv2d_4_3x3_s2_256/weights/read/_70__cf__73:0">
					<dim>256</dim>
					<dim>128</dim>
					<dim>3</dim>
					<dim>3</dim>
				</port>
			</output>
		</layer>
		<layer id="201" name="FeatureExtractor/MobilenetV1/Conv2d_13_pointwise_2_Conv2d_4_3x3_s2_256/BatchNorm/batchnorm/mul_1" type="Convolution" version="opset1">
			<data strides="2, 2" dilations="1, 1" pads_begin="0, 0" pads_end="0, 0" auto_pad="same_upper" />
			<input>
				<port id="0" precision="FP32">
					<dim>1</dim>
					<dim>128</dim>
					<dim>3</dim>
					<dim>3</dim>
				</port>
				<port id="1" precision="FP32">
					<dim>256</dim>
					<dim>128</dim>
					<dim>3</dim>
					<dim>3</dim>
				</port>
			</input>
			<output>
				<port id="2" precision="FP32" names="FeatureExtractor/MobilenetV1/Conv2d_13_pointwise_2_Conv2d_4_3x3_s2_256/BatchNorm/batchnorm/mul_1:0">
					<dim>1</dim>
					<dim>256</dim>
					<dim>2</dim>
					<dim>2</dim>
				</port>
			</output>
		</layer>
		<layer id="202" name="FeatureExtractor/MobilenetV1/Conv2d_13_pointwise_2_Conv2d_4_3x3_s2_256/BatchNorm/batchnorm/sub/_69__cf__72" type="Const" version="opset1">
			<data element_type="f32" shape="1, 256, 1, 1" offset="21505976" size="1024" />
			<output>
				<port id="0" precision="FP32" names="FeatureExtractor/MobilenetV1/Conv2d_13_pointwise_2_Conv2d_4_3x3_s2_256/BatchNorm/batchnorm/sub/_69__cf__72:0">
					<dim>1</dim>
					<dim>256</dim>
					<dim>1</dim>
					<dim>1</dim>
				</port>
			</output>
		</layer>
		<layer id="203" name="FeatureExtractor/MobilenetV1/Conv2d_13_pointwise_2_Conv2d_4_3x3_s2_256/BatchNorm/batchnorm/add_1" type="Add" version="opset1">
			<data auto_broadcast="numpy" />
			<input>
				<port id="0" precision="FP32">
					<dim>1</dim>
					<dim>256</dim>
					<dim>2</dim>
					<dim>2</dim>
				</port>
				<port id="1" precision="FP32">
					<dim>1</dim>
					<dim>256</dim>
					<dim>1</dim>
					<dim>1</dim>
				</port>
			</input>
			<output>
				<port id="2" precision="FP32" names="FeatureExtractor/MobilenetV1/Conv2d_13_pointwise_2_Conv2d_4_3x3_s2_256/BatchNorm/batchnorm/add_1:0">
					<dim>1</dim>
					<dim>256</dim>
					<dim>2</dim>
					<dim>2</dim>
				</port>
			</output>
		</layer>
		<layer id="204" name="FeatureExtractor/MobilenetV1/Conv2d_13_pointwise_2_Conv2d_4_3x3_s2_256/Relu6" type="Clamp" version="opset1">
			<data min="0" max="6" />
			<input>
				<port id="0" precision="FP32">
					<dim>1</dim>
					<dim>256</dim>
					<dim>2</dim>
					<dim>2</dim>
				</port>
			</input>
			<output>
				<port id="1" precision="FP32" names="FeatureExtractor/MobilenetV1/Conv2d_13_pointwise_2_Conv2d_4_3x3_s2_256/Relu6:0">
					<dim>1</dim>
					<dim>256</dim>
					<dim>2</dim>
					<dim>2</dim>
				</port>
			</output>
		</layer>
		<layer id="205" name="BoxPredictor_4/BoxEncodingPredictor/weights/read/_170__cf__173/ReshapeBack" type="Const" version="opset1">
			<data element_type="f32" shape="24, 256, 1, 1" offset="21507000" size="24576" />
			<output>
				<port id="0" precision="FP32" names="BoxPredictor_4/BoxEncodingPredictor/weights/read/_170__cf__173:0">
					<dim>24</dim>
					<dim>256</dim>
					<dim>1</dim>
					<dim>1</dim>
				</port>
			</output>
		</layer>
		<layer id="206" name="BoxPredictor_4/BoxEncodingPredictor/Conv2D" type="Convolution" version="opset1">
			<data strides="1, 1" dilations="1, 1" pads_begin="0, 0" pads_end="0, 0" auto_pad="same_upper" />
			<input>
				<port id="0" precision="FP32">
					<dim>1</dim>
					<dim>256</dim>
					<dim>2</dim>
					<dim>2</dim>
				</port>
				<port id="1" precision="FP32">
					<dim>24</dim>
					<dim>256</dim>
					<dim>1</dim>
					<dim>1</dim>
				</port>
			</input>
			<output>
				<port id="2" precision="FP32" names="BoxPredictor_4/BoxEncodingPredictor/Conv2D:0">
					<dim>1</dim>
					<dim>24</dim>
					<dim>2</dim>
					<dim>2</dim>
				</port>
			</output>
		</layer>
		<layer id="207" name="BoxPredictor_4/BoxEncodingPredictor/biases/read/_169__cf__172/ReshapeBack" type="Const" version="opset1">
			<data element_type="f32" shape="1, 24, 1, 1" offset="21531576" size="96" />
			<output>
				<port id="0" precision="FP32" names="BoxPredictor_4/BoxEncodingPredictor/biases/read/_169__cf__172:0">
					<dim>1</dim>
					<dim>24</dim>
					<dim>1</dim>
					<dim>1</dim>
				</port>
			</output>
		</layer>
		<layer id="208" name="BoxPredictor_4/BoxEncodingPredictor/BiasAdd/Add" type="Add" version="opset1">
			<data auto_broadcast="numpy" />
			<input>
				<port id="0" precision="FP32">
					<dim>1</dim>
					<dim>24</dim>
					<dim>2</dim>
					<dim>2</dim>
				</port>
				<port id="1" precision="FP32">
					<dim>1</dim>
					<dim>24</dim>
					<dim>1</dim>
					<dim>1</dim>
				</port>
			</input>
			<output>
				<port id="2" precision="FP32">
					<dim>1</dim>
					<dim>24</dim>
					<dim>2</dim>
					<dim>2</dim>
				</port>
			</output>
		</layer>
		<layer id="209" name="BoxPredictor_4/BoxEncodingPredictor/BiasAdd/Add/Transpose/value1576922152" type="Const" version="opset1">
			<data element_type="i64" shape="4" offset="6447704" size="32" />
			<output>
				<port id="0" precision="I64">
					<dim>4</dim>
				</port>
			</output>
		</layer>
		<layer id="210" name="BoxPredictor_4/BoxEncodingPredictor/BiasAdd/Add/Transpose" type="Transpose" version="opset1">
			<input>
				<port id="0" precision="FP32">
					<dim>1</dim>
					<dim>24</dim>
					<dim>2</dim>
					<dim>2</dim>
				</port>
				<port id="1" precision="I64">
					<dim>4</dim>
				</port>
			</input>
			<output>
				<port id="2" precision="FP32" names="BoxPredictor_4/BoxEncodingPredictor/BiasAdd:0">
					<dim>1</dim>
					<dim>2</dim>
					<dim>2</dim>
					<dim>24</dim>
				</port>
			</output>
		</layer>
		<layer id="211" name="7093" type="Const" version="opset1">
			<data element_type="i64" shape="4" offset="6447736" size="32" />
			<output>
				<port id="0" precision="I64">
					<dim>4</dim>
				</port>
			</output>
		</layer>
		<layer id="212" name="BoxPredictor_4/BoxEncodingPredictor/BiasAdd/Reshape" type="Reshape" version="opset1">
			<data special_zero="true" />
			<input>
				<port id="0" precision="FP32">
					<dim>1</dim>
					<dim>2</dim>
					<dim>2</dim>
					<dim>24</dim>
				</port>
				<port id="1" precision="I64">
					<dim>4</dim>
				</port>
			</input>
			<output>
				<port id="2" precision="FP32" names="BoxPredictor_4/Reshape:0">
					<dim>1</dim>
					<dim>24</dim>
					<dim>1</dim>
					<dim>4</dim>
				</port>
			</output>
		</layer>
		<layer id="213" name="FeatureExtractor/MobilenetV1/Conv2d_13_pointwise_1_Conv2d_5_1x1_64/weights/read/_67__cf__70" type="Const" version="opset1">
			<data element_type="f32" shape="64, 256, 1, 1" offset="21531672" size="65536" />
			<output>
				<port id="0" precision="FP32" names="FeatureExtractor/MobilenetV1/Conv2d_13_pointwise_1_Conv2d_5_1x1_64/weights/read/_67__cf__70:0">
					<dim>64</dim>
					<dim>256</dim>
					<dim>1</dim>
					<dim>1</dim>
				</port>
			</output>
		</layer>
		<layer id="214" name="FeatureExtractor/MobilenetV1/Conv2d_13_pointwise_1_Conv2d_5_1x1_64/BatchNorm/batchnorm/mul_1" type="Convolution" version="opset1">
			<data strides="1, 1" dilations="1, 1" pads_begin="0, 0" pads_end="0, 0" auto_pad="same_upper" />
			<input>
				<port id="0" precision="FP32">
					<dim>1</dim>
					<dim>256</dim>
					<dim>2</dim>
					<dim>2</dim>
				</port>
				<port id="1" precision="FP32">
					<dim>64</dim>
					<dim>256</dim>
					<dim>1</dim>
					<dim>1</dim>
				</port>
			</input>
			<output>
				<port id="2" precision="FP32" names="FeatureExtractor/MobilenetV1/Conv2d_13_pointwise_1_Conv2d_5_1x1_64/BatchNorm/batchnorm/mul_1:0">
					<dim>1</dim>
					<dim>64</dim>
					<dim>2</dim>
					<dim>2</dim>
				</port>
			</output>
		</layer>
		<layer id="215" name="FeatureExtractor/MobilenetV1/Conv2d_13_pointwise_1_Conv2d_5_1x1_64/BatchNorm/batchnorm/sub/_66__cf__69" type="Const" version="opset1">
			<data element_type="f32" shape="1, 64, 1, 1" offset="21597208" size="256" />
			<output>
				<port id="0" precision="FP32" names="FeatureExtractor/MobilenetV1/Conv2d_13_pointwise_1_Conv2d_5_1x1_64/BatchNorm/batchnorm/sub/_66__cf__69:0">
					<dim>1</dim>
					<dim>64</dim>
					<dim>1</dim>
					<dim>1</dim>
				</port>
			</output>
		</layer>
		<layer id="216" name="FeatureExtractor/MobilenetV1/Conv2d_13_pointwise_1_Conv2d_5_1x1_64/BatchNorm/batchnorm/add_1" type="Add" version="opset1">
			<data auto_broadcast="numpy" />
			<input>
				<port id="0" precision="FP32">
					<dim>1</dim>
					<dim>64</dim>
					<dim>2</dim>
					<dim>2</dim>
				</port>
				<port id="1" precision="FP32">
					<dim>1</dim>
					<dim>64</dim>
					<dim>1</dim>
					<dim>1</dim>
				</port>
			</input>
			<output>
				<port id="2" precision="FP32" names="FeatureExtractor/MobilenetV1/Conv2d_13_pointwise_1_Conv2d_5_1x1_64/BatchNorm/batchnorm/add_1:0">
					<dim>1</dim>
					<dim>64</dim>
					<dim>2</dim>
					<dim>2</dim>
				</port>
			</output>
		</layer>
		<layer id="217" name="FeatureExtractor/MobilenetV1/Conv2d_13_pointwise_1_Conv2d_5_1x1_64/Relu6" type="Clamp" version="opset1">
			<data min="0" max="6" />
			<input>
				<port id="0" precision="FP32">
					<dim>1</dim>
					<dim>64</dim>
					<dim>2</dim>
					<dim>2</dim>
				</port>
			</input>
			<output>
				<port id="1" precision="FP32" names="FeatureExtractor/MobilenetV1/Conv2d_13_pointwise_1_Conv2d_5_1x1_64/Relu6:0">
					<dim>1</dim>
					<dim>64</dim>
					<dim>2</dim>
					<dim>2</dim>
				</port>
			</output>
		</layer>
		<layer id="218" name="FeatureExtractor/MobilenetV1/Conv2d_13_pointwise_2_Conv2d_5_3x3_s2_128/weights/read/_64__cf__67" type="Const" version="opset1">
			<data element_type="f32" shape="128, 64, 3, 3" offset="21597464" size="294912" />
			<output>
				<port id="0" precision="FP32" names="FeatureExtractor/MobilenetV1/Conv2d_13_pointwise_2_Conv2d_5_3x3_s2_128/weights/read/_64__cf__67:0">
					<dim>128</dim>
					<dim>64</dim>
					<dim>3</dim>
					<dim>3</dim>
				</port>
			</output>
		</layer>
		<layer id="219" name="FeatureExtractor/MobilenetV1/Conv2d_13_pointwise_2_Conv2d_5_3x3_s2_128/BatchNorm/batchnorm/mul_1" type="Convolution" version="opset1">
			<data strides="2, 2" dilations="1, 1" pads_begin="0, 0" pads_end="0, 0" auto_pad="same_upper" />
			<input>
				<port id="0" precision="FP32">
					<dim>1</dim>
					<dim>64</dim>
					<dim>2</dim>
					<dim>2</dim>
				</port>
				<port id="1" precision="FP32">
					<dim>128</dim>
					<dim>64</dim>
					<dim>3</dim>
					<dim>3</dim>
				</port>
			</input>
			<output>
				<port id="2" precision="FP32" names="FeatureExtractor/MobilenetV1/Conv2d_13_pointwise_2_Conv2d_5_3x3_s2_128/BatchNorm/batchnorm/mul_1:0">
					<dim>1</dim>
					<dim>128</dim>
					<dim>1</dim>
					<dim>1</dim>
				</port>
			</output>
		</layer>
		<layer id="220" name="FeatureExtractor/MobilenetV1/Conv2d_13_pointwise_2_Conv2d_5_3x3_s2_128/BatchNorm/batchnorm/sub/_63__cf__66" type="Const" version="opset1">
			<data element_type="f32" shape="1, 128, 1, 1" offset="21892376" size="512" />
			<output>
				<port id="0" precision="FP32" names="FeatureExtractor/MobilenetV1/Conv2d_13_pointwise_2_Conv2d_5_3x3_s2_128/BatchNorm/batchnorm/sub/_63__cf__66:0">
					<dim>1</dim>
					<dim>128</dim>
					<dim>1</dim>
					<dim>1</dim>
				</port>
			</output>
		</layer>
		<layer id="221" name="FeatureExtractor/MobilenetV1/Conv2d_13_pointwise_2_Conv2d_5_3x3_s2_128/BatchNorm/batchnorm/add_1" type="Add" version="opset1">
			<data auto_broadcast="numpy" />
			<input>
				<port id="0" precision="FP32">
					<dim>1</dim>
					<dim>128</dim>
					<dim>1</dim>
					<dim>1</dim>
				</port>
				<port id="1" precision="FP32">
					<dim>1</dim>
					<dim>128</dim>
					<dim>1</dim>
					<dim>1</dim>
				</port>
			</input>
			<output>
				<port id="2" precision="FP32" names="FeatureExtractor/MobilenetV1/Conv2d_13_pointwise_2_Conv2d_5_3x3_s2_128/BatchNorm/batchnorm/add_1:0">
					<dim>1</dim>
					<dim>128</dim>
					<dim>1</dim>
					<dim>1</dim>
				</port>
			</output>
		</layer>
		<layer id="222" name="FeatureExtractor/MobilenetV1/Conv2d_13_pointwise_2_Conv2d_5_3x3_s2_128/Relu6" type="Clamp" version="opset1">
			<data min="0" max="6" />
			<input>
				<port id="0" precision="FP32">
					<dim>1</dim>
					<dim>128</dim>
					<dim>1</dim>
					<dim>1</dim>
				</port>
			</input>
			<output>
				<port id="1" precision="FP32" names="FeatureExtractor/MobilenetV1/Conv2d_13_pointwise_2_Conv2d_5_3x3_s2_128/Relu6:0">
					<dim>1</dim>
					<dim>128</dim>
					<dim>1</dim>
					<dim>1</dim>
				</port>
			</output>
		</layer>
		<layer id="223" name="BoxPredictor_5/BoxEncodingPredictor/weights/read/_168__cf__171/ReshapeBack" type="Const" version="opset1">
			<data element_type="f32" shape="24, 128, 1, 1" offset="21892888" size="12288" />
			<output>
				<port id="0" precision="FP32" names="BoxPredictor_5/BoxEncodingPredictor/weights/read/_168__cf__171:0">
					<dim>24</dim>
					<dim>128</dim>
					<dim>1</dim>
					<dim>1</dim>
				</port>
			</output>
		</layer>
		<layer id="224" name="BoxPredictor_5/BoxEncodingPredictor/Conv2D" type="Convolution" version="opset1">
			<data strides="1, 1" dilations="1, 1" pads_begin="0, 0" pads_end="0, 0" auto_pad="same_upper" />
			<input>
				<port id="0" precision="FP32">
					<dim>1</dim>
					<dim>128</dim>
					<dim>1</dim>
					<dim>1</dim>
				</port>
				<port id="1" precision="FP32">
					<dim>24</dim>
					<dim>128</dim>
					<dim>1</dim>
					<dim>1</dim>
				</port>
			</input>
			<output>
				<port id="2" precision="FP32" names="BoxPredictor_5/BoxEncodingPredictor/Conv2D:0">
					<dim>1</dim>
					<dim>24</dim>
					<dim>1</dim>
					<dim>1</dim>
				</port>
			</output>
		</layer>
		<layer id="225" name="BoxPredictor_5/BoxEncodingPredictor/biases/read/_167__cf__170/ReshapeBack" type="Const" version="opset1">
			<data element_type="f32" shape="1, 24, 1, 1" offset="21905176" size="96" />
			<output>
				<port id="0" precision="FP32" names="BoxPredictor_5/BoxEncodingPredictor/biases/read/_167__cf__170:0">
					<dim>1</dim>
					<dim>24</dim>
					<dim>1</dim>
					<dim>1</dim>
				</port>
			</output>
		</layer>
		<layer id="226" name="BoxPredictor_5/BoxEncodingPredictor/BiasAdd/Add" type="Add" version="opset1">
			<data auto_broadcast="numpy" />
			<input>
				<port id="0" precision="FP32">
					<dim>1</dim>
					<dim>24</dim>
					<dim>1</dim>
					<dim>1</dim>
				</port>
				<port id="1" precision="FP32">
					<dim>1</dim>
					<dim>24</dim>
					<dim>1</dim>
					<dim>1</dim>
				</port>
			</input>
			<output>
				<port id="2" precision="FP32">
					<dim>1</dim>
					<dim>24</dim>
					<dim>1</dim>
					<dim>1</dim>
				</port>
			</output>
		</layer>
		<layer id="227" name="BoxPredictor_5/BoxEncodingPredictor/BiasAdd/Add/Transpose/value1577722272" type="Const" version="opset1">
			<data element_type="i64" shape="4" offset="6447704" size="32" />
			<output>
				<port id="0" precision="I64">
					<dim>4</dim>
				</port>
			</output>
		</layer>
		<layer id="228" name="BoxPredictor_5/BoxEncodingPredictor/BiasAdd/Add/Transpose" type="Transpose" version="opset1">
			<input>
				<port id="0" precision="FP32">
					<dim>1</dim>
					<dim>24</dim>
					<dim>1</dim>
					<dim>1</dim>
				</port>
				<port id="1" precision="I64">
					<dim>4</dim>
				</port>
			</input>
			<output>
				<port id="2" precision="FP32" names="BoxPredictor_5/BoxEncodingPredictor/BiasAdd:0">
					<dim>1</dim>
					<dim>1</dim>
					<dim>1</dim>
					<dim>24</dim>
				</port>
			</output>
		</layer>
		<layer id="229" name="7097" type="Const" version="opset1">
			<data element_type="i64" shape="4" offset="6447736" size="32" />
			<output>
				<port id="0" precision="I64">
					<dim>4</dim>
				</port>
			</output>
		</layer>
		<layer id="230" name="BoxPredictor_5/BoxEncodingPredictor/BiasAdd/Reshape" type="Reshape" version="opset1">
			<data special_zero="true" />
			<input>
				<port id="0" precision="FP32">
					<dim>1</dim>
					<dim>1</dim>
					<dim>1</dim>
					<dim>24</dim>
				</port>
				<port id="1" precision="I64">
					<dim>4</dim>
				</port>
			</input>
			<output>
				<port id="2" precision="FP32" names="BoxPredictor_5/Reshape:0">
					<dim>1</dim>
					<dim>6</dim>
					<dim>1</dim>
					<dim>4</dim>
				</port>
			</output>
		</layer>
		<layer id="231" name="concat" type="Concat" version="opset1">
			<data axis="1" />
			<input>
				<port id="0" precision="FP32">
					<dim>1</dim>
					<dim>1083</dim>
					<dim>1</dim>
					<dim>4</dim>
				</port>
				<port id="1" precision="FP32">
					<dim>1</dim>
					<dim>600</dim>
					<dim>1</dim>
					<dim>4</dim>
				</port>
				<port id="2" precision="FP32">
					<dim>1</dim>
					<dim>150</dim>
					<dim>1</dim>
					<dim>4</dim>
				</port>
				<port id="3" precision="FP32">
					<dim>1</dim>
					<dim>54</dim>
					<dim>1</dim>
					<dim>4</dim>
				</port>
				<port id="4" precision="FP32">
					<dim>1</dim>
					<dim>24</dim>
					<dim>1</dim>
					<dim>4</dim>
				</port>
				<port id="5" precision="FP32">
					<dim>1</dim>
					<dim>6</dim>
					<dim>1</dim>
					<dim>4</dim>
				</port>
			</input>
			<output>
				<port id="6" precision="FP32" names="concat:0">
					<dim>1</dim>
					<dim>1917</dim>
					<dim>1</dim>
					<dim>4</dim>
				</port>
			</output>
		</layer>
		<layer id="232" name="do_reshape_offsets/value" type="Const" version="opset1">
			<data element_type="i64" shape="2" offset="21905272" size="16" />
			<output>
				<port id="0" precision="I64">
					<dim>2</dim>
				</port>
			</output>
		</layer>
		<layer id="233" name="do_reshape_offsets" type="Reshape" version="opset1">
			<data special_zero="true" />
			<input>
				<port id="0" precision="FP32">
					<dim>1</dim>
					<dim>1917</dim>
					<dim>1</dim>
					<dim>4</dim>
				</port>
				<port id="1" precision="I64">
					<dim>2</dim>
				</port>
			</input>
			<output>
				<port id="2" precision="FP32">
					<dim>1</dim>
					<dim>7668</dim>
				</port>
			</output>
		</layer>
		<layer id="234" name="BoxPredictor_0/ClassPredictor/weights/read/_52__cf__55" type="Const" version="opset1">
			<data element_type="f32" shape="273, 512, 1, 1" offset="21905288" size="559104" />
			<output>
				<port id="0" precision="FP32" names="BoxPredictor_0/ClassPredictor/weights/read/_52__cf__55:0">
					<dim>273</dim>
					<dim>512</dim>
					<dim>1</dim>
					<dim>1</dim>
				</port>
			</output>
		</layer>
		<layer id="235" name="BoxPredictor_0/ClassPredictor/Conv2D" type="Convolution" version="opset1">
			<data strides="1, 1" dilations="1, 1" pads_begin="0, 0" pads_end="0, 0" auto_pad="same_upper" />
			<input>
				<port id="0" precision="FP32">
					<dim>1</dim>
					<dim>512</dim>
					<dim>19</dim>
					<dim>19</dim>
				</port>
				<port id="1" precision="FP32">
					<dim>273</dim>
					<dim>512</dim>
					<dim>1</dim>
					<dim>1</dim>
				</port>
			</input>
			<output>
				<port id="2" precision="FP32" names="BoxPredictor_0/ClassPredictor/Conv2D:0">
					<dim>1</dim>
					<dim>273</dim>
					<dim>19</dim>
					<dim>19</dim>
				</port>
			</output>
		</layer>
		<layer id="236" name="BoxPredictor_0/ClassPredictor/biases/read/_51__cf__54" type="Const" version="opset1">
			<data element_type="f32" shape="1, 273, 1, 1" offset="22464392" size="1092" />
			<output>
				<port id="0" precision="FP32" names="BoxPredictor_0/ClassPredictor/biases/read/_51__cf__54:0">
					<dim>1</dim>
					<dim>273</dim>
					<dim>1</dim>
					<dim>1</dim>
				</port>
			</output>
		</layer>
		<layer id="237" name="BoxPredictor_0/ClassPredictor/BiasAdd/Add" type="Add" version="opset1">
			<data auto_broadcast="numpy" />
			<input>
				<port id="0" precision="FP32">
					<dim>1</dim>
					<dim>273</dim>
					<dim>19</dim>
					<dim>19</dim>
				</port>
				<port id="1" precision="FP32">
					<dim>1</dim>
					<dim>273</dim>
					<dim>1</dim>
					<dim>1</dim>
				</port>
			</input>
			<output>
				<port id="2" precision="FP32">
					<dim>1</dim>
					<dim>273</dim>
					<dim>19</dim>
					<dim>19</dim>
				</port>
			</output>
		</layer>
		<layer id="238" name="BoxPredictor_0/ClassPredictor/BiasAdd/Add/Transpose/value1574122326" type="Const" version="opset1">
			<data element_type="i64" shape="4" offset="6447704" size="32" />
			<output>
				<port id="0" precision="I64">
					<dim>4</dim>
				</port>
			</output>
		</layer>
		<layer id="239" name="BoxPredictor_0/ClassPredictor/BiasAdd/Add/Transpose" type="Transpose" version="opset1">
			<input>
				<port id="0" precision="FP32">
					<dim>1</dim>
					<dim>273</dim>
					<dim>19</dim>
					<dim>19</dim>
				</port>
				<port id="1" precision="I64">
					<dim>4</dim>
				</port>
			</input>
			<output>
				<port id="2" precision="FP32" names="BoxPredictor_0/ClassPredictor/BiasAdd:0">
					<dim>1</dim>
					<dim>19</dim>
					<dim>19</dim>
					<dim>273</dim>
				</port>
			</output>
		</layer>
		<layer id="240" name="7079" type="Const" version="opset1">
			<data element_type="i64" shape="3" offset="22465484" size="24" />
			<output>
				<port id="0" precision="I64">
					<dim>3</dim>
				</port>
			</output>
		</layer>
		<layer id="241" name="BoxPredictor_0/ClassPredictor/BiasAdd/Reshape" type="Reshape" version="opset1">
			<data special_zero="true" />
			<input>
				<port id="0" precision="FP32">
					<dim>1</dim>
					<dim>19</dim>
					<dim>19</dim>
					<dim>273</dim>
				</port>
				<port id="1" precision="I64">
					<dim>3</dim>
				</port>
			</input>
			<output>
				<port id="2" precision="FP32" names="BoxPredictor_0/Reshape_1:0">
					<dim>1</dim>
					<dim>1083</dim>
					<dim>91</dim>
				</port>
			</output>
		</layer>
		<layer id="242" name="BoxPredictor_1/ClassPredictor/weights/read/_50__cf__53" type="Const" version="opset1">
			<data element_type="f32" shape="546, 1024, 1, 1" offset="22465508" size="2236416" />
			<output>
				<port id="0" precision="FP32" names="BoxPredictor_1/ClassPredictor/weights/read/_50__cf__53:0">
					<dim>546</dim>
					<dim>1024</dim>
					<dim>1</dim>
					<dim>1</dim>
				</port>
			</output>
		</layer>
		<layer id="243" name="BoxPredictor_1/ClassPredictor/Conv2D" type="Convolution" version="opset1">
			<data strides="1, 1" dilations="1, 1" pads_begin="0, 0" pads_end="0, 0" auto_pad="same_upper" />
			<input>
				<port id="0" precision="FP32">
					<dim>1</dim>
					<dim>1024</dim>
					<dim>10</dim>
					<dim>10</dim>
				</port>
				<port id="1" precision="FP32">
					<dim>546</dim>
					<dim>1024</dim>
					<dim>1</dim>
					<dim>1</dim>
				</port>
			</input>
			<output>
				<port id="2" precision="FP32" names="BoxPredictor_1/ClassPredictor/Conv2D:0">
					<dim>1</dim>
					<dim>546</dim>
					<dim>10</dim>
					<dim>10</dim>
				</port>
			</output>
		</layer>
		<layer id="244" name="BoxPredictor_1/ClassPredictor/biases/read/_49__cf__52" type="Const" version="opset1">
			<data element_type="f32" shape="1, 546, 1, 1" offset="24701924" size="2184" />
			<output>
				<port id="0" precision="FP32" names="BoxPredictor_1/ClassPredictor/biases/read/_49__cf__52:0">
					<dim>1</dim>
					<dim>546</dim>
					<dim>1</dim>
					<dim>1</dim>
				</port>
			</output>
		</layer>
		<layer id="245" name="BoxPredictor_1/ClassPredictor/BiasAdd/Add" type="Add" version="opset1">
			<data auto_broadcast="numpy" />
			<input>
				<port id="0" precision="FP32">
					<dim>1</dim>
					<dim>546</dim>
					<dim>10</dim>
					<dim>10</dim>
				</port>
				<port id="1" precision="FP32">
					<dim>1</dim>
					<dim>546</dim>
					<dim>1</dim>
					<dim>1</dim>
				</port>
			</input>
			<output>
				<port id="2" precision="FP32">
					<dim>1</dim>
					<dim>546</dim>
					<dim>10</dim>
					<dim>10</dim>
				</port>
			</output>
		</layer>
		<layer id="246" name="BoxPredictor_1/ClassPredictor/BiasAdd/Add/Transpose/value1574922227" type="Const" version="opset1">
			<data element_type="i64" shape="4" offset="6447704" size="32" />
			<output>
				<port id="0" precision="I64">
					<dim>4</dim>
				</port>
			</output>
		</layer>
		<layer id="247" name="BoxPredictor_1/ClassPredictor/BiasAdd/Add/Transpose" type="Transpose" version="opset1">
			<input>
				<port id="0" precision="FP32">
					<dim>1</dim>
					<dim>546</dim>
					<dim>10</dim>
					<dim>10</dim>
				</port>
				<port id="1" precision="I64">
					<dim>4</dim>
				</port>
			</input>
			<output>
				<port id="2" precision="FP32" names="BoxPredictor_1/ClassPredictor/BiasAdd:0">
					<dim>1</dim>
					<dim>10</dim>
					<dim>10</dim>
					<dim>546</dim>
				</port>
			</output>
		</layer>
		<layer id="248" name="7083" type="Const" version="opset1">
			<data element_type="i64" shape="3" offset="22465484" size="24" />
			<output>
				<port id="0" precision="I64">
					<dim>3</dim>
				</port>
			</output>
		</layer>
		<layer id="249" name="BoxPredictor_1/ClassPredictor/BiasAdd/Reshape" type="Reshape" version="opset1">
			<data special_zero="true" />
			<input>
				<port id="0" precision="FP32">
					<dim>1</dim>
					<dim>10</dim>
					<dim>10</dim>
					<dim>546</dim>
				</port>
				<port id="1" precision="I64">
					<dim>3</dim>
				</port>
			</input>
			<output>
				<port id="2" precision="FP32" names="BoxPredictor_1/Reshape_1:0">
					<dim>1</dim>
					<dim>600</dim>
					<dim>91</dim>
				</port>
			</output>
		</layer>
		<layer id="250" name="BoxPredictor_2/ClassPredictor/weights/read/_48__cf__51" type="Const" version="opset1">
			<data element_type="f32" shape="546, 512, 1, 1" offset="24704108" size="1118208" />
			<output>
				<port id="0" precision="FP32" names="BoxPredictor_2/ClassPredictor/weights/read/_48__cf__51:0">
					<dim>546</dim>
					<dim>512</dim>
					<dim>1</dim>
					<dim>1</dim>
				</port>
			</output>
		</layer>
		<layer id="251" name="BoxPredictor_2/ClassPredictor/Conv2D" type="Convolution" version="opset1">
			<data strides="1, 1" dilations="1, 1" pads_begin="0, 0" pads_end="0, 0" auto_pad="same_upper" />
			<input>
				<port id="0" precision="FP32">
					<dim>1</dim>
					<dim>512</dim>
					<dim>5</dim>
					<dim>5</dim>
				</port>
				<port id="1" precision="FP32">
					<dim>546</dim>
					<dim>512</dim>
					<dim>1</dim>
					<dim>1</dim>
				</port>
			</input>
			<output>
				<port id="2" precision="FP32" names="BoxPredictor_2/ClassPredictor/Conv2D:0">
					<dim>1</dim>
					<dim>546</dim>
					<dim>5</dim>
					<dim>5</dim>
				</port>
			</output>
		</layer>
		<layer id="252" name="BoxPredictor_2/ClassPredictor/biases/read/_47__cf__50" type="Const" version="opset1">
			<data element_type="f32" shape="1, 546, 1, 1" offset="25822316" size="2184" />
			<output>
				<port id="0" precision="FP32" names="BoxPredictor_2/ClassPredictor/biases/read/_47__cf__50:0">
					<dim>1</dim>
					<dim>546</dim>
					<dim>1</dim>
					<dim>1</dim>
				</port>
			</output>
		</layer>
		<layer id="253" name="BoxPredictor_2/ClassPredictor/BiasAdd/Add" type="Add" version="opset1">
			<data auto_broadcast="numpy" />
			<input>
				<port id="0" precision="FP32">
					<dim>1</dim>
					<dim>546</dim>
					<dim>5</dim>
					<dim>5</dim>
				</port>
				<port id="1" precision="FP32">
					<dim>1</dim>
					<dim>546</dim>
					<dim>1</dim>
					<dim>1</dim>
				</port>
			</input>
			<output>
				<port id="2" precision="FP32">
					<dim>1</dim>
					<dim>546</dim>
					<dim>5</dim>
					<dim>5</dim>
				</port>
			</output>
		</layer>
		<layer id="254" name="BoxPredictor_2/ClassPredictor/BiasAdd/Add/Transpose/value1575722050" type="Const" version="opset1">
			<data element_type="i64" shape="4" offset="6447704" size="32" />
			<output>
				<port id="0" precision="I64">
					<dim>4</dim>
				</port>
			</output>
		</layer>
		<layer id="255" name="BoxPredictor_2/ClassPredictor/BiasAdd/Add/Transpose" type="Transpose" version="opset1">
			<input>
				<port id="0" precision="FP32">
					<dim>1</dim>
					<dim>546</dim>
					<dim>5</dim>
					<dim>5</dim>
				</port>
				<port id="1" precision="I64">
					<dim>4</dim>
				</port>
			</input>
			<output>
				<port id="2" precision="FP32" names="BoxPredictor_2/ClassPredictor/BiasAdd:0">
					<dim>1</dim>
					<dim>5</dim>
					<dim>5</dim>
					<dim>546</dim>
				</port>
			</output>
		</layer>
		<layer id="256" name="7087" type="Const" version="opset1">
			<data element_type="i64" shape="3" offset="22465484" size="24" />
			<output>
				<port id="0" precision="I64">
					<dim>3</dim>
				</port>
			</output>
		</layer>
		<layer id="257" name="BoxPredictor_2/ClassPredictor/BiasAdd/Reshape" type="Reshape" version="opset1">
			<data special_zero="true" />
			<input>
				<port id="0" precision="FP32">
					<dim>1</dim>
					<dim>5</dim>
					<dim>5</dim>
					<dim>546</dim>
				</port>
				<port id="1" precision="I64">
					<dim>3</dim>
				</port>
			</input>
			<output>
				<port id="2" precision="FP32" names="BoxPredictor_2/Reshape_1:0">
					<dim>1</dim>
					<dim>150</dim>
					<dim>91</dim>
				</port>
			</output>
		</layer>
		<layer id="258" name="BoxPredictor_3/ClassPredictor/weights/read/_46__cf__49" type="Const" version="opset1">
			<data element_type="f32" shape="546, 256, 1, 1" offset="25824500" size="559104" />
			<output>
				<port id="0" precision="FP32" names="BoxPredictor_3/ClassPredictor/weights/read/_46__cf__49:0">
					<dim>546</dim>
					<dim>256</dim>
					<dim>1</dim>
					<dim>1</dim>
				</port>
			</output>
		</layer>
		<layer id="259" name="BoxPredictor_3/ClassPredictor/Conv2D" type="Convolution" version="opset1">
			<data strides="1, 1" dilations="1, 1" pads_begin="0, 0" pads_end="0, 0" auto_pad="same_upper" />
			<input>
				<port id="0" precision="FP32">
					<dim>1</dim>
					<dim>256</dim>
					<dim>3</dim>
					<dim>3</dim>
				</port>
				<port id="1" precision="FP32">
					<dim>546</dim>
					<dim>256</dim>
					<dim>1</dim>
					<dim>1</dim>
				</port>
			</input>
			<output>
				<port id="2" precision="FP32" names="BoxPredictor_3/ClassPredictor/Conv2D:0">
					<dim>1</dim>
					<dim>546</dim>
					<dim>3</dim>
					<dim>3</dim>
				</port>
			</output>
		</layer>
		<layer id="260" name="BoxPredictor_3/ClassPredictor/biases/read/_45__cf__48" type="Const" version="opset1">
			<data element_type="f32" shape="1, 546, 1, 1" offset="26383604" size="2184" />
			<output>
				<port id="0" precision="FP32" names="BoxPredictor_3/ClassPredictor/biases/read/_45__cf__48:0">
					<dim>1</dim>
					<dim>546</dim>
					<dim>1</dim>
					<dim>1</dim>
				</port>
			</output>
		</layer>
		<layer id="261" name="BoxPredictor_3/ClassPredictor/BiasAdd/Add" type="Add" version="opset1">
			<data auto_broadcast="numpy" />
			<input>
				<port id="0" precision="FP32">
					<dim>1</dim>
					<dim>546</dim>
					<dim>3</dim>
					<dim>3</dim>
				</port>
				<port id="1" precision="FP32">
					<dim>1</dim>
					<dim>546</dim>
					<dim>1</dim>
					<dim>1</dim>
				</port>
			</input>
			<output>
				<port id="2" precision="FP32">
					<dim>1</dim>
					<dim>546</dim>
					<dim>3</dim>
					<dim>3</dim>
				</port>
			</output>
		</layer>
		<layer id="262" name="BoxPredictor_3/ClassPredictor/BiasAdd/Add/Transpose/value1576521993" type="Const" version="opset1">
			<data element_type="i64" shape="4" offset="6447704" size="32" />
			<output>
				<port id="0" precision="I64">
					<dim>4</dim>
				</port>
			</output>
		</layer>
		<layer id="263" name="BoxPredictor_3/ClassPredictor/BiasAdd/Add/Transpose" type="Transpose" version="opset1">
			<input>
				<port id="0" precision="FP32">
					<dim>1</dim>
					<dim>546</dim>
					<dim>3</dim>
					<dim>3</dim>
				</port>
				<port id="1" precision="I64">
					<dim>4</dim>
				</port>
			</input>
			<output>
				<port id="2" precision="FP32" names="BoxPredictor_3/ClassPredictor/BiasAdd:0">
					<dim>1</dim>
					<dim>3</dim>
					<dim>3</dim>
					<dim>546</dim>
				</port>
			</output>
		</layer>
		<layer id="264" name="7091" type="Const" version="opset1">
			<data element_type="i64" shape="3" offset="22465484" size="24" />
			<output>
				<port id="0" precision="I64">
					<dim>3</dim>
				</port>
			</output>
		</layer>
		<layer id="265" name="BoxPredictor_3/ClassPredictor/BiasAdd/Reshape" type="Reshape" version="opset1">
			<data special_zero="true" />
			<input>
				<port id="0" precision="FP32">
					<dim>1</dim>
					<dim>3</dim>
					<dim>3</dim>
					<dim>546</dim>
				</port>
				<port id="1" precision="I64">
					<dim>3</dim>
				</port>
			</input>
			<output>
				<port id="2" precision="FP32" names="BoxPredictor_3/Reshape_1:0">
					<dim>1</dim>
					<dim>54</dim>
					<dim>91</dim>
				</port>
			</output>
		</layer>
		<layer id="266" name="BoxPredictor_4/ClassPredictor/weights/read/_44__cf__47" type="Const" version="opset1">
			<data element_type="f32" shape="546, 256, 1, 1" offset="26385788" size="559104" />
			<output>
				<port id="0" precision="FP32" names="BoxPredictor_4/ClassPredictor/weights/read/_44__cf__47:0">
					<dim>546</dim>
					<dim>256</dim>
					<dim>1</dim>
					<dim>1</dim>
				</port>
			</output>
		</layer>
		<layer id="267" name="BoxPredictor_4/ClassPredictor/Conv2D" type="Convolution" version="opset1">
			<data strides="1, 1" dilations="1, 1" pads_begin="0, 0" pads_end="0, 0" auto_pad="same_upper" />
			<input>
				<port id="0" precision="FP32">
					<dim>1</dim>
					<dim>256</dim>
					<dim>2</dim>
					<dim>2</dim>
				</port>
				<port id="1" precision="FP32">
					<dim>546</dim>
					<dim>256</dim>
					<dim>1</dim>
					<dim>1</dim>
				</port>
			</input>
			<output>
				<port id="2" precision="FP32" names="BoxPredictor_4/ClassPredictor/Conv2D:0">
					<dim>1</dim>
					<dim>546</dim>
					<dim>2</dim>
					<dim>2</dim>
				</port>
			</output>
		</layer>
		<layer id="268" name="BoxPredictor_4/ClassPredictor/biases/read/_43__cf__46" type="Const" version="opset1">
			<data element_type="f32" shape="1, 546, 1, 1" offset="26944892" size="2184" />
			<output>
				<port id="0" precision="FP32" names="BoxPredictor_4/ClassPredictor/biases/read/_43__cf__46:0">
					<dim>1</dim>
					<dim>546</dim>
					<dim>1</dim>
					<dim>1</dim>
				</port>
			</output>
		</layer>
		<layer id="269" name="BoxPredictor_4/ClassPredictor/BiasAdd/Add" type="Add" version="opset1">
			<data auto_broadcast="numpy" />
			<input>
				<port id="0" precision="FP32">
					<dim>1</dim>
					<dim>546</dim>
					<dim>2</dim>
					<dim>2</dim>
				</port>
				<port id="1" precision="FP32">
					<dim>1</dim>
					<dim>546</dim>
					<dim>1</dim>
					<dim>1</dim>
				</port>
			</input>
			<output>
				<port id="2" precision="FP32">
					<dim>1</dim>
					<dim>546</dim>
					<dim>2</dim>
					<dim>2</dim>
				</port>
			</output>
		</layer>
		<layer id="270" name="BoxPredictor_4/ClassPredictor/BiasAdd/Add/Transpose/value1577322038" type="Const" version="opset1">
			<data element_type="i64" shape="4" offset="6447704" size="32" />
			<output>
				<port id="0" precision="I64">
					<dim>4</dim>
				</port>
			</output>
		</layer>
		<layer id="271" name="BoxPredictor_4/ClassPredictor/BiasAdd/Add/Transpose" type="Transpose" version="opset1">
			<input>
				<port id="0" precision="FP32">
					<dim>1</dim>
					<dim>546</dim>
					<dim>2</dim>
					<dim>2</dim>
				</port>
				<port id="1" precision="I64">
					<dim>4</dim>
				</port>
			</input>
			<output>
				<port id="2" precision="FP32" names="BoxPredictor_4/ClassPredictor/BiasAdd:0">
					<dim>1</dim>
					<dim>2</dim>
					<dim>2</dim>
					<dim>546</dim>
				</port>
			</output>
		</layer>
		<layer id="272" name="7095" type="Const" version="opset1">
			<data element_type="i64" shape="3" offset="22465484" size="24" />
			<output>
				<port id="0" precision="I64">
…
		<layer id="304" name="PriorBoxClustered_1/ss_stride1658122086" type="Const" version="opset1">
			<data element_type="i64" shape="1" offset="27228860" size="8" />
			<output>
				<port id="0" precision="I64">
					<dim>1</dim>
				</port>
			</output>
		</layer>
		<layer id="305" name="PriorBoxClustered_1/ss_0_port" type="StridedSlice" version="opset1">
			<data begin_mask="0" end_mask="1" new_axis_mask="0" shrink_axis_mask="0" ellipsis_mask="0" />
			<input>
				<port id="0" precision="I64">
					<dim>4</dim>
				</port>
				<port id="1" precision="I64">
					<dim>1</dim>
				</port>
				<port id="2" precision="I64">
					<dim>1</dim>
				</port>
				<port id="3" precision="I64">
					<dim>1</dim>
				</port>
			</input>
			<output>
				<port id="4" precision="I64">
					<dim>2</dim>
				</port>
			</output>
		</layer>
		<layer id="306" name="PriorBoxClustered_1/ss_begin1657922218" type="Const" version="opset1">
			<data element_type="i64" shape="1" offset="27228844" size="8" />
			<output>
				<port id="0" precision="I64">
					<dim>1</dim>
				</port>
			</output>
		</layer>
		<layer id="307" name="PriorBoxClustered_1/ss_end1658022080" type="Const" version="opset1">
			<data element_type="i64" shape="1" offset="27228852" size="8" />
			<output>
				<port id="0" precision="I64">
					<dim>1</dim>
				</port>
			</output>
		</layer>
		<layer id="308" name="PriorBoxClustered_1/ss_stride1658121954" type="Const" version="opset1">
			<data element_type="i64" shape="1" offset="27228860" size="8" />
			<output>
				<port id="0" precision="I64">
					<dim>1</dim>
				</port>
			</output>
		</layer>
		<layer id="309" name="PriorBoxClustered_1/ss_1_port" type="StridedSlice" version="opset1">
			<data begin_mask="0" end_mask="1" new_axis_mask="0" shrink_axis_mask="0" ellipsis_mask="0" />
			<input>
				<port id="0" precision="I64">
					<dim>4</dim>
				</port>
				<port id="1" precision="I64">
					<dim>1</dim>
				</port>
				<port id="2" precision="I64">
					<dim>1</dim>
				</port>
				<port id="3" precision="I64">
					<dim>1</dim>
				</port>
			</input>
			<output>
				<port id="4" precision="I64">
					<dim>2</dim>
				</port>
			</output>
		</layer>
		<layer id="310" name="PriorBoxClustered_1/naked_not_unsqueezed" type="PriorBoxClustered" version="opset1">
			<data step="0" step_w="0" step_h="0" width="105, 148.492, 74.2462, 181.865, 60.6187, 125.499" height="105, 74.2462, 148.492, 60.6218, 181.874, 125.499" clip="false" offset="0.5" variance="0.1, 0.1, 0.2, 0.2" />
			<input>
				<port id="0" precision="I64">
					<dim>2</dim>
				</port>
				<port id="1" precision="I64">
					<dim>2</dim>
				</port>
			</input>
			<output>
				<port id="2" precision="FP32">
					<dim>2</dim>
					<dim>2400</dim>
				</port>
			</output>
		</layer>
		<layer id="311" name="PriorBoxClustered_1/unsqueeze/value1658922182" type="Const" version="opset1">
			<data element_type="i64" shape="1" offset="27228868" size="8" />
			<output>
				<port id="0" precision="I64">
					<dim>1</dim>
				</port>
			</output>
		</layer>
		<layer id="312" name="PriorBoxClustered_1" type="Unsqueeze" version="opset1">
			<input>
				<port id="0" precision="FP32">
					<dim>2</dim>
					<dim>2400</dim>
				</port>
				<port id="1" precision="I64">
					<dim>1</dim>
				</port>
			</input>
			<output>
				<port id="2" precision="FP32">
					<dim>1</dim>
					<dim>2</dim>
					<dim>2400</dim>
				</port>
			</output>
		</layer>
		<layer id="313" name="PriorBoxClustered_2/0_port" type="ShapeOf" version="opset3">
			<data output_type="i64" />
			<input>
				<port id="0" precision="FP32">
					<dim>1</dim>
					<dim>24</dim>
					<dim>5</dim>
					<dim>5</dim>
				</port>
			</input>
			<output>
				<port id="1" precision="I64">
					<dim>4</dim>
				</port>
			</output>
		</layer>
		<layer id="314" name="PriorBoxClustered_2/ss_begin1656122146" type="Const" version="opset1">
			<data element_type="i64" shape="1" offset="27228844" size="8" />
			<output>
				<port id="0" precision="I64">
					<dim>1</dim>
				</port>
			</output>
		</layer>
		<layer id="315" name="PriorBoxClustered_2/ss_end1656222185" type="Const" version="opset1">
			<data element_type="i64" shape="1" offset="27228852" size="8" />
			<output>
				<port id="0" precision="I64">
					<dim>1</dim>
				</port>
			</output>
		</layer>
		<layer id="316" name="PriorBoxClustered_2/ss_stride1656322263" type="Const" version="opset1">
			<data element_type="i64" shape="1" offset="27228860" size="8" />
			<output>
				<port id="0" precision="I64">
					<dim>1</dim>
				</port>
			</output>
		</layer>
		<layer id="317" name="PriorBoxClustered_2/ss_0_port" type="StridedSlice" version="opset1">
			<data begin_mask="0" end_mask="1" new_axis_mask="0" shrink_axis_mask="0" ellipsis_mask="0" />
			<input>
				<port id="0" precision="I64">
					<dim>4</dim>
				</port>
				<port id="1" precision="I64">
					<dim>1</dim>
				</port>
				<port id="2" precision="I64">
					<dim>1</dim>
				</port>
				<port id="3" precision="I64">
					<dim>1</dim>
				</port>
			</input>
			<output>
				<port id="4" precision="I64">
					<dim>2</dim>
				</port>
			</output>
		</layer>
		<layer id="318" name="PriorBoxClustered_2/ss_begin1656122041" type="Const" version="opset1">
			<data element_type="i64" shape="1" offset="27228844" size="8" />
			<output>
				<port id="0" precision="I64">
					<dim>1</dim>
				</port>
			</output>
		</layer>
		<layer id="319" name="PriorBoxClustered_2/ss_end1656222056" type="Const" version="opset1">
			<data element_type="i64" shape="1" offset="27228852" size="8" />
			<output>
				<port id="0" precision="I64">
					<dim>1</dim>
				</port>
			</output>
		</layer>
		<layer id="320" name="PriorBoxClustered_2/ss_stride1656322059" type="Const" version="opset1">
			<data element_type="i64" shape="1" offset="27228860" size="8" />
			<output>
				<port id="0" precision="I64">
					<dim>1</dim>
				</port>
			</output>
		</layer>
		<layer id="321" name="PriorBoxClustered_2/ss_1_port" type="StridedSlice" version="opset1">
			<data begin_mask="0" end_mask="1" new_axis_mask="0" shrink_axis_mask="0" ellipsis_mask="0" />
			<input>
				<port id="0" precision="I64">
					<dim>4</dim>
				</port>
				<port id="1" precision="I64">
					<dim>1</dim>
				</port>
				<port id="2" precision="I64">
					<dim>1</dim>
				</port>
				<port id="3" precision="I64">
					<dim>1</dim>
				</port>
			</input>
			<output>
				<port id="4" precision="I64">
					<dim>2</dim>
				</port>
			</output>
		</layer>
		<layer id="322" name="PriorBoxClustered_2/naked_not_unsqueezed" type="PriorBoxClustered" version="opset1">
			<data step="0" step_w="0" step_h="0" width="150, 212.132, 106.066, 259.808, 86.5982, 171.026" height="150, 106.066, 212.132, 86.6025, 259.821, 171.026" clip="false" offset="0.5" variance="0.1, 0.1, 0.2, 0.2" />
			<input>
				<port id="0" precision="I64">
					<dim>2</dim>
				</port>
				<port id="1" precision="I64">
					<dim>2</dim>
				</port>
			</input>
			<output>
				<port id="2" precision="FP32">
					<dim>2</dim>
					<dim>600</dim>
				</port>
			</output>
		</layer>
		<layer id="323" name="PriorBoxClustered_2/unsqueeze/value1657122107" type="Const" version="opset1">
			<data element_type="i64" shape="1" offset="27228868" size="8" />
			<output>
				<port id="0" precision="I64">
					<dim>1</dim>
				</port>
			</output>
		</layer>
		<layer id="324" name="PriorBoxClustered_2" type="Unsqueeze" version="opset1">
			<input>
				<port id="0" precision="FP32">
					<dim>2</dim>
					<dim>600</dim>
				</port>
				<port id="1" precision="I64">
					<dim>1</dim>
				</port>
			</input>
			<output>
				<port id="2" precision="FP32">
					<dim>1</dim>
					<dim>2</dim>
					<dim>600</dim>
				</port>
			</output>
		</layer>
		<layer id="325" name="PriorBoxClustered_3/0_port" type="ShapeOf" version="opset3">
			<data output_type="i64" />
			<input>
				<port id="0" precision="FP32">
					<dim>1</dim>
					<dim>24</dim>
					<dim>3</dim>
					<dim>3</dim>
				</port>
			</input>
			<output>
				<port id="1" precision="I64">
					<dim>4</dim>
				</port>
			</output>
		</layer>
		<layer id="326" name="PriorBoxClustered_3/ss_begin1659722128" type="Const" version="opset1">
			<data element_type="i64" shape="1" offset="27228844" size="8" />
			<output>
				<port id="0" precision="I64">
					<dim>1</dim>
				</port>
			</output>
		</layer>
		<layer id="327" name="PriorBoxClustered_3/ss_end1659821999" type="Const" version="opset1">
			<data element_type="i64" shape="1" offset="27228852" size="8" />
			<output>
				<port id="0" precision="I64">
					<dim>1</dim>
				</port>
			</output>
		</layer>
		<layer id="328" name="PriorBoxClustered_3/ss_stride1659921939" type="Const" version="opset1">
			<data element_type="i64" shape="1" offset="27228860" size="8" />
			<output>
				<port id="0" precision="I64">
					<dim>1</dim>
				</port>
			</output>
		</layer>
		<layer id="329" name="PriorBoxClustered_3/ss_0_port" type="StridedSlice" version="opset1">
			<data begin_mask="0" end_mask="1" new_axis_mask="0" shrink_axis_mask="0" ellipsis_mask="0" />
			<input>
				<port id="0" precision="I64">
					<dim>4</dim>
				</port>
				<port id="1" precision="I64">
					<dim>1</dim>
				</port>
				<port id="2" precision="I64">
					<dim>1</dim>
				</port>
				<port id="3" precision="I64">
					<dim>1</dim>
				</port>
			</input>
			<output>
				<port id="4" precision="I64">
					<dim>2</dim>
				</port>
			</output>
		</layer>
		<layer id="330" name="PriorBoxClustered_3/ss_begin1659722074" type="Const" version="opset1">
			<data element_type="i64" shape="1" offset="27228844" size="8" />
			<output>
				<port id="0" precision="I64">
					<dim>1</dim>
				</port>
			</output>
		</layer>
		<layer id="331" name="PriorBoxClustered_3/ss_end1659822083" type="Const" version="opset1">
			<data element_type="i64" shape="1" offset="27228852" size="8" />
			<output>
				<port id="0" precision="I64">
					<dim>1</dim>
				</port>
			</output>
		</layer>
		<layer id="332" name="PriorBoxClustered_3/ss_stride1659921981" type="Const" version="opset1">
			<data element_type="i64" shape="1" offset="27228860" size="8" />
			<output>
				<port id="0" precision="I64">
					<dim>1</dim>
				</port>
			</output>
		</layer>
		<layer id="333" name="PriorBoxClustered_3/ss_1_port" type="StridedSlice" version="opset1">
			<data begin_mask="0" end_mask="1" new_axis_mask="0" shrink_axis_mask="0" ellipsis_mask="0" />
			<input>
				<port id="0" precision="I64">
					<dim>4</dim>
				</port>
				<port id="1" precision="I64">
					<dim>1</dim>
				</port>
				<port id="2" precision="I64">
					<dim>1</dim>
				</port>
				<port id="3" precision="I64">
					<dim>1</dim>
				</port>
			</input>
			<output>
				<port id="4" precision="I64">
					<dim>2</dim>
				</port>
			</output>
		</layer>
		<layer id="334" name="PriorBoxClustered_3/naked_not_unsqueezed" type="PriorBoxClustered" version="opset1">
			<data step="0" step_w="0" step_h="0" width="195, 275.772, 137.886, 337.75, 112.578, 216.333" height="195, 137.886, 275.772, 112.583, 337.767, 216.333" clip="false" offset="0.5" variance="0.1, 0.1, 0.2, 0.2" />
			<input>
				<port id="0" precision="I64">
					<dim>2</dim>
				</port>
				<port id="1" precision="I64">
					<dim>2</dim>
				</port>
			</input>
			<output>
				<port id="2" precision="FP32">
					<dim>2</dim>
					<dim>216</dim>
				</port>
			</output>
		</layer>
		<layer id="335" name="PriorBoxClustered_3/unsqueeze/value1660721903" type="Const" version="opset1">
			<data element_type="i64" shape="1" offset="27228868" size="8" />
			<output>
				<port id="0" precision="I64">
					<dim>1</dim>
				</port>
			</output>
		</layer>
		<layer id="336" name="PriorBoxClustered_3" type="Unsqueeze" version="opset1">
			<input>
				<port id="0" precision="FP32">
					<dim>2</dim>
					<dim>216</dim>
				</port>
				<port id="1" precision="I64">
					<dim>1</dim>
				</port>
			</input>
			<output>
				<port id="2" precision="FP32">
					<dim>1</dim>
					<dim>2</dim>
					<dim>216</dim>
				</port>
			</output>
		</layer>
		<layer id="337" name="PriorBoxClustered_4/0_port" type="ShapeOf" version="opset3">
			<data output_type="i64" />
			<input>
				<port id="0" precision="FP32">
					<dim>1</dim>
					<dim>24</dim>
					<dim>2</dim>
					<dim>2</dim>
				</port>
			</input>
			<output>
				<port id="1" precision="I64">
					<dim>4</dim>
				</port>
			</output>
		</layer>
		<layer id="338" name="PriorBoxClustered_4/ss_begin1663322020" type="Const" version="opset1">
			<data element_type="i64" shape="1" offset="27228844" size="8" />
			<output>
				<port id="0" precision="I64">
					<dim>1</dim>
				</port>
			</output>
		</layer>
		<layer id="339" name="PriorBoxClustered_4/ss_end1663421885" type="Const" version="opset1">
			<data element_type="i64" shape="1" offset="27228852" size="8" />
			<output>
				<port id="0" precision="I64">
					<dim>1</dim>
				</port>
			</output>
		</layer>
		<layer id="340" name="PriorBoxClustered_4/ss_stride1663522209" type="Const" version="opset1">
			<data element_type="i64" shape="1" offset="27228860" size="8" />
			<output>
				<port id="0" precision="I64">
					<dim>1</dim>
				</port>
			</output>
		</layer>
		<layer id="341" name="PriorBoxClustered_4/ss_0_port" type="StridedSlice" version="opset1">
			<data begin_mask="0" end_mask="1" new_axis_mask="0" shrink_axis_mask="0" ellipsis_mask="0" />
			<input>
				<port id="0" precision="I64">
					<dim>4</dim>
				</port>
				<port id="1" precision="I64">
					<dim>1</dim>
				</port>
				<port id="2" precision="I64">
					<dim>1</dim>
				</port>
				<port id="3" precision="I64">
					<dim>1</dim>
				</port>
			</input>
			<output>
				<port id="4" precision="I64">
					<dim>2</dim>
				</port>
			</output>
		</layer>
		<layer id="342" name="PriorBoxClustered_4/ss_begin1663321933" type="Const" version="opset1">
			<data element_type="i64" shape="1" offset="27228844" size="8" />
			<output>
				<port id="0" precision="I64">
					<dim>1</dim>
				</port>
			</output>
		</layer>
		<layer id="343" name="PriorBoxClustered_4/ss_end1663421840" type="Const" version="opset1">
			<data element_type="i64" shape="1" offset="27228852" size="8" />
			<output>
				<port id="0" precision="I64">
					<dim>1</dim>
				</port>
			</output>
		</layer>
		<layer id="344" name="PriorBoxClustered_4/ss_stride1663522014" type="Const" version="opset1">
			<data element_type="i64" shape="1" offset="27228860" size="8" />
			<output>
				<port id="0" precision="I64">
					<dim>1</dim>
				</port>
			</output>
		</layer>
		<layer id="345" name="PriorBoxClustered_4/ss_1_port" type="StridedSlice" version="opset1">
			<data begin_mask="0" end_mask="1" new_axis_mask="0" shrink_axis_mask="0" ellipsis_mask="0" />
			<input>
				<port id="0" precision="I64">
					<dim>4</dim>
				</port>
				<port id="1" precision="I64">
					<dim>1</dim>
				</port>
				<port id="2" precision="I64">
					<dim>1</dim>
				</port>
				<port id="3" precision="I64">
					<dim>1</dim>
				</port>
			</input>
			<output>
				<port id="4" precision="I64">
					<dim>2</dim>
				</port>
			</output>
		</layer>
		<layer id="346" name="PriorBoxClustered_4/naked_not_unsqueezed" type="PriorBoxClustered" version="opset1">
			<data step="0" step_w="0" step_h="0" width="240, 339.411, 169.706, 415.692, 138.557, 261.534" height="240, 169.706, 339.411, 138.564, 415.713, 261.534" clip="false" offset="0.5" variance="0.1, 0.1, 0.2, 0.2" />
			<input>
				<port id="0" precision="I64">
					<dim>2</dim>
				</port>
				<port id="1" precision="I64">
					<dim>2</dim>
				</port>
			</input>
			<output>
				<port id="2" precision="FP32">
					<dim>2</dim>
					<dim>96</dim>
				</port>
			</output>
		</layer>
		<layer id="347" name="PriorBoxClustered_4/unsqueeze/value1664322092" type="Const" version="opset1">
			<data element_type="i64" shape="1" offset="27228868" size="8" />
			<output>
				<port id="0" precision="I64">
					<dim>1</dim>
				</port>
			</output>
		</layer>
		<layer id="348" name="PriorBoxClustered_4" type="Unsqueeze" version="opset1">
			<input>
				<port id="0" precision="FP32">
					<dim>2</dim>
					<dim>96</dim>
				</port>
				<port id="1" precision="I64">
					<dim>1</dim>
				</port>
			</input>
			<output>
				<port id="2" precision="FP32">
					<dim>1</dim>
					<dim>2</dim>
					<dim>96</dim>
				</port>
			</output>
		</layer>
		<layer id="349" name="PriorBoxClustered_5/0_port" type="ShapeOf" version="opset3">
			<data output_type="i64" />
			<input>
				<port id="0" precision="FP32">
					<dim>1</dim>
					<dim>24</dim>
					<dim>1</dim>
					<dim>1</dim>
				</port>
			</input>
			<output>
				<port id="1" precision="I64">
					<dim>4</dim>
				</port>
			</output>
		</layer>
		<layer id="350" name="PriorBoxClustered_5/ss_begin1665121861" type="Const" version="opset1">
			<data element_type="i64" shape="1" offset="27228844" size="8" />
			<output>
				<port id="0" precision="I64">
					<dim>1</dim>
				</port>
			</output>
		</layer>
		<layer id="351" name="PriorBoxClustered_5/ss_end1665221969" type="Const" version="opset1">
			<data element_type="i64" shape="1" offset="27228852" size="8" />
			<output>
				<port id="0" precision="I64">
					<dim>1</dim>
				</port>
			</output>
		</layer>
		<layer id="352" name="PriorBoxClustered_5/ss_stride1665322032" type="Const" version="opset1">
			<data element_type="i64" shape="1" offset="27228860" size="8" />
			<output>
				<port id="0" precision="I64">
					<dim>1</dim>
				</port>
			</output>
		</layer>
		<layer id="353" name="PriorBoxClustered_5/ss_0_port" type="StridedSlice" version="opset1">
			<data begin_mask="0" end_mask="1" new_axis_mask="0" shrink_axis_mask="0" ellipsis_mask="0" />
			<input>
				<port id="0" precision="I64">
					<dim>4</dim>
				</port>
				<port id="1" precision="I64">
					<dim>1</dim>
				</port>
				<port id="2" precision="I64">
					<dim>1</dim>
				</port>
				<port id="3" precision="I64">
					<dim>1</dim>
				</port>
			</input>
			<output>
				<port id="4" precision="I64">
					<dim>2</dim>
				</port>
			</output>
		</layer>
		<layer id="354" name="PriorBoxClustered_5/ss_begin1665122296" type="Const" version="opset1">
			<data element_type="i64" shape="1" offset="27228844" size="8" />
			<output>
				<port id="0" precision="I64">
					<dim>1</dim>
				</port>
			</output>
		</layer>
		<layer id="355" name="PriorBoxClustered_5/ss_end1665222113" type="Const" version="opset1">
			<data element_type="i64" shape="1" offset="27228852" size="8" />
			<output>
				<port id="0" precision="I64">
					<dim>1</dim>
				</port>
			</output>
		</layer>
		<layer id="356" name="PriorBoxClustered_5/ss_stride1665321891" type="Const" version="opset1">
			<data element_type="i64" shape="1" offset="27228860" size="8" />
			<output>
				<port id="0" precision="I64">
					<dim>1</dim>
				</port>
			</output>
		</layer>
		<layer id="357" name="PriorBoxClustered_5/ss_1_port" type="StridedSlice" version="opset1">
			<data begin_mask="0" end_mask="1" new_axis_mask="0" shrink_axis_mask="0" ellipsis_mask="0" />
			<input>
				<port id="0" precision="I64">
					<dim>4</dim>
				</port>
				<port id="1" precision="I64">
					<dim>1</dim>
				</port>
				<port id="2" precision="I64">
					<dim>1</dim>
				</port>
				<port id="3" precision="I64">
					<dim>1</dim>
				</port>
			</input>
			<output>
				<port id="4" precision="I64">
					<dim>2</dim>
				</port>
			</output>
		</layer>
		<layer id="358" name="PriorBoxClustered_5/naked_not_unsqueezed" type="PriorBoxClustered" version="opset1">
			<data step="0" step_w="0" step_h="0" width="285, 403.051, 201.525, 493.634, 164.537, 292.404" height="285, 201.525, 403.051, 164.545, 493.659, 292.404" clip="false" offset="0.5" variance="0.1, 0.1, 0.2, 0.2" />
			<input>
				<port id="0" precision="I64">
					<dim>2</dim>
				</port>
				<port id="1" precision="I64">
					<dim>2</dim>
				</port>
			</input>
			<output>
				<port id="2" precision="FP32">
					<dim>2</dim>
					<dim>24</dim>
				</port>
			</output>
		</layer>
		<layer id="359" name="PriorBoxClustered_5/unsqueeze/value1666121936" type="Const" version="opset1">
			<data element_type="i64" shape="1" offset="27228868" size="8" />
			<output>
				<port id="0" precision="I64">
					<dim>1</dim>
				</port>
			</output>
		</layer>
		<layer id="360" name="PriorBoxClustered_5" type="Unsqueeze" version="opset1">
			<input>
				<port id="0" precision="FP32">
					<dim>2</dim>
					<dim>24</dim>
				</port>
				<port id="1" precision="I64">
					<dim>1</dim>
				</port>
			</input>
			<output>
				<port id="2" precision="FP32">
					<dim>1</dim>
					<dim>2</dim>
					<dim>24</dim>
				</port>
			</output>
		</layer>
		<layer id="361" name="ConcatPriorBoxesClustered" type="Concat" version="opset1">
			<data axis="2" />
			<input>
				<port id="0" precision="FP32">
					<dim>1</dim>
					<dim>2</dim>
					<dim>4332</dim>
				</port>
				<port id="1" precision="FP32">
					<dim>1</dim>
					<dim>2</dim>
					<dim>2400</dim>
				</port>
				<port id="2" precision="FP32">
					<dim>1</dim>
					<dim>2</dim>
					<dim>600</dim>
				</port>
				<port id="3" precision="FP32">
					<dim>1</dim>
					<dim>2</dim>
					<dim>216</dim>
				</port>
				<port id="4" precision="FP32">
					<dim>1</dim>
					<dim>2</dim>
					<dim>96</dim>
				</port>
				<port id="5" precision="FP32">
					<dim>1</dim>
					<dim>2</dim>
					<dim>24</dim>
				</port>
			</input>
			<output>
				<port id="6" precision="FP32">
					<dim>1</dim>
					<dim>2</dim>
					<dim>7668</dim>
				</port>
			</output>
		</layer>
		<layer id="362" name="DetectionOutput" type="DetectionOutput" version="opset8">
			<data background_label_id="0" top_k="100" variance_encoded_in_target="false" keep_top_k="100" code_type="caffe.PriorBoxParameter.CENTER_SIZE" share_location="true" nms_threshold="0.60000002384185791" confidence_threshold="0.30000001192092896" clip_after_nms="true" clip_before_nms="false" decrease_label_id="false" normalized="true" input_height="1" input_width="1" objectness_score="0" />
			<input>
				<port id="0" precision="FP32">
					<dim>1</dim>
					<dim>7668</dim>
				</port>
				<port id="1" precision="FP32">
					<dim>1</dim>
					<dim>174447</dim>
				</port>
				<port id="2" precision="FP32">
					<dim>1</dim>
					<dim>2</dim>
					<dim>7668</dim>
				</port>
			</input>
			<output>
				<port id="3" precision="FP32" names="detection_boxes,detection_boxes:0">
					<dim>1</dim>
					<dim>1</dim>
					<dim>100</dim>
					<dim>7</dim>
				</port>
			</output>
		</layer>
		<layer id="363" name="detection_boxes" type="Result" version="opset1">
			<input>
				<port id="0" precision="FP32">
					<dim>1</dim>
					<dim>1</dim>
					<dim>100</dim>
					<dim>7</dim>
				</port>
			</input>
		</layer>
	</layers>
	<edges>
		<edge from-layer="0" from-port="0" to-layer="2" to-port="0" />
		<edge from-layer="1" from-port="0" to-layer="5" to-port="0" />
		<edge from-layer="2" from-port="1" to-layer="4" to-port="0" />
		<edge from-layer="3" from-port="0" to-layer="4" to-port="1" />
		<edge from-layer="4" from-port="2" to-layer="5" to-port="1" />
		<edge from-layer="4" from-port="2" to-layer="293" to-port="0" />
		<edge from-layer="5" from-port="2" to-layer="7" to-port="0" />
		<edge from-layer="6" from-port="0" to-layer="7" to-port="1" />
		<edge from-layer="7" from-port="2" to-layer="9" to-port="0" />
		<edge from-layer="8" from-port="0" to-layer="9" to-port="1" />
		<edge from-layer="9" from-port="2" to-layer="11" to-port="0" />
		<edge from-layer="10" from-port="0" to-layer="11" to-port="1" />
		<edge from-layer="11" from-port="2" to-layer="12" to-port="0" />
		<edge from-layer="12" from-port="1" to-layer="14" to-port="0" />
		<edge from-layer="13" from-port="0" to-layer="14" to-port="1" />
		<edge from-layer="14" from-port="2" to-layer="16" to-port="0" />
		<edge from-layer="15" from-port="0" to-layer="16" to-port="1" />
		<edge from-layer="16" from-port="2" to-layer="17" to-port="0" />
		<edge from-layer="17" from-port="1" to-layer="19" to-port="0" />
		<edge from-layer="18" from-port="0" to-layer="19" to-port="1" />
		<edge from-layer="19" from-port="2" to-layer="21" to-port="0" />
		<edge from-layer="20" from-port="0" to-layer="21" to-port="1" />
		<edge from-layer="21" from-port="2" to-layer="22" to-port="0" />
		<edge from-layer="22" from-port="1" to-layer="24" to-port="0" />
		<edge from-layer="23" from-port="0" to-layer="24" to-port="1" />
		<edge from-layer="24" from-port="2" to-layer="26" to-port="0" />
		<edge from-layer="25" from-port="0" to-layer="26" to-port="1" />
		<edge from-layer="26" from-port="2" to-layer="27" to-port="0" />
		<edge from-layer="27" from-port="1" to-layer="29" to-port="0" />
		<edge from-layer="28" from-port="0" to-layer="29" to-port="1" />
		<edge from-layer="29" from-port="2" to-layer="31" to-port="0" />
		<edge from-layer="30" from-port="0" to-layer="31" to-port="1" />
		<edge from-layer="31" from-port="2" to-layer="32" to-port="0" />
		<edge from-layer="32" from-port="1" to-layer="34" to-port="0" />
		<edge from-layer="33" from-port="0" to-layer="34" to-port="1" />
		<edge from-layer="34" from-port="2" to-layer="36" to-port="0" />
		<edge from-layer="35" from-port="0" to-layer="36" to-port="1" />
		<edge from-layer="36" from-port="2" to-layer="37" to-port="0" />
		<edge from-layer="37" from-port="1" to-layer="39" to-port="0" />
		<edge from-layer="38" from-port="0" to-layer="39" to-port="1" />
		<edge from-layer="39" from-port="2" to-layer="41" to-port="0" />
		<edge from-layer="40" from-port="0" to-layer="41" to-port="1" />
		<edge from-layer="41" from-port="2" to-layer="42" to-port="0" />
		<edge from-layer="42" from-port="1" to-layer="44" to-port="0" />
		<edge from-layer="43" from-port="0" to-layer="44" to-port="1" />
		<edge from-layer="44" from-port="2" to-layer="46" to-port="0" />
		<edge from-layer="45" from-port="0" to-layer="46" to-port="1" />
		<edge from-layer="46" from-port="2" to-layer="47" to-port="0" />
		<edge from-layer="47" from-port="1" to-layer="49" to-port="0" />
		<edge from-layer="48" from-port="0" to-layer="49" to-port="1" />
		<edge from-layer="49" from-port="2" to-layer="51" to-port="0" />
		<edge from-layer="50" from-port="0" to-layer="51" to-port="1" />
		<edge from-layer="51" from-port="2" to-layer="52" to-port="0" />
		<edge from-layer="52" from-port="1" to-layer="54" to-port="0" />
		<edge from-layer="53" from-port="0" to-layer="54" to-port="1" />
		<edge from-layer="54" from-port="2" to-layer="56" to-port="0" />
		<edge from-layer="55" from-port="0" to-layer="56" to-port="1" />
		<edge from-layer="56" from-port="2" to-layer="57" to-port="0" />
		<edge from-layer="57" from-port="1" to-layer="59" to-port="0" />
		<edge from-layer="58" from-port="0" to-layer="59" to-port="1" />
		<edge from-layer="59" from-port="2" to-layer="61" to-port="0" />
		<edge from-layer="60" from-port="0" to-layer="61" to-port="1" />
		<edge from-layer="61" from-port="2" to-layer="62" to-port="0" />
		<edge from-layer="62" from-port="1" to-layer="64" to-port="0" />
		<edge from-layer="63" from-port="0" to-layer="64" to-port="1" />
		<edge from-layer="64" from-port="2" to-layer="66" to-port="0" />
		<edge from-layer="65" from-port="0" to-layer="66" to-port="1" />
		<edge from-layer="66" from-port="2" to-layer="67" to-port="0" />
		<edge from-layer="67" from-port="1" to-layer="69" to-port="0" />
		<edge from-layer="68" from-port="0" to-layer="69" to-port="1" />
		<edge from-layer="69" from-port="2" to-layer="71" to-port="0" />
		<edge from-layer="70" from-port="0" to-layer="71" to-port="1" />
		<edge from-layer="71" from-port="2" to-layer="72" to-port="0" />
		<edge from-layer="72" from-port="1" to-layer="74" to-port="0" />
		<edge from-layer="73" from-port="0" to-layer="74" to-port="1" />
		<edge from-layer="74" from-port="2" to-layer="76" to-port="0" />
		<edge from-layer="75" from-port="0" to-layer="76" to-port="1" />
		<edge from-layer="76" from-port="2" to-layer="77" to-port="0" />
		<edge from-layer="77" from-port="1" to-layer="79" to-port="0" />
		<edge from-layer="78" from-port="0" to-layer="79" to-port="1" />
		<edge from-layer="79" from-port="2" to-layer="81" to-port="0" />
		<edge from-layer="80" from-port="0" to-layer="81" to-port="1" />
		<edge from-layer="81" from-port="2" to-layer="82" to-port="0" />
		<edge from-layer="82" from-port="1" to-layer="84" to-port="0" />
		<edge from-layer="83" from-port="0" to-layer="84" to-port="1" />
		<edge from-layer="84" from-port="2" to-layer="86" to-port="0" />
		<edge from-layer="85" from-port="0" to-layer="86" to-port="1" />
		<edge from-layer="86" from-port="2" to-layer="87" to-port="0" />
		<edge from-layer="87" from-port="1" to-layer="89" to-port="0" />
		<edge from-layer="88" from-port="0" to-layer="89" to-port="1" />
		<edge from-layer="89" from-port="2" to-layer="91" to-port="0" />
		<edge from-layer="90" from-port="0" to-layer="91" to-port="1" />
		<edge from-layer="91" from-port="2" to-layer="92" to-port="0" />
		<edge from-layer="92" from-port="1" to-layer="94" to-port="0" />
		<edge from-layer="93" from-port="0" to-layer="94" to-port="1" />
		<edge from-layer="94" from-port="2" to-layer="96" to-port="0" />
		<edge from-layer="95" from-port="0" to-layer="96" to-port="1" />
		<edge from-layer="96" from-port="2" to-layer="97" to-port="0" />
		<edge from-layer="97" from-port="1" to-layer="99" to-port="0" />
		<edge from-layer="98" from-port="0" to-layer="99" to-port="1" />
		<edge from-layer="99" from-port="2" to-layer="101" to-port="0" />
		<edge from-layer="100" from-port="0" to-layer="101" to-port="1" />
		<edge from-layer="101" from-port="2" to-layer="102" to-port="0" />
		<edge from-layer="102" from-port="1" to-layer="104" to-port="0" />
		<edge from-layer="103" from-port="0" to-layer="104" to-port="1" />
		<edge from-layer="104" from-port="2" to-layer="106" to-port="0" />
		<edge from-layer="105" from-port="0" to-layer="106" to-port="1" />
		<edge from-layer="106" from-port="2" to-layer="107" to-port="0" />
		<edge from-layer="107" from-port="1" to-layer="109" to-port="0" />
		<edge from-layer="108" from-port="0" to-layer="109" to-port="1" />
		<edge from-layer="109" from-port="2" to-layer="111" to-port="0" />
		<edge from-layer="110" from-port="0" to-layer="111" to-port="1" />
		<edge from-layer="111" from-port="2" to-layer="112" to-port="0" />
		<edge from-layer="112" from-port="1" to-layer="114" to-port="0" />
		<edge from-layer="113" from-port="0" to-layer="114" to-port="1" />
		<edge from-layer="114" from-port="2" to-layer="116" to-port="0" />
		<edge from-layer="115" from-port="0" to-layer="116" to-port="1" />
		<edge from-layer="116" from-port="2" to-layer="117" to-port="0" />
		<edge from-layer="117" from-port="1" to-layer="119" to-port="0" />
		<edge from-layer="118" from-port="0" to-layer="119" to-port="1" />
		<edge from-layer="119" from-port="2" to-layer="121" to-port="0" />
		<edge from-layer="120" from-port="0" to-layer="121" to-port="1" />
		<edge from-layer="121" from-port="2" to-layer="122" to-port="0" />
		<edge from-layer="122" from-port="1" to-layer="124" to-port="0" />
		<edge from-layer="122" from-port="1" to-layer="132" to-port="0" />
		<edge from-layer="122" from-port="1" to-layer="235" to-port="0" />
		<edge from-layer="123" from-port="0" to-layer="124" to-port="1" />
		<edge from-layer="124" from-port="2" to-layer="126" to-port="0" />
		<edge from-layer="125" from-port="0" to-layer="126" to-port="1" />
		<edge from-layer="126" from-port="2" to-layer="128" to-port="0" />
		<edge from-layer="126" from-port="2" to-layer="288" to-port="0" />
		<edge from-layer="127" from-port="0" to-layer="128" to-port="1" />
		<edge from-layer="128" from-port="2" to-layer="130" to-port="0" />
		<edge from-layer="129" from-port="0" to-layer="130" to-port="1" />
		<edge from-layer="130" from-port="2" to-layer="231" to-port="0" />
		<edge from-layer="131" from-port="0" to-layer="132" to-port="1" />
		<edge from-layer="132" from-port="2" to-layer="134" to-port="0" />
		<edge from-layer="133" from-port="0" to-layer="134" to-port="1" />
		<edge from-layer="134" from-port="2" to-layer="135" to-port="0" />
		<edge from-layer="135" from-port="1" to-layer="137" to-port="0" />
		<edge from-layer="136" from-port="0" to-layer="137" to-port="1" />
		<edge from-layer="137" from-port="2" to-layer="139" to-port="0" />
		<edge from-layer="138" from-port="0" to-layer="139" to-port="1" />
		<edge from-layer="139" from-port="2" to-layer="140" to-port="0" />
		<edge from-layer="140" from-port="1" to-layer="142" to-port="0" />
		<edge from-layer="141" from-port="0" to-layer="142" to-port="1" />
		<edge from-layer="142" from-port="2" to-layer="144" to-port="0" />
		<edge from-layer="143" from-port="0" to-layer="144" to-port="1" />
		<edge from-layer="144" from-port="2" to-layer="145" to-port="0" />
		<edge from-layer="145" from-port="1" to-layer="147" to-port="0" />
		<edge from-layer="146" from-port="0" to-layer="147" to-port="1" />
		<edge from-layer="147" from-port="2" to-layer="149" to-port="0" />
		<edge from-layer="148" from-port="0" to-layer="149" to-port="1" />
		<edge from-layer="149" from-port="2" to-layer="150" to-port="0" />
		<edge from-layer="150" from-port="1" to-layer="152" to-port="0" />
		<edge from-layer="150" from-port="1" to-layer="243" to-port="0" />
		<edge from-layer="150" from-port="1" to-layer="160" to-port="0" />
		<edge from-layer="151" from-port="0" to-layer="152" to-port="1" />
		<edge from-layer="152" from-port="2" to-layer="154" to-port="0" />
		<edge from-layer="153" from-port="0" to-layer="154" to-port="1" />
		<edge from-layer="154" from-port="2" to-layer="156" to-port="0" />
		<edge from-layer="154" from-port="2" to-layer="301" to-port="0" />
		<edge from-layer="155" from-port="0" to-layer="156" to-port="1" />
		<edge from-layer="156" from-port="2" to-layer="158" to-port="0" />
		<edge from-layer="157" from-port="0" to-layer="158" to-port="1" />
		<edge from-layer="158" from-port="2" to-layer="231" to-port="1" />
		<edge from-layer="159" from-port="0" to-layer="160" to-port="1" />
		<edge from-layer="160" from-port="2" to-layer="162" to-port="0" />
		<edge from-layer="161" from-port="0" to-layer="162" to-port="1" />
		<edge from-layer="162" from-port="2" to-layer="163" to-port="0" />
		<edge from-layer="163" from-port="1" to-layer="165" to-port="0" />
		<edge from-layer="164" from-port="0" to-layer="165" to-port="1" />
		<edge from-layer="165" from-port="2" to-layer="167" to-port="0" />
		<edge from-layer="166" from-port="0" to-layer="167" to-port="1" />
		<edge from-layer="167" from-port="2" to-layer="168" to-port="0" />
		<edge from-layer="168" from-port="1" to-layer="170" to-port="0" />
		<edge from-layer="168" from-port="1" to-layer="251" to-port="0" />
		<edge from-layer="168" from-port="1" to-layer="178" to-port="0" />
		<edge from-layer="169" from-port="0" to-layer="170" to-port="1" />
		<edge from-layer="170" from-port="2" to-layer="172" to-port="0" />
		<edge from-layer="171" from-port="0" to-layer="172" to-port="1" />
		<edge from-layer="172" from-port="2" to-layer="313" to-port="0" />
		<edge from-layer="172" from-port="2" to-layer="174" to-port="0" />
		<edge from-layer="173" from-port="0" to-layer="174" to-port="1" />
		<edge from-layer="174" from-port="2" to-layer="176" to-port="0" />
		<edge from-layer="175" from-port="0" to-layer="176" to-port="1" />
		<edge from-layer="176" from-port="2" to-layer="231" to-port="2" />
		<edge from-layer="177" from-port="0" to-layer="178" to-port="1" />
		<edge from-layer="178" from-port="2" to-layer="180" to-port="0" />
		<edge from-layer="179" from-port="0" to-layer="180" to-port="1" />
		<edge from-layer="180" from-port="2" to-layer="181" to-port="0" />
		<edge from-layer="181" from-port="1" to-layer="183" to-port="0" />
		<edge from-layer="182" from-port="0" to-layer="183" to-port="1" />
		<edge from-layer="183" from-port="2" to-layer="185" to-port="0" />
		<edge from-layer="184" from-port="0" to-layer="185" to-port="1" />
		<edge from-layer="185" from-port="2" to-layer="186" to-port="0" />
		<edge from-layer="186" from-port="1" to-layer="188" to-port="0" />
		<edge from-layer="186" from-port="1" to-layer="196" to-port="0" />
		<edge from-layer="186" from-port="1" to-layer="259" to-port="0" />
		<edge from-layer="187" from-port="0" to-layer="188" to-port="1" />
		<edge from-layer="188" from-port="2" to-layer="190" to-port="0" />
		<edge from-layer="189" from-port="0" to-layer="190" to-port="1" />
		<edge from-layer="190" from-port="2" to-layer="192" to-port="0" />
		<edge from-layer="190" from-port="2" to-layer="325" to-port="0" />
		<edge from-layer="191" from-port="0" to-layer="192" to-port="1" />
		<edge from-layer="192" from-port="2" to-layer="194" to-port="0" />
		<edge from-layer="193" from-port="0" to-layer="194" to-port="1" />
		<edge from-layer="194" from-port="2" to-layer="231" to-port="3" />
		<edge from-layer="195" from-port="0" to-layer="196" to-port="1" />
		<edge from-layer="196" from-port="2" to-layer="198" to-port="0" />
		<edge from-layer="197" from-port="0" to-layer="198" to-port="1" />
		<edge from-layer="198" from-port="2" to-layer="199" to-port="0" />
		<edge from-layer="199" from-port="1" to-layer="201" to-port="0" />
		<edge from-layer="200" from-port="0" to-layer="201" to-port="1" />
		<edge from-layer="201" from-port="2" to-layer="203" to-port="0" />
		<edge from-layer="202" from-port="0" to-layer="203" to-port="1" />
		<edge from-layer="203" from-port="2" to-layer="204" to-port="0" />
		<edge from-layer="204" from-port="1" to-layer="214" to-port="0" />
		<edge from-layer="204" from-port="1" to-layer="267" to-port="0" />
		<edge from-layer="204" from-port="1" to-layer="206" to-port="0" />
		<edge from-layer="205" from-port="0" to-layer="206" to-port="1" />
		<edge from-layer="206" from-port="2" to-layer="208" to-port="0" />
		<edge from-layer="207" from-port="0" to-layer="208" to-port="1" />
		<edge from-layer="208" from-port="2" to-layer="337" to-port="0" />
		<edge from-layer="208" from-port="2" to-layer="210" to-port="0" />
		<edge from-layer="209" from-port="0" to-layer="210" to-port="1" />
		<edge from-layer="210" from-port="2" to-layer="212" to-port="0" />
		<edge from-layer="211" from-port="0" to-layer="212" to-port="1" />
		<edge from-layer="212" from-port="2" to-layer="231" to-port="4" />
		<edge from-layer="213" from-port="0" to-layer="214" to-port="1" />
		<edge from-layer="214" from-port="2" to-layer="216" to-port="0" />
		<edge from-layer="215" from-port="0" to-layer="216" to-port="1" />
		<edge from-layer="216" from-port="2" to-layer="217" to-port="0" />
		<edge from-layer="217" from-port="1" to-layer="219" to-port="0" />
		<edge from-layer="218" from-port="0" to-layer="219" to-port="1" />
		<edge from-layer="219" from-port="2" to-layer="221" to-port="0" />
		<edge from-layer="220" from-port="0" to-layer="221" to-port="1" />
		<edge from-layer="221" from-port="2" to-layer="222" to-port="0" />
		<edge from-layer="222" from-port="1" to-layer="275" to-port="0" />
		<edge from-layer="222" from-port="1" to-layer="224" to-port="0" />
		<edge from-layer="223" from-port="0" to-layer="224" to-port="1" />
		<edge from-layer="224" from-port="2" to-layer="226" to-port="0" />
		<edge from-layer="225" from-port="0" to-layer="226" to-port="1" />
		<edge from-layer="226" from-port="2" to-layer="349" to-port="0" />
		<edge from-layer="226" from-port="2" to-layer="228" to-port="0" />
		<edge from-layer="227" from-port="0" to-layer="228" to-port="1" />
		<edge from-layer="228" from-port="2" to-layer="230" to-port="0" />
		<edge from-layer="229" from-port="0" to-layer="230" to-port="1" />
		<edge from-layer="230" from-port="2" to-layer="231" to-port="5" />
		<edge from-layer="231" from-port="6" to-layer="233" to-port="0" />
		<edge from-layer="232" from-port="0" to-layer="233" to-port="1" />
		<edge from-layer="233" from-port="2" to-layer="362" to-port="0" />
		<edge from-layer="234" from-port="0" to-layer="235" to-port="1" />
		<edge from-layer="235" from-port="2" to-layer="237" to-port="0" />
		<edge from-layer="236" from-port="0" to-layer="237" to-port="1" />
		<edge from-layer="237" from-port="2" to-layer="239" to-port="0" />
		<edge from-layer="238" from-port="0" to-layer="239" to-port="1" />
		<edge from-layer="239" from-port="2" to-layer="241" to-port="0" />
		<edge from-layer="240" from-port="0" to-layer="241" to-port="1" />
		<edge from-layer="241" from-port="2" to-layer="282" to-port="0" />
		<edge from-layer="242" from-port="0" to-layer="243" to-port="1" />
		<edge from-layer="243" from-port="2" to-layer="245" to-port="0" />
		<edge from-layer="244" from-port="0" to-layer="245" to-port="1" />
		<edge from-layer="245" from-port="2" to-layer="247" to-port="0" />
		<edge from-layer="246" from-port="0" to-layer="247" to-port="1" />
		<edge from-layer="247" from-port="2" to-layer="249" to-port="0" />
		<edge from-layer="248" from-port="0" to-layer="249" to-port="1" />
		<edge from-layer="249" from-port="2" to-layer="282" to-port="1" />
		<edge from-layer="250" from-port="0" to-layer="251" to-port="1" />
		<edge from-layer="251" from-port="2" to-layer="253" to-port="0" />
		<edge from-layer="252" from-port="0" to-layer="253" to-port="1" />
		<edge from-layer="253" from-port="2" to-layer="255" to-port="0" />
		<edge from-layer="254" from-port="0" to-layer="255" to-port="1" />
		<edge from-layer="255" from-port="2" to-layer="257" to-port="0" />
		<edge from-layer="256" from-port="0" to-layer="257" to-port="1" />
		<edge from-layer="257" from-port="2" to-layer="282" to-port="2" />
		<edge from-layer="258" from-port="0" to-layer="259" to-port="1" />
		<edge from-layer="259" from-port="2" to-layer="261" to-port="0" />
		<edge from-layer="260" from-port="0" to-layer="261" to-port="1" />
		<edge from-layer="261" from-port="2" to-layer="263" to-port="0" />
		<edge from-layer="262" from-port="0" to-layer="263" to-port="1" />
		<edge from-layer="263" from-port="2" to-layer="265" to-port="0" />
		<edge from-layer="264" from-port="0" to-layer="265" to-port="1" />
		<edge from-layer="265" from-port="2" to-layer="282" to-port="3" />
		<edge from-layer="266" from-port="0" to-layer="267" to-port="1" />
		<edge from-layer="267" from-port="2" to-layer="269" to-port="0" />
		<edge from-layer="268" from-port="0" to-layer="269" to-port="1" />
		<edge from-layer="269" from-port="2" to-layer="271" to-port="0" />
		<edge from-layer="270" from-port="0" to-layer="271" to-port="1" />
		<edge from-layer="271" from-port="2" to-layer="273" to-port="0" />
		<edge from-layer="272" from-port="0" to-layer="273" to-port="1" />
		<edge from-layer="273" from-port="2" to-layer="282" to-port="4" />
		<edge from-layer="274" from-port="0" to-layer="275" to-port="1" />
		<edge from-layer="275" from-port="2" to-layer="277" to-port="0" />
		<edge from-layer="276" from-port="0" to-layer="277" to-port="1" />
		<edge from-layer="277" from-port="2" to-layer="279" to-port="0" />
		<edge from-layer="278" from-port="0" to-layer="279" to-port="1" />
		<edge from-layer="279" from-port="2" to-layer="281" to-port="0" />
		<edge from-layer="280" from-port="0" to-layer="281" to-port="1" />
		<edge from-layer="281" from-port="2" to-layer="282" to-port="5" />
		<edge from-layer="282" from-port="6" to-layer="284" to-port="0" />
		<edge from-layer="283" from-port="0" to-layer="284" to-port="1" />
		<edge from-layer="284" from-port="2" to-layer="285" to-port="0" />
		<edge from-layer="285" from-port="1" to-layer="287" to-port="0" />
		<edge from-layer="286" from-port="0" to-layer="287" to-port="1" />
		<edge from-layer="287" from-port="2" to-layer="362" to-port="1" />
		<edge from-layer="288" from-port="1" to-layer="292" to-port="0" />
		<edge from-layer="289" from-port="0" to-layer="292" to-port="1" />
		<edge from-layer="290" from-port="0" to-layer="292" to-port="2" />
		<edge from-layer="291" from-port="0" to-layer="292" to-port="3" />
		<edge from-layer="292" from-port="4" to-layer="298" to-port="0" />
		<edge from-layer="293" from-port="1" to-layer="345" to-port="0" />
		<edge from-layer="293" from-port="1" to-layer="357" to-port="0" />
		<edge from-layer="293" from-port="1" to-layer="297" to-port="0" />
		<edge from-layer="293" from-port="1" to-layer="333" to-port="0" />
		<edge from-layer="293" from-port="1" to-layer="321" to-port="0" />
		<edge from-layer="293" from-port="1" to-layer="309" to-port="0" />
		<edge from-layer="294" from-port="0" to-layer="297" to-port="1" />
		<edge from-layer="295" from-port="0" to-layer="297" to-port="2" />
		<edge from-layer="296" from-port="0" to-layer="297" to-port="3" />
		<edge from-layer="297" from-port="4" to-layer="298" to-port="1" />
		<edge from-layer="298" from-port="2" to-layer="300" to-port="0" />
		<edge from-layer="299" from-port="0" to-layer="300" to-port="1" />
		<edge from-layer="300" from-port="2" to-layer="361" to-port="0" />
		<edge from-layer="301" from-port="1" to-layer="305" to-port="0" />
		<edge from-layer="302" from-port="0" to-layer="305" to-port="1" />
		<edge from-layer="303" from-port="0" to-layer="305" to-port="2" />
		<edge from-layer="304" from-port="0" to-layer="305" to-port="3" />
		<edge from-layer="305" from-port="4" to-layer="310" to-port="0" />
		<edge from-layer="306" from-port="0" to-layer="309" to-port="1" />
		<edge from-layer="307" from-port="0" to-layer="309" to-port="2" />
		<edge from-layer="308" from-port="0" to-layer="309" to-port="3" />
		<edge from-layer="309" from-port="4" to-layer="310" to-port="1" />
		<edge from-layer="310" from-port="2" to-layer="312" to-port="0" />
		<edge from-layer="311" from-port="0" to-layer="312" to-port="1" />
		<edge from-layer="312" from-port="2" to-layer="361" to-port="1" />
		<edge from-layer="313" from-port="1" to-layer="317" to-port="0" />
		<edge from-layer="314" from-port="0" to-layer="317" to-port="1" />
		<edge from-layer="315" from-port="0" to-layer="317" to-port="2" />
		<edge from-layer="316" from-port="0" to-layer="317" to-port="3" />
		<edge from-layer="317" from-port="4" to-layer="322" to-port="0" />
		<edge from-layer="318" from-port="0" to-layer="321" to-port="1" />
		<edge from-layer="319" from-port="0" to-layer="321" to-port="2" />
		<edge from-layer="320" from-port="0" to-layer="321" to-port="3" />
		<edge from-layer="321" from-port="4" to-layer="322" to-port="1" />
		<edge from-layer="322" from-port="2" to-layer="324" to-port="0" />
		<edge from-layer="323" from-port="0" to-layer="324" to-port="1" />
		<edge from-layer="324" from-port="2" to-layer="361" to-port="2" />
		<edge from-layer="325" from-port="1" to-layer="329" to-port="0" />
		<edge from-layer="326" from-port="0" to-layer="329" to-port="1" />
		<edge from-layer="327" from-port="0" to-layer="329" to-port="2" />
		<edge from-layer="328" from-port="0" to-layer="329" to-port="3" />
		<edge from-layer="329" from-port="4" to-layer="334" to-port="0" />
		<edge from-layer="330" from-port="0" to-layer="333" to-port="1" />
		<edge from-layer="331" from-port="0" to-layer="333" to-port="2" />
		<edge from-layer="332" from-port="0" to-layer="333" to-port="3" />
		<edge from-layer="333" from-port="4" to-layer="334" to-port="1" />
		<edge from-layer="334" from-port="2" to-layer="336" to-port="0" />
		<edge from-layer="335" from-port="0" to-layer="336" to-port="1" />
		<edge from-layer="336" from-port="2" to-layer="361" to-port="3" />
		<edge from-layer="337" from-port="1" to-layer="341" to-port="0" />
		<edge from-layer="338" from-port="0" to-layer="341" to-port="1" />
		<edge from-layer="339" from-port="0" to-layer="341" to-port="2" />
		<edge from-layer="340" from-port="0" to-layer="341" to-port="3" />
		<edge from-layer="341" from-port="4" to-layer="346" to-port="0" />
		<edge from-layer="342" from-port="0" to-layer="345" to-port="1" />
		<edge from-layer="343" from-port="0" to-layer="345" to-port="2" />
		<edge from-layer="344" from-port="0" to-layer="345" to-port="3" />
		<edge from-layer="345" from-port="4" to-layer="346" to-port="1" />
		<edge from-layer="346" from-port="2" to-layer="348" to-port="0" />
		<edge from-layer="347" from-port="0" to-layer="348" to-port="1" />
		<edge from-layer="348" from-port="2" to-layer="361" to-port="4" />
		<edge from-layer="349" from-port="1" to-layer="353" to-port="0" />
		<edge from-layer="350" from-port="0" to-layer="353" to-port="1" />
		<edge from-layer="351" from-port="0" to-layer="353" to-port="2" />
		<edge from-layer="352" from-port="0" to-layer="353" to-port="3" />
		<edge from-layer="353" from-port="4" to-layer="358" to-port="0" />
		<edge from-layer="354" from-port="0" to-layer="357" to-port="1" />
		<edge from-layer="355" from-port="0" to-layer="357" to-port="2" />
		<edge from-layer="356" from-port="0" to-layer="357" to-port="3" />
		<edge from-layer="357" from-port="4" to-layer="358" to-port="1" />
		<edge from-layer="358" from-port="2" to-layer="360" to-port="0" />
		<edge from-layer="359" from-port="0" to-layer="360" to-port="1" />
		<edge from-layer="360" from-port="2" to-layer="361" to-port="5" />
		<edge from-layer="361" from-port="6" to-layer="362" to-port="2" />
		<edge from-layer="362" from-port="3" to-layer="363" to-port="0" />
	</edges>
	<rt_info>
		<MO_version value="2023.0.0-10926-b4452d56304-releases/2023/0" />
		<Runtime_version value="2023.0.0-10926-b4452d56304-releases/2023/0" />
		<conversion_parameters>
			<framework value="tf" />
			<input value="image_tensor" />
			<input_model value="DIR/frozen_inference_graph.pb" />
			<input_shape value="[1, 300, 300, 3]" />
			<is_python_api_used value="False" />
			<layout value="image_tensor(NHWC)" />
			<model_name value="ssd_mobilenet_v1_coco" />
			<output value="detection_scores,detection_boxes,num_detections" />
			<output_dir value="DIR" />
			<tensorflow_object_detection_api_pipeline_config value="DIR/pipeline.config" />
			<transformations_config value="DIR/ssd_v2_support.json" />
		</conversion_parameters>
		<legacy_frontend value="True" />
	</rt_info>
</net>
