<?xml version="1.0"?>
<net name="main_graph" version="11">
	<layers>
		<layer id="0" name="images" type="Parameter" version="opset1">
			<data shape="1,3,320,320" element_type="f32" />
			<output>
				<port id="0" precision="FP32" names="images">
					<dim>1</dim>
					<dim>3</dim>
					<dim>320</dim>
					<dim>320</dim>
				</port>
			</output>
		</layer>
		<layer id="1" name="/model.22/Constant_3_compressed" type="Const" version="opset1">
			<data element_type="f16" shape="1, 2, 2100" offset="0" size="8400" />
			<output>
				<port id="0" precision="FP16">
					<dim>1</dim>
					<dim>2</dim>
					<dim>2100</dim>
				</port>
			</output>
		</layer>
		<layer id="2" name="/model.22/Constant_3" type="Convert" version="opset1">
			<data destination_type="f32" />
			<rt_info>
				<attribute name="decompression" version="0" />
			</rt_info>
			<input>
				<port id="0" precision="FP16">
					<dim>1</dim>
					<dim>2</dim>
					<dim>2100</dim>
				</port>
			</input>
			<output>
				<port id="1" precision="FP32" names="/model.22/Constant_3_output_0">
					<dim>1</dim>
					<dim>2</dim>
					<dim>2100</dim>
				</port>
			</output>
		</layer>
		<layer id="3" name="model.0.conv.weight_compressed" type="Const" version="opset1">
			<data element_type="f16" shape="64, 3, 3, 3" offset="8400" size="3456" />
			<output>
				<port id="0" precision="FP16">
					<dim>64</dim>
					<dim>3</dim>
					<dim>3</dim>
					<dim>3</dim>
				</port>
			</output>
		</layer>
		<layer id="4" name="model.0.conv.weight" type="Convert" version="opset1">
			<data destination_type="f32" />
			<rt_info>
				<attribute name="decompression" version="0" />
			</rt_info>
			<input>
				<port id="0" precision="FP16">
					<dim>64</dim>
					<dim>3</dim>
					<dim>3</dim>
					<dim>3</dim>
				</port>
			</input>
			<output>
				<port id="1" precision="FP32" names="model.0.conv.weight">
					<dim>64</dim>
					<dim>3</dim>
					<dim>3</dim>
					<dim>3</dim>
				</port>
			</output>
		</layer>
		<layer id="5" name="/model.0/conv/Conv/WithoutBiases" type="Convolution" version="opset1">
			<data strides="2, 2" dilations="1, 1" pads_begin="1, 1" pads_end="1, 1" auto_pad="explicit" />
			<input>
				<port id="0" precision="FP32">
					<dim>1</dim>
					<dim>3</dim>
					<dim>320</dim>
					<dim>320</dim>
				</port>
				<port id="1" precision="FP32">
					<dim>64</dim>
					<dim>3</dim>
					<dim>3</dim>
					<dim>3</dim>
				</port>
			</input>
			<output>
				<port id="2" precision="FP32">
					<dim>1</dim>
					<dim>64</dim>
					<dim>160</dim>
					<dim>160</dim>
				</port>
			</output>
		</layer>
		<layer id="6" name="Reshape_303_compressed" type="Const" version="opset1">
			<data element_type="f16" shape="1, 64, 1, 1" offset="11856" size="128" />
			<output>
				<port id="0" precision="FP16">
					<dim>1</dim>
					<dim>64</dim>
					<dim>1</dim>
					<dim>1</dim>
				</port>
			</output>
		</layer>
		<layer id="7" name="Reshape_303" type="Convert" version="opset1">
			<data destination_type="f32" />
			<rt_info>
				<attribute name="decompression" version="0" />
			</rt_info>
			<input>
				<port id="0" precision="FP16">
					<dim>1</dim>
					<dim>64</dim>
					<dim>1</dim>
					<dim>1</dim>
				</port>
			</input>
			<output>
				<port id="1" precision="FP32">
					<dim>1</dim>
					<dim>64</dim>
					<dim>1</dim>
					<dim>1</dim>
				</port>
			</output>
		</layer>
		<layer id="8" name="/model.0/conv/Conv" type="Add" version="opset1">
			<data auto_broadcast="numpy" />
			<input>
				<port id="0" precision="FP32">
					<dim>1</dim>
					<dim>64</dim>
					<dim>160</dim>
					<dim>160</dim>
				</port>
				<port id="1" precision="FP32">
					<dim>1</dim>
					<dim>64</dim>
					<dim>1</dim>
					<dim>1</dim>
				</port>
			</input>
			<output>
				<port id="2" precision="FP32" names="/model.0/conv/Conv_output_0">
					<dim>1</dim>
					<dim>64</dim>
					<dim>160</dim>
					<dim>160</dim>
				</port>
			</output>
		</layer>
		<layer id="9" name="/model.0/act/Mul" type="Swish" version="opset4">
			<input>
				<port id="0" precision="FP32">
					<dim>1</dim>
					<dim>64</dim>
					<dim>160</dim>
					<dim>160</dim>
				</port>
			</input>
			<output>
				<port id="1" precision="FP32" names="/model.0/act/Mul_output_0">
					<dim>1</dim>
					<dim>64</dim>
					<dim>160</dim>
					<dim>160</dim>
				</port>
			</output>
		</layer>
		<layer id="10" name="model.1.conv.weight_compressed" type="Const" version="opset1">
			<data element_type="f16" shape="128, 64, 3, 3" offset="11984" size="147456" />
			<output>
				<port id="0" precision="FP16">
					<dim>128</dim>
					<dim>64</dim>
					<dim>3</dim>
					<dim>3</dim>
				</port>
			</output>
		</layer>
		<layer id="11" name="model.1.conv.weight" type="Convert" version="opset1">
			<data destination_type="f32" />
			<rt_info>
				<attribute name="decompression" version="0" />
			</rt_info>
			<input>
				<port id="0" precision="FP16">
					<dim>128</dim>
					<dim>64</dim>
					<dim>3</dim>
					<dim>3</dim>
				</port>
			</input>
			<output>
				<port id="1" precision="FP32" names="model.1.conv.weight">
					<dim>128</dim>
					<dim>64</dim>
					<dim>3</dim>
					<dim>3</dim>
				</port>
			</output>
		</layer>
		<layer id="12" name="/model.1/conv/Conv/WithoutBiases" type="Convolution" version="opset1">
			<data strides="2, 2" dilations="1, 1" pads_begin="1, 1" pads_end="1, 1" auto_pad="explicit" />
			<input>
				<port id="0" precision="FP32">
					<dim>1</dim>
					<dim>64</dim>
					<dim>160</dim>
					<dim>160</dim>
				</port>
				<port id="1" precision="FP32">
					<dim>128</dim>
					<dim>64</dim>
					<dim>3</dim>
					<dim>3</dim>
				</port>
			</input>
			<output>
				<port id="2" precision="FP32">
					<dim>1</dim>
					<dim>128</dim>
					<dim>80</dim>
					<dim>80</dim>
				</port>
			</output>
		</layer>
		<layer id="13" name="Reshape_321_compressed" type="Const" version="opset1">
			<data element_type="f16" shape="1, 128, 1, 1" offset="159440" size="256" />
			<output>
				<port id="0" precision="FP16">
					<dim>1</dim>
					<dim>128</dim>
					<dim>1</dim>
					<dim>1</dim>
				</port>
			</output>
		</layer>
		<layer id="14" name="Reshape_321" type="Convert" version="opset1">
			<data destination_type="f32" />
			<rt_info>
				<attribute name="decompression" version="0" />
			</rt_info>
			<input>
				<port id="0" precision="FP16">
					<dim>1</dim>
					<dim>128</dim>
					<dim>1</dim>
					<dim>1</dim>
				</port>
			</input>
			<output>
				<port id="1" precision="FP32">
					<dim>1</dim>
					<dim>128</dim>
					<dim>1</dim>
					<dim>1</dim>
				</port>
			</output>
		</layer>
		<layer id="15" name="/model.1/conv/Conv" type="Add" version="opset1">
			<data auto_broadcast="numpy" />
			<input>
				<port id="0" precision="FP32">
					<dim>1</dim>
					<dim>128</dim>
					<dim>80</dim>
					<dim>80</dim>
				</port>
				<port id="1" precision="FP32">
					<dim>1</dim>
					<dim>128</dim>
					<dim>1</dim>
					<dim>1</dim>
				</port>
			</input>
			<output>
				<port id="2" precision="FP32" names="/model.1/conv/Conv_output_0">
					<dim>1</dim>
					<dim>128</dim>
					<dim>80</dim>
					<dim>80</dim>
				</port>
			</output>
		</layer>
		<layer id="16" name="/model.1/act/Mul" type="Swish" version="opset4">
			<input>
				<port id="0" precision="FP32">
					<dim>1</dim>
					<dim>128</dim>
					<dim>80</dim>
					<dim>80</dim>
				</port>
			</input>
			<output>
				<port id="1" precision="FP32" names="/model.1/act/Mul_output_0">
					<dim>1</dim>
					<dim>128</dim>
					<dim>80</dim>
					<dim>80</dim>
				</port>
			</output>
		</layer>
		<layer id="17" name="model.2.cv1.conv.weight_compressed" type="Const" version="opset1">
			<data element_type="f16" shape="128, 128, 1, 1" offset="159696" size="32768" />
			<output>
				<port id="0" precision="FP16">
					<dim>128</dim>
					<dim>128</dim>
					<dim>1</dim>
					<dim>1</dim>
				</port>
			</output>
		</layer>
		<layer id="18" name="model.2.cv1.conv.weight" type="Convert" version="opset1">
			<data destination_type="f32" />
			<rt_info>
				<attribute name="decompression" version="0" />
			</rt_info>
			<input>
				<port id="0" precision="FP16">
					<dim>128</dim>
					<dim>128</dim>
					<dim>1</dim>
					<dim>1</dim>
				</port>
			</input>
			<output>
				<port id="1" precision="FP32" names="model.2.cv1.conv.weight">
					<dim>128</dim>
					<dim>128</dim>
					<dim>1</dim>
					<dim>1</dim>
				</port>
			</output>
		</layer>
		<layer id="19" name="/model.2/cv1/conv/Conv/WithoutBiases" type="Convolution" version="opset1">
			<data strides="1, 1" dilations="1, 1" pads_begin="0, 0" pads_end="0, 0" auto_pad="explicit" />
			<input>
				<port id="0" precision="FP32">
					<dim>1</dim>
					<dim>128</dim>
					<dim>80</dim>
					<dim>80</dim>
				</port>
				<port id="1" precision="FP32">
					<dim>128</dim>
					<dim>128</dim>
					<dim>1</dim>
					<dim>1</dim>
				</port>
			</input>
			<output>
				<port id="2" precision="FP32">
					<dim>1</dim>
					<dim>128</dim>
					<dim>80</dim>
					<dim>80</dim>
				</port>
			</output>
		</layer>
		<layer id="20" name="Reshape_339_compressed" type="Const" version="opset1">
			<data element_type="f16" shape="1, 128, 1, 1" offset="192464" size="256" />
			<output>
				<port id="0" precision="FP16">
					<dim>1</dim>
					<dim>128</dim>
					<dim>1</dim>
					<dim>1</dim>
				</port>
			</output>
		</layer>
		<layer id="21" name="Reshape_339" type="Convert" version="opset1">
			<data destination_type="f32" />
			<rt_info>
				<attribute name="decompression" version="0" />
			</rt_info>
			<input>
				<port id="0" precision="FP16">
					<dim>1</dim>
					<dim>128</dim>
					<dim>1</dim>
					<dim>1</dim>
				</port>
			</input>
			<output>
				<port id="1" precision="FP32">
					<dim>1</dim>
					<dim>128</dim>
					<dim>1</dim>
					<dim>1</dim>
				</port>
			</output>
		</layer>
		<layer id="22" name="/model.2/cv1/conv/Conv" type="Add" version="opset1">
			<data auto_broadcast="numpy" />
			<input>
				<port id="0" precision="FP32">
					<dim>1</dim>
					<dim>128</dim>
					<dim>80</dim>
					<dim>80</dim>
				</port>
				<port id="1" precision="FP32">
					<dim>1</dim>
					<dim>128</dim>
					<dim>1</dim>
					<dim>1</dim>
				</port>
			</input>
			<output>
				<port id="2" precision="FP32" names="/model.2/cv1/conv/Conv_output_0">
					<dim>1</dim>
					<dim>128</dim>
					<dim>80</dim>
					<dim>80</dim>
				</port>
			</output>
		</layer>
		<layer id="23" name="/model.2/cv1/act/Mul" type="Swish" version="opset4">
			<input>
				<port id="0" precision="FP32">
					<dim>1</dim>
					<dim>128</dim>
					<dim>80</dim>
					<dim>80</dim>
				</port>
			</input>
			<output>
				<port id="1" precision="FP32" names="/model.2/cv1/act/Mul_output_0">
					<dim>1</dim>
					<dim>128</dim>
					<dim>80</dim>
					<dim>80</dim>
				</port>
			</output>
		</layer>
		<layer id="24" name="Constant_11373" type="Const" version="opset1">
			<data element_type="i64" shape="2" offset="192720" size="16" />
			<rt_info>
				<attribute name="precise" version="0" />
			</rt_info>
			<output>
				<port id="0" precision="I64">
					<dim>2</dim>
				</port>
			</output>
		</layer>
		<layer id="25" name="Constant_11374" type="Const" version="opset1">
			<data element_type="i64" shape="2" offset="192720" size="16" />
			<rt_info>
				<attribute name="precise" version="0" />
			</rt_info>
			<output>
				<port id="0" precision="I64">
					<dim>2</dim>
				</port>
			</output>
		</layer>
		<layer id="26" name="Constant_11370" type="Const" version="opset1">
			<data element_type="i64" shape="1" offset="192736" size="8" />
			<rt_info>
				<attribute name="precise" version="0" />
			</rt_info>
			<output>
				<port id="0" precision="I64">
					<dim>1</dim>
				</port>
			</output>
		</layer>
		<layer id="27" name="/model.2/Shape" type="ShapeOf" version="opset3">
			<data output_type="i64" />
			<input>
				<port id="0" precision="FP32">
					<dim>1</dim>
					<dim>128</dim>
					<dim>80</dim>
					<dim>80</dim>
				</port>
			</input>
			<output>
				<port id="1" precision="I64" names="/model.2/Shape_output_0">
					<dim>4</dim>
				</port>
			</output>
		</layer>
		<layer id="28" name="/model.2/Constant" type="Const" version="opset1">
			<data element_type="i64" shape="1" offset="192736" size="8" />
			<rt_info>
				<attribute name="precise" version="0" />
			</rt_info>
			<output>
				<port id="0" precision="I64" names="/model.2/Constant_output_0">
					<dim>1</dim>
				</port>
			</output>
		</layer>
		<layer id="29" name="Constant_347" type="Const" version="opset1">
			<data element_type="i64" shape="" offset="192744" size="8" />
			<rt_info>
				<attribute name="precise" version="0" />
			</rt_info>
			<output>
				<port id="0" precision="I64" />
			</output>
		</layer>
		<layer id="30" name="/model.2/Gather" type="Gather" version="opset8">
			<data batch_dims="0" />
			<input>
				<port id="0" precision="I64">
					<dim>4</dim>
				</port>
				<port id="1" precision="I64">
					<dim>1</dim>
				</port>
				<port id="2" precision="I64" />
			</input>
			<output>
				<port id="3" precision="I64" names="/model.2/Gather_output_0">
					<dim>1</dim>
				</port>
			</output>
		</layer>
		<layer id="31" name="/model.2/Constant_2" type="Const" version="opset1">
			<data element_type="i64" shape="1" offset="192736" size="8" />
			<rt_info>
				<attribute name="precise" version="0" />
			</rt_info>
			<output>
				<port id="0" precision="I64" names="/model.2/Constant_2_output_0">
					<dim>1</dim>
				</port>
			</output>
		</layer>
		<layer id="32" name="/model.2/Add" type="Add" version="opset1">
			<data auto_broadcast="numpy" />
			<input>
				<port id="0" precision="I64">
					<dim>1</dim>
				</port>
				<port id="1" precision="I64">
					<dim>1</dim>
				</port>
			</input>
			<output>
				<port id="2" precision="I64" names="/model.2/Add_output_0">
					<dim>1</dim>
				</port>
			</output>
		</layer>
		<layer id="33" name="/model.2/Constant_3" type="Const" version="opset1">
			<data element_type="i64" shape="1" offset="192752" size="8" />
			<rt_info>
				<attribute name="precise" version="0" />
			</rt_info>
			<output>
				<port id="0" precision="I64" names="/model.2/Constant_3_output_0">
					<dim>1</dim>
				</port>
			</output>
		</layer>
		<layer id="34" name="/model.2/Div" type="Divide" version="opset1">
			<data auto_broadcast="numpy" m_pythondiv="true" />
			<input>
				<port id="0" precision="I64">
					<dim>1</dim>
				</port>
				<port id="1" precision="I64">
					<dim>1</dim>
				</port>
			</input>
			<output>
				<port id="2" precision="I64" names="/model.2/Div_output_0,/model.2/Mul_output_0">
					<dim>1</dim>
				</port>
			</output>
		</layer>
		<layer id="35" name="Constant_11369" type="Const" version="opset1">
			<data element_type="i32" shape="1" offset="192760" size="4" />
			<rt_info>
				<attribute name="precise" version="0" />
			</rt_info>
			<output>
				<port id="0" precision="I32">
					<dim>1</dim>
				</port>
			</output>
		</layer>
		<layer id="36" name="ScatterUpdate_11375" type="ScatterUpdate" version="opset3">
			<input>
				<port id="0" precision="I64">
					<dim>2</dim>
				</port>
				<port id="1" precision="I64">
					<dim>1</dim>
				</port>
				<port id="2" precision="I64">
					<dim>1</dim>
				</port>
				<port id="3" precision="I32">
					<dim>1</dim>
				</port>
			</input>
			<output>
				<port id="4" precision="I64">
					<dim>2</dim>
				</port>
			</output>
		</layer>
		<layer id="37" name="Constant_11378" type="Const" version="opset1">
			<data element_type="i64" shape="2" offset="192764" size="16" />
			<rt_info>
				<attribute name="precise" version="0" />
			</rt_info>
			<output>
				<port id="0" precision="I64">
					<dim>2</dim>
				</port>
			</output>
		</layer>
		<layer id="38" name="/model.2/Slice" type="StridedSlice" version="opset1">
			<data begin_mask="1, 0" end_mask="1, 0" new_axis_mask="" shrink_axis_mask="" ellipsis_mask="" />
			<input>
				<port id="0" precision="FP32">
					<dim>1</dim>
					<dim>128</dim>
					<dim>80</dim>
					<dim>80</dim>
				</port>
				<port id="1" precision="I64">
					<dim>2</dim>
				</port>
				<port id="2" precision="I64">
					<dim>2</dim>
				</port>
				<port id="3" precision="I64">
					<dim>2</dim>
				</port>
			</input>
			<output>
				<port id="4" precision="FP32" names="/model.2/Slice_output_0">
					<dim>1</dim>
					<dim>64</dim>
					<dim>80</dim>
					<dim>80</dim>
				</port>
			</output>
		</layer>
		<layer id="39" name="Constant_11423" type="Const" version="opset1">
			<data element_type="i64" shape="2" offset="192720" size="16" />
			<rt_info>
				<attribute name="precise" version="0" />
			</rt_info>
			<output>
				<port id="0" precision="I64">
					<dim>2</dim>
				</port>
			</output>
		</layer>
		<layer id="40" name="Constant_11420" type="Const" version="opset1">
			<data element_type="i64" shape="1" offset="192736" size="8" />
			<rt_info>
				<attribute name="precise" version="0" />
			</rt_info>
			<output>
				<port id="0" precision="I64">
					<dim>1</dim>
				</port>
			</output>
		</layer>
		<layer id="41" name="/model.2/Constant_5" type="Const" version="opset1">
			<data element_type="i64" shape="1" offset="192752" size="8" />
			<rt_info>
				<attribute name="precise" version="0" />
			</rt_info>
			<output>
				<port id="0" precision="I64" names="/model.2/Constant_5_output_0">
					<dim>1</dim>
				</port>
			</output>
		</layer>
		<layer id="42" name="/model.2/Mul_1" type="Multiply" version="opset1">
			<data auto_broadcast="numpy" />
			<input>
				<port id="0" precision="I64">
					<dim>1</dim>
				</port>
				<port id="1" precision="I64">
					<dim>1</dim>
				</port>
			</input>
			<output>
				<port id="2" precision="I64" names="/model.2/Mul_1_output_0">
					<dim>1</dim>
				</port>
			</output>
		</layer>
		<layer id="43" name="Constant_11419" type="Const" version="opset1">
			<data element_type="i32" shape="1" offset="192760" size="4" />
			<rt_info>
				<attribute name="precise" version="0" />
			</rt_info>
			<output>
				<port id="0" precision="I32">
					<dim>1</dim>
				</port>
			</output>
		</layer>
		<layer id="44" name="ScatterUpdate_11424" type="ScatterUpdate" version="opset3">
			<input>
				<port id="0" precision="I64">
					<dim>2</dim>
				</port>
				<port id="1" precision="I64">
					<dim>1</dim>
				</port>
				<port id="2" precision="I64">
					<dim>1</dim>
				</port>
				<port id="3" precision="I32">
					<dim>1</dim>
				</port>
			</input>
			<output>
				<port id="4" precision="I64">
					<dim>2</dim>
				</port>
			</output>
		</layer>
		<layer id="45" name="Constant_11427" type="Const" version="opset1">
			<data element_type="i64" shape="2" offset="192764" size="16" />
			<rt_info>
				<attribute name="precise" version="0" />
			</rt_info>
			<output>
				<port id="0" precision="I64">
					<dim>2</dim>
				</port>
			</output>
		</layer>
		<layer id="46" name="/model.2/Slice_1" type="StridedSlice" version="opset1">
			<data begin_mask="1, 0" end_mask="1, 0" new_axis_mask="" shrink_axis_mask="" ellipsis_mask="" />
			<input>
				<port id="0" precision="FP32">
					<dim>1</dim>
					<dim>128</dim>
					<dim>80</dim>
					<dim>80</dim>
				</port>
				<port id="1" precision="I64">
					<dim>2</dim>
				</port>
				<port id="2" precision="I64">
					<dim>2</dim>
				</port>
				<port id="3" precision="I64">
					<dim>2</dim>
				</port>
			</input>
			<output>
				<port id="4" precision="FP32" names="/model.2/Slice_1_output_0">
					<dim>1</dim>
					<dim>64</dim>
					<dim>80</dim>
					<dim>80</dim>
				</port>
			</output>
		</layer>
		<layer id="47" name="model.2.cv2.0.cv1.conv.weight_compressed" type="Const" version="opset1">
			<data element_type="f16" shape="32, 64, 1, 1" offset="192780" size="4096" />
			<output>
				<port id="0" precision="FP16">
					<dim>32</dim>
					<dim>64</dim>
					<dim>1</dim>
					<dim>1</dim>
				</port>
			</output>
		</layer>
		<layer id="48" name="model.2.cv2.0.cv1.conv.weight" type="Convert" version="opset1">
			<data destination_type="f32" />
			<rt_info>
				<attribute name="decompression" version="0" />
			</rt_info>
			<input>
				<port id="0" precision="FP16">
					<dim>32</dim>
					<dim>64</dim>
					<dim>1</dim>
					<dim>1</dim>
				</port>
			</input>
			<output>
				<port id="1" precision="FP32" names="model.2.cv2.0.cv1.conv.weight">
					<dim>32</dim>
					<dim>64</dim>
					<dim>1</dim>
					<dim>1</dim>
				</port>
			</output>
		</layer>
		<layer id="49" name="/model.2/cv2/cv2.0/cv1/conv/Conv/WithoutBiases" type="Convolution" version="opset1">
			<data strides="1, 1" dilations="1, 1" pads_begin="0, 0" pads_end="0, 0" auto_pad="explicit" />
			<input>
				<port id="0" precision="FP32">
					<dim>1</dim>
					<dim>64</dim>
					<dim>80</dim>
					<dim>80</dim>
				</port>
				<port id="1" precision="FP32">
					<dim>32</dim>
					<dim>64</dim>
					<dim>1</dim>
					<dim>1</dim>
				</port>
			</input>
			<output>
				<port id="2" precision="FP32">
					<dim>1</dim>
					<dim>32</dim>
					<dim>80</dim>
					<dim>80</dim>
				</port>
			</output>
		</layer>
		<layer id="50" name="Reshape_466_compressed" type="Const" version="opset1">
			<data element_type="f16" shape="1, 32, 1, 1" offset="196876" size="64" />
			<output>
				<port id="0" precision="FP16">
					<dim>1</dim>
					<dim>32</dim>
					<dim>1</dim>
					<dim>1</dim>
				</port>
			</output>
		</layer>
		<layer id="51" name="Reshape_466" type="Convert" version="opset1">
			<data destination_type="f32" />
			<rt_info>
				<attribute name="decompression" version="0" />
			</rt_info>
			<input>
				<port id="0" precision="FP16">
					<dim>1</dim>
					<dim>32</dim>
					<dim>1</dim>
					<dim>1</dim>
				</port>
			</input>
			<output>
				<port id="1" precision="FP32">
					<dim>1</dim>
					<dim>32</dim>
					<dim>1</dim>
					<dim>1</dim>
				</port>
			</output>
		</layer>
		<layer id="52" name="/model.2/cv2/cv2.0/cv1/conv/Conv" type="Add" version="opset1">
			<data auto_broadcast="numpy" />
			<input>
				<port id="0" precision="FP32">
					<dim>1</dim>
					<dim>32</dim>
					<dim>80</dim>
					<dim>80</dim>
				</port>
				<port id="1" precision="FP32">
					<dim>1</dim>
					<dim>32</dim>
					<dim>1</dim>
					<dim>1</dim>
				</port>
			</input>
			<output>
				<port id="2" precision="FP32" names="/model.2/cv2/cv2.0/cv1/conv/Conv_output_0">
					<dim>1</dim>
					<dim>32</dim>
					<dim>80</dim>
					<dim>80</dim>
				</port>
			</output>
		</layer>
		<layer id="53" name="/model.2/cv2/cv2.0/cv1/act/Mul" type="Swish" version="opset4">
			<input>
				<port id="0" precision="FP32">
					<dim>1</dim>
					<dim>32</dim>
					<dim>80</dim>
					<dim>80</dim>
				</port>
			</input>
			<output>
				<port id="1" precision="FP32" names="/model.2/cv2/cv2.0/cv1/act/Mul_output_0">
					<dim>1</dim>
					<dim>32</dim>
					<dim>80</dim>
					<dim>80</dim>
				</port>
			</output>
		</layer>
		<layer id="54" name="model.2.cv2.0.m.0.cv1.conv.weight_compressed" type="Const" version="opset1">
			<data element_type="f16" shape="32, 32, 3, 3" offset="196940" size="18432" />
			<output>
				<port id="0" precision="FP16">
					<dim>32</dim>
					<dim>32</dim>
					<dim>3</dim>
					<dim>3</dim>
				</port>
			</output>
		</layer>
		<layer id="55" name="model.2.cv2.0.m.0.cv1.conv.weight" type="Convert" version="opset1">
			<data destination_type="f32" />
			<rt_info>
				<attribute name="decompression" version="0" />
			</rt_info>
			<input>
				<port id="0" precision="FP16">
					<dim>32</dim>
					<dim>32</dim>
					<dim>3</dim>
					<dim>3</dim>
				</port>
			</input>
			<output>
				<port id="1" precision="FP32" names="model.2.cv2.0.m.0.cv1.conv.weight">
					<dim>32</dim>
					<dim>32</dim>
					<dim>3</dim>
					<dim>3</dim>
				</port>
			</output>
		</layer>
		<layer id="56" name="/model.2/cv2/cv2.0/m/m.0/cv1/conv/Conv/WithoutBiases" type="Convolution" version="opset1">
			<data strides="1, 1" dilations="1, 1" pads_begin="1, 1" pads_end="1, 1" auto_pad="explicit" />
			<input>
				<port id="0" precision="FP32">
					<dim>1</dim>
					<dim>32</dim>
					<dim>80</dim>
					<dim>80</dim>
				</port>
				<port id="1" precision="FP32">
					<dim>32</dim>
					<dim>32</dim>
					<dim>3</dim>
					<dim>3</dim>
				</port>
			</input>
			<output>
				<port id="2" precision="FP32">
					<dim>1</dim>
					<dim>32</dim>
					<dim>80</dim>
					<dim>80</dim>
				</port>
			</output>
		</layer>
		<layer id="57" name="Reshape_484_compressed" type="Const" version="opset1">
			<data element_type="f16" shape="1, 32, 1, 1" offset="215372" size="64" />
			<output>
				<port id="0" precision="FP16">
					<dim>1</dim>
					<dim>32</dim>
					<dim>1</dim>
					<dim>1</dim>
				</port>
			</output>
		</layer>
		<layer id="58" name="Reshape_484" type="Convert" version="opset1">
			<data destination_type="f32" />
			<rt_info>
				<attribute name="decompression" version="0" />
			</rt_info>
			<input>
				<port id="0" precision="FP16">
					<dim>1</dim>
					<dim>32</dim>
					<dim>1</dim>
					<dim>1</dim>
				</port>
			</input>
			<output>
				<port id="1" precision="FP32">
					<dim>1</dim>
					<dim>32</dim>
					<dim>1</dim>
					<dim>1</dim>
				</port>
			</output>
		</layer>
		<layer id="59" name="/model.2/cv2/cv2.0/m/m.0/cv1/conv/Conv" type="Add" version="opset1">
			<data auto_broadcast="numpy" />
			<input>
				<port id="0" precision="FP32">
					<dim>1</dim>
					<dim>32</dim>
					<dim>80</dim>
					<dim>80</dim>
				</port>
				<port id="1" precision="FP32">
					<dim>1</dim>
					<dim>32</dim>
					<dim>1</dim>
					<dim>1</dim>
				</port>
			</input>
			<output>
				<port id="2" precision="FP32" names="/model.2/cv2/cv2.0/m/m.0/cv1/conv/Conv_output_0">
					<dim>1</dim>
					<dim>32</dim>
					<dim>80</dim>
					<dim>80</dim>
				</port>
			</output>
		</layer>
		<layer id="60" name="/model.2/cv2/cv2.0/m/m.0/cv1/act/Mul" type="Swish" version="opset4">
			<input>
				<port id="0" precision="FP32">
					<dim>1</dim>
					<dim>32</dim>
					<dim>80</dim>
					<dim>80</dim>
				</port>
			</input>
			<output>
				<port id="1" precision="FP32" names="/model.2/cv2/cv2.0/m/m.0/cv1/act/Mul_output_0">
					<dim>1</dim>
					<dim>32</dim>
					<dim>80</dim>
					<dim>80</dim>
				</port>
			</output>
		</layer>
		<layer id="61" name="model.2.cv2.0.m.0.cv2.conv.weight_compressed" type="Const" version="opset1">
			<data element_type="f16" shape="32, 32, 3, 3" offset="215436" size="18432" />
			<output>
				<port id="0" precision="FP16">
					<dim>32</dim>
					<dim>32</dim>
					<dim>3</dim>
					<dim>3</dim>
				</port>
			</output>
		</layer>
		<layer id="62" name="model.2.cv2.0.m.0.cv2.conv.weight" type="Convert" version="opset1">
			<data destination_type="f32" />
			<rt_info>
				<attribute name="decompression" version="0" />
			</rt_info>
			<input>
				<port id="0" precision="FP16">
					<dim>32</dim>
					<dim>32</dim>
					<dim>3</dim>
					<dim>3</dim>
				</port>
			</input>
			<output>
				<port id="1" precision="FP32" names="model.2.cv2.0.m.0.cv2.conv.weight">
					<dim>32</dim>
					<dim>32</dim>
					<dim>3</dim>
					<dim>3</dim>
				</port>
			</output>
		</layer>
		<layer id="63" name="/model.2/cv2/cv2.0/m/m.0/cv2/conv/Conv/WithoutBiases" type="Convolution" version="opset1">
			<data strides="1, 1" dilations="1, 1" pads_begin="1, 1" pads_end="1, 1" auto_pad="explicit" />
			<input>
				<port id="0" precision="FP32">
					<dim>1</dim>
					<dim>32</dim>
					<dim>80</dim>
					<dim>80</dim>
				</port>
				<port id="1" precision="FP32">
					<dim>32</dim>
					<dim>32</dim>
					<dim>3</dim>
					<dim>3</dim>
				</port>
			</input>
			<output>
				<port id="2" precision="FP32">
					<dim>1</dim>
					<dim>32</dim>
					<dim>80</dim>
					<dim>80</dim>
				</port>
			</output>
		</layer>
		<layer id="64" name="Reshape_502_compressed" type="Const" version="opset1">
			<data element_type="f16" shape="1, 32, 1, 1" offset="233868" size="64" />
			<output>
				<port id="0" precision="FP16">
					<dim>1</dim>
					<dim>32</dim>
					<dim>1</dim>
					<dim>1</dim>
				</port>
			</output>
		</layer>
		<layer id="65" name="Reshape_502" type="Convert" version="opset1">
			<data destination_type="f32" />
			<rt_info>
				<attribute name="decompression" version="0" />
			</rt_info>
			<input>
				<port id="0" precision="FP16">
					<dim>1</dim>
					<dim>32</dim>
					<dim>1</dim>
					<dim>1</dim>
				</port>
			</input>
			<output>
				<port id="1" precision="FP32">
					<dim>1</dim>
					<dim>32</dim>
					<dim>1</dim>
					<dim>1</dim>
				</port>
			</output>
		</layer>
		<layer id="66" name="/model.2/cv2/cv2.0/m/m.0/cv2/conv/Conv" type="Add" version="opset1">
			<data auto_broadcast="numpy" />
			<input>
				<port id="0" precision="FP32">
					<dim>1</dim>
					<dim>32</dim>
					<dim>80</dim>
					<dim>80</dim>
				</port>
				<port id="1" precision="FP32">
					<dim>1</dim>
					<dim>32</dim>
					<dim>1</dim>
					<dim>1</dim>
				</port>
			</input>
			<output>
				<port id="2" precision="FP32" names="/model.2/cv2/cv2.0/m/m.0/cv2/conv/Conv_output_0">
					<dim>1</dim>
					<dim>32</dim>
					<dim>80</dim>
					<dim>80</dim>
				</port>
			</output>
		</layer>
		<layer id="67" name="/model.2/cv2/cv2.0/m/m.0/cv2/act/Mul" type="Swish" version="opset4">
			<input>
				<port id="0" precision="FP32">
					<dim>1</dim>
					<dim>32</dim>
					<dim>80</dim>
					<dim>80</dim>
				</port>
			</input>
			<output>
				<port id="1" precision="FP32" names="/model.2/cv2/cv2.0/m/m.0/cv2/act/Mul_output_0">
					<dim>1</dim>
					<dim>32</dim>
					<dim>80</dim>
					<dim>80</dim>
				</port>
			</output>
		</layer>
		<layer id="68" name="/model.2/cv2/cv2.0/m/m.0/Add" type="Add" version="opset1">
			<data auto_broadcast="numpy" />
			<input>
				<port id="0" precision="FP32">
					<dim>1</dim>
					<dim>32</dim>
					<dim>80</dim>
					<dim>80</dim>
				</port>
				<port id="1" precision="FP32">
					<dim>1</dim>
					<dim>32</dim>
					<dim>80</dim>
					<dim>80</dim>
				</port>
			</input>
			<output>
				<port id="2" precision="FP32" names="/model.2/cv2/cv2.0/m/m.0/Add_output_0">
					<dim>1</dim>
					<dim>32</dim>
					<dim>80</dim>
					<dim>80</dim>
				</port>
			</output>
		</layer>
		<layer id="69" name="model.2.cv2.0.cv2.conv.weight_compressed" type="Const" version="opset1">
			<data element_type="f16" shape="32, 64, 1, 1" offset="233932" size="4096" />
			<output>
				<port id="0" precision="FP16">
					<dim>32</dim>
					<dim>64</dim>
					<dim>1</dim>
					<dim>1</dim>
				</port>
			</output>
		</layer>
		<layer id="70" name="model.2.cv2.0.cv2.conv.weight" type="Convert" version="opset1">
			<data destination_type="f32" />
			<rt_info>
				<attribute name="decompression" version="0" />
			</rt_info>
			<input>
				<port id="0" precision="FP16">
					<dim>32</dim>
					<dim>64</dim>
					<dim>1</dim>
					<dim>1</dim>
				</port>
			</input>
			<output>
				<port id="1" precision="FP32" names="model.2.cv2.0.cv2.conv.weight">
					<dim>32</dim>
					<dim>64</dim>
					<dim>1</dim>
					<dim>1</dim>
				</port>
			</output>
		</layer>
		<layer id="71" name="/model.2/cv2/cv2.0/cv2/conv/Conv/WithoutBiases" type="Convolution" version="opset1">
			<data strides="1, 1" dilations="1, 1" pads_begin="0, 0" pads_end="0, 0" auto_pad="explicit" />
			<input>
				<port id="0" precision="FP32">
					<dim>1</dim>
					<dim>64</dim>
					<dim>80</dim>
					<dim>80</dim>
				</port>
				<port id="1" precision="FP32">
					<dim>32</dim>
					<dim>64</dim>
					<dim>1</dim>
					<dim>1</dim>
				</port>
			</input>
			<output>
				<port id="2" precision="FP32">
					<dim>1</dim>
					<dim>32</dim>
					<dim>80</dim>
					<dim>80</dim>
				</port>
			</output>
		</layer>
		<layer id="72" name="Reshape_521_compressed" type="Const" version="opset1">
			<data element_type="f16" shape="1, 32, 1, 1" offset="238028" size="64" />
			<output>
				<port id="0" precision="FP16">
					<dim>1</dim>
					<dim>32</dim>
					<dim>1</dim>
					<dim>1</dim>
				</port>
			</output>
		</layer>
		<layer id="73" name="Reshape_521" type="Convert" version="opset1">
			<data destination_type="f32" />
			<rt_info>
				<attribute name="decompression" version="0" />
			</rt_info>
			<input>
				<port id="0" precision="FP16">
					<dim>1</dim>
					<dim>32</dim>
					<dim>1</dim>
					<dim>1</dim>
				</port>
			</input>
			<output>
				<port id="1" precision="FP32">
					<dim>1</dim>
					<dim>32</dim>
					<dim>1</dim>
					<dim>1</dim>
				</port>
			</output>
		</layer>
		<layer id="74" name="/model.2/cv2/cv2.0/cv2/conv/Conv" type="Add" version="opset1">
			<data auto_broadcast="numpy" />
			<input>
				<port id="0" precision="FP32">
					<dim>1</dim>
					<dim>32</dim>
					<dim>80</dim>
					<dim>80</dim>
				</port>
				<port id="1" precision="FP32">
					<dim>1</dim>
					<dim>32</dim>
					<dim>1</dim>
					<dim>1</dim>
				</port>
			</input>
			<output>
				<port id="2" precision="FP32" names="/model.2/cv2/cv2.0/cv2/conv/Conv_output_0">
					<dim>1</dim>
					<dim>32</dim>
					<dim>80</dim>
					<dim>80</dim>
				</port>
			</output>
		</layer>
		<layer id="75" name="/model.2/cv2/cv2.0/cv2/act/Mul" type="Swish" version="opset4">
			<input>
				<port id="0" precision="FP32">
					<dim>1</dim>
					<dim>32</dim>
					<dim>80</dim>
					<dim>80</dim>
				</port>
			</input>
			<output>
				<port id="1" precision="FP32" names="/model.2/cv2/cv2.0/cv2/act/Mul_output_0">
					<dim>1</dim>
					<dim>32</dim>
					<dim>80</dim>
					<dim>80</dim>
				</port>
			</output>
		</layer>
		<layer id="76" name="/model.2/cv2/cv2.0/Concat" type="Concat" version="opset1">
			<data axis="1" />
			<input>
				<port id="0" precision="FP32">
					<dim>1</dim>
					<dim>32</dim>
					<dim>80</dim>
					<dim>80</dim>
				</port>
				<port id="1" precision="FP32">
					<dim>1</dim>
					<dim>32</dim>
					<dim>80</dim>
					<dim>80</dim>
				</port>
			</input>
			<output>
				<port id="2" precision="FP32" names="/model.2/cv2/cv2.0/Concat_output_0">
					<dim>1</dim>
					<dim>64</dim>
					<dim>80</dim>
					<dim>80</dim>
				</port>
			</output>
		</layer>
		<layer id="77" name="model.2.cv2.0.cv3.conv.weight_compressed" type="Const" version="opset1">
			<data element_type="f16" shape="64, 64, 1, 1" offset="238092" size="8192" />
			<output>
				<port id="0" precision="FP16">
					<dim>64</dim>
					<dim>64</dim>
					<dim>1</dim>
					<dim>1</dim>
				</port>
			</output>
		</layer>
		<layer id="78" name="model.2.cv2.0.cv3.conv.weight" type="Convert" version="opset1">
			<data destination_type="f32" />
			<rt_info>
				<attribute name="decompression" version="0" />
			</rt_info>
			<input>
				<port id="0" precision="FP16">
					<dim>64</dim>
					<dim>64</dim>
					<dim>1</dim>
					<dim>1</dim>
				</port>
			</input>
			<output>
				<port id="1" precision="FP32" names="model.2.cv2.0.cv3.conv.weight">
					<dim>64</dim>
					<dim>64</dim>
					<dim>1</dim>
					<dim>1</dim>
				</port>
			</output>
		</layer>
		<layer id="79" name="/model.2/cv2/cv2.0/cv3/conv/Conv/WithoutBiases" type="Convolution" version="opset1">
			<data strides="1, 1" dilations="1, 1" pads_begin="0, 0" pads_end="0, 0" auto_pad="explicit" />
			<input>
				<port id="0" precision="FP32">
					<dim>1</dim>
					<dim>64</dim>
					<dim>80</dim>
					<dim>80</dim>
				</port>
				<port id="1" precision="FP32">
					<dim>64</dim>
					<dim>64</dim>
					<dim>1</dim>
					<dim>1</dim>
				</port>
			</input>
			<output>
				<port id="2" precision="FP32">
					<dim>1</dim>
					<dim>64</dim>
					<dim>80</dim>
					<dim>80</dim>
				</port>
			</output>
		</layer>
		<layer id="80" name="Reshape_540_compressed" type="Const" version="opset1">
			<data element_type="f16" shape="1, 64, 1, 1" offset="246284" size="128" />
			<output>
				<port id="0" precision="FP16">
					<dim>1</dim>
					<dim>64</dim>
					<dim>1</dim>
					<dim>1</dim>
				</port>
			</output>
		</layer>
		<layer id="81" name="Reshape_540" type="Convert" version="opset1">
			<data destination_type="f32" />
			<rt_info>
				<attribute name="decompression" version="0" />
			</rt_info>
			<input>
				<port id="0" precision="FP16">
					<dim>1</dim>
					<dim>64</dim>
					<dim>1</dim>
					<dim>1</dim>
				</port>
			</input>
			<output>
				<port id="1" precision="FP32">
					<dim>1</dim>
					<dim>64</dim>
					<dim>1</dim>
					<dim>1</dim>
				</port>
			</output>
		</layer>
		<layer id="82" name="/model.2/cv2/cv2.0/cv3/conv/Conv" type="Add" version="opset1">
			<data auto_broadcast="numpy" />
			<input>
				<port id="0" precision="FP32">
					<dim>1</dim>
					<dim>64</dim>
					<dim>80</dim>
					<dim>80</dim>
				</port>
				<port id="1" precision="FP32">
					<dim>1</dim>
					<dim>64</dim>
					<dim>1</dim>
					<dim>1</dim>
				</port>
			</input>
			<output>
				<port id="2" precision="FP32" names="/model.2/cv2/cv2.0/cv3/conv/Conv_output_0">
					<dim>1</dim>
					<dim>64</dim>
					<dim>80</dim>
					<dim>80</dim>
				</port>
			</output>
		</layer>
		<layer id="83" name="/model.2/cv2/cv2.0/cv3/act/Mul" type="Swish" version="opset4">
			<input>
				<port id="0" precision="FP32">
					<dim>1</dim>
					<dim>64</dim>
					<dim>80</dim>
					<dim>80</dim>
				</port>
			</input>
			<output>
				<port id="1" precision="FP32" names="/model.2/cv2/cv2.0/cv3/act/Mul_output_0">
					<dim>1</dim>
					<dim>64</dim>
					<dim>80</dim>
					<dim>80</dim>
				</port>
			</output>
		</layer>
		<layer id="84" name="model.2.cv2.1.conv.weight_compressed" type="Const" version="opset1">
			<data element_type="f16" shape="64, 64, 3, 3" offset="246412" size="73728" />
			<output>
				<port id="0" precision="FP16">
					<dim>64</dim>
					<dim>64</dim>
					<dim>3</dim>
					<dim>3</dim>
				</port>
			</output>
		</layer>
		<layer id="85" name="model.2.cv2.1.conv.weight" type="Convert" version="opset1">
			<data destination_type="f32" />
			<rt_info>
				<attribute name="decompression" version="0" />
			</rt_info>
			<input>
				<port id="0" precision="FP16">
					<dim>64</dim>
					<dim>64</dim>
					<dim>3</dim>
					<dim>3</dim>
				</port>
			</input>
			<output>
				<port id="1" precision="FP32" names="model.2.cv2.1.conv.weight">
					<dim>64</dim>
					<dim>64</dim>
					<dim>3</dim>
					<dim>3</dim>
				</port>
			</output>
		</layer>
		<layer id="86" name="/model.2/cv2/cv2.1/conv/Conv/WithoutBiases" type="Convolution" version="opset1">
			<data strides="1, 1" dilations="1, 1" pads_begin="1, 1" pads_end="1, 1" auto_pad="explicit" />
			<input>
				<port id="0" precision="FP32">
					<dim>1</dim>
					<dim>64</dim>
					<dim>80</dim>
					<dim>80</dim>
				</port>
				<port id="1" precision="FP32">
					<dim>64</dim>
					<dim>64</dim>
					<dim>3</dim>
					<dim>3</dim>
				</port>
			</input>
			<output>
				<port id="2" precision="FP32">
					<dim>1</dim>
					<dim>64</dim>
					<dim>80</dim>
					<dim>80</dim>
				</port>
			</output>
		</layer>
		<layer id="87" name="Reshape_558_compressed" type="Const" version="opset1">
			<data element_type="f16" shape="1, 64, 1, 1" offset="320140" size="128" />
			<output>
				<port id="0" precision="FP16">
					<dim>1</dim>
					<dim>64</dim>
					<dim>1</dim>
					<dim>1</dim>
				</port>
			</output>
		</layer>
		<layer id="88" name="Reshape_558" type="Convert" version="opset1">
			<data destination_type="f32" />
			<rt_info>
				<attribute name="decompression" version="0" />
			</rt_info>
			<input>
				<port id="0" precision="FP16">
					<dim>1</dim>
					<dim>64</dim>
					<dim>1</dim>
					<dim>1</dim>
				</port>
			</input>
			<output>
				<port id="1" precision="FP32">
					<dim>1</dim>
					<dim>64</dim>
					<dim>1</dim>
					<dim>1</dim>
				</port>
			</output>
		</layer>
		<layer id="89" name="/model.2/cv2/cv2.1/conv/Conv" type="Add" version="opset1">
			<data auto_broadcast="numpy" />
			<input>
				<port id="0" precision="FP32">
					<dim>1</dim>
					<dim>64</dim>
					<dim>80</dim>
					<dim>80</dim>
				</port>
				<port id="1" precision="FP32">
					<dim>1</dim>
					<dim>64</dim>
					<dim>1</dim>
					<dim>1</dim>
				</port>
			</input>
			<output>
				<port id="2" precision="FP32" names="/model.2/cv2/cv2.1/conv/Conv_output_0">
					<dim>1</dim>
					<dim>64</dim>
					<dim>80</dim>
					<dim>80</dim>
				</port>
			</output>
		</layer>
		<layer id="90" name="/model.2/cv2/cv2.1/act/Mul" type="Swish" version="opset4">
			<input>
				<port id="0" precision="FP32">
					<dim>1</dim>
					<dim>64</dim>
					<dim>80</dim>
					<dim>80</dim>
				</port>
			</input>
			<output>
				<port id="1" precision="FP32" names="/model.2/cv2/cv2.1/act/Mul_output_0">
					<dim>1</dim>
					<dim>64</dim>
					<dim>80</dim>
					<dim>80</dim>
				</port>
			</output>
		</layer>
		<layer id="91" name="model.2.cv3.0.cv1.conv.weight_compressed" type="Const" version="opset1">
			<data element_type="f16" shape="32, 64, 1, 1" offset="320268" size="4096" />
			<output>
				<port id="0" precision="FP16">
					<dim>32</dim>
					<dim>64</dim>
					<dim>1</dim>
					<dim>1</dim>
				</port>
			</output>
		</layer>
		<layer id="92" name="model.2.cv3.0.cv1.conv.weight" type="Convert" version="opset1">
			<data destination_type="f32" />
			<rt_info>
				<attribute name="decompression" version="0" />
			</rt_info>
			<input>
				<port id="0" precision="FP16">
					<dim>32</dim>
					<dim>64</dim>
					<dim>1</dim>
					<dim>1</dim>
				</port>
			</input>
			<output>
				<port id="1" precision="FP32" names="model.2.cv3.0.cv1.conv.weight">
					<dim>32</dim>
					<dim>64</dim>
					<dim>1</dim>
					<dim>1</dim>
				</port>
			</output>
		</layer>
		<layer id="93" name="/model.2/cv3/cv3.0/cv1/conv/Conv/WithoutBiases" type="Convolution" version="opset1">
			<data strides="1, 1" dilations="1, 1" pads_begin="0, 0" pads_end="0, 0" auto_pad="explicit" />
			<input>
				<port id="0" precision="FP32">
					<dim>1</dim>
					<dim>64</dim>
					<dim>80</dim>
					<dim>80</dim>
				</port>
				<port id="1" precision="FP32">
					<dim>32</dim>
					<dim>64</dim>
					<dim>1</dim>
					<dim>1</dim>
				</port>
			</input>
			<output>
				<port id="2" precision="FP32">
					<dim>1</dim>
					<dim>32</dim>
					<dim>80</dim>
					<dim>80</dim>
				</port>
			</output>
		</layer>
		<layer id="94" name="Reshape_576_compressed" type="Const" version="opset1">
			<data element_type="f16" shape="1, 32, 1, 1" offset="324364" size="64" />
			<output>
				<port id="0" precision="FP16">
					<dim>1</dim>
					<dim>32</dim>
					<dim>1</dim>
					<dim>1</dim>
				</port>
			</output>
		</layer>
		<layer id="95" name="Reshape_576" type="Convert" version="opset1">
			<data destination_type="f32" />
			<rt_info>
				<attribute name="decompression" version="0" />
			</rt_info>
			<input>
				<port id="0" precision="FP16">
					<dim>1</dim>
					<dim>32</dim>
					<dim>1</dim>
					<dim>1</dim>
				</port>
			</input>
			<output>
				<port id="1" precision="FP32">
					<dim>1</dim>
					<dim>32</dim>
					<dim>1</dim>
					<dim>1</dim>
				</port>
			</output>
		</layer>
		<layer id="96" name="/model.2/cv3/cv3.0/cv1/conv/Conv" type="Add" version="opset1">
			<data auto_broadcast="numpy" />
			<input>
				<port id="0" precision="FP32">
					<dim>1</dim>
					<dim>32</dim>
					<dim>80</dim>
					<dim>80</dim>
				</port>
				<port id="1" precision="FP32">
					<dim>1</dim>
					<dim>32</dim>
					<dim>1</dim>
					<dim>1</dim>
				</port>
			</input>
			<output>
				<port id="2" precision="FP32" names="/model.2/cv3/cv3.0/cv1/conv/Conv_output_0">
					<dim>1</dim>
					<dim>32</dim>
					<dim>80</dim>
					<dim>80</dim>
				</port>
			</output>
		</layer>
		<layer id="97" name="/model.2/cv3/cv3.0/cv1/act/Mul" type="Swish" version="opset4">
			<input>
				<port id="0" precision="FP32">
					<dim>1</dim>
					<dim>32</dim>
					<dim>80</dim>
					<dim>80</dim>
				</port>
			</input>
			<output>
				<port id="1" precision="FP32" names="/model.2/cv3/cv3.0/cv1/act/Mul_output_0">
					<dim>1</dim>
					<dim>32</dim>
					<dim>80</dim>
					<dim>80</dim>
				</port>
			</output>
		</layer>
		<layer id="98" name="model.2.cv3.0.m.0.cv1.conv.weight_compressed" type="Const" version="opset1">
			<data element_type="f16" shape="32, 32, 3, 3" offset="324428" size="18432" />
			<output>
				<port id="0" precision="FP16">
					<dim>32</dim>
					<dim>32</dim>
					<dim>3</dim>
					<dim>3</dim>
				</port>
			</output>
		</layer>
		<layer id="99" name="model.2.cv3.0.m.0.cv1.conv.weight" type="Convert" version="opset1">
			<data destination_type="f32" />
			<rt_info>
				<attribute name="decompression" version="0" />
			</rt_info>
			<input>
				<port id="0" precision="FP16">
					<dim>32</dim>
					<dim>32</dim>
					<dim>3</dim>
					<dim>3</dim>
				</port>
			</input>
			<output>
				<port id="1" precision="FP32" names="model.2.cv3.0.m.0.cv1.conv.weight">
					<dim>32</dim>
					<dim>32</dim>
					<dim>3</dim>
					<dim>3</dim>
				</port>
			</output>
		</layer>
		<layer id="100" name="/model.2/cv3/cv3.0/m/m.0/cv1/conv/Conv/WithoutBiases" type="Convolution" version="opset1">
			<data strides="1, 1" dilations="1, 1" pads_begin="1, 1" pads_end="1, 1" auto_pad="explicit" />
			<input>
				<port id="0" precision="FP32">
					<dim>1</dim>
					<dim>32</dim>
					<dim>80</dim>
					<dim>80</dim>
				</port>
				<port id="1" precision="FP32">
					<dim>32</dim>
					<dim>32</dim>
					<dim>3</dim>
					<dim>3</dim>
				</port>
			</input>
			<output>
				<port id="2" precision="FP32">
					<dim>1</dim>
					<dim>32</dim>
					<dim>80</dim>
					<dim>80</dim>
				</port>
			</output>
		</layer>
		<layer id="101" name="Reshape_594_compressed" type="Const" version="opset1">
			<data element_type="f16" shape="1, 32, 1, 1" offset="342860" size="64" />
			<output>
				<port id="0" precision="FP16">
					<dim>1</dim>
					<dim>32</dim>
					<dim>1</dim>
					<dim>1</dim>
				</port>
			</output>
		</layer>
		<layer id="102" name="Reshape_594" type="Convert" version="opset1">
			<data destination_type="f32" />
			<rt_info>
				<attribute name="decompression" version="0" />
			</rt_info>
			<input>
				<port id="0" precision="FP16">
					<dim>1</dim>
					<dim>32</dim>
					<dim>1</dim>
					<dim>1</dim>
				</port>
			</input>
			<output>
				<port id="1" precision="FP32">
					<dim>1</dim>
					<dim>32</dim>
					<dim>1</dim>
					<dim>1</dim>
				</port>
			</output>
		</layer>
		<layer id="103" name="/model.2/cv3/cv3.0/m/m.0/cv1/conv/Conv" type="Add" version="opset1">
			<data auto_broadcast="numpy" />
			<input>
				<port id="0" precision="FP32">
					<dim>1</dim>
					<dim>32</dim>
					<dim>80</dim>
					<dim>80</dim>
				</port>
				<port id="1" precision="FP32">
					<dim>1</dim>
					<dim>32</dim>
					<dim>1</dim>
					<dim>1</dim>
				</port>
			</input>
			<output>
				<port id="2" precision="FP32" names="/model.2/cv3/cv3.0/m/m.0/cv1/conv/Conv_output_0">
					<dim>1</dim>
					<dim>32</dim>
					<dim>80</dim>
					<dim>80</dim>
				</port>
			</output>
		</layer>
		<layer id="104" name="/model.2/cv3/cv3.0/m/m.0/cv1/act/Mul" type="Swish" version="opset4">
			<input>
				<port id="0" precision="FP32">
					<dim>1</dim>
					<dim>32</dim>
					<dim>80</dim>
					<dim>80</dim>
				</port>
			</input>
			<output>
				<port id="1" precision="FP32" names="/model.2/cv3/cv3.0/m/m.0/cv1/act/Mul_output_0">
					<dim>1</dim>
					<dim>32</dim>
					<dim>80</dim>
					<dim>80</dim>
				</port>
			</output>
		</layer>
		<layer id="105" name="model.2.cv3.0.m.0.cv2.conv.weight_compressed" type="Const" version="opset1">
			<data element_type="f16" shape="32, 32, 3, 3" offset="342924" size="18432" />
			<output>
				<port id="0" precision="FP16">
					<dim>32</dim>
					<dim>32</dim>
					<dim>3</dim>
					<dim>3</dim>
				</port>
			</output>
		</layer>
		<layer id="106" name="model.2.cv3.0.m.0.cv2.conv.weight" type="Convert" version="opset1">
			<data destination_type="f32" />
			<rt_info>
				<attribute name="decompression" version="0" />
			</rt_info>
			<input>
				<port id="0" precision="FP16">
					<dim>32</dim>
					<dim>32</dim>
					<dim>3</dim>
					<dim>3</dim>
				</port>
			</input>
			<output>
				<port id="1" precision="FP32" names="model.2.cv3.0.m.0.cv2.conv.weight">
					<dim>32</dim>
					<dim>32</dim>
					<dim>3</dim>
					<dim>3</dim>
				</port>
			</output>
		</layer>
		<layer id="107" name="/model.2/cv3/cv3.0/m/m.0/cv2/conv/Conv/WithoutBiases" type="Convolution" version="opset1">
			<data strides="1, 1" dilations="1, 1" pads_begin="1, 1" pads_end="1, 1" auto_pad="explicit" />
			<input>
				<port id="0" precision="FP32">
					<dim>1</dim>
					<dim>32</dim>
					<dim>80</dim>
					<dim>80</dim>
				</port>
				<port id="1" precision="FP32">
					<dim>32</dim>
					<dim>32</dim>
					<dim>3</dim>
					<dim>3</dim>
				</port>
			</input>
			<output>
				<port id="2" precision="FP32">
					<dim>1</dim>
					<dim>32</dim>
					<dim>80</dim>
					<dim>80</dim>
				</port>
			</output>
		</layer>
		<layer id="108" name="Reshape_612_compressed" type="Const" version="opset1">
			<data element_type="f16" shape="1, 32, 1, 1" offset="361356" size="64" />
			<output>
				<port id="0" precision="FP16">
					<dim>1</dim>
					<dim>32</dim>
					<dim>1</dim>
					<dim>1</dim>
				</port>
			</output>
		</layer>
		<layer id="109" name="Reshape_612" type="Convert" version="opset1">
			<data destination_type="f32" />
			<rt_info>
				<attribute name="decompression" version="0" />
			</rt_info>
			<input>
				<port id="0" precision="FP16">
					<dim>1</dim>
					<dim>32</dim>
					<dim>1</dim>
					<dim>1</dim>
				</port>
			</input>
			<output>
				<port id="1" precision="FP32">
					<dim>1</dim>
					<dim>32</dim>
					<dim>1</dim>
					<dim>1</dim>
				</port>
			</output>
		</layer>
		<layer id="110" name="/model.2/cv3/cv3.0/m/m.0/cv2/conv/Conv" type="Add" version="opset1">
			<data auto_broadcast="numpy" />
			<input>
				<port id="0" precision="FP32">
					<dim>1</dim>
					<dim>32</dim>
					<dim>80</dim>
					<dim>80</dim>
				</port>
				<port id="1" precision="FP32">
					<dim>1</dim>
					<dim>32</dim>
					<dim>1</dim>
					<dim>1</dim>
				</port>
			</input>
			<output>
				<port id="2" precision="FP32" names="/model.2/cv3/cv3.0/m/m.0/cv2/conv/Conv_output_0">
					<dim>1</dim>
					<dim>32</dim>
					<dim>80</dim>
					<dim>80</dim>
				</port>
			</output>
		</layer>
		<layer id="111" name="/model.2/cv3/cv3.0/m/m.0/cv2/act/Mul" type="Swish" version="opset4">
			<input>
				<port id="0" precision="FP32">
					<dim>1</dim>
					<dim>32</dim>
					<dim>80</dim>
					<dim>80</dim>
				</port>
			</input>
			<output>
				<port id="1" precision="FP32" names="/model.2/cv3/cv3.0/m/m.0/cv2/act/Mul_output_0">
					<dim>1</dim>
					<dim>32</dim>
					<dim>80</dim>
					<dim>80</dim>
				</port>
			</output>
		</layer>
		<layer id="112" name="/model.2/cv3/cv3.0/m/m.0/Add" type="Add" version="opset1">
			<data auto_broadcast="numpy" />
			<input>
				<port id="0" precision="FP32">
					<dim>1</dim>
					<dim>32</dim>
					<dim>80</dim>
					<dim>80</dim>
				</port>
				<port id="1" precision="FP32">
					<dim>1</dim>
					<dim>32</dim>
					<dim>80</dim>
					<dim>80</dim>
				</port>
			</input>
			<output>
				<port id="2" precision="FP32" names="/model.2/cv3/cv3.0/m/m.0/Add_output_0">
					<dim>1</dim>
					<dim>32</dim>
					<dim>80</dim>
					<dim>80</dim>
				</port>
			</output>
		</layer>
		<layer id="113" name="model.2.cv3.0.cv2.conv.weight_compressed" type="Const" version="opset1">
			<data element_type="f16" shape="32, 64, 1, 1" offset="361420" size="4096" />
			<output>
				<port id="0" precision="FP16">
					<dim>32</dim>
					<dim>64</dim>
					<dim>1</dim>
					<dim>1</dim>
				</port>
			</output>
		</layer>
		<layer id="114" name="model.2.cv3.0.cv2.conv.weight" type="Convert" version="opset1">
			<data destination_type="f32" />
			<rt_info>
				<attribute name="decompression" version="0" />
			</rt_info>
			<input>
				<port id="0" precision="FP16">
					<dim>32</dim>
					<dim>64</dim>
					<dim>1</dim>
					<dim>1</dim>
				</port>
			</input>
			<output>
				<port id="1" precision="FP32" names="model.2.cv3.0.cv2.conv.weight">
					<dim>32</dim>
					<dim>64</dim>
					<dim>1</dim>
					<dim>1</dim>
				</port>
			</output>
		</layer>
		<layer id="115" name="/model.2/cv3/cv3.0/cv2/conv/Conv/WithoutBiases" type="Convolution" version="opset1">
			<data strides="1, 1" dilations="1, 1" pads_begin="0, 0" pads_end="0, 0" auto_pad="explicit" />
			<input>
				<port id="0" precision="FP32">
					<dim>1</dim>
					<dim>64</dim>
					<dim>80</dim>
					<dim>80</dim>
				</port>
				<port id="1" precision="FP32">
					<dim>32</dim>
					<dim>64</dim>
					<dim>1</dim>
					<dim>1</dim>
				</port>
			</input>
			<output>
				<port id="2" precision="FP32">
					<dim>1</dim>
					<dim>32</dim>
					<dim>80</dim>
					<dim>80</dim>
				</port>
			</output>
		</layer>
		<layer id="116" name="Reshape_631_compressed" type="Const" version="opset1">
			<data element_type="f16" shape="1, 32, 1, 1" offset="365516" size="64" />
			<output>
				<port id="0" precision="FP16">
					<dim>1</dim>
					<dim>32</dim>
					<dim>1</dim>
					<dim>1</dim>
				</port>
			</output>
		</layer>
		<layer id="117" name="Reshape_631" type="Convert" version="opset1">
			<data destination_type="f32" />
			<rt_info>
				<attribute name="decompression" version="0" />
			</rt_info>
			<input>
				<port id="0" precision="FP16">
					<dim>1</dim>
					<dim>32</dim>
					<dim>1</dim>
					<dim>1</dim>
				</port>
			</input>
			<output>
				<port id="1" precision="FP32">
					<dim>1</dim>
					<dim>32</dim>
					<dim>1</dim>
					<dim>1</dim>
				</port>
			</output>
		</layer>
		<layer id="118" name="/model.2/cv3/cv3.0/cv2/conv/Conv" type="Add" version="opset1">
			<data auto_broadcast="numpy" />
			<input>
				<port id="0" precision="FP32">
					<dim>1</dim>
					<dim>32</dim>
					<dim>80</dim>
					<dim>80</dim>
				</port>
				<port id="1" precision="FP32">
					<dim>1</dim>
					<dim>32</dim>
					<dim>1</dim>
					<dim>1</dim>
				</port>
			</input>
			<output>
				<port id="2" precision="FP32" names="/model.2/cv3/cv3.0/cv2/conv/Conv_output_0">
					<dim>1</dim>
					<dim>32</dim>
					<dim>80</dim>
					<dim>80</dim>
				</port>
			</output>
		</layer>
		<layer id="119" name="/model.2/cv3/cv3.0/cv2/act/Mul" type="Swish" version="opset4">
			<input>
				<port id="0" precision="FP32">
					<dim>1</dim>
					<dim>32</dim>
					<dim>80</dim>
					<dim>80</dim>
				</port>
			</input>
			<output>
				<port id="1" precision="FP32" names="/model.2/cv3/cv3.0/cv2/act/Mul_output_0">
					<dim>1</dim>
					<dim>32</dim>
					<dim>80</dim>
					<dim>80</dim>
				</port>
			</output>
		</layer>
		<layer id="120" name="/model.2/cv3/cv3.0/Concat" type="Concat" version="opset1">
			<data axis="1" />
			<input>
				<port id="0" precision="FP32">
					<dim>1</dim>
					<dim>32</dim>
					<dim>80</dim>
					<dim>80</dim>
				</port>
				<port id="1" precision="FP32">
					<dim>1</dim>
					<dim>32</dim>
					<dim>80</dim>
					<dim>80</dim>
				</port>
			</input>
			<output>
				<port id="2" precision="FP32" names="/model.2/cv3/cv3.0/Concat_output_0">
					<dim>1</dim>
					<dim>64</dim>
					<dim>80</dim>
					<dim>80</dim>
				</port>
			</output>
		</layer>
		<layer id="121" name="model.2.cv3.0.cv3.conv.weight_compressed" type="Const" version="opset1">
			<data element_type="f16" shape="64, 64, 1, 1" offset="365580" size="8192" />
			<output>
				<port id="0" precision="FP16">
					<dim>64</dim>
					<dim>64</dim>
					<dim>1</dim>
					<dim>1</dim>
				</port>
			</output>
		</layer>
		<layer id="122" name="model.2.cv3.0.cv3.conv.weight" type="Convert" version="opset1">
			<data destination_type="f32" />
			<rt_info>
				<attribute name="decompression" version="0" />
			</rt_info>
			<input>
				<port id="0" precision="FP16">
					<dim>64</dim>
					<dim>64</dim>
					<dim>1</dim>
					<dim>1</dim>
				</port>
			</input>
			<output>
				<port id="1" precision="FP32" names="model.2.cv3.0.cv3.conv.weight">
					<dim>64</dim>
					<dim>64</dim>
					<dim>1</dim>
					<dim>1</dim>
				</port>
			</output>
		</layer>
		<layer id="123" name="/model.2/cv3/cv3.0/cv3/conv/Conv/WithoutBiases" type="Convolution" version="opset1">
			<data strides="1, 1" dilations="1, 1" pads_begin="0, 0" pads_end="0, 0" auto_pad="explicit" />
			<input>
				<port id="0" precision="FP32">
					<dim>1</dim>
					<dim>64</dim>
					<dim>80</dim>
					<dim>80</dim>
				</port>
				<port id="1" precision="FP32">
					<dim>64</dim>
					<dim>64</dim>
					<dim>1</dim>
					<dim>1</dim>
				</port>
			</input>
			<output>
				<port id="2" precision="FP32">
					<dim>1</dim>
					<dim>64</dim>
					<dim>80</dim>
					<dim>80</dim>
				</port>
			</output>
		</layer>
		<layer id="124" name="Reshape_650_compressed" type="Const" version="opset1">
			<data element_type="f16" shape="1, 64, 1, 1" offset="373772" size="128" />
			<output>
				<port id="0" precision="FP16">
					<dim>1</dim>
					<dim>64</dim>
					<dim>1</dim>
					<dim>1</dim>
				</port>
			</output>
		</layer>
		<layer id="125" name="Reshape_650" type="Convert" version="opset1">
			<data destination_type="f32" />
			<rt_info>
				<attribute name="decompression" version="0" />
			</rt_info>
			<input>
				<port id="0" precision="FP16">
					<dim>1</dim>
					<dim>64</dim>
					<dim>1</dim>
					<dim>1</dim>
				</port>
			</input>
			<output>
				<port id="1" precision="FP32">
					<dim>1</dim>
					<dim>64</dim>
					<dim>1</dim>
					<dim>1</dim>
				</port>
			</output>
		</layer>
		<layer id="126" name="/model.2/cv3/cv3.0/cv3/conv/Conv" type="Add" version="opset1">
			<data auto_broadcast="numpy" />
			<input>
				<port id="0" precision="FP32">
					<dim>1</dim>
					<dim>64</dim>
					<dim>80</dim>
					<dim>80</dim>
				</port>
				<port id="1" precision="FP32">
					<dim>1</dim>
					<dim>64</dim>
					<dim>1</dim>
					<dim>1</dim>
				</port>
			</input>
			<output>
				<port id="2" precision="FP32" names="/model.2/cv3/cv3.0/cv3/conv/Conv_output_0">
					<dim>1</dim>
					<dim>64</dim>
					<dim>80</dim>
					<dim>80</dim>
				</port>
			</output>
		</layer>
		<layer id="127" name="/model.2/cv3/cv3.0/cv3/act/Mul" type="Swish" version="opset4">
			<input>
				<port id="0" precision="FP32">
					<dim>1</dim>
					<dim>64</dim>
					<dim>80</dim>
					<dim>80</dim>
				</port>
			</input>
			<output>
				<port id="1" precision="FP32" names="/model.2/cv3/cv3.0/cv3/act/Mul_output_0">
					<dim>1</dim>
					<dim>64</dim>
					<dim>80</dim>
					<dim>80</dim>
				</port>
			</output>
		</layer>
		<layer id="128" name="model.2.cv3.1.conv.weight_compressed" type="Const" version="opset1">
			<data element_type="f16" shape="64, 64, 3, 3" offset="373900" size="73728" />
			<output>
				<port id="0" precision="FP16">
					<dim>64</dim>
					<dim>64</dim>
					<dim>3</dim>
					<dim>3</dim>
				</port>
			</output>
		</layer>
		<layer id="129" name="model.2.cv3.1.conv.weight" type="Convert" version="opset1">
			<data destination_type="f32" />
			<rt_info>
				<attribute name="decompression" version="0" />
			</rt_info>
			<input>
				<port id="0" precision="FP16">
					<dim>64</dim>
					<dim>64</dim>
					<dim>3</dim>
					<dim>3</dim>
				</port>
			</input>
			<output>
				<port id="1" precision="FP32" names="model.2.cv3.1.conv.weight">
					<dim>64</dim>
					<dim>64</dim>
					<dim>3</dim>
					<dim>3</dim>
				</port>
			</output>
		</layer>
		<layer id="130" name="/model.2/cv3/cv3.1/conv/Conv/WithoutBiases" type="Convolution" version="opset1">
			<data strides="1, 1" dilations="1, 1" pads_begin="1, 1" pads_end="1, 1" auto_pad="explicit" />
			<input>
				<port id="0" precision="FP32">
					<dim>1</dim>
					<dim>64</dim>
					<dim>80</dim>
					<dim>80</dim>
				</port>
				<port id="1" precision="FP32">
					<dim>64</dim>
					<dim>64</dim>
					<dim>3</dim>
					<dim>3</dim>
				</port>
			</input>
			<output>
				<port id="2" precision="FP32">
					<dim>1</dim>
					<dim>64</dim>
					<dim>80</dim>
					<dim>80</dim>
				</port>
			</output>
		</layer>
		<layer id="131" name="Reshape_668_compressed" type="Const" version="opset1">
			<data element_type="f16" shape="1, 64, 1, 1" offset="447628" size="128" />
			<output>
				<port id="0" precision="FP16">
					<dim>1</dim>
					<dim>64</dim>
					<dim>1</dim>
					<dim>1</dim>
				</port>
			</output>
		</layer>
		<layer id="132" name="Reshape_668" type="Convert" version="opset1">
			<data destination_type="f32" />
			<rt_info>
				<attribute name="decompression" version="0" />
			</rt_info>
			<input>
				<port id="0" precision="FP16">
					<dim>1</dim>
					<dim>64</dim>
					<dim>1</dim>
					<dim>1</dim>
				</port>
			</input>
			<output>
				<port id="1" precision="FP32">
					<dim>1</dim>
					<dim>64</dim>
					<dim>1</dim>
					<dim>1</dim>
				</port>
			</output>
		</layer>
		<layer id="133" name="/model.2/cv3/cv3.1/conv/Conv" type="Add" version="opset1">
			<data auto_broadcast="numpy" />
			<input>
				<port id="0" precision="FP32">
					<dim>1</dim>
					<dim>64</dim>
					<dim>80</dim>
					<dim>80</dim>
				</port>
				<port id="1" precision="FP32">
					<dim>1</dim>
					<dim>64</dim>
					<dim>1</dim>
					<dim>1</dim>
				</port>
			</input>
			<output>
				<port id="2" precision="FP32" names="/model.2/cv3/cv3.1/conv/Conv_output_0">
					<dim>1</dim>
					<dim>64</dim>
					<dim>80</dim>
					<dim>80</dim>
				</port>
			</output>
		</layer>
		<layer id="134" name="/model.2/cv3/cv3.1/act/Mul" type="Swish" version="opset4">
			<input>
				<port id="0" precision="FP32">
					<dim>1</dim>
					<dim>64</dim>
					<dim>80</dim>
					<dim>80</dim>
				</port>
			</input>
			<output>
				<port id="1" precision="FP32" names="/model.2/cv3/cv3.1/act/Mul_output_0">
					<dim>1</dim>
					<dim>64</dim>
					<dim>80</dim>
					<dim>80</dim>
				</port>
			</output>
		</layer>
		<layer id="135" name="/model.2/Concat" type="Concat" version="opset1">
			<data axis="1" />
			<input>
				<port id="0" precision="FP32">
					<dim>1</dim>
					<dim>64</dim>
					<dim>80</dim>
					<dim>80</dim>
				</port>
				<port id="1" precision="FP32">
					<dim>1</dim>
					<dim>64</dim>
					<dim>80</dim>
					<dim>80</dim>
				</port>
				<port id="2" precision="FP32">
					<dim>1</dim>
					<dim>64</dim>
					<dim>80</dim>
					<dim>80</dim>
				</port>
				<port id="3" precision="FP32">
					<dim>1</dim>
					<dim>64</dim>
					<dim>80</dim>
					<dim>80</dim>
				</port>
			</input>
			<output>
				<port id="4" precision="FP32" names="/model.2/Concat_output_0">
					<dim>1</dim>
					<dim>256</dim>
					<dim>80</dim>
					<dim>80</dim>
				</port>
			</output>
		</layer>
		<layer id="136" name="model.2.cv4.conv.weight_compressed" type="Const" version="opset1">
			<data element_type="f16" shape="256, 256, 1, 1" offset="447756" size="131072" />
			<output>
				<port id="0" precision="FP16">
					<dim>256</dim>
					<dim>256</dim>
					<dim>1</dim>
					<dim>1</dim>
				</port>
			</output>
		</layer>
		<layer id="137" name="model.2.cv4.conv.weight" type="Convert" version="opset1">
			<data destination_type="f32" />
			<rt_info>
				<attribute name="decompression" version="0" />
			</rt_info>
			<input>
				<port id="0" precision="FP16">
					<dim>256</dim>
					<dim>256</dim>
					<dim>1</dim>
					<dim>1</dim>
				</port>
			</input>
			<output>
				<port id="1" precision="FP32" names="model.2.cv4.conv.weight">
					<dim>256</dim>
					<dim>256</dim>
					<dim>1</dim>
					<dim>1</dim>
				</port>
			</output>
		</layer>
		<layer id="138" name="/model.2/cv4/conv/Conv/WithoutBiases" type="Convolution" version="opset1">
			<data strides="1, 1" dilations="1, 1" pads_begin="0, 0" pads_end="0, 0" auto_pad="explicit" />
			<input>
				<port id="0" precision="FP32">
					<dim>1</dim>
					<dim>256</dim>
					<dim>80</dim>
					<dim>80</dim>
				</port>
				<port id="1" precision="FP32">
					<dim>256</dim>
					<dim>256</dim>
					<dim>1</dim>
					<dim>1</dim>
				</port>
			</input>
			<output>
				<port id="2" precision="FP32">
					<dim>1</dim>
					<dim>256</dim>
					<dim>80</dim>
					<dim>80</dim>
				</port>
			</output>
		</layer>
		<layer id="139" name="Reshape_687_compressed" type="Const" version="opset1">
			<data element_type="f16" shape="1, 256, 1, 1" offset="578828" size="512" />
			<output>
				<port id="0" precision="FP16">
					<dim>1</dim>
					<dim>256</dim>
					<dim>1</dim>
					<dim>1</dim>
				</port>
			</output>
		</layer>
		<layer id="140" name="Reshape_687" type="Convert" version="opset1">
			<data destination_type="f32" />
			<rt_info>
				<attribute name="decompression" version="0" />
			</rt_info>
			<input>
				<port id="0" precision="FP16">
					<dim>1</dim>
					<dim>256</dim>
					<dim>1</dim>
					<dim>1</dim>
				</port>
			</input>
			<output>
				<port id="1" precision="FP32">
					<dim>1</dim>
					<dim>256</dim>
					<dim>1</dim>
					<dim>1</dim>
				</port>
			</output>
		</layer>
		<layer id="141" name="/model.2/cv4/conv/Conv" type="Add" version="opset1">
			<data auto_broadcast="numpy" />
			<input>
				<port id="0" precision="FP32">
					<dim>1</dim>
					<dim>256</dim>
					<dim>80</dim>
					<dim>80</dim>
				</port>
				<port id="1" precision="FP32">
					<dim>1</dim>
					<dim>256</dim>
					<dim>1</dim>
					<dim>1</dim>
				</port>
			</input>
			<output>
				<port id="2" precision="FP32" names="/model.2/cv4/conv/Conv_output_0">
					<dim>1</dim>
					<dim>256</dim>
					<dim>80</dim>
					<dim>80</dim>
				</port>
			</output>
		</layer>
		<layer id="142" name="/model.2/cv4/act/Mul" type="Swish" version="opset4">
			<input>
				<port id="0" precision="FP32">
					<dim>1</dim>
					<dim>256</dim>
					<dim>80</dim>
					<dim>80</dim>
				</port>
			</input>
			<output>
				<port id="1" precision="FP32" names="/model.2/cv4/act/Mul_output_0">
					<dim>1</dim>
					<dim>256</dim>
					<dim>80</dim>
					<dim>80</dim>
				</port>
			</output>
		</layer>
		<layer id="143" name="/model.3/AveragePool" type="AvgPool" version="opset1">
			<data kernel="2, 2" strides="1, 1" pads_begin="0, 0" pads_end="0, 0" exclude-pad="false" auto_pad="explicit" rounding_type="floor" />
			<input>
				<port id="0" precision="FP32">
					<dim>1</dim>
					<dim>256</dim>
					<dim>80</dim>
					<dim>80</dim>
				</port>
			</input>
			<output>
				<port id="1" precision="FP32" names="/model.3/AveragePool_output_0">
					<dim>1</dim>
					<dim>256</dim>
					<dim>79</dim>
					<dim>79</dim>
				</port>
			</output>
		</layer>
		<layer id="144" name="Constant_11511" type="Const" version="opset1">
			<data element_type="i64" shape="2" offset="192720" size="16" />
			<rt_info>
				<attribute name="precise" version="0" />
			</rt_info>
			<output>
				<port id="0" precision="I64">
					<dim>2</dim>
				</port>
			</output>
		</layer>
		<layer id="145" name="Constant_11512" type="Const" version="opset1">
			<data element_type="i64" shape="2" offset="192720" size="16" />
			<rt_info>
				<attribute name="precise" version="0" />
			</rt_info>
			<output>
				<port id="0" precision="I64">
					<dim>2</dim>
				</port>
			</output>
		</layer>
		<layer id="146" name="Constant_11508" type="Const" version="opset1">
			<data element_type="i64" shape="1" offset="192736" size="8" />
			<rt_info>
				<attribute name="precise" version="0" />
			</rt_info>
			<output>
				<port id="0" precision="I64">
					<dim>1</dim>
				</port>
			</output>
		</layer>
		<layer id="147" name="/model.3/Shape" type="ShapeOf" version="opset3">
			<data output_type="i64" />
			<input>
				<port id="0" precision="FP32">
					<dim>1</dim>
					<dim>256</dim>
					<dim>79</dim>
					<dim>79</dim>
				</port>
			</input>
			<output>
				<port id="1" precision="I64" names="/model.3/Shape_output_0">
					<dim>4</dim>
				</port>
			</output>
		</layer>
		<layer id="148" name="/model.3/Constant" type="Const" version="opset1">
			<data element_type="i64" shape="1" offset="192736" size="8" />
			<rt_info>
				<attribute name="precise" version="0" />
			</rt_info>
			<output>
				<port id="0" precision="I64" names="/model.3/Constant_output_0">
					<dim>1</dim>
				</port>
			</output>
		</layer>
		<layer id="149" name="Constant_696" type="Const" version="opset1">
			<data element_type="i64" shape="" offset="192744" size="8" />
			<rt_info>
				<attribute name="precise" version="0" />
			</rt_info>
			<output>
				<port id="0" precision="I64" />
			</output>
		</layer>
		<layer id="150" name="/model.3/Gather" type="Gather" version="opset8">
			<data batch_dims="0" />
			<input>
				<port id="0" precision="I64">
					<dim>4</dim>
				</port>
				<port id="1" precision="I64">
					<dim>1</dim>
				</port>
				<port id="2" precision="I64" />
			</input>
			<output>
				<port id="3" precision="I64" names="/model.3/Gather_output_0">
					<dim>1</dim>
				</port>
			</output>
		</layer>
		<layer id="151" name="/model.3/Constant_2" type="Const" version="opset1">
			<data element_type="i64" shape="1" offset="192736" size="8" />
			<rt_info>
				<attribute name="precise" version="0" />
			</rt_info>
			<output>
				<port id="0" precision="I64" names="/model.3/Constant_2_output_0">
					<dim>1</dim>
				</port>
			</output>
		</layer>
		<layer id="152" name="/model.3/Add" type="Add" version="opset1">
			<data auto_broadcast="numpy" />
			<input>
				<port id="0" precision="I64">
					<dim>1</dim>
				</port>
				<port id="1" precision="I64">
					<dim>1</dim>
				</port>
			</input>
			<output>
				<port id="2" precision="I64" names="/model.3/Add_output_0">
					<dim>1</dim>
				</port>
			</output>
		</layer>
		<layer id="153" name="/model.3/Constant_3" type="Const" version="opset1">
			<data element_type="i64" shape="1" offset="192752" size="8" />
			<rt_info>
				<attribute name="precise" version="0" />
			</rt_info>
			<output>
				<port id="0" precision="I64" names="/model.3/Constant_3_output_0">
					<dim>1</dim>
				</port>
			</output>
		</layer>
		<layer id="154" name="/model.3/Div" type="Divide" version="opset1">
			<data auto_broadcast="numpy" m_pythondiv="true" />
			<input>
				<port id="0" precision="I64">
					<dim>1</dim>
				</port>
				<port id="1" precision="I64">
					<dim>1</dim>
				</port>
			</input>
			<output>
				<port id="2" precision="I64" names="/model.3/Div_output_0,/model.3/Mul_output_0">
					<dim>1</dim>
				</port>
			</output>
		</layer>
		<layer id="155" name="Constant_11507" type="Const" version="opset1">
			<data element_type="i32" shape="1" offset="192760" size="4" />
			<rt_info>
				<attribute name="precise" version="0" />
			</rt_info>
			<output>
				<port id="0" precision="I32">
					<dim>1</dim>
				</port>
			</output>
		</layer>
		<layer id="156" name="ScatterUpdate_11513" type="ScatterUpdate" version="opset3">
			<input>
				<port id="0" precision="I64">
					<dim>2</dim>
				</port>
				<port id="1" precision="I64">
					<dim>1</dim>
				</port>
				<port id="2" precision="I64">
					<dim>1</dim>
				</port>
				<port id="3" precision="I32">
					<dim>1</dim>
				</port>
			</input>
			<output>
				<port id="4" precision="I64">
					<dim>2</dim>
				</port>
			</output>
		</layer>
		<layer id="157" name="Constant_11516" type="Const" version="opset1">
			<data element_type="i64" shape="2" offset="192764" size="16" />
			<rt_info>
				<attribute name="precise" version="0" />
			</rt_info>
			<output>
				<port id="0" precision="I64">
					<dim>2</dim>
				</port>
			</output>
		</layer>
		<layer id="158" name="/model.3/Slice" type="StridedSlice" version="opset1">
			<data begin_mask="1, 0" end_mask="1, 0" new_axis_mask="" shrink_axis_mask="" ellipsis_mask="" />
			<input>
				<port id="0" precision="FP32">
					<dim>1</dim>
					<dim>256</dim>
					<dim>79</dim>
					<dim>79</dim>
				</port>
				<port id="1" precision="I64">
					<dim>2</dim>
				</port>
				<port id="2" precision="I64">
					<dim>2</dim>
				</port>
				<port id="3" precision="I64">
					<dim>2</dim>
				</port>
			</input>
			<output>
				<port id="4" precision="FP32" names="/model.3/Slice_output_0">
					<dim>1</dim>
					<dim>128</dim>
					<dim>79</dim>
					<dim>79</dim>
				</port>
			</output>
		</layer>
		<layer id="159" name="model.3.cv1.conv.weight_compressed" type="Const" version="opset1">
			<data element_type="f16" shape="128, 128, 3, 3" offset="579340" size="294912" />
			<output>
				<port id="0" precision="FP16">
					<dim>128</dim>
					<dim>128</dim>
					<dim>3</dim>
					<dim>3</dim>
				</port>
			</output>
		</layer>
		<layer id="160" name="model.3.cv1.conv.weight" type="Convert" version="opset1">
			<data destination_type="f32" />
			<rt_info>
				<attribute name="decompression" version="0" />
			</rt_info>
			<input>
				<port id="0" precision="FP16">
					<dim>128</dim>
					<dim>128</dim>
					<dim>3</dim>
					<dim>3</dim>
				</port>
			</input>
			<output>
				<port id="1" precision="FP32" names="model.3.cv1.conv.weight">
					<dim>128</dim>
					<dim>128</dim>
					<dim>3</dim>
					<dim>3</dim>
				</port>
			</output>
		</layer>
		<layer id="161" name="/model.3/cv1/conv/Conv/WithoutBiases" type="Convolution" version="opset1">
			<data strides="2, 2" dilations="1, 1" pads_begin="1, 1" pads_end="1, 1" auto_pad="explicit" />
			<input>
				<port id="0" precision="FP32">
					<dim>1</dim>
					<dim>128</dim>
					<dim>79</dim>
					<dim>79</dim>
				</port>
				<port id="1" precision="FP32">
					<dim>128</dim>
					<dim>128</dim>
					<dim>3</dim>
					<dim>3</dim>
				</port>
			</input>
			<output>
				<port id="2" precision="FP32">
					<dim>1</dim>
					<dim>128</dim>
					<dim>40</dim>
					<dim>40</dim>
				</port>
			</output>
		</layer>
		<layer id="162" name="Reshape_815_compressed" type="Const" version="opset1">
			<data element_type="f16" shape="1, 128, 1, 1" offset="874252" size="256" />
			<output>
				<port id="0" precision="FP16">
					<dim>1</dim>
					<dim>128</dim>
					<dim>1</dim>
					<dim>1</dim>
				</port>
			</output>
		</layer>
		<layer id="163" name="Reshape_815" type="Convert" version="opset1">
			<data destination_type="f32" />
			<rt_info>
				<attribute name="decompression" version="0" />
			</rt_info>
			<input>
				<port id="0" precision="FP16">
					<dim>1</dim>
					<dim>128</dim>
					<dim>1</dim>
					<dim>1</dim>
				</port>
			</input>
			<output>
				<port id="1" precision="FP32">
					<dim>1</dim>
					<dim>128</dim>
					<dim>1</dim>
					<dim>1</dim>
				</port>
			</output>
		</layer>
		<layer id="164" name="/model.3/cv1/conv/Conv" type="Add" version="opset1">
			<data auto_broadcast="numpy" />
			<input>
				<port id="0" precision="FP32">
					<dim>1</dim>
					<dim>128</dim>
					<dim>40</dim>
					<dim>40</dim>
				</port>
				<port id="1" precision="FP32">
					<dim>1</dim>
					<dim>128</dim>
					<dim>1</dim>
					<dim>1</dim>
				</port>
			</input>
			<output>
				<port id="2" precision="FP32" names="/model.3/cv1/conv/Conv_output_0">
					<dim>1</dim>
					<dim>128</dim>
					<dim>40</dim>
					<dim>40</dim>
				</port>
			</output>
		</layer>
		<layer id="165" name="/model.3/cv1/act/Mul" type="Swish" version="opset4">
			<input>
				<port id="0" precision="FP32">
					<dim>1</dim>
					<dim>128</dim>
					<dim>40</dim>
					<dim>40</dim>
				</port>
			</input>
			<output>
				<port id="1" precision="FP32" names="/model.3/cv1/act/Mul_output_0">
					<dim>1</dim>
					<dim>128</dim>
					<dim>40</dim>
					<dim>40</dim>
				</port>
			</output>
		</layer>
		<layer id="166" name="Constant_11561" type="Const" version="opset1">
			<data element_type="i64" shape="2" offset="192720" size="16" />
			<rt_info>
				<attribute name="precise" version="0" />
			</rt_info>
			<output>
				<port id="0" precision="I64">
					<dim>2</dim>
				</port>
			</output>
		</layer>
		<layer id="167" name="Constant_11558" type="Const" version="opset1">
			<data element_type="i64" shape="1" offset="192736" size="8" />
			<rt_info>
				<attribute name="precise" version="0" />
			</rt_info>
			<output>
				<port id="0" precision="I64">
					<dim>1</dim>
				</port>
			</output>
		</layer>
		<layer id="168" name="/model.3/Constant_5" type="Const" version="opset1">
			<data element_type="i64" shape="1" offset="192752" size="8" />
			<rt_info>
				<attribute name="precise" version="0" />
			</rt_info>
			<output>
				<port id="0" precision="I64" names="/model.3/Constant_5_output_0">
					<dim>1</dim>
				</port>
			</output>
		</layer>
		<layer id="169" name="/model.3/Mul_1" type="Multiply" version="opset1">
			<data auto_broadcast="numpy" />
			<input>
				<port id="0" precision="I64">
					<dim>1</dim>
				</port>
				<port id="1" precision="I64">
					<dim>1</dim>
				</port>
			</input>
			<output>
				<port id="2" precision="I64" names="/model.3/Mul_1_output_0">
					<dim>1</dim>
				</port>
			</output>
		</layer>
		<layer id="170" name="Constant_11557" type="Const" version="opset1">
			<data element_type="i32" shape="1" offset="192760" size="4" />
			<rt_info>
				<attribute name="precise" version="0" />
			</rt_info>
			<output>
				<port id="0" precision="I32">
					<dim>1</dim>
				</port>
			</output>
		</layer>
		<layer id="171" name="ScatterUpdate_11562" type="ScatterUpdate" version="opset3">
			<input>
				<port id="0" precision="I64">
					<dim>2</dim>
				</port>
				<port id="1" precision="I64">
					<dim>1</dim>
				</port>
				<port id="2" precision="I64">
					<dim>1</dim>
				</port>
				<port id="3" precision="I32">
					<dim>1</dim>
				</port>
			</input>
			<output>
				<port id="4" precision="I64">
					<dim>2</dim>
				</port>
			</output>
		</layer>
		<layer id="172" name="Constant_11565" type="Const" version="opset1">
			<data element_type="i64" shape="2" offset="192764" size="16" />
			<rt_info>
				<attribute name="precise" version="0" />
			</rt_info>
			<output>
				<port id="0" precision="I64">
					<dim>2</dim>
				</port>
			</output>
		</layer>
		<layer id="173" name="/model.3/Slice_1" type="StridedSlice" version="opset1">
			<data begin_mask="1, 0" end_mask="1, 0" new_axis_mask="" shrink_axis_mask="" ellipsis_mask="" />
			<input>
				<port id="0" precision="FP32">
					<dim>1</dim>
					<dim>256</dim>
					<dim>79</dim>
					<dim>79</dim>
				</port>
				<port id="1" precision="I64">
					<dim>2</dim>
				</port>
				<port id="2" precision="I64">
					<dim>2</dim>
				</port>
				<port id="3" precision="I64">
					<dim>2</dim>
				</port>
			</input>
			<output>
				<port id="4" precision="FP32" names="/model.3/Slice_1_output_0">
					<dim>1</dim>
					<dim>128</dim>
					<dim>79</dim>
					<dim>79</dim>
				</port>
			</output>
		</layer>
		<layer id="174" name="/model.3/MaxPool" type="MaxPool" version="opset8">
			<data strides="2, 2" dilations="1, 1" pads_begin="1, 1" pads_end="1, 1" kernel="3, 3" rounding_type="floor" auto_pad="explicit" index_element_type="i64" axis="0" />
			<input>
				<port id="0" precision="FP32">
					<dim>1</dim>
					<dim>128</dim>
					<dim>79</dim>
					<dim>79</dim>
				</port>
			</input>
			<output>
				<port id="1" precision="FP32" names="/model.3/MaxPool_output_0">
					<dim>1</dim>
					<dim>128</dim>
					<dim>40</dim>
					<dim>40</dim>
				</port>
				<port id="2" precision="I64">
					<dim>1</dim>
					<dim>128</dim>
					<dim>40</dim>
					<dim>40</dim>
				</port>
			</output>
		</layer>
		<layer id="175" name="model.3.cv2.conv.weight_compressed" type="Const" version="opset1">
			<data element_type="f16" shape="128, 128, 1, 1" offset="874508" size="32768" />
			<output>
				<port id="0" precision="FP16">
					<dim>128</dim>
					<dim>128</dim>
					<dim>1</dim>
					<dim>1</dim>
				</port>
			</output>
		</layer>
		<layer id="176" name="model.3.cv2.conv.weight" type="Convert" version="opset1">
			<data destination_type="f32" />
			<rt_info>
				<attribute name="decompression" version="0" />
			</rt_info>
			<input>
				<port id="0" precision="FP16">
					<dim>128</dim>
					<dim>128</dim>
					<dim>1</dim>
					<dim>1</dim>
				</port>
			</input>
			<output>
				<port id="1" precision="FP32" names="model.3.cv2.conv.weight">
					<dim>128</dim>
					<dim>128</dim>
					<dim>1</dim>
					<dim>1</dim>
				</port>
			</output>
		</layer>
		<layer id="177" name="/model.3/cv2/conv/Conv/WithoutBiases" type="Convolution" version="opset1">
			<data strides="1, 1" dilations="1, 1" pads_begin="0, 0" pads_end="0, 0" auto_pad="explicit" />
			<input>
				<port id="0" precision="FP32">
					<dim>1</dim>
					<dim>128</dim>
					<dim>40</dim>
					<dim>40</dim>
				</port>
				<port id="1" precision="FP32">
					<dim>128</dim>
					<dim>128</dim>
					<dim>1</dim>
					<dim>1</dim>
				</port>
			</input>
			<output>
				<port id="2" precision="FP32">
					<dim>1</dim>
					<dim>128</dim>
					<dim>40</dim>
					<dim>40</dim>
				</port>
			</output>
		</layer>
		<layer id="178" name="Reshape_834_compressed" type="Const" version="opset1">
			<data element_type="f16" shape="1, 128, 1, 1" offset="907276" size="256" />
			<output>
				<port id="0" precision="FP16">
					<dim>1</dim>
					<dim>128</dim>
					<dim>1</dim>
					<dim>1</dim>
				</port>
			</output>
		</layer>
		<layer id="179" name="Reshape_834" type="Convert" version="opset1">
			<data destination_type="f32" />
			<rt_info>
				<attribute name="decompression" version="0" />
			</rt_info>
			<input>
				<port id="0" precision="FP16">
					<dim>1</dim>
					<dim>128</dim>
					<dim>1</dim>
					<dim>1</dim>
				</port>
			</input>
			<output>
				<port id="1" precision="FP32">
					<dim>1</dim>
					<dim>128</dim>
					<dim>1</dim>
					<dim>1</dim>
				</port>
			</output>
		</layer>
		<layer id="180" name="/model.3/cv2/conv/Conv" type="Add" version="opset1">
			<data auto_broadcast="numpy" />
			<input>
				<port id="0" precision="FP32">
					<dim>1</dim>
					<dim>128</dim>
					<dim>40</dim>
					<dim>40</dim>
				</port>
				<port id="1" precision="FP32">
					<dim>1</dim>
					<dim>128</dim>
					<dim>1</dim>
					<dim>1</dim>
				</port>
			</input>
			<output>
				<port id="2" precision="FP32" names="/model.3/cv2/conv/Conv_output_0">
					<dim>1</dim>
					<dim>128</dim>
					<dim>40</dim>
					<dim>40</dim>
				</port>
			</output>
		</layer>
		<layer id="181" name="/model.3/cv2/act/Mul" type="Swish" version="opset4">
			<input>
				<port id="0" precision="FP32">
					<dim>1</dim>
					<dim>128</dim>
					<dim>40</dim>
					<dim>40</dim>
				</port>
			</input>
			<output>
				<port id="1" precision="FP32" names="/model.3/cv2/act/Mul_output_0">
					<dim>1</dim>
					<dim>128</dim>
					<dim>40</dim>
					<dim>40</dim>
				</port>
			</output>
		</layer>
		<layer id="182" name="/model.3/Concat" type="Concat" version="opset1">
			<data axis="1" />
			<input>
				<port id="0" precision="FP32">
					<dim>1</dim>
					<dim>128</dim>
					<dim>40</dim>
					<dim>40</dim>
				</port>
				<port id="1" precision="FP32">
					<dim>1</dim>
					<dim>128</dim>
					<dim>40</dim>
					<dim>40</dim>
				</port>
			</input>
			<output>
				<port id="2" precision="FP32" names="/model.3/Concat_output_0">
					<dim>1</dim>
					<dim>256</dim>
					<dim>40</dim>
					<dim>40</dim>
				</port>
			</output>
		</layer>
		<layer id="183" name="model.4.cv1.conv.weight_compressed" type="Const" version="opset1">
			<data element_type="f16" shape="256, 256, 1, 1" offset="907532" size="131072" />
			<output>
				<port id="0" precision="FP16">
					<dim>256</dim>
					<dim>256</dim>
					<dim>1</dim>
					<dim>1</dim>
				</port>
			</output>
		</layer>
		<layer id="184" name="model.4.cv1.conv.weight" type="Convert" version="opset1">
			<data destination_type="f32" />
			<rt_info>
				<attribute name="decompression" version="0" />
			</rt_info>
			<input>
				<port id="0" precision="FP16">
					<dim>256</dim>
					<dim>256</dim>
					<dim>1</dim>
					<dim>1</dim>
				</port>
			</input>
			<output>
				<port id="1" precision="FP32" names="model.4.cv1.conv.weight">
					<dim>256</dim>
					<dim>256</dim>
					<dim>1</dim>
					<dim>1</dim>
				</port>
			</output>
		</layer>
		<layer id="185" name="/model.4/cv1/conv/Conv/WithoutBiases" type="Convolution" version="opset1">
			<data strides="1, 1" dilations="1, 1" pads_begin="0, 0" pads_end="0, 0" auto_pad="explicit" />
			<input>
				<port id="0" precision="FP32">
					<dim>1</dim>
					<dim>256</dim>
					<dim>40</dim>
					<dim>40</dim>
				</port>
				<port id="1" precision="FP32">
					<dim>256</dim>
					<dim>256</dim>
					<dim>1</dim>
					<dim>1</dim>
				</port>
			</input>
			<output>
				<port id="2" precision="FP32">
					<dim>1</dim>
					<dim>256</dim>
					<dim>40</dim>
					<dim>40</dim>
				</port>
			</output>
		</layer>
		<layer id="186" name="Reshape_853_compressed" type="Const" version="opset1">
			<data element_type="f16" shape="1, 256, 1, 1" offset="1038604" size="512" />
			<output>
				<port id="0" precision="FP16">
					<dim>1</dim>
					<dim>256</dim>
					<dim>1</dim>
					<dim>1</dim>
				</port>
			</output>
		</layer>
		<layer id="187" name="Reshape_853" type="Convert" version="opset1">
			<data destination_type="f32" />
			<rt_info>
				<attribute name="decompression" version="0" />
			</rt_info>
			<input>
				<port id="0" precision="FP16">
					<dim>1</dim>
					<dim>256</dim>
					<dim>1</dim>
					<dim>1</dim>
				</port>
			</input>
			<output>
				<port id="1" precision="FP32">
					<dim>1</dim>
					<dim>256</dim>
					<dim>1</dim>
					<dim>1</dim>
				</port>
			</output>
		</layer>
		<layer id="188" name="/model.4/cv1/conv/Conv" type="Add" version="opset1">
			<data auto_broadcast="numpy" />
			<input>
				<port id="0" precision="FP32">
					<dim>1</dim>
					<dim>256</dim>
					<dim>40</dim>
					<dim>40</dim>
				</port>
				<port id="1" precision="FP32">
					<dim>1</dim>
					<dim>256</dim>
					<dim>1</dim>
					<dim>1</dim>
				</port>
			</input>
			<output>
				<port id="2" precision="FP32" names="/model.4/cv1/conv/Conv_output_0">
					<dim>1</dim>
					<dim>256</dim>
					<dim>40</dim>
					<dim>40</dim>
				</port>
			</output>
		</layer>
		<layer id="189" name="/model.4/cv1/act/Mul" type="Swish" version="opset4">
			<input>
				<port id="0" precision="FP32">
					<dim>1</dim>
					<dim>256</dim>
					<dim>40</dim>
					<dim>40</dim>
				</port>
			</input>
			<output>
				<port id="1" precision="FP32" names="/model.4/cv1/act/Mul_output_0">
					<dim>1</dim>
					<dim>256</dim>
					<dim>40</dim>
					<dim>40</dim>
				</port>
			</output>
		</layer>
		<layer id="190" name="Constant_11649" type="Const" version="opset1">
			<data element_type="i64" shape="2" offset="192720" size="16" />
			<rt_info>
				<attribute name="precise" version="0" />
			</rt_info>
			<output>
				<port id="0" precision="I64">
					<dim>2</dim>
				</port>
			</output>
		</layer>
		<layer id="191" name="Constant_11650" type="Const" version="opset1">
			<data element_type="i64" shape="2" offset="192720" size="16" />
			<rt_info>
				<attribute name="precise" version="0" />
			</rt_info>
			<output>
				<port id="0" precision="I64">
					<dim>2</dim>
				</port>
			</output>
		</layer>
		<layer id="192" name="Constant_11646" type="Const" version="opset1">
			<data element_type="i64" shape="1" offset="192736" size="8" />
			<rt_info>
				<attribute name="precise" version="0" />
			</rt_info>
			<output>
				<port id="0" precision="I64">
					<dim>1</dim>
				</port>
			</output>
		</layer>
		<layer id="193" name="/model.4/Shape" type="ShapeOf" version="opset3">
			<data output_type="i64" />
			<input>
				<port id="0" precision="FP32">
					<dim>1</dim>
					<dim>256</dim>
					<dim>40</dim>
					<dim>40</dim>
				</port>
			</input>
			<output>
				<port id="1" precision="I64" names="/model.4/Shape_output_0">
					<dim>4</dim>
				</port>
			</output>
		</layer>
		<layer id="194" name="/model.4/Constant" type="Const" version="opset1">
			<data element_type="i64" shape="1" offset="192736" size="8" />
			<rt_info>
				<attribute name="precise" version="0" />
			</rt_info>
			<output>
				<port id="0" precision="I64" names="/model.4/Constant_output_0">
					<dim>1</dim>
				</port>
			</output>
		</layer>
		<layer id="195" name="Constant_861" type="Const" version="opset1">
			<data element_type="i64" shape="" offset="192744" size="8" />
			<rt_info>
				<attribute name="precise" version="0" />
			</rt_info>
			<output>
				<port id="0" precision="I64" />
			</output>
		</layer>
		<layer id="196" name="/model.4/Gather" type="Gather" version="opset8">
			<data batch_dims="0" />
			<input>
				<port id="0" precision="I64">
					<dim>4</dim>
				</port>
				<port id="1" precision="I64">
					<dim>1</dim>
				</port>
				<port id="2" precision="I64" />
			</input>
			<output>
				<port id="3" precision="I64" names="/model.4/Gather_output_0">
					<dim>1</dim>
				</port>
			</output>
		</layer>
		<layer id="197" name="/model.4/Constant_2" type="Const" version="opset1">
			<data element_type="i64" shape="1" offset="192736" size="8" />
			<rt_info>
				<attribute name="precise" version="0" />
			</rt_info>
			<output>
				<port id="0" precision="I64" names="/model.4/Constant_2_output_0">
					<dim>1</dim>
				</port>
			</output>
		</layer>
		<layer id="198" name="/model.4/Add" type="Add" version="opset1">
			<data auto_broadcast="numpy" />
			<input>
				<port id="0" precision="I64">
					<dim>1</dim>
				</port>
				<port id="1" precision="I64">
					<dim>1</dim>
				</port>
			</input>
			<output>
				<port id="2" precision="I64" names="/model.4/Add_output_0">
					<dim>1</dim>
				</port>
			</output>
		</layer>
		<layer id="199" name="/model.4/Constant_3" type="Const" version="opset1">
			<data element_type="i64" shape="1" offset="192752" size="8" />
			<rt_info>
				<attribute name="precise" version="0" />
			</rt_info>
			<output>
				<port id="0" precision="I64" names="/model.4/Constant_3_output_0">
					<dim>1</dim>
				</port>
			</output>
		</layer>
		<layer id="200" name="/model.4/Div" type="Divide" version="opset1">
			<data auto_broadcast="numpy" m_pythondiv="true" />
			<input>
				<port id="0" precision="I64">
					<dim>1</dim>
				</port>
				<port id="1" precision="I64">
					<dim>1</dim>
				</port>
			</input>
			<output>
				<port id="2" precision="I64" names="/model.4/Div_output_0,/model.4/Mul_output_0">
					<dim>1</dim>
				</port>
			</output>
		</layer>
		<layer id="201" name="Constant_11645" type="Const" version="opset1">
			<data element_type="i32" shape="1" offset="192760" size="4" />
			<rt_info>
				<attribute name="precise" version="0" />
			</rt_info>
			<output>
				<port id="0" precision="I32">
					<dim>1</dim>
				</port>
			</output>
		</layer>
		<layer id="202" name="ScatterUpdate_11651" type="ScatterUpdate" version="opset3">
			<input>
				<port id="0" precision="I64">
					<dim>2</dim>
				</port>
				<port id="1" precision="I64">
					<dim>1</dim>
				</port>
				<port id="2" precision="I64">
					<dim>1</dim>
				</port>
				<port id="3" precision="I32">
					<dim>1</dim>
				</port>
			</input>
			<output>
				<port id="4" precision="I64">
					<dim>2</dim>
				</port>
			</output>
		</layer>
		<layer id="203" name="Constant_11654" type="Const" version="opset1">
			<data element_type="i64" shape="2" offset="192764" size="16" />
			<rt_info>
				<attribute name="precise" version="0" />
			</rt_info>
			<output>
				<port id="0" precision="I64">
					<dim>2</dim>
				</port>
			</output>
		</layer>
		<layer id="204" name="/model.4/Slice" type="StridedSlice" version="opset1">
			<data begin_mask="1, 0" end_mask="1, 0" new_axis_mask="" shrink_axis_mask="" ellipsis_mask="" />
			<input>
				<port id="0" precision="FP32">
					<dim>1</dim>
					<dim>256</dim>
					<dim>40</dim>
					<dim>40</dim>
				</port>
				<port id="1" precision="I64">
					<dim>2</dim>
				</port>
				<port id="2" precision="I64">
					<dim>2</dim>
				</port>
				<port id="3" precision="I64">
					<dim>2</dim>
				</port>
			</input>
			<output>
				<port id="4" precision="FP32" names="/model.4/Slice_output_0">
					<dim>1</dim>
					<dim>128</dim>
					<dim>40</dim>
					<dim>40</dim>
				</port>
			</output>
		</layer>
		<layer id="205" name="Constant_11699" type="Const" version="opset1">
			<data element_type="i64" shape="2" offset="192720" size="16" />
			<rt_info>
				<attribute name="precise" version="0" />
			</rt_info>
			<output>
				<port id="0" precision="I64">
					<dim>2</dim>
				</port>
			</output>
		</layer>
		<layer id="206" name="Constant_11696" type="Const" version="opset1">
			<data element_type="i64" shape="1" offset="192736" size="8" />
			<rt_info>
				<attribute name="precise" version="0" />
			</rt_info>
			<output>
				<port id="0" precision="I64">
					<dim>1</dim>
				</port>
			</output>
		</layer>
		<layer id="207" name="/model.4/Constant_5" type="Const" version="opset1">
			<data element_type="i64" shape="1" offset="192752" size="8" />
			<rt_info>
				<attribute name="precise" version="0" />
			</rt_info>
			<output>
				<port id="0" precision="I64" names="/model.4/Constant_5_output_0">
					<dim>1</dim>
				</port>
			</output>
		</layer>
		<layer id="208" name="/model.4/Mul_1" type="Multiply" version="opset1">
			<data auto_broadcast="numpy" />
			<input>
				<port id="0" precision="I64">
					<dim>1</dim>
				</port>
				<port id="1" precision="I64">
					<dim>1</dim>
				</port>
			</input>
			<output>
				<port id="2" precision="I64" names="/model.4/Mul_1_output_0">
					<dim>1</dim>
				</port>
			</output>
		</layer>
		<layer id="209" name="Constant_11695" type="Const" version="opset1">
			<data element_type="i32" shape="1" offset="192760" size="4" />
			<rt_info>
				<attribute name="precise" version="0" />
			</rt_info>
			<output>
				<port id="0" precision="I32">
					<dim>1</dim>
				</port>
			</output>
		</layer>
		<layer id="210" name="ScatterUpdate_11700" type="ScatterUpdate" version="opset3">
			<input>
				<port id="0" precision="I64">
					<dim>2</dim>
				</port>
				<port id="1" precision="I64">
					<dim>1</dim>
				</port>
				<port id="2" precision="I64">
					<dim>1</dim>
				</port>
				<port id="3" precision="I32">
					<dim>1</dim>
				</port>
			</input>
			<output>
				<port id="4" precision="I64">
					<dim>2</dim>
				</port>
			</output>
		</layer>
		<layer id="211" name="Constant_11703" type="Const" version="opset1">
			<data element_type="i64" shape="2" offset="192764" size="16" />
			<rt_info>
				<attribute name="precise" version="0" />
			</rt_info>
			<output>
				<port id="0" precision="I64">
					<dim>2</dim>
				</port>
			</output>
		</layer>
		<layer id="212" name="/model.4/Slice_1" type="StridedSlice" version="opset1">
			<data begin_mask="1, 0" end_mask="1, 0" new_axis_mask="" shrink_axis_mask="" ellipsis_mask="" />
			<input>
				<port id="0" precision="FP32">
					<dim>1</dim>
					<dim>256</dim>
					<dim>40</dim>
					<dim>40</dim>
				</port>
				<port id="1" precision="I64">
					<dim>2</dim>
				</port>
				<port id="2" precision="I64">
					<dim>2</dim>
				</port>
				<port id="3" precision="I64">
					<dim>2</dim>
				</port>
			</input>
			<output>
				<port id="4" precision="FP32" names="/model.4/Slice_1_output_0">
					<dim>1</dim>
					<dim>128</dim>
					<dim>40</dim>
					<dim>40</dim>
				</port>
			</output>
		</layer>
		<layer id="213" name="model.4.cv2.0.cv1.conv.weight_compressed" type="Const" version="opset1">
			<data element_type="f16" shape="64, 128, 1, 1" offset="1039116" size="16384" />
			<output>
				<port id="0" precision="FP16">
					<dim>64</dim>
					<dim>128</dim>
					<dim>1</dim>
					<dim>1</dim>
				</port>
			</output>
		</layer>
		<layer id="214" name="model.4.cv2.0.cv1.conv.weight" type="Convert" version="opset1">
			<data destination_type="f32" />
			<rt_info>
				<attribute name="decompression" version="0" />
			</rt_info>
			<input>
				<port id="0" precision="FP16">
					<dim>64</dim>
					<dim>128</dim>
					<dim>1</dim>
					<dim>1</dim>
				</port>
			</input>
			<output>
				<port id="1" precision="FP32" names="model.4.cv2.0.cv1.conv.weight">
					<dim>64</dim>
					<dim>128</dim>
					<dim>1</dim>
					<dim>1</dim>
				</port>
			</output>
		</layer>
		<layer id="215" name="/model.4/cv2/cv2.0/cv1/conv/Conv/WithoutBiases" type="Convolution" version="opset1">
			<data strides="1, 1" dilations="1, 1" pads_begin="0, 0" pads_end="0, 0" auto_pad="explicit" />
			<input>
				<port id="0" precision="FP32">
					<dim>1</dim>
					<dim>128</dim>
					<dim>40</dim>
					<dim>40</dim>
				</port>
				<port id="1" precision="FP32">
					<dim>64</dim>
					<dim>128</dim>
					<dim>1</dim>
					<dim>1</dim>
				</port>
			</input>
			<output>
				<port id="2" precision="FP32">
					<dim>1</dim>
					<dim>64</dim>
					<dim>40</dim>
					<dim>40</dim>
				</port>
			</output>
		</layer>
		<layer id="216" name="Reshape_980_compressed" type="Const" version="opset1">
			<data element_type="f16" shape="1, 64, 1, 1" offset="1055500" size="128" />
			<output>
				<port id="0" precision="FP16">
					<dim>1</dim>
					<dim>64</dim>
					<dim>1</dim>
					<dim>1</dim>
				</port>
			</output>
		</layer>
		<layer id="217" name="Reshape_980" type="Convert" version="opset1">
			<data destination_type="f32" />
			<rt_info>
				<attribute name="decompression" version="0" />
			</rt_info>
			<input>
				<port id="0" precision="FP16">
					<dim>1</dim>
					<dim>64</dim>
					<dim>1</dim>
					<dim>1</dim>
				</port>
			</input>
			<output>
				<port id="1" precision="FP32">
					<dim>1</dim>
					<dim>64</dim>
					<dim>1</dim>
					<dim>1</dim>
				</port>
			</output>
		</layer>
		<layer id="218" name="/model.4/cv2/cv2.0/cv1/conv/Conv" type="Add" version="opset1">
			<data auto_broadcast="numpy" />
			<input>
				<port id="0" precision="FP32">
					<dim>1</dim>
					<dim>64</dim>
					<dim>40</dim>
					<dim>40</dim>
				</port>
				<port id="1" precision="FP32">
					<dim>1</dim>
					<dim>64</dim>
					<dim>1</dim>
					<dim>1</dim>
				</port>
			</input>
			<output>
				<port id="2" precision="FP32" names="/model.4/cv2/cv2.0/cv1/conv/Conv_output_0">
					<dim>1</dim>
					<dim>64</dim>
					<dim>40</dim>
					<dim>40</dim>
				</port>
			</output>
		</layer>
		<layer id="219" name="/model.4/cv2/cv2.0/cv1/act/Mul" type="Swish" version="opset4">
			<input>
				<port id="0" precision="FP32">
					<dim>1</dim>
					<dim>64</dim>
					<dim>40</dim>
					<dim>40</dim>
				</port>
			</input>
			<output>
				<port id="1" precision="FP32" names="/model.4/cv2/cv2.0/cv1/act/Mul_output_0">
					<dim>1</dim>
					<dim>64</dim>
					<dim>40</dim>
					<dim>40</dim>
				</port>
			</output>
		</layer>
		<layer id="220" name="model.4.cv2.0.m.0.cv1.conv.weight_compressed" type="Const" version="opset1">
			<data element_type="f16" shape="64, 64, 3, 3" offset="1055628" size="73728" />
			<output>
				<port id="0" precision="FP16">
					<dim>64</dim>
					<dim>64</dim>
					<dim>3</dim>
					<dim>3</dim>
				</port>
			</output>
		</layer>
		<layer id="221" name="model.4.cv2.0.m.0.cv1.conv.weight" type="Convert" version="opset1">
			<data destination_type="f32" />
			<rt_info>
				<attribute name="decompression" version="0" />
			</rt_info>
			<input>
				<port id="0" precision="FP16">
					<dim>64</dim>
					<dim>64</dim>
					<dim>3</dim>
					<dim>3</dim>
				</port>
			</input>
			<output>
				<port id="1" precision="FP32" names="model.4.cv2.0.m.0.cv1.conv.weight">
					<dim>64</dim>
					<dim>64</dim>
					<dim>3</dim>
					<dim>3</dim>
				</port>
			</output>
		</layer>
		<layer id="222" name="/model.4/cv2/cv2.0/m/m.0/cv1/conv/Conv/WithoutBiases" type="Convolution" version="opset1">
			<data strides="1, 1" dilations="1, 1" pads_begin="1, 1" pads_end="1, 1" auto_pad="explicit" />
			<input>
				<port id="0" precision="FP32">
					<dim>1</dim>
					<dim>64</dim>
					<dim>40</dim>
					<dim>40</dim>
				</port>
				<port id="1" precision="FP32">
					<dim>64</dim>
					<dim>64</dim>
					<dim>3</dim>
					<dim>3</dim>
				</port>
			</input>
			<output>
				<port id="2" precision="FP32">
					<dim>1</dim>
					<dim>64</dim>
					<dim>40</dim>
					<dim>40</dim>
				</port>
			</output>
		</layer>
		<layer id="223" name="Reshape_998_compressed" type="Const" version="opset1">
			<data element_type="f16" shape="1, 64, 1, 1" offset="1129356" size="128" />
			<output>
				<port id="0" precision="FP16">
					<dim>1</dim>
					<dim>64</dim>
					<dim>1</dim>
					<dim>1</dim>
				</port>
			</output>
		</layer>
		<layer id="224" name="Reshape_998" type="Convert" version="opset1">
			<data destination_type="f32" />
			<rt_info>
				<attribute name="decompression" version="0" />
			</rt_info>
			<input>
				<port id="0" precision="FP16">
					<dim>1</dim>
					<dim>64</dim>
					<dim>1</dim>
					<dim>1</dim>
				</port>
			</input>
			<output>
				<port id="1" precision="FP32">
					<dim>1</dim>
					<dim>64</dim>
					<dim>1</dim>
					<dim>1</dim>
				</port>
			</output>
		</layer>
		<layer id="225" name="/model.4/cv2/cv2.0/m/m.0/cv1/conv/Conv" type="Add" version="opset1">
			<data auto_broadcast="numpy" />
			<input>
				<port id="0" precision="FP32">
					<dim>1</dim>
					<dim>64</dim>
					<dim>40</dim>
					<dim>40</dim>
				</port>
				<port id="1" precision="FP32">
					<dim>1</dim>
					<dim>64</dim>
					<dim>1</dim>
					<dim>1</dim>
				</port>
			</input>
			<output>
				<port id="2" precision="FP32" names="/model.4/cv2/cv2.0/m/m.0/cv1/conv/Conv_output_0">
					<dim>1</dim>
					<dim>64</dim>
					<dim>40</dim>
					<dim>40</dim>
				</port>
			</output>
		</layer>
		<layer id="226" name="/model.4/cv2/cv2.0/m/m.0/cv1/act/Mul" type="Swish" version="opset4">
			<input>
				<port id="0" precision="FP32">
					<dim>1</dim>
					<dim>64</dim>
					<dim>40</dim>
					<dim>40</dim>
				</port>
			</input>
			<output>
				<port id="1" precision="FP32" names="/model.4/cv2/cv2.0/m/m.0/cv1/act/Mul_output_0">
					<dim>1</dim>
					<dim>64</dim>
					<dim>40</dim>
					<dim>40</dim>
				</port>
			</output>
		</layer>
		<layer id="227" name="model.4.cv2.0.m.0.cv2.conv.weight_compressed" type="Const" version="opset1">
			<data element_type="f16" shape="64, 64, 3, 3" offset="1129484" size="73728" />
			<output>
				<port id="0" precision="FP16">
					<dim>64</dim>
					<dim>64</dim>
					<dim>3</dim>
					<dim>3</dim>
				</port>
			</output>
		</layer>
		<layer id="228" name="model.4.cv2.0.m.0.cv2.conv.weight" type="Convert" version="opset1">
			<data destination_type="f32" />
			<rt_info>
				<attribute name="decompression" version="0" />
			</rt_info>
			<input>
				<port id="0" precision="FP16">
					<dim>64</dim>
					<dim>64</dim>
					<dim>3</dim>
					<dim>3</dim>
				</port>
			</input>
			<output>
				<port id="1" precision="FP32" names="model.4.cv2.0.m.0.cv2.conv.weight">
					<dim>64</dim>
					<dim>64</dim>
					<dim>3</dim>
					<dim>3</dim>
				</port>
			</output>
		</layer>
		<layer id="229" name="/model.4/cv2/cv2.0/m/m.0/cv2/conv/Conv/WithoutBiases" type="Convolution" version="opset1">
			<data strides="1, 1" dilations="1, 1" pads_begin="1, 1" pads_end="1, 1" auto_pad="explicit" />
			<input>
				<port id="0" precision="FP32">
					<dim>1</dim>
					<dim>64</dim>
					<dim>40</dim>
					<dim>40</dim>
				</port>
				<port id="1" precision="FP32">
					<dim>64</dim>
					<dim>64</dim>
					<dim>3</dim>
					<dim>3</dim>
				</port>
			</input>
			<output>
				<port id="2" precision="FP32">
					<dim>1</dim>
					<dim>64</dim>
					<dim>40</dim>
					<dim>40</dim>
				</port>
			</output>
		</layer>
		<layer id="230" name="Reshape_1016_compressed" type="Const" version="opset1">
			<data element_type="f16" shape="1, 64, 1, 1" offset="1203212" size="128" />
			<output>
				<port id="0" precision="FP16">
					<dim>1</dim>
					<dim>64</dim>
					<dim>1</dim>
					<dim>1</dim>
				</port>
			</output>
		</layer>
		<layer id="231" name="Reshape_1016" type="Convert" version="opset1">
			<data destination_type="f32" />
			<rt_info>
				<attribute name="decompression" version="0" />
			</rt_info>
			<input>
				<port id="0" precision="FP16">
					<dim>1</dim>
					<dim>64</dim>
					<dim>1</dim>
					<dim>1</dim>
				</port>
			</input>
			<output>
				<port id="1" precision="FP32">
					<dim>1</dim>
					<dim>64</dim>
					<dim>1</dim>
					<dim>1</dim>
				</port>
			</output>
		</layer>
		<layer id="232" name="/model.4/cv2/cv2.0/m/m.0/cv2/conv/Conv" type="Add" version="opset1">
			<data auto_broadcast="numpy" />
			<input>
				<port id="0" precision="FP32">
					<dim>1</dim>
					<dim>64</dim>
					<dim>40</dim>
					<dim>40</dim>
				</port>
				<port id="1" precision="FP32">
					<dim>1</dim>
					<dim>64</dim>
					<dim>1</dim>
					<dim>1</dim>
				</port>
			</input>
			<output>
				<port id="2" precision="FP32" names="/model.4/cv2/cv2.0/m/m.0/cv2/conv/Conv_output_0">
					<dim>1</dim>
					<dim>64</dim>
					<dim>40</dim>
					<dim>40</dim>
				</port>
			</output>
		</layer>
		<layer id="233" name="/model.4/cv2/cv2.0/m/m.0/cv2/act/Mul" type="Swish" version="opset4">
			<input>
				<port id="0" precision="FP32">
					<dim>1</dim>
					<dim>64</dim>
					<dim>40</dim>
					<dim>40</dim>
				</port>
			</input>
			<output>
				<port id="1" precision="FP32" names="/model.4/cv2/cv2.0/m/m.0/cv2/act/Mul_output_0">
					<dim>1</dim>
					<dim>64</dim>
					<dim>40</dim>
					<dim>40</dim>
				</port>
			</output>
		</layer>
		<layer id="234" name="/model.4/cv2/cv2.0/m/m.0/Add" type="Add" version="opset1">
			<data auto_broadcast="numpy" />
			<input>
				<port id="0" precision="FP32">
					<dim>1</dim>
					<dim>64</dim>
					<dim>40</dim>
					<dim>40</dim>
				</port>
				<port id="1" precision="FP32">
					<dim>1</dim>
					<dim>64</dim>
					<dim>40</dim>
					<dim>40</dim>
				</port>
			</input>
			<output>
				<port id="2" precision="FP32" names="/model.4/cv2/cv2.0/m/m.0/Add_output_0">
					<dim>1</dim>
					<dim>64</dim>
					<dim>40</dim>
					<dim>40</dim>
				</port>
			</output>
		</layer>
		<layer id="235" name="model.4.cv2.0.cv2.conv.weight_compressed" type="Const" version="opset1">
			<data element_type="f16" shape="64, 128, 1, 1" offset="1203340" size="16384" />
			<output>
				<port id="0" precision="FP16">
					<dim>64</dim>
					<dim>128</dim>
					<dim>1</dim>
					<dim>1</dim>
				</port>
			</output>
		</layer>
		<layer id="236" name="model.4.cv2.0.cv2.conv.weight" type="Convert" version="opset1">
			<data destination_type="f32" />
			<rt_info>
				<attribute name="decompression" version="0" />
			</rt_info>
			<input>
				<port id="0" precision="FP16">
					<dim>64</dim>
					<dim>128</dim>
					<dim>1</dim>
					<dim>1</dim>
				</port>
			</input>
			<output>
				<port id="1" precision="FP32" names="model.4.cv2.0.cv2.conv.weight">
					<dim>64</dim>
					<dim>128</dim>
					<dim>1</dim>
					<dim>1</dim>
				</port>
			</output>
		</layer>
		<layer id="237" name="/model.4/cv2/cv2.0/cv2/conv/Conv/WithoutBiases" type="Convolution" version="opset1">
			<data strides="1, 1" dilations="1, 1" pads_begin="0, 0" pads_end="0, 0" auto_pad="explicit" />
			<input>
				<port id="0" precision="FP32">
					<dim>1</dim>
					<dim>128</dim>
					<dim>40</dim>
					<dim>40</dim>
				</port>
				<port id="1" precision="FP32">
					<dim>64</dim>
					<dim>128</dim>
					<dim>1</dim>
					<dim>1</dim>
				</port>
			</input>
			<output>
				<port id="2" precision="FP32">
					<dim>1</dim>
					<dim>64</dim>
					<dim>40</dim>
					<dim>40</dim>
				</port>
			</output>
		</layer>
		<layer id="238" name="Reshape_1035_compressed" type="Const" version="opset1">
			<data element_type="f16" shape="1, 64, 1, 1" offset="1219724" size="128" />
			<output>
				<port id="0" precision="FP16">
					<dim>1</dim>
					<dim>64</dim>
					<dim>1</dim>
					<dim>1</dim>
				</port>
			</output>
		</layer>
		<layer id="239" name="Reshape_1035" type="Convert" version="opset1">
			<data destination_type="f32" />
			<rt_info>
				<attribute name="decompression" version="0" />
			</rt_info>
			<input>
				<port id="0" precision="FP16">
					<dim>1</dim>
					<dim>64</dim>
					<dim>1</dim>
					<dim>1</dim>
				</port>
			</input>
			<output>
				<port id="1" precision="FP32">
					<dim>1</dim>
					<dim>64</dim>
					<dim>1</dim>
					<dim>1</dim>
				</port>
			</output>
		</layer>
		<layer id="240" name="/model.4/cv2/cv2.0/cv2/conv/Conv" type="Add" version="opset1">
			<data auto_broadcast="numpy" />
			<input>
				<port id="0" precision="FP32">
					<dim>1</dim>
					<dim>64</dim>
					<dim>40</dim>
					<dim>40</dim>
				</port>
				<port id="1" precision="FP32">
					<dim>1</dim>
					<dim>64</dim>
					<dim>1</dim>
					<dim>1</dim>
				</port>
			</input>
			<output>
				<port id="2" precision="FP32" names="/model.4/cv2/cv2.0/cv2/conv/Conv_output_0">
					<dim>1</dim>
					<dim>64</dim>
					<dim>40</dim>
					<dim>40</dim>
				</port>
			</output>
		</layer>
		<layer id="241" name="/model.4/cv2/cv2.0/cv2/act/Mul" type="Swish" version="opset4">
			<input>
				<port id="0" precision="FP32">
					<dim>1</dim>
					<dim>64</dim>
					<dim>40</dim>
					<dim>40</dim>
				</port>
			</input>
			<output>
				<port id="1" precision="FP32" names="/model.4/cv2/cv2.0/cv2/act/Mul_output_0">
					<dim>1</dim>
					<dim>64</dim>
					<dim>40</dim>
					<dim>40</dim>
				</port>
			</output>
		</layer>
		<layer id="242" name="/model.4/cv2/cv2.0/Concat" type="Concat" version="opset1">
			<data axis="1" />
			<input>
				<port id="0" precision="FP32">
					<dim>1</dim>
					<dim>64</dim>
					<dim>40</dim>
					<dim>40</dim>
				</port>
				<port id="1" precision="FP32">
					<dim>1</dim>
					<dim>64</dim>
					<dim>40</dim>
					<dim>40</dim>
				</port>
			</input>
			<output>
				<port id="2" precision="FP32" names="/model.4/cv2/cv2.0/Concat_output_0">
					<dim>1</dim>
					<dim>128</dim>
					<dim>40</dim>
					<dim>40</dim>
				</port>
			</output>
		</layer>
		<layer id="243" name="model.4.cv2.0.cv3.conv.weight_compressed" type="Const" version="opset1">
			<data element_type="f16" shape="128, 128, 1, 1" offset="1219852" size="32768" />
			<output>
				<port id="0" precision="FP16">
					<dim>128</dim>
					<dim>128</dim>
					<dim>1</dim>
					<dim>1</dim>
				</port>
			</output>
		</layer>
		<layer id="244" name="model.4.cv2.0.cv3.conv.weight" type="Convert" version="opset1">
			<data destination_type="f32" />
			<rt_info>
				<attribute name="decompression" version="0" />
			</rt_info>
			<input>
				<port id="0" precision="FP16">
					<dim>128</dim>
					<dim>128</dim>
					<dim>1</dim>
					<dim>1</dim>
				</port>
			</input>
			<output>
				<port id="1" precision="FP32" names="model.4.cv2.0.cv3.conv.weight">
					<dim>128</dim>
					<dim>128</dim>
					<dim>1</dim>
					<dim>1</dim>
				</port>
			</output>
		</layer>
		<layer id="245" name="/model.4/cv2/cv2.0/cv3/conv/Conv/WithoutBiases" type="Convolution" version="opset1">
			<data strides="1, 1" dilations="1, 1" pads_begin="0, 0" pads_end="0, 0" auto_pad="explicit" />
			<input>
				<port id="0" precision="FP32">
					<dim>1</dim>
					<dim>128</dim>
					<dim>40</dim>
					<dim>40</dim>
				</port>
				<port id="1" precision="FP32">
					<dim>128</dim>
					<dim>128</dim>
					<dim>1</dim>
					<dim>1</dim>
				</port>
			</input>
			<output>
				<port id="2" precision="FP32">
					<dim>1</dim>
					<dim>128</dim>
					<dim>40</dim>
					<dim>40</dim>
				</port>
			</output>
		</layer>
		<layer id="246" name="Reshape_1054_compressed" type="Const" version="opset1">
			<data element_type="f16" shape="1, 128, 1, 1" offset="1252620" size="256" />
			<output>
				<port id="0" precision="FP16">
					<dim>1</dim>
					<dim>128</dim>
					<dim>1</dim>
					<dim>1</dim>
				</port>
			</output>
		</layer>
		<layer id="247" name="Reshape_1054" type="Convert" version="opset1">
			<data destination_type="f32" />
			<rt_info>
				<attribute name="decompression" version="0" />
			</rt_info>
			<input>
				<port id="0" precision="FP16">
					<dim>1</dim>
					<dim>128</dim>
					<dim>1</dim>
					<dim>1</dim>
				</port>
			</input>
			<output>
				<port id="1" precision="FP32">
					<dim>1</dim>
					<dim>128</dim>
					<dim>1</dim>
					<dim>1</dim>
				</port>
			</output>
		</layer>
		<layer id="248" name="/model.4/cv2/cv2.0/cv3/conv/Conv" type="Add" version="opset1">
			<data auto_broadcast="numpy" />
			<input>
				<port id="0" precision="FP32">
					<dim>1</dim>
					<dim>128</dim>
					<dim>40</dim>
					<dim>40</dim>
				</port>
				<port id="1" precision="FP32">
					<dim>1</dim>
					<dim>128</dim>
					<dim>1</dim>
					<dim>1</dim>
				</port>
			</input>
			<output>
				<port id="2" precision="FP32" names="/model.4/cv2/cv2.0/cv3/conv/Conv_output_0">
					<dim>1</dim>
					<dim>128</dim>
					<dim>40</dim>
					<dim>40</dim>
				</port>
			</output>
		</layer>
		<layer id="249" name="/model.4/cv2/cv2.0/cv3/act/Mul" type="Swish" version="opset4">
			<input>
				<port id="0" precision="FP32">
					<dim>1</dim>
					<dim>128</dim>
					<dim>40</dim>
					<dim>40</dim>
				</port>
			</input>
			<output>
				<port id="1" precision="FP32" names="/model.4/cv2/cv2.0/cv3/act/Mul_output_0">
					<dim>1</dim>
					<dim>128</dim>
					<dim>40</dim>
					<dim>40</dim>
				</port>
			</output>
		</layer>
		<layer id="250" name="model.4.cv2.1.conv.weight_compressed" type="Const" version="opset1">
			<data element_type="f16" shape="128, 128, 3, 3" offset="1252876" size="294912" />
			<output>
				<port id="0" precision="FP16">
					<dim>128</dim>
					<dim>128</dim>
					<dim>3</dim>
					<dim>3</dim>
				</port>
			</output>
		</layer>
		<layer id="251" name="model.4.cv2.1.conv.weight" type="Convert" version="opset1">
			<data destination_type="f32" />
			<rt_info>
				<attribute name="decompression" version="0" />
			</rt_info>
			<input>
				<port id="0" precision="FP16">
					<dim>128</dim>
					<dim>128</dim>
					<dim>3</dim>
					<dim>3</dim>
				</port>
			</input>
			<output>
				<port id="1" precision="FP32" names="model.4.cv2.1.conv.weight">
					<dim>128</dim>
					<dim>128</dim>
					<dim>3</dim>
					<dim>3</dim>
				</port>
			</output>
		</layer>
		<layer id="252" name="/model.4/cv2/cv2.1/conv/Conv/WithoutBiases" type="Convolution" version="opset1">
			<data strides="1, 1" dilations="1, 1" pads_begin="1, 1" pads_end="1, 1" auto_pad="explicit" />
			<input>
				<port id="0" precision="FP32">
					<dim>1</dim>
					<dim>128</dim>
					<dim>40</dim>
					<dim>40</dim>
				</port>
				<port id="1" precision="FP32">
					<dim>128</dim>
					<dim>128</dim>
					<dim>3</dim>
					<dim>3</dim>
				</port>
			</input>
			<output>
				<port id="2" precision="FP32">
					<dim>1</dim>
					<dim>128</dim>
					<dim>40</dim>
					<dim>40</dim>
				</port>
			</output>
		</layer>
		<layer id="253" name="Reshape_1072_compressed" type="Const" version="opset1">
			<data element_type="f16" shape="1, 128, 1, 1" offset="1547788" size="256" />
			<output>
				<port id="0" precision="FP16">
					<dim>1</dim>
					<dim>128</dim>
					<dim>1</dim>
					<dim>1</dim>
				</port>
			</output>
		</layer>
		<layer id="254" name="Reshape_1072" type="Convert" version="opset1">
			<data destination_type="f32" />
			<rt_info>
				<attribute name="decompression" version="0" />
			</rt_info>
			<input>
				<port id="0" precision="FP16">
					<dim>1</dim>
					<dim>128</dim>
					<dim>1</dim>
					<dim>1</dim>
				</port>
			</input>
			<output>
				<port id="1" precision="FP32">
					<dim>1</dim>
					<dim>128</dim>
					<dim>1</dim>
					<dim>1</dim>
				</port>
			</output>
		</layer>
		<layer id="255" name="/model.4/cv2/cv2.1/conv/Conv" type="Add" version="opset1">
			<data auto_broadcast="numpy" />
			<input>
				<port id="0" precision="FP32">
					<dim>1</dim>
					<dim>128</dim>
					<dim>40</dim>
					<dim>40</dim>
				</port>
				<port id="1" precision="FP32">
					<dim>1</dim>
					<dim>128</dim>
					<dim>1</dim>
					<dim>1</dim>
				</port>
			</input>
			<output>
				<port id="2" precision="FP32" names="/model.4/cv2/cv2.1/conv/Conv_output_0">
					<dim>1</dim>
					<dim>128</dim>
					<dim>40</dim>
					<dim>40</dim>
				</port>
			</output>
		</layer>
		<layer id="256" name="/model.4/cv2/cv2.1/act/Mul" type="Swish" version="opset4">
			<input>
				<port id="0" precision="FP32">
					<dim>1</dim>
					<dim>128</dim>
					<dim>40</dim>
					<dim>40</dim>
				</port>
			</input>
			<output>
				<port id="1" precision="FP32" names="/model.4/cv2/cv2.1/act/Mul_output_0">
					<dim>1</dim>
					<dim>128</dim>
					<dim>40</dim>
					<dim>40</dim>
				</port>
			</output>
		</layer>
		<layer id="257" name="model.4.cv3.0.cv1.conv.weight_compressed" type="Const" version="opset1">
			<data element_type="f16" shape="64, 128, 1, 1" offset="1548044" size="16384" />
			<output>
				<port id="0" precision="FP16">
					<dim>64</dim>
					<dim>128</dim>
					<dim>1</dim>
					<dim>1</dim>
				</port>
			</output>
		</layer>
		<layer id="258" name="model.4.cv3.0.cv1.conv.weight" type="Convert" version="opset1">
			<data destination_type="f32" />
			<rt_info>
				<attribute name="decompression" version="0" />
			</rt_info>
			<input>
				<port id="0" precision="FP16">
					<dim>64</dim>
					<dim>128</dim>
					<dim>1</dim>
					<dim>1</dim>
				</port>
			</input>
			<output>
				<port id="1" precision="FP32" names="model.4.cv3.0.cv1.conv.weight">
					<dim>64</dim>
					<dim>128</dim>
					<dim>1</dim>
					<dim>1</dim>
				</port>
			</output>
		</layer>
		<layer id="259" name="/model.4/cv3/cv3.0/cv1/conv/Conv/WithoutBiases" type="Convolution" version="opset1">
			<data strides="1, 1" dilations="1, 1" pads_begin="0, 0" pads_end="0, 0" auto_pad="explicit" />
			<input>
				<port id="0" precision="FP32">
					<dim>1</dim>
					<dim>128</dim>
					<dim>40</dim>
					<dim>40</dim>
				</port>
				<port id="1" precision="FP32">
					<dim>64</dim>
					<dim>128</dim>
					<dim>1</dim>
					<dim>1</dim>
				</port>
			</input>
			<output>
				<port id="2" precision="FP32">
					<dim>1</dim>
					<dim>64</dim>
					<dim>40</dim>
					<dim>40</dim>
				</port>
			</output>
		</layer>
		<layer id="260" name="Reshape_1090_compressed" type="Const" version="opset1">
			<data element_type="f16" shape="1, 64, 1, 1" offset="1564428" size="128" />
			<output>
				<port id="0" precision="FP16">
					<dim>1</dim>
					<dim>64</dim>
					<dim>1</dim>
					<dim>1</dim>
				</port>
			</output>
		</layer>
		<layer id="261" name="Reshape_1090" type="Convert" version="opset1">
			<data destination_type="f32" />
			<rt_info>
				<attribute name="decompression" version="0" />
			</rt_info>
			<input>
				<port id="0" precision="FP16">
					<dim>1</dim>
					<dim>64</dim>
					<dim>1</dim>
					<dim>1</dim>
				</port>
			</input>
			<output>
				<port id="1" precision="FP32">
					<dim>1</dim>
					<dim>64</dim>
					<dim>1</dim>
					<dim>1</dim>
				</port>
			</output>
		</layer>
		<layer id="262" name="/model.4/cv3/cv3.0/cv1/conv/Conv" type="Add" version="opset1">
			<data auto_broadcast="numpy" />
			<input>
				<port id="0" precision="FP32">
					<dim>1</dim>
					<dim>64</dim>
					<dim>40</dim>
					<dim>40</dim>
				</port>
				<port id="1" precision="FP32">
					<dim>1</dim>
					<dim>64</dim>
					<dim>1</dim>
					<dim>1</dim>
				</port>
			</input>
			<output>
				<port id="2" precision="FP32" names="/model.4/cv3/cv3.0/cv1/conv/Conv_output_0">
					<dim>1</dim>
					<dim>64</dim>
					<dim>40</dim>
					<dim>40</dim>
				</port>
			</output>
		</layer>
		<layer id="263" name="/model.4/cv3/cv3.0/cv1/act/Mul" type="Swish" version="opset4">
			<input>
				<port id="0" precision="FP32">
					<dim>1</dim>
					<dim>64</dim>
					<dim>40</dim>
					<dim>40</dim>
				</port>
			</input>
			<output>
				<port id="1" precision="FP32" names="/model.4/cv3/cv3.0/cv1/act/Mul_output_0">
					<dim>1</dim>
					<dim>64</dim>
					<dim>40</dim>
					<dim>40</dim>
				</port>
			</output>
		</layer>
		<layer id="264" name="model.4.cv3.0.m.0.cv1.conv.weight_compressed" type="Const" version="opset1">
			<data element_type="f16" shape="64, 64, 3, 3" offset="1564556" size="73728" />
			<output>
				<port id="0" precision="FP16">
					<dim>64</dim>
					<dim>64</dim>
					<dim>3</dim>
					<dim>3</dim>
				</port>
			</output>
		</layer>
		<layer id="265" name="model.4.cv3.0.m.0.cv1.conv.weight" type="Convert" version="opset1">
			<data destination_type="f32" />
			<rt_info>
				<attribute name="decompression" version="0" />
			</rt_info>
			<input>
				<port id="0" precision="FP16">
					<dim>64</dim>
					<dim>64</dim>
					<dim>3</dim>
					<dim>3</dim>
				</port>
			</input>
			<output>
				<port id="1" precision="FP32" names="model.4.cv3.0.m.0.cv1.conv.weight">
					<dim>64</dim>
					<dim>64</dim>
					<dim>3</dim>
					<dim>3</dim>
				</port>
			</output>
		</layer>
		<layer id="266" name="/model.4/cv3/cv3.0/m/m.0/cv1/conv/Conv/WithoutBiases" type="Convolution" version="opset1">
			<data strides="1, 1" dilations="1, 1" pads_begin="1, 1" pads_end="1, 1" auto_pad="explicit" />
			<input>
				<port id="0" precision="FP32">
					<dim>1</dim>
					<dim>64</dim>
					<dim>40</dim>
					<dim>40</dim>
				</port>
				<port id="1" precision="FP32">
					<dim>64</dim>
					<dim>64</dim>
					<dim>3</dim>
					<dim>3</dim>
				</port>
			</input>
			<output>
				<port id="2" precision="FP32">
					<dim>1</dim>
					<dim>64</dim>
					<dim>40</dim>
					<dim>40</dim>
				</port>
			</output>
		</layer>
		<layer id="267" name="Reshape_1108_compressed" type="Const" version="opset1">
			<data element_type="f16" shape="1, 64, 1, 1" offset="1638284" size="128" />
			<output>
				<port id="0" precision="FP16">
					<dim>1</dim>
					<dim>64</dim>
					<dim>1</dim>
					<dim>1</dim>
				</port>
			</output>
		</layer>
		<layer id="268" name="Reshape_1108" type="Convert" version="opset1">
			<data destination_type="f32" />
			<rt_info>
				<attribute name="decompression" version="0" />
			</rt_info>
			<input>
				<port id="0" precision="FP16">
					<dim>1</dim>
					<dim>64</dim>
					<dim>1</dim>
					<dim>1</dim>
				</port>
			</input>
			<output>
				<port id="1" precision="FP32">
					<dim>1</dim>
					<dim>64</dim>
					<dim>1</dim>
					<dim>1</dim>
				</port>
			</output>
		</layer>
		<layer id="269" name="/model.4/cv3/cv3.0/m/m.0/cv1/conv/Conv" type="Add" version="opset1">
			<data auto_broadcast="numpy" />
			<input>
				<port id="0" precision="FP32">
					<dim>1</dim>
					<dim>64</dim>
					<dim>40</dim>
					<dim>40</dim>
				</port>
				<port id="1" precision="FP32">
					<dim>1</dim>
					<dim>64</dim>
					<dim>1</dim>
					<dim>1</dim>
				</port>
			</input>
			<output>
				<port id="2" precision="FP32" names="/model.4/cv3/cv3.0/m/m.0/cv1/conv/Conv_output_0">
					<dim>1</dim>
					<dim>64</dim>
					<dim>40</dim>
					<dim>40</dim>
				</port>
			</output>
		</layer>
		<layer id="270" name="/model.4/cv3/cv3.0/m/m.0/cv1/act/Mul" type="Swish" version="opset4">
			<input>
				<port id="0" precision="FP32">
					<dim>1</dim>
					<dim>64</dim>
					<dim>40</dim>
					<dim>40</dim>
				</port>
			</input>
			<output>
				<port id="1" precision="FP32" names="/model.4/cv3/cv3.0/m/m.0/cv1/act/Mul_output_0">
					<dim>1</dim>
					<dim>64</dim>
					<dim>40</dim>
					<dim>40</dim>
				</port>
			</output>
		</layer>
		<layer id="271" name="model.4.cv3.0.m.0.cv2.conv.weight_compressed" type="Const" version="opset1">
			<data element_type="f16" shape="64, 64, 3, 3" offset="1638412" size="73728" />
			<output>
				<port id="0" precision="FP16">
					<dim>64</dim>
					<dim>64</dim>
					<dim>3</dim>
					<dim>3</dim>
				</port>
			</output>
		</layer>
		<layer id="272" name="model.4.cv3.0.m.0.cv2.conv.weight" type="Convert" version="opset1">
			<data destination_type="f32" />
			<rt_info>
				<attribute name="decompression" version="0" />
			</rt_info>
			<input>
				<port id="0" precision="FP16">
					<dim>64</dim>
					<dim>64</dim>
					<dim>3</dim>
					<dim>3</dim>
				</port>
			</input>
			<output>
				<port id="1" precision="FP32" names="model.4.cv3.0.m.0.cv2.conv.weight">
					<dim>64</dim>
					<dim>64</dim>
					<dim>3</dim>
					<dim>3</dim>
				</port>
			</output>
		</layer>
		<layer id="273" name="/model.4/cv3/cv3.0/m/m.0/cv2/conv/Conv/WithoutBiases" type="Convolution" version="opset1">
			<data strides="1, 1" dilations="1, 1" pads_begin="1, 1" pads_end="1, 1" auto_pad="explicit" />
			<input>
				<port id="0" precision="FP32">
					<dim>1</dim>
					<dim>64</dim>
					<dim>40</dim>
					<dim>40</dim>
				</port>
				<port id="1" precision="FP32">
					<dim>64</dim>
					<dim>64</dim>
					<dim>3</dim>
					<dim>3</dim>
				</port>
			</input>
			<output>
				<port id="2" precision="FP32">
					<dim>1</dim>
					<dim>64</dim>
					<dim>40</dim>
					<dim>40</dim>
				</port>
			</output>
		</layer>
		<layer id="274" name="Reshape_1126_compressed" type="Const" version="opset1">
			<data element_type="f16" shape="1, 64, 1, 1" offset="1712140" size="128" />
			<output>
				<port id="0" precision="FP16">
					<dim>1</dim>
					<dim>64</dim>
					<dim>1</dim>
					<dim>1</dim>
				</port>
			</output>
		</layer>
		<layer id="275" name="Reshape_1126" type="Convert" version="opset1">
			<data destination_type="f32" />
			<rt_info>
				<attribute name="decompression" version="0" />
			</rt_info>
			<input>
				<port id="0" precision="FP16">
					<dim>1</dim>
					<dim>64</dim>
					<dim>1</dim>
					<dim>1</dim>
				</port>
			</input>
			<output>
				<port id="1" precision="FP32">
					<dim>1</dim>
					<dim>64</dim>
					<dim>1</dim>
					<dim>1</dim>
				</port>
			</output>
		</layer>
		<layer id="276" name="/model.4/cv3/cv3.0/m/m.0/cv2/conv/Conv" type="Add" version="opset1">
			<data auto_broadcast="numpy" />
			<input>
				<port id="0" precision="FP32">
					<dim>1</dim>
					<dim>64</dim>
					<dim>40</dim>
					<dim>40</dim>
				</port>
				<port id="1" precision="FP32">
					<dim>1</dim>
					<dim>64</dim>
					<dim>1</dim>
					<dim>1</dim>
				</port>
			</input>
			<output>
				<port id="2" precision="FP32" names="/model.4/cv3/cv3.0/m/m.0/cv2/conv/Conv_output_0">
					<dim>1</dim>
					<dim>64</dim>
					<dim>40</dim>
					<dim>40</dim>
				</port>
			</output>
		</layer>
		<layer id="277" name="/model.4/cv3/cv3.0/m/m.0/cv2/act/Mul" type="Swish" version="opset4">
			<input>
				<port id="0" precision="FP32">
					<dim>1</dim>
					<dim>64</dim>
					<dim>40</dim>
					<dim>40</dim>
				</port>
			</input>
			<output>
				<port id="1" precision="FP32" names="/model.4/cv3/cv3.0/m/m.0/cv2/act/Mul_output_0">
					<dim>1</dim>
					<dim>64</dim>
					<dim>40</dim>
					<dim>40</dim>
				</port>
			</output>
		</layer>
		<layer id="278" name="/model.4/cv3/cv3.0/m/m.0/Add" type="Add" version="opset1">
			<data auto_broadcast="numpy" />
			<input>
				<port id="0" precision="FP32">
					<dim>1</dim>
					<dim>64</dim>
					<dim>40</dim>
					<dim>40</dim>
				</port>
				<port id="1" precision="FP32">
					<dim>1</dim>
					<dim>64</dim>
					<dim>40</dim>
					<dim>40</dim>
				</port>
			</input>
			<output>
				<port id="2" precision="FP32" names="/model.4/cv3/cv3.0/m/m.0/Add_output_0">
					<dim>1</dim>
					<dim>64</dim>
					<dim>40</dim>
					<dim>40</dim>
				</port>
			</output>
		</layer>
		<layer id="279" name="model.4.cv3.0.cv2.conv.weight_compressed" type="Const" version="opset1">
			<data element_type="f16" shape="64, 128, 1, 1" offset="1712268" size="16384" />
			<output>
				<port id="0" precision="FP16">
					<dim>64</dim>
					<dim>128</dim>
					<dim>1</dim>
					<dim>1</dim>
				</port>
			</output>
		</layer>
		<layer id="280" name="model.4.cv3.0.cv2.conv.weight" type="Convert" version="opset1">
			<data destination_type="f32" />
			<rt_info>
				<attribute name="decompression" version="0" />
			</rt_info>
			<input>
				<port id="0" precision="FP16">
					<dim>64</dim>
					<dim>128</dim>
					<dim>1</dim>
					<dim>1</dim>
				</port>
			</input>
			<output>
				<port id="1" precision="FP32" names="model.4.cv3.0.cv2.conv.weight">
					<dim>64</dim>
					<dim>128</dim>
					<dim>1</dim>
					<dim>1</dim>
				</port>
			</output>
		</layer>
		<layer id="281" name="/model.4/cv3/cv3.0/cv2/conv/Conv/WithoutBiases" type="Convolution" version="opset1">
			<data strides="1, 1" dilations="1, 1" pads_begin="0, 0" pads_end="0, 0" auto_pad="explicit" />
			<input>
				<port id="0" precision="FP32">
					<dim>1</dim>
					<dim>128</dim>
					<dim>40</dim>
					<dim>40</dim>
				</port>
				<port id="1" precision="FP32">
					<dim>64</dim>
					<dim>128</dim>
					<dim>1</dim>
					<dim>1</dim>
				</port>
			</input>
			<output>
				<port id="2" precision="FP32">
					<dim>1</dim>
					<dim>64</dim>
					<dim>40</dim>
					<dim>40</dim>
				</port>
			</output>
		</layer>
		<layer id="282" name="Reshape_1145_compressed" type="Const" version="opset1">
			<data element_type="f16" shape="1, 64, 1, 1" offset="1728652" size="128" />
			<output>
				<port id="0" precision="FP16">
					<dim>1</dim>
					<dim>64</dim>
					<dim>1</dim>
					<dim>1</dim>
				</port>
			</output>
		</layer>
		<layer id="283" name="Reshape_1145" type="Convert" version="opset1">
			<data destination_type="f32" />
			<rt_info>
				<attribute name="decompression" version="0" />
			</rt_info>
			<input>
				<port id="0" precision="FP16">
					<dim>1</dim>
					<dim>64</dim>
					<dim>1</dim>
					<dim>1</dim>
				</port>
			</input>
			<output>
				<port id="1" precision="FP32">
					<dim>1</dim>
					<dim>64</dim>
					<dim>1</dim>
					<dim>1</dim>
				</port>
			</output>
		</layer>
		<layer id="284" name="/model.4/cv3/cv3.0/cv2/conv/Conv" type="Add" version="opset1">
			<data auto_broadcast="numpy" />
			<input>
				<port id="0" precision="FP32">
					<dim>1</dim>
					<dim>64</dim>
					<dim>40</dim>
					<dim>40</dim>
				</port>
				<port id="1" precision="FP32">
					<dim>1</dim>
					<dim>64</dim>
					<dim>1</dim>
					<dim>1</dim>
				</port>
			</input>
			<output>
				<port id="2" precision="FP32" names="/model.4/cv3/cv3.0/cv2/conv/Conv_output_0">
					<dim>1</dim>
					<dim>64</dim>
					<dim>40</dim>
					<dim>40</dim>
				</port>
			</output>
		</layer>
		<layer id="285" name="/model.4/cv3/cv3.0/cv2/act/Mul" type="Swish" version="opset4">
			<input>
				<port id="0" precision="FP32">
					<dim>1</dim>
					<dim>64</dim>
					<dim>40</dim>
					<dim>40</dim>
				</port>
			</input>
			<output>
				<port id="1" precision="FP32" names="/model.4/cv3/cv3.0/cv2/act/Mul_output_0">
					<dim>1</dim>
					<dim>64</dim>
					<dim>40</dim>
					<dim>40</dim>
				</port>
			</output>
		</layer>
		<layer id="286" name="/model.4/cv3/cv3.0/Concat" type="Concat" version="opset1">
			<data axis="1" />
			<input>
				<port id="0" precision="FP32">
					<dim>1</dim>
					<dim>64</dim>
					<dim>40</dim>
					<dim>40</dim>
				</port>
				<port id="1" precision="FP32">
					<dim>1</dim>
					<dim>64</dim>
					<dim>40</dim>
					<dim>40</dim>
				</port>
			</input>
			<output>
				<port id="2" precision="FP32" names="/model.4/cv3/cv3.0/Concat_output_0">
					<dim>1</dim>
					<dim>128</dim>
					<dim>40</dim>
					<dim>40</dim>
				</port>
			</output>
		</layer>
		<layer id="287" name="model.4.cv3.0.cv3.conv.weight_compressed" type="Const" version="opset1">
			<data element_type="f16" shape="128, 128, 1, 1" offset="1728780" size="32768" />
			<output>
				<port id="0" precision="FP16">
					<dim>128</dim>
					<dim>128</dim>
					<dim>1</dim>
					<dim>1</dim>
				</port>
			</output>
		</layer>
		<layer id="288" name="model.4.cv3.0.cv3.conv.weight" type="Convert" version="opset1">
			<data destination_type="f32" />
			<rt_info>
				<attribute name="decompression" version="0" />
			</rt_info>
			<input>
				<port id="0" precision="FP16">
					<dim>128</dim>
					<dim>128</dim>
					<dim>1</dim>
					<dim>1</dim>
				</port>
			</input>
			<output>
				<port id="1" precision="FP32" names="model.4.cv3.0.cv3.conv.weight">
					<dim>128</dim>
					<dim>128</dim>
					<dim>1</dim>
					<dim>1</dim>
				</port>
			</output>
		</layer>
		<layer id="289" name="/model.4/cv3/cv3.0/cv3/conv/Conv/WithoutBiases" type="Convolution" version="opset1">
			<data strides="1, 1" dilations="1, 1" pads_begin="0, 0" pads_end="0, 0" auto_pad="explicit" />
			<input>
				<port id="0" precision="FP32">
					<dim>1</dim>
					<dim>128</dim>
					<dim>40</dim>
					<dim>40</dim>
				</port>
				<port id="1" precision="FP32">
					<dim>128</dim>
					<dim>128</dim>
					<dim>1</dim>
					<dim>1</dim>
				</port>
			</input>
			<output>
				<port id="2" precision="FP32">
					<dim>1</dim>
					<dim>128</dim>
					<dim>40</dim>
					<dim>40</dim>
				</port>
			</output>
		</layer>
		<layer id="290" name="Reshape_1164_compressed" type="Const" version="opset1">
			<data element_type="f16" shape="1, 128, 1, 1" offset="1761548" size="256" />
			<output>
				<port id="0" precision="FP16">
					<dim>1</dim>
					<dim>128</dim>
					<dim>1</dim>
					<dim>1</dim>
				</port>
			</output>
		</layer>
		<layer id="291" name="Reshape_1164" type="Convert" version="opset1">
			<data destination_type="f32" />
			<rt_info>
				<attribute name="decompression" version="0" />
			</rt_info>
			<input>
				<port id="0" precision="FP16">
					<dim>1</dim>
					<dim>128</dim>
					<dim>1</dim>
					<dim>1</dim>
				</port>
			</input>
			<output>
				<port id="1" precision="FP32">
					<dim>1</dim>
					<dim>128</dim>
					<dim>1</dim>
					<dim>1</dim>
				</port>
			</output>
		</layer>
		<layer id="292" name="/model.4/cv3/cv3.0/cv3/conv/Conv" type="Add" version="opset1">
			<data auto_broadcast="numpy" />
			<input>
				<port id="0" precision="FP32">
					<dim>1</dim>
					<dim>128</dim>
					<dim>40</dim>
					<dim>40</dim>
				</port>
				<port id="1" precision="FP32">
					<dim>1</dim>
					<dim>128</dim>
					<dim>1</dim>
					<dim>1</dim>
				</port>
			</input>
			<output>
				<port id="2" precision="FP32" names="/model.4/cv3/cv3.0/cv3/conv/Conv_output_0">
					<dim>1</dim>
					<dim>128</dim>
					<dim>40</dim>
					<dim>40</dim>
				</port>
			</output>
		</layer>
		<layer id="293" name="/model.4/cv3/cv3.0/cv3/act/Mul" type="Swish" version="opset4">
			<input>
				<port id="0" precision="FP32">
					<dim>1</dim>
					<dim>128</dim>
					<dim>40</dim>
					<dim>40</dim>
				</port>
			</input>
			<output>
				<port id="1" precision="FP32" names="/model.4/cv3/cv3.0/cv3/act/Mul_output_0">
					<dim>1</dim>
					<dim>128</dim>
					<dim>40</dim>
					<dim>40</dim>
				</port>
			</output>
		</layer>
		<layer id="294" name="model.4.cv3.1.conv.weight_compressed" type="Const" version="opset1">
			<data element_type="f16" shape="128, 128, 3, 3" offset="1761804" size="294912" />
			<output>
				<port id="0" precision="FP16">
					<dim>128</dim>
					<dim>128</dim>
					<dim>3</dim>
					<dim>3</dim>
				</port>
			</output>
		</layer>
		<layer id="295" name="model.4.cv3.1.conv.weight" type="Convert" version="opset1">
			<data destination_type="f32" />
			<rt_info>
				<attribute name="decompression" version="0" />
			</rt_info>
			<input>
				<port id="0" precision="FP16">
					<dim>128</dim>
					<dim>128</dim>
					<dim>3</dim>
					<dim>3</dim>
				</port>
			</input>
			<output>
				<port id="1" precision="FP32" names="model.4.cv3.1.conv.weight">
					<dim>128</dim>
					<dim>128</dim>
					<dim>3</dim>
					<dim>3</dim>
				</port>
			</output>
		</layer>
		<layer id="296" name="/model.4/cv3/cv3.1/conv/Conv/WithoutBiases" type="Convolution" version="opset1">
			<data strides="1, 1" dilations="1, 1" pads_begin="1, 1" pads_end="1, 1" auto_pad="explicit" />
			<input>
				<port id="0" precision="FP32">
					<dim>1</dim>
					<dim>128</dim>
					<dim>40</dim>
					<dim>40</dim>
				</port>
				<port id="1" precision="FP32">
					<dim>128</dim>
					<dim>128</dim>
					<dim>3</dim>
					<dim>3</dim>
				</port>
			</input>
			<output>
				<port id="2" precision="FP32">
					<dim>1</dim>
					<dim>128</dim>
					<dim>40</dim>
					<dim>40</dim>
				</port>
			</output>
		</layer>
		<layer id="297" name="Reshape_1182_compressed" type="Const" version="opset1">
			<data element_type="f16" shape="1, 128, 1, 1" offset="2056716" size="256" />
			<output>
				<port id="0" precision="FP16">
					<dim>1</dim>
					<dim>128</dim>
					<dim>1</dim>
					<dim>1</dim>
				</port>
			</output>
		</layer>
		<layer id="298" name="Reshape_1182" type="Convert" version="opset1">
			<data destination_type="f32" />
			<rt_info>
				<attribute name="decompression" version="0" />
			</rt_info>
			<input>
				<port id="0" precision="FP16">
					<dim>1</dim>
					<dim>128</dim>
					<dim>1</dim>
					<dim>1</dim>
				</port>
			</input>
			<output>
				<port id="1" precision="FP32">
					<dim>1</dim>
					<dim>128</dim>
					<dim>1</dim>
					<dim>1</dim>
				</port>
			</output>
		</layer>
		<layer id="299" name="/model.4/cv3/cv3.1/conv/Conv" type="Add" version="opset1">
			<data auto_broadcast="numpy" />
			<input>
				<port id="0" precision="FP32">
					<dim>1</dim>
					<dim>128</dim>
					<dim>40</dim>
					<dim>40</dim>
				</port>
				<port id="1" precision="FP32">
					<dim>1</dim>
					<dim>128</dim>
					<dim>1</dim>
					<dim>1</dim>
				</port>
			</input>
			<output>
				<port id="2" precision="FP32" names="/model.4/cv3/cv3.1/conv/Conv_output_0">
					<dim>1</dim>
					<dim>128</dim>
					<dim>40</dim>
					<dim>40</dim>
				</port>
			</output>
		</layer>
		<layer id="300" name="/model.4/cv3/cv3.1/act/Mul" type="Swish" version="opset4">
			<input>
				<port id="0" precision="FP32">
					<dim>1</dim>
					<dim>128</dim>
					<dim>40</dim>
					<dim>40</dim>
				</port>
			</input>
			<output>
				<port id="1" precision="FP32" names="/model.4/cv3/cv3.1/act/Mul_output_0">
					<dim>1</dim>
					<dim>128</dim>
					<dim>40</dim>
					<dim>40</dim>
				</port>
			</output>
		</layer>
		<layer id="301" name="/model.4/Concat" type="Concat" version="opset1">
			<data axis="1" />
			<input>
				<port id="0" precision="FP32">
					<dim>1</dim>
					<dim>128</dim>
					<dim>40</dim>
					<dim>40</dim>
				</port>
				<port id="1" precision="FP32">
					<dim>1</dim>
					<dim>128</dim>
					<dim>40</dim>
					<dim>40</dim>
				</port>
				<port id="2" precision="FP32">
					<dim>1</dim>
					<dim>128</dim>
					<dim>40</dim>
					<dim>40</dim>
				</port>
				<port id="3" precision="FP32">
					<dim>1</dim>
					<dim>128</dim>
					<dim>40</dim>
					<dim>40</dim>
				</port>
			</input>
			<output>
				<port id="4" precision="FP32" names="/model.4/Concat_output_0">
					<dim>1</dim>
					<dim>512</dim>
					<dim>40</dim>
					<dim>40</dim>
				</port>
			</output>
		</layer>
		<layer id="302" name="model.4.cv4.conv.weight_compressed" type="Const" version="opset1">
			<data element_type="f16" shape="512, 512, 1, 1" offset="2056972" size="524288" />
			<output>
				<port id="0" precision="FP16">
					<dim>512</dim>
					<dim>512</dim>
					<dim>1</dim>
					<dim>1</dim>
				</port>
			</output>
		</layer>
		<layer id="303" name="model.4.cv4.conv.weight" type="Convert" version="opset1">
			<data destination_type="f32" />
			<rt_info>
				<attribute name="decompression" version="0" />
			</rt_info>
			<input>
				<port id="0" precision="FP16">
					<dim>512</dim>
					<dim>512</dim>
					<dim>1</dim>
					<dim>1</dim>
				</port>
			</input>
			<output>
				<port id="1" precision="FP32" names="model.4.cv4.conv.weight">
					<dim>512</dim>
					<dim>512</dim>
					<dim>1</dim>
					<dim>1</dim>
				</port>
			</output>
		</layer>
		<layer id="304" name="/model.4/cv4/conv/Conv/WithoutBiases" type="Convolution" version="opset1">
			<data strides="1, 1" dilations="1, 1" pads_begin="0, 0" pads_end="0, 0" auto_pad="explicit" />
			<input>
				<port id="0" precision="FP32">
					<dim>1</dim>
					<dim>512</dim>
					<dim>40</dim>
					<dim>40</dim>
				</port>
				<port id="1" precision="FP32">
					<dim>512</dim>
					<dim>512</dim>
					<dim>1</dim>
					<dim>1</dim>
				</port>
			</input>
			<output>
				<port id="2" precision="FP32">
					<dim>1</dim>
					<dim>512</dim>
					<dim>40</dim>
					<dim>40</dim>
				</port>
			</output>
		</layer>
		<layer id="305" name="Reshape_1201_compressed" type="Const" version="opset1">
			<data element_type="f16" shape="1, 512, 1, 1" offset="2581260" size="1024" />
			<output>
				<port id="0" precision="FP16">
					<dim>1</dim>
					<dim>512</dim>
					<dim>1</dim>
					<dim>1</dim>
				</port>
			</output>
		</layer>
		<layer id="306" name="Reshape_1201" type="Convert" version="opset1">
			<data destination_type="f32" />
			<rt_info>
				<attribute name="decompression" version="0" />
			</rt_info>
			<input>
				<port id="0" precision="FP16">
					<dim>1</dim>
					<dim>512</dim>
					<dim>1</dim>
					<dim>1</dim>
				</port>
			</input>
			<output>
				<port id="1" precision="FP32">
					<dim>1</dim>
					<dim>512</dim>
					<dim>1</dim>
					<dim>1</dim>
				</port>
			</output>
		</layer>
		<layer id="307" name="/model.4/cv4/conv/Conv" type="Add" version="opset1">
			<data auto_broadcast="numpy" />
			<input>
				<port id="0" precision="FP32">
					<dim>1</dim>
					<dim>512</dim>
					<dim>40</dim>
					<dim>40</dim>
				</port>
				<port id="1" precision="FP32">
					<dim>1</dim>
					<dim>512</dim>
					<dim>1</dim>
					<dim>1</dim>
				</port>
			</input>
			<output>
				<port id="2" precision="FP32" names="/model.4/cv4/conv/Conv_output_0">
					<dim>1</dim>
					<dim>512</dim>
					<dim>40</dim>
					<dim>40</dim>
				</port>
			</output>
		</layer>
		<layer id="308" name="/model.4/cv4/act/Mul" type="Swish" version="opset4">
			<input>
				<port id="0" precision="FP32">
					<dim>1</dim>
					<dim>512</dim>
					<dim>40</dim>
					<dim>40</dim>
				</port>
			</input>
			<output>
				<port id="1" precision="FP32" names="/model.4/cv4/act/Mul_output_0">
					<dim>1</dim>
					<dim>512</dim>
					<dim>40</dim>
					<dim>40</dim>
				</port>
			</output>
		</layer>
		<layer id="309" name="/model.5/AveragePool" type="AvgPool" version="opset1">
			<data kernel="2, 2" strides="1, 1" pads_begin="0, 0" pads_end="0, 0" exclude-pad="false" auto_pad="explicit" rounding_type="floor" />
			<input>
				<port id="0" precision="FP32">
					<dim>1</dim>
					<dim>512</dim>
					<dim>40</dim>
					<dim>40</dim>
				</port>
			</input>
			<output>
				<port id="1" precision="FP32" names="/model.5/AveragePool_output_0">
					<dim>1</dim>
					<dim>512</dim>
					<dim>39</dim>
					<dim>39</dim>
				</port>
			</output>
		</layer>
		<layer id="310" name="Constant_11787" type="Const" version="opset1">
			<data element_type="i64" shape="2" offset="192720" size="16" />
			<rt_info>
				<attribute name="precise" version="0" />
			</rt_info>
			<output>
				<port id="0" precision="I64">
					<dim>2</dim>
				</port>
			</output>
		</layer>
		<layer id="311" name="Constant_11788" type="Const" version="opset1">
			<data element_type="i64" shape="2" offset="192720" size="16" />
			<rt_info>
				<attribute name="precise" version="0" />
			</rt_info>
			<output>
				<port id="0" precision="I64">
					<dim>2</dim>
				</port>
			</output>
		</layer>
		<layer id="312" name="Constant_11784" type="Const" version="opset1">
			<data element_type="i64" shape="1" offset="192736" size="8" />
			<rt_info>
				<attribute name="precise" version="0" />
			</rt_info>
			<output>
				<port id="0" precision="I64">
					<dim>1</dim>
				</port>
			</output>
		</layer>
		<layer id="313" name="/model.5/Shape" type="ShapeOf" version="opset3">
			<data output_type="i64" />
			<input>
				<port id="0" precision="FP32">
					<dim>1</dim>
					<dim>512</dim>
					<dim>39</dim>
					<dim>39</dim>
				</port>
			</input>
			<output>
				<port id="1" precision="I64" names="/model.5/Shape_output_0">
					<dim>4</dim>
				</port>
			</output>
		</layer>
		<layer id="314" name="/model.5/Constant" type="Const" version="opset1">
			<data element_type="i64" shape="1" offset="192736" size="8" />
			<rt_info>
				<attribute name="precise" version="0" />
			</rt_info>
			<output>
				<port id="0" precision="I64" names="/model.5/Constant_output_0">
					<dim>1</dim>
				</port>
			</output>
		</layer>
		<layer id="315" name="Constant_1210" type="Const" version="opset1">
			<data element_type="i64" shape="" offset="192744" size="8" />
			<rt_info>
				<attribute name="precise" version="0" />
			</rt_info>
			<output>
				<port id="0" precision="I64" />
			</output>
		</layer>
		<layer id="316" name="/model.5/Gather" type="Gather" version="opset8">
			<data batch_dims="0" />
			<input>
				<port id="0" precision="I64">
					<dim>4</dim>
				</port>
				<port id="1" precision="I64">
					<dim>1</dim>
				</port>
				<port id="2" precision="I64" />
			</input>
			<output>
				<port id="3" precision="I64" names="/model.5/Gather_output_0">
					<dim>1</dim>
				</port>
			</output>
		</layer>
		<layer id="317" name="/model.5/Constant_2" type="Const" version="opset1">
			<data element_type="i64" shape="1" offset="192736" size="8" />
			<rt_info>
				<attribute name="precise" version="0" />
			</rt_info>
			<output>
				<port id="0" precision="I64" names="/model.5/Constant_2_output_0">
					<dim>1</dim>
				</port>
			</output>
		</layer>
		<layer id="318" name="/model.5/Add" type="Add" version="opset1">
			<data auto_broadcast="numpy" />
			<input>
				<port id="0" precision="I64">
					<dim>1</dim>
				</port>
				<port id="1" precision="I64">
					<dim>1</dim>
				</port>
			</input>
			<output>
				<port id="2" precision="I64" names="/model.5/Add_output_0">
					<dim>1</dim>
				</port>
			</output>
		</layer>
		<layer id="319" name="/model.5/Constant_3" type="Const" version="opset1">
			<data element_type="i64" shape="1" offset="192752" size="8" />
			<rt_info>
				<attribute name="precise" version="0" />
			</rt_info>
			<output>
				<port id="0" precision="I64" names="/model.5/Constant_3_output_0">
					<dim>1</dim>
				</port>
			</output>
		</layer>
		<layer id="320" name="/model.5/Div" type="Divide" version="opset1">
			<data auto_broadcast="numpy" m_pythondiv="true" />
			<input>
				<port id="0" precision="I64">
					<dim>1</dim>
				</port>
				<port id="1" precision="I64">
					<dim>1</dim>
				</port>
			</input>
			<output>
				<port id="2" precision="I64" names="/model.5/Div_output_0,/model.5/Mul_output_0">
					<dim>1</dim>
				</port>
			</output>
		</layer>
		<layer id="321" name="Constant_11783" type="Const" version="opset1">
			<data element_type="i32" shape="1" offset="192760" size="4" />
			<rt_info>
				<attribute name="precise" version="0" />
			</rt_info>
			<output>
				<port id="0" precision="I32">
					<dim>1</dim>
				</port>
			</output>
		</layer>
		<layer id="322" name="ScatterUpdate_11789" type="ScatterUpdate" version="opset3">
			<input>
				<port id="0" precision="I64">
					<dim>2</dim>
				</port>
				<port id="1" precision="I64">
					<dim>1</dim>
				</port>
				<port id="2" precision="I64">
					<dim>1</dim>
				</port>
				<port id="3" precision="I32">
					<dim>1</dim>
				</port>
			</input>
			<output>
				<port id="4" precision="I64">
					<dim>2</dim>
				</port>
			</output>
		</layer>
		<layer id="323" name="Constant_11792" type="Const" version="opset1">
			<data element_type="i64" shape="2" offset="192764" size="16" />
			<rt_info>
				<attribute name="precise" version="0" />
			</rt_info>
			<output>
				<port id="0" precision="I64">
					<dim>2</dim>
				</port>
			</output>
		</layer>
		<layer id="324" name="/model.5/Slice" type="StridedSlice" version="opset1">
			<data begin_mask="1, 0" end_mask="1, 0" new_axis_mask="" shrink_axis_mask="" ellipsis_mask="" />
			<input>
				<port id="0" precision="FP32">
					<dim>1</dim>
					<dim>512</dim>
					<dim>39</dim>
					<dim>39</dim>
				</port>
				<port id="1" precision="I64">
					<dim>2</dim>
				</port>
				<port id="2" precision="I64">
					<dim>2</dim>
				</port>
				<port id="3" precision="I64">
					<dim>2</dim>
				</port>
			</input>
			<output>
				<port id="4" precision="FP32" names="/model.5/Slice_output_0">
					<dim>1</dim>
					<dim>256</dim>
					<dim>39</dim>
					<dim>39</dim>
				</port>
			</output>
		</layer>
		<layer id="325" name="model.5.cv1.conv.weight_compressed" type="Const" version="opset1">
			<data element_type="f16" shape="256, 256, 3, 3" offset="2582284" size="1179648" />
			<output>
				<port id="0" precision="FP16">
					<dim>256</dim>
					<dim>256</dim>
					<dim>3</dim>
					<dim>3</dim>
				</port>
			</output>
		</layer>
		<layer id="326" name="model.5.cv1.conv.weight" type="Convert" version="opset1">
			<data destination_type="f32" />
			<rt_info>
				<attribute name="decompression" version="0" />
			</rt_info>
			<input>
				<port id="0" precision="FP16">
					<dim>256</dim>
					<dim>256</dim>
					<dim>3</dim>
					<dim>3</dim>
				</port>
			</input>
			<output>
				<port id="1" precision="FP32" names="model.5.cv1.conv.weight">
					<dim>256</dim>
					<dim>256</dim>
					<dim>3</dim>
					<dim>3</dim>
				</port>
			</output>
		</layer>
		<layer id="327" name="/model.5/cv1/conv/Conv/WithoutBiases" type="Convolution" version="opset1">
			<data strides="2, 2" dilations="1, 1" pads_begin="1, 1" pads_end="1, 1" auto_pad="explicit" />
			<input>
				<port id="0" precision="FP32">
					<dim>1</dim>
					<dim>256</dim>
					<dim>39</dim>
					<dim>39</dim>
				</port>
				<port id="1" precision="FP32">
					<dim>256</dim>
					<dim>256</dim>
					<dim>3</dim>
					<dim>3</dim>
				</port>
			</input>
			<output>
				<port id="2" precision="FP32">
					<dim>1</dim>
					<dim>256</dim>
					<dim>20</dim>
					<dim>20</dim>
				</port>
			</output>
		</layer>
		<layer id="328" name="Reshape_1329_compressed" type="Const" version="opset1">
			<data element_type="f16" shape="1, 256, 1, 1" offset="3761932" size="512" />
…
		<edge from-layer="756" from-port="1" to-layer="757" to-port="1" />
		<edge from-layer="757" from-port="2" to-layer="765" to-port="0" />
		<edge from-layer="758" from-port="0" to-layer="759" to-port="0" />
		<edge from-layer="759" from-port="1" to-layer="760" to-port="1" />
		<edge from-layer="760" from-port="2" to-layer="763" to-port="0" />
		<edge from-layer="761" from-port="0" to-layer="762" to-port="0" />
		<edge from-layer="762" from-port="1" to-layer="763" to-port="1" />
		<edge from-layer="763" from-port="2" to-layer="764" to-port="0" />
		<edge from-layer="764" from-port="1" to-layer="765" to-port="1" />
		<edge from-layer="765" from-port="2" to-layer="768" to-port="0" />
		<edge from-layer="766" from-port="0" to-layer="767" to-port="0" />
		<edge from-layer="767" from-port="1" to-layer="768" to-port="1" />
		<edge from-layer="768" from-port="2" to-layer="771" to-port="0" />
		<edge from-layer="769" from-port="0" to-layer="770" to-port="0" />
		<edge from-layer="770" from-port="1" to-layer="771" to-port="1" />
		<edge from-layer="771" from-port="2" to-layer="772" to-port="0" />
		<edge from-layer="772" from-port="1" to-layer="775" to-port="0" />
		<edge from-layer="773" from-port="0" to-layer="774" to-port="0" />
		<edge from-layer="774" from-port="1" to-layer="775" to-port="1" />
		<edge from-layer="775" from-port="2" to-layer="778" to-port="0" />
		<edge from-layer="776" from-port="0" to-layer="777" to-port="0" />
		<edge from-layer="777" from-port="1" to-layer="778" to-port="1" />
		<edge from-layer="778" from-port="2" to-layer="779" to-port="0" />
		<edge from-layer="779" from-port="1" to-layer="780" to-port="3" />
		<edge from-layer="780" from-port="4" to-layer="783" to-port="0" />
		<edge from-layer="781" from-port="0" to-layer="782" to-port="0" />
		<edge from-layer="782" from-port="1" to-layer="783" to-port="1" />
		<edge from-layer="783" from-port="2" to-layer="786" to-port="0" />
		<edge from-layer="784" from-port="0" to-layer="785" to-port="0" />
		<edge from-layer="785" from-port="1" to-layer="786" to-port="1" />
		<edge from-layer="786" from-port="2" to-layer="787" to-port="0" />
		<edge from-layer="787" from-port="1" to-layer="999" to-port="2" />
		<edge from-layer="787" from-port="1" to-layer="789" to-port="0" />
		<edge from-layer="788" from-port="0" to-layer="789" to-port="1" />
		<edge from-layer="789" from-port="2" to-layer="790" to-port="0" />
		<edge from-layer="790" from-port="2" to-layer="793" to-port="0" />
		<edge from-layer="791" from-port="0" to-layer="792" to-port="0" />
		<edge from-layer="792" from-port="1" to-layer="793" to-port="1" />
		<edge from-layer="793" from-port="2" to-layer="796" to-port="0" />
		<edge from-layer="794" from-port="0" to-layer="795" to-port="0" />
		<edge from-layer="795" from-port="1" to-layer="796" to-port="1" />
		<edge from-layer="796" from-port="2" to-layer="797" to-port="0" />
		<edge from-layer="797" from-port="1" to-layer="801" to-port="0" />
		<edge from-layer="797" from-port="1" to-layer="820" to-port="0" />
		<edge from-layer="797" from-port="1" to-layer="812" to-port="0" />
		<edge from-layer="798" from-port="0" to-layer="812" to-port="1" />
		<edge from-layer="799" from-port="0" to-layer="810" to-port="0" />
		<edge from-layer="800" from-port="0" to-layer="810" to-port="1" />
		<edge from-layer="801" from-port="1" to-layer="804" to-port="0" />
		<edge from-layer="802" from-port="0" to-layer="804" to-port="1" />
		<edge from-layer="803" from-port="0" to-layer="804" to-port="2" />
		<edge from-layer="804" from-port="3" to-layer="806" to-port="0" />
		<edge from-layer="805" from-port="0" to-layer="806" to-port="1" />
		<edge from-layer="806" from-port="2" to-layer="808" to-port="0" />
		<edge from-layer="807" from-port="0" to-layer="808" to-port="1" />
		<edge from-layer="808" from-port="2" to-layer="810" to-port="2" />
		<edge from-layer="808" from-port="2" to-layer="816" to-port="0" />
		<edge from-layer="809" from-port="0" to-layer="810" to-port="3" />
		<edge from-layer="810" from-port="4" to-layer="812" to-port="2" />
		<edge from-layer="810" from-port="4" to-layer="820" to-port="1" />
		<edge from-layer="811" from-port="0" to-layer="812" to-port="3" />
		<edge from-layer="812" from-port="4" to-layer="909" to-port="0" />
		<edge from-layer="813" from-port="0" to-layer="818" to-port="0" />
		<edge from-layer="814" from-port="0" to-layer="818" to-port="1" />
		<edge from-layer="815" from-port="0" to-layer="816" to-port="1" />
		<edge from-layer="816" from-port="2" to-layer="818" to-port="2" />
		<edge from-layer="817" from-port="0" to-layer="818" to-port="3" />
		<edge from-layer="818" from-port="4" to-layer="820" to-port="2" />
		<edge from-layer="819" from-port="0" to-layer="820" to-port="3" />
		<edge from-layer="820" from-port="4" to-layer="823" to-port="0" />
		<edge from-layer="820" from-port="4" to-layer="909" to-port="1" />
		<edge from-layer="820" from-port="4" to-layer="845" to-port="0" />
		<edge from-layer="821" from-port="0" to-layer="822" to-port="0" />
		<edge from-layer="822" from-port="1" to-layer="823" to-port="1" />
		<edge from-layer="823" from-port="2" to-layer="826" to-port="0" />
		<edge from-layer="824" from-port="0" to-layer="825" to-port="0" />
		<edge from-layer="825" from-port="1" to-layer="826" to-port="1" />
		<edge from-layer="826" from-port="2" to-layer="827" to-port="0" />
		<edge from-layer="827" from-port="1" to-layer="830" to-port="0" />
		<edge from-layer="827" from-port="1" to-layer="842" to-port="0" />
		<edge from-layer="828" from-port="0" to-layer="829" to-port="0" />
		<edge from-layer="829" from-port="1" to-layer="830" to-port="1" />
		<edge from-layer="830" from-port="2" to-layer="833" to-port="0" />
		<edge from-layer="831" from-port="0" to-layer="832" to-port="0" />
		<edge from-layer="832" from-port="1" to-layer="833" to-port="1" />
		<edge from-layer="833" from-port="2" to-layer="834" to-port="0" />
		<edge from-layer="834" from-port="1" to-layer="837" to-port="0" />
		<edge from-layer="835" from-port="0" to-layer="836" to-port="0" />
		<edge from-layer="836" from-port="1" to-layer="837" to-port="1" />
		<edge from-layer="837" from-port="2" to-layer="840" to-port="0" />
		<edge from-layer="838" from-port="0" to-layer="839" to-port="0" />
		<edge from-layer="839" from-port="1" to-layer="840" to-port="1" />
		<edge from-layer="840" from-port="2" to-layer="841" to-port="0" />
		<edge from-layer="841" from-port="1" to-layer="842" to-port="1" />
		<edge from-layer="842" from-port="2" to-layer="850" to-port="0" />
		<edge from-layer="843" from-port="0" to-layer="844" to-port="0" />
		<edge from-layer="844" from-port="1" to-layer="845" to-port="1" />
		<edge from-layer="845" from-port="2" to-layer="848" to-port="0" />
		<edge from-layer="846" from-port="0" to-layer="847" to-port="0" />
		<edge from-layer="847" from-port="1" to-layer="848" to-port="1" />
		<edge from-layer="848" from-port="2" to-layer="849" to-port="0" />
		<edge from-layer="849" from-port="1" to-layer="850" to-port="1" />
		<edge from-layer="850" from-port="2" to-layer="853" to-port="0" />
		<edge from-layer="851" from-port="0" to-layer="852" to-port="0" />
		<edge from-layer="852" from-port="1" to-layer="853" to-port="1" />
		<edge from-layer="853" from-port="2" to-layer="856" to-port="0" />
		<edge from-layer="854" from-port="0" to-layer="855" to-port="0" />
		<edge from-layer="855" from-port="1" to-layer="856" to-port="1" />
		<edge from-layer="856" from-port="2" to-layer="857" to-port="0" />
		<edge from-layer="857" from-port="1" to-layer="860" to-port="0" />
		<edge from-layer="858" from-port="0" to-layer="859" to-port="0" />
		<edge from-layer="859" from-port="1" to-layer="860" to-port="1" />
		<edge from-layer="860" from-port="2" to-layer="863" to-port="0" />
		<edge from-layer="861" from-port="0" to-layer="862" to-port="0" />
		<edge from-layer="862" from-port="1" to-layer="863" to-port="1" />
		<edge from-layer="863" from-port="2" to-layer="864" to-port="0" />
		<edge from-layer="864" from-port="1" to-layer="867" to-port="0" />
		<edge from-layer="864" from-port="1" to-layer="889" to-port="0" />
		<edge from-layer="864" from-port="1" to-layer="909" to-port="2" />
		<edge from-layer="865" from-port="0" to-layer="866" to-port="0" />
		<edge from-layer="866" from-port="1" to-layer="867" to-port="1" />
		<edge from-layer="867" from-port="2" to-layer="870" to-port="0" />
		<edge from-layer="868" from-port="0" to-layer="869" to-port="0" />
		<edge from-layer="869" from-port="1" to-layer="870" to-port="1" />
		<edge from-layer="870" from-port="2" to-layer="871" to-port="0" />
		<edge from-layer="871" from-port="1" to-layer="874" to-port="0" />
		<edge from-layer="871" from-port="1" to-layer="886" to-port="0" />
		<edge from-layer="872" from-port="0" to-layer="873" to-port="0" />
		<edge from-layer="873" from-port="1" to-layer="874" to-port="1" />
		<edge from-layer="874" from-port="2" to-layer="877" to-port="0" />
		<edge from-layer="875" from-port="0" to-layer="876" to-port="0" />
		<edge from-layer="876" from-port="1" to-layer="877" to-port="1" />
		<edge from-layer="877" from-port="2" to-layer="878" to-port="0" />
		<edge from-layer="878" from-port="1" to-layer="881" to-port="0" />
		<edge from-layer="879" from-port="0" to-layer="880" to-port="0" />
		<edge from-layer="880" from-port="1" to-layer="881" to-port="1" />
		<edge from-layer="881" from-port="2" to-layer="884" to-port="0" />
		<edge from-layer="882" from-port="0" to-layer="883" to-port="0" />
		<edge from-layer="883" from-port="1" to-layer="884" to-port="1" />
		<edge from-layer="884" from-port="2" to-layer="885" to-port="0" />
		<edge from-layer="885" from-port="1" to-layer="886" to-port="1" />
		<edge from-layer="886" from-port="2" to-layer="894" to-port="0" />
		<edge from-layer="887" from-port="0" to-layer="888" to-port="0" />
		<edge from-layer="888" from-port="1" to-layer="889" to-port="1" />
		<edge from-layer="889" from-port="2" to-layer="892" to-port="0" />
		<edge from-layer="890" from-port="0" to-layer="891" to-port="0" />
		<edge from-layer="891" from-port="1" to-layer="892" to-port="1" />
		<edge from-layer="892" from-port="2" to-layer="893" to-port="0" />
		<edge from-layer="893" from-port="1" to-layer="894" to-port="1" />
		<edge from-layer="894" from-port="2" to-layer="897" to-port="0" />
		<edge from-layer="895" from-port="0" to-layer="896" to-port="0" />
		<edge from-layer="896" from-port="1" to-layer="897" to-port="1" />
		<edge from-layer="897" from-port="2" to-layer="900" to-port="0" />
		<edge from-layer="898" from-port="0" to-layer="899" to-port="0" />
		<edge from-layer="899" from-port="1" to-layer="900" to-port="1" />
		<edge from-layer="900" from-port="2" to-layer="901" to-port="0" />
		<edge from-layer="901" from-port="1" to-layer="904" to-port="0" />
		<edge from-layer="902" from-port="0" to-layer="903" to-port="0" />
		<edge from-layer="903" from-port="1" to-layer="904" to-port="1" />
		<edge from-layer="904" from-port="2" to-layer="907" to-port="0" />
		<edge from-layer="905" from-port="0" to-layer="906" to-port="0" />
		<edge from-layer="906" from-port="1" to-layer="907" to-port="1" />
		<edge from-layer="907" from-port="2" to-layer="908" to-port="0" />
		<edge from-layer="908" from-port="1" to-layer="909" to-port="3" />
		<edge from-layer="909" from-port="4" to-layer="912" to-port="0" />
		<edge from-layer="910" from-port="0" to-layer="911" to-port="0" />
		<edge from-layer="911" from-port="1" to-layer="912" to-port="1" />
		<edge from-layer="912" from-port="2" to-layer="915" to-port="0" />
		<edge from-layer="913" from-port="0" to-layer="914" to-port="0" />
		<edge from-layer="914" from-port="1" to-layer="915" to-port="1" />
		<edge from-layer="915" from-port="2" to-layer="916" to-port="0" />
		<edge from-layer="916" from-port="1" to-layer="919" to-port="0" />
		<edge from-layer="916" from-port="1" to-layer="960" to-port="0" />
		<edge from-layer="916" from-port="1" to-layer="939" to-port="0" />
		<edge from-layer="917" from-port="0" to-layer="918" to-port="0" />
		<edge from-layer="918" from-port="1" to-layer="919" to-port="1" />
		<edge from-layer="919" from-port="2" to-layer="922" to-port="0" />
		<edge from-layer="920" from-port="0" to-layer="921" to-port="0" />
		<edge from-layer="921" from-port="1" to-layer="922" to-port="1" />
		<edge from-layer="922" from-port="2" to-layer="923" to-port="0" />
		<edge from-layer="923" from-port="1" to-layer="926" to-port="0" />
		<edge from-layer="924" from-port="0" to-layer="925" to-port="0" />
		<edge from-layer="925" from-port="1" to-layer="926" to-port="1" />
		<edge from-layer="926" from-port="2" to-layer="929" to-port="0" />
		<edge from-layer="927" from-port="0" to-layer="928" to-port="0" />
		<edge from-layer="928" from-port="1" to-layer="929" to-port="1" />
		<edge from-layer="929" from-port="2" to-layer="930" to-port="0" />
		<edge from-layer="930" from-port="1" to-layer="933" to-port="0" />
		<edge from-layer="931" from-port="0" to-layer="932" to-port="0" />
		<edge from-layer="932" from-port="1" to-layer="933" to-port="1" />
		<edge from-layer="933" from-port="2" to-layer="936" to-port="0" />
		<edge from-layer="934" from-port="0" to-layer="935" to-port="0" />
		<edge from-layer="935" from-port="1" to-layer="936" to-port="1" />
		<edge from-layer="936" from-port="2" to-layer="957" to-port="0" />
		<edge from-layer="937" from-port="0" to-layer="938" to-port="0" />
		<edge from-layer="938" from-port="1" to-layer="939" to-port="1" />
		<edge from-layer="939" from-port="2" to-layer="942" to-port="0" />
		<edge from-layer="940" from-port="0" to-layer="941" to-port="0" />
		<edge from-layer="941" from-port="1" to-layer="942" to-port="1" />
		<edge from-layer="942" from-port="2" to-layer="943" to-port="0" />
		<edge from-layer="943" from-port="1" to-layer="946" to-port="0" />
		<edge from-layer="944" from-port="0" to-layer="945" to-port="0" />
		<edge from-layer="945" from-port="1" to-layer="946" to-port="1" />
		<edge from-layer="946" from-port="2" to-layer="949" to-port="0" />
		<edge from-layer="947" from-port="0" to-layer="948" to-port="0" />
		<edge from-layer="948" from-port="1" to-layer="949" to-port="1" />
		<edge from-layer="949" from-port="2" to-layer="950" to-port="0" />
		<edge from-layer="950" from-port="1" to-layer="953" to-port="0" />
		<edge from-layer="951" from-port="0" to-layer="952" to-port="0" />
		<edge from-layer="952" from-port="1" to-layer="953" to-port="1" />
		<edge from-layer="953" from-port="2" to-layer="956" to-port="0" />
		<edge from-layer="954" from-port="0" to-layer="955" to-port="0" />
		<edge from-layer="955" from-port="1" to-layer="956" to-port="1" />
		<edge from-layer="956" from-port="2" to-layer="957" to-port="1" />
		<edge from-layer="957" from-port="2" to-layer="959" to-port="0" />
		<edge from-layer="958" from-port="0" to-layer="959" to-port="1" />
		<edge from-layer="959" from-port="2" to-layer="1378" to-port="0" />
		<edge from-layer="960" from-port="1" to-layer="990" to-port="0" />
		<edge from-layer="960" from-port="1" to-layer="975" to-port="0" />
		<edge from-layer="960" from-port="1" to-layer="964" to-port="0" />
		<edge from-layer="961" from-port="0" to-layer="975" to-port="1" />
		<edge from-layer="962" from-port="0" to-layer="973" to-port="0" />
		<edge from-layer="963" from-port="0" to-layer="973" to-port="1" />
		<edge from-layer="964" from-port="1" to-layer="967" to-port="0" />
		<edge from-layer="965" from-port="0" to-layer="967" to-port="1" />
		<edge from-layer="966" from-port="0" to-layer="967" to-port="2" />
		<edge from-layer="967" from-port="3" to-layer="969" to-port="0" />
		<edge from-layer="968" from-port="0" to-layer="969" to-port="1" />
		<edge from-layer="969" from-port="2" to-layer="971" to-port="0" />
		<edge from-layer="970" from-port="0" to-layer="971" to-port="1" />
		<edge from-layer="971" from-port="2" to-layer="973" to-port="2" />
		<edge from-layer="971" from-port="2" to-layer="986" to-port="0" />
		<edge from-layer="972" from-port="0" to-layer="973" to-port="3" />
		<edge from-layer="973" from-port="4" to-layer="975" to-port="2" />
		<edge from-layer="973" from-port="4" to-layer="990" to-port="1" />
		<edge from-layer="974" from-port="0" to-layer="975" to-port="3" />
		<edge from-layer="975" from-port="4" to-layer="978" to-port="0" />
		<edge from-layer="976" from-port="0" to-layer="977" to-port="0" />
		<edge from-layer="977" from-port="1" to-layer="978" to-port="1" />
		<edge from-layer="978" from-port="2" to-layer="981" to-port="0" />
		<edge from-layer="979" from-port="0" to-layer="980" to-port="0" />
		<edge from-layer="980" from-port="1" to-layer="981" to-port="1" />
		<edge from-layer="981" from-port="2" to-layer="982" to-port="0" />
		<edge from-layer="982" from-port="1" to-layer="999" to-port="0" />
		<edge from-layer="983" from-port="0" to-layer="988" to-port="0" />
		<edge from-layer="984" from-port="0" to-layer="988" to-port="1" />
		<edge from-layer="985" from-port="0" to-layer="986" to-port="1" />
		<edge from-layer="986" from-port="2" to-layer="988" to-port="2" />
		<edge from-layer="987" from-port="0" to-layer="988" to-port="3" />
		<edge from-layer="988" from-port="4" to-layer="990" to-port="2" />
		<edge from-layer="989" from-port="0" to-layer="990" to-port="3" />
		<edge from-layer="990" from-port="4" to-layer="991" to-port="0" />
		<edge from-layer="991" from-port="1" to-layer="994" to-port="0" />
		<edge from-layer="992" from-port="0" to-layer="993" to-port="0" />
		<edge from-layer="993" from-port="1" to-layer="994" to-port="1" />
		<edge from-layer="994" from-port="2" to-layer="997" to-port="0" />
		<edge from-layer="995" from-port="0" to-layer="996" to-port="0" />
		<edge from-layer="996" from-port="1" to-layer="997" to-port="1" />
		<edge from-layer="997" from-port="2" to-layer="998" to-port="0" />
		<edge from-layer="998" from-port="1" to-layer="999" to-port="1" />
		<edge from-layer="999" from-port="3" to-layer="1002" to-port="0" />
		<edge from-layer="1000" from-port="0" to-layer="1001" to-port="0" />
		<edge from-layer="1001" from-port="1" to-layer="1002" to-port="1" />
		<edge from-layer="1002" from-port="2" to-layer="1005" to-port="0" />
		<edge from-layer="1003" from-port="0" to-layer="1004" to-port="0" />
		<edge from-layer="1004" from-port="1" to-layer="1005" to-port="1" />
		<edge from-layer="1005" from-port="2" to-layer="1006" to-port="0" />
		<edge from-layer="1006" from-port="1" to-layer="1029" to-port="0" />
		<edge from-layer="1006" from-port="1" to-layer="1021" to-port="0" />
		<edge from-layer="1006" from-port="1" to-layer="1010" to-port="0" />
		<edge from-layer="1007" from-port="0" to-layer="1021" to-port="1" />
		<edge from-layer="1008" from-port="0" to-layer="1019" to-port="0" />
		<edge from-layer="1009" from-port="0" to-layer="1019" to-port="1" />
		<edge from-layer="1010" from-port="1" to-layer="1013" to-port="0" />
		<edge from-layer="1011" from-port="0" to-layer="1013" to-port="1" />
		<edge from-layer="1012" from-port="0" to-layer="1013" to-port="2" />
		<edge from-layer="1013" from-port="3" to-layer="1015" to-port="0" />
		<edge from-layer="1014" from-port="0" to-layer="1015" to-port="1" />
		<edge from-layer="1015" from-port="2" to-layer="1017" to-port="0" />
		<edge from-layer="1016" from-port="0" to-layer="1017" to-port="1" />
		<edge from-layer="1017" from-port="2" to-layer="1019" to-port="2" />
		<edge from-layer="1017" from-port="2" to-layer="1025" to-port="0" />
		<edge from-layer="1018" from-port="0" to-layer="1019" to-port="3" />
		<edge from-layer="1019" from-port="4" to-layer="1021" to-port="2" />
		<edge from-layer="1019" from-port="4" to-layer="1029" to-port="1" />
		<edge from-layer="1020" from-port="0" to-layer="1021" to-port="3" />
		<edge from-layer="1021" from-port="4" to-layer="1118" to-port="0" />
		<edge from-layer="1022" from-port="0" to-layer="1027" to-port="0" />
		<edge from-layer="1023" from-port="0" to-layer="1027" to-port="1" />
		<edge from-layer="1024" from-port="0" to-layer="1025" to-port="1" />
		<edge from-layer="1025" from-port="2" to-layer="1027" to-port="2" />
		<edge from-layer="1026" from-port="0" to-layer="1027" to-port="3" />
		<edge from-layer="1027" from-port="4" to-layer="1029" to-port="2" />
		<edge from-layer="1028" from-port="0" to-layer="1029" to-port="3" />
		<edge from-layer="1029" from-port="4" to-layer="1118" to-port="1" />
		<edge from-layer="1029" from-port="4" to-layer="1032" to-port="0" />
		<edge from-layer="1029" from-port="4" to-layer="1054" to-port="0" />
		<edge from-layer="1030" from-port="0" to-layer="1031" to-port="0" />
		<edge from-layer="1031" from-port="1" to-layer="1032" to-port="1" />
		<edge from-layer="1032" from-port="2" to-layer="1035" to-port="0" />
		<edge from-layer="1033" from-port="0" to-layer="1034" to-port="0" />
		<edge from-layer="1034" from-port="1" to-layer="1035" to-port="1" />
		<edge from-layer="1035" from-port="2" to-layer="1036" to-port="0" />
		<edge from-layer="1036" from-port="1" to-layer="1039" to-port="0" />
		<edge from-layer="1036" from-port="1" to-layer="1051" to-port="0" />
		<edge from-layer="1037" from-port="0" to-layer="1038" to-port="0" />
		<edge from-layer="1038" from-port="1" to-layer="1039" to-port="1" />
		<edge from-layer="1039" from-port="2" to-layer="1042" to-port="0" />
		<edge from-layer="1040" from-port="0" to-layer="1041" to-port="0" />
		<edge from-layer="1041" from-port="1" to-layer="1042" to-port="1" />
		<edge from-layer="1042" from-port="2" to-layer="1043" to-port="0" />
		<edge from-layer="1043" from-port="1" to-layer="1046" to-port="0" />
		<edge from-layer="1044" from-port="0" to-layer="1045" to-port="0" />
		<edge from-layer="1045" from-port="1" to-layer="1046" to-port="1" />
		<edge from-layer="1046" from-port="2" to-layer="1049" to-port="0" />
		<edge from-layer="1047" from-port="0" to-layer="1048" to-port="0" />
		<edge from-layer="1048" from-port="1" to-layer="1049" to-port="1" />
		<edge from-layer="1049" from-port="2" to-layer="1050" to-port="0" />
		<edge from-layer="1050" from-port="1" to-layer="1051" to-port="1" />
		<edge from-layer="1051" from-port="2" to-layer="1059" to-port="0" />
		<edge from-layer="1052" from-port="0" to-layer="1053" to-port="0" />
		<edge from-layer="1053" from-port="1" to-layer="1054" to-port="1" />
		<edge from-layer="1054" from-port="2" to-layer="1057" to-port="0" />
		<edge from-layer="1055" from-port="0" to-layer="1056" to-port="0" />
		<edge from-layer="1056" from-port="1" to-layer="1057" to-port="1" />
		<edge from-layer="1057" from-port="2" to-layer="1058" to-port="0" />
		<edge from-layer="1058" from-port="1" to-layer="1059" to-port="1" />
		<edge from-layer="1059" from-port="2" to-layer="1062" to-port="0" />
		<edge from-layer="1060" from-port="0" to-layer="1061" to-port="0" />
		<edge from-layer="1061" from-port="1" to-layer="1062" to-port="1" />
		<edge from-layer="1062" from-port="2" to-layer="1065" to-port="0" />
		<edge from-layer="1063" from-port="0" to-layer="1064" to-port="0" />
		<edge from-layer="1064" from-port="1" to-layer="1065" to-port="1" />
		<edge from-layer="1065" from-port="2" to-layer="1066" to-port="0" />
		<edge from-layer="1066" from-port="1" to-layer="1069" to-port="0" />
		<edge from-layer="1067" from-port="0" to-layer="1068" to-port="0" />
		<edge from-layer="1068" from-port="1" to-layer="1069" to-port="1" />
		<edge from-layer="1069" from-port="2" to-layer="1072" to-port="0" />
		<edge from-layer="1070" from-port="0" to-layer="1071" to-port="0" />
		<edge from-layer="1071" from-port="1" to-layer="1072" to-port="1" />
		<edge from-layer="1072" from-port="2" to-layer="1073" to-port="0" />
		<edge from-layer="1073" from-port="1" to-layer="1118" to-port="2" />
		<edge from-layer="1073" from-port="1" to-layer="1076" to-port="0" />
		<edge from-layer="1073" from-port="1" to-layer="1098" to-port="0" />
		<edge from-layer="1074" from-port="0" to-layer="1075" to-port="0" />
		<edge from-layer="1075" from-port="1" to-layer="1076" to-port="1" />
		<edge from-layer="1076" from-port="2" to-layer="1079" to-port="0" />
		<edge from-layer="1077" from-port="0" to-layer="1078" to-port="0" />
		<edge from-layer="1078" from-port="1" to-layer="1079" to-port="1" />
		<edge from-layer="1079" from-port="2" to-layer="1080" to-port="0" />
		<edge from-layer="1080" from-port="1" to-layer="1083" to-port="0" />
		<edge from-layer="1080" from-port="1" to-layer="1095" to-port="0" />
		<edge from-layer="1081" from-port="0" to-layer="1082" to-port="0" />
		<edge from-layer="1082" from-port="1" to-layer="1083" to-port="1" />
		<edge from-layer="1083" from-port="2" to-layer="1086" to-port="0" />
		<edge from-layer="1084" from-port="0" to-layer="1085" to-port="0" />
		<edge from-layer="1085" from-port="1" to-layer="1086" to-port="1" />
		<edge from-layer="1086" from-port="2" to-layer="1087" to-port="0" />
		<edge from-layer="1087" from-port="1" to-layer="1090" to-port="0" />
		<edge from-layer="1088" from-port="0" to-layer="1089" to-port="0" />
		<edge from-layer="1089" from-port="1" to-layer="1090" to-port="1" />
		<edge from-layer="1090" from-port="2" to-layer="1093" to-port="0" />
		<edge from-layer="1091" from-port="0" to-layer="1092" to-port="0" />
		<edge from-layer="1092" from-port="1" to-layer="1093" to-port="1" />
		<edge from-layer="1093" from-port="2" to-layer="1094" to-port="0" />
		<edge from-layer="1094" from-port="1" to-layer="1095" to-port="1" />
		<edge from-layer="1095" from-port="2" to-layer="1103" to-port="0" />
		<edge from-layer="1096" from-port="0" to-layer="1097" to-port="0" />
		<edge from-layer="1097" from-port="1" to-layer="1098" to-port="1" />
		<edge from-layer="1098" from-port="2" to-layer="1101" to-port="0" />
		<edge from-layer="1099" from-port="0" to-layer="1100" to-port="0" />
		<edge from-layer="1100" from-port="1" to-layer="1101" to-port="1" />
		<edge from-layer="1101" from-port="2" to-layer="1102" to-port="0" />
		<edge from-layer="1102" from-port="1" to-layer="1103" to-port="1" />
		<edge from-layer="1103" from-port="2" to-layer="1106" to-port="0" />
		<edge from-layer="1104" from-port="0" to-layer="1105" to-port="0" />
		<edge from-layer="1105" from-port="1" to-layer="1106" to-port="1" />
		<edge from-layer="1106" from-port="2" to-layer="1109" to-port="0" />
		<edge from-layer="1107" from-port="0" to-layer="1108" to-port="0" />
		<edge from-layer="1108" from-port="1" to-layer="1109" to-port="1" />
		<edge from-layer="1109" from-port="2" to-layer="1110" to-port="0" />
		<edge from-layer="1110" from-port="1" to-layer="1113" to-port="0" />
		<edge from-layer="1111" from-port="0" to-layer="1112" to-port="0" />
		<edge from-layer="1112" from-port="1" to-layer="1113" to-port="1" />
		<edge from-layer="1113" from-port="2" to-layer="1116" to-port="0" />
		<edge from-layer="1114" from-port="0" to-layer="1115" to-port="0" />
		<edge from-layer="1115" from-port="1" to-layer="1116" to-port="1" />
		<edge from-layer="1116" from-port="2" to-layer="1117" to-port="0" />
		<edge from-layer="1117" from-port="1" to-layer="1118" to-port="3" />
		<edge from-layer="1118" from-port="4" to-layer="1121" to-port="0" />
		<edge from-layer="1119" from-port="0" to-layer="1120" to-port="0" />
		<edge from-layer="1120" from-port="1" to-layer="1121" to-port="1" />
		<edge from-layer="1121" from-port="2" to-layer="1124" to-port="0" />
		<edge from-layer="1122" from-port="0" to-layer="1123" to-port="0" />
		<edge from-layer="1123" from-port="1" to-layer="1124" to-port="1" />
		<edge from-layer="1124" from-port="2" to-layer="1125" to-port="0" />
		<edge from-layer="1125" from-port="1" to-layer="1169" to-port="0" />
		<edge from-layer="1125" from-port="1" to-layer="1148" to-port="0" />
		<edge from-layer="1125" from-port="1" to-layer="1128" to-port="0" />
		<edge from-layer="1126" from-port="0" to-layer="1127" to-port="0" />
		<edge from-layer="1127" from-port="1" to-layer="1128" to-port="1" />
		<edge from-layer="1128" from-port="2" to-layer="1131" to-port="0" />
		<edge from-layer="1129" from-port="0" to-layer="1130" to-port="0" />
		<edge from-layer="1130" from-port="1" to-layer="1131" to-port="1" />
		<edge from-layer="1131" from-port="2" to-layer="1132" to-port="0" />
		<edge from-layer="1132" from-port="1" to-layer="1135" to-port="0" />
		<edge from-layer="1133" from-port="0" to-layer="1134" to-port="0" />
		<edge from-layer="1134" from-port="1" to-layer="1135" to-port="1" />
		<edge from-layer="1135" from-port="2" to-layer="1138" to-port="0" />
		<edge from-layer="1136" from-port="0" to-layer="1137" to-port="0" />
		<edge from-layer="1137" from-port="1" to-layer="1138" to-port="1" />
		<edge from-layer="1138" from-port="2" to-layer="1139" to-port="0" />
		<edge from-layer="1139" from-port="1" to-layer="1142" to-port="0" />
		<edge from-layer="1140" from-port="0" to-layer="1141" to-port="0" />
		<edge from-layer="1141" from-port="1" to-layer="1142" to-port="1" />
		<edge from-layer="1142" from-port="2" to-layer="1145" to-port="0" />
		<edge from-layer="1143" from-port="0" to-layer="1144" to-port="0" />
		<edge from-layer="1144" from-port="1" to-layer="1145" to-port="1" />
		<edge from-layer="1145" from-port="2" to-layer="1166" to-port="0" />
		<edge from-layer="1146" from-port="0" to-layer="1147" to-port="0" />
		<edge from-layer="1147" from-port="1" to-layer="1148" to-port="1" />
		<edge from-layer="1148" from-port="2" to-layer="1151" to-port="0" />
		<edge from-layer="1149" from-port="0" to-layer="1150" to-port="0" />
		<edge from-layer="1150" from-port="1" to-layer="1151" to-port="1" />
		<edge from-layer="1151" from-port="2" to-layer="1152" to-port="0" />
		<edge from-layer="1152" from-port="1" to-layer="1155" to-port="0" />
		<edge from-layer="1153" from-port="0" to-layer="1154" to-port="0" />
		<edge from-layer="1154" from-port="1" to-layer="1155" to-port="1" />
		<edge from-layer="1155" from-port="2" to-layer="1158" to-port="0" />
		<edge from-layer="1156" from-port="0" to-layer="1157" to-port="0" />
		<edge from-layer="1157" from-port="1" to-layer="1158" to-port="1" />
		<edge from-layer="1158" from-port="2" to-layer="1159" to-port="0" />
		<edge from-layer="1159" from-port="1" to-layer="1162" to-port="0" />
		<edge from-layer="1160" from-port="0" to-layer="1161" to-port="0" />
		<edge from-layer="1161" from-port="1" to-layer="1162" to-port="1" />
		<edge from-layer="1162" from-port="2" to-layer="1165" to-port="0" />
		<edge from-layer="1163" from-port="0" to-layer="1164" to-port="0" />
		<edge from-layer="1164" from-port="1" to-layer="1165" to-port="1" />
		<edge from-layer="1165" from-port="2" to-layer="1166" to-port="1" />
		<edge from-layer="1166" from-port="2" to-layer="1168" to-port="0" />
		<edge from-layer="1167" from-port="0" to-layer="1168" to-port="1" />
		<edge from-layer="1168" from-port="2" to-layer="1378" to-port="1" />
		<edge from-layer="1169" from-port="1" to-layer="1173" to-port="0" />
		<edge from-layer="1169" from-port="1" to-layer="1199" to-port="0" />
		<edge from-layer="1169" from-port="1" to-layer="1184" to-port="0" />
		<edge from-layer="1170" from-port="0" to-layer="1184" to-port="1" />
		<edge from-layer="1171" from-port="0" to-layer="1182" to-port="0" />
		<edge from-layer="1172" from-port="0" to-layer="1182" to-port="1" />
		<edge from-layer="1173" from-port="1" to-layer="1176" to-port="0" />
		<edge from-layer="1174" from-port="0" to-layer="1176" to-port="1" />
		<edge from-layer="1175" from-port="0" to-layer="1176" to-port="2" />
		<edge from-layer="1176" from-port="3" to-layer="1178" to-port="0" />
		<edge from-layer="1177" from-port="0" to-layer="1178" to-port="1" />
		<edge from-layer="1178" from-port="2" to-layer="1180" to-port="0" />
		<edge from-layer="1179" from-port="0" to-layer="1180" to-port="1" />
		<edge from-layer="1180" from-port="2" to-layer="1182" to-port="2" />
		<edge from-layer="1180" from-port="2" to-layer="1195" to-port="0" />
		<edge from-layer="1181" from-port="0" to-layer="1182" to-port="3" />
		<edge from-layer="1182" from-port="4" to-layer="1184" to-port="2" />
		<edge from-layer="1182" from-port="4" to-layer="1199" to-port="1" />
		<edge from-layer="1183" from-port="0" to-layer="1184" to-port="3" />
		<edge from-layer="1184" from-port="4" to-layer="1187" to-port="0" />
		<edge from-layer="1185" from-port="0" to-layer="1186" to-port="0" />
		<edge from-layer="1186" from-port="1" to-layer="1187" to-port="1" />
		<edge from-layer="1187" from-port="2" to-layer="1190" to-port="0" />
		<edge from-layer="1188" from-port="0" to-layer="1189" to-port="0" />
		<edge from-layer="1189" from-port="1" to-layer="1190" to-port="1" />
		<edge from-layer="1190" from-port="2" to-layer="1191" to-port="0" />
		<edge from-layer="1191" from-port="1" to-layer="1208" to-port="0" />
		<edge from-layer="1192" from-port="0" to-layer="1197" to-port="0" />
		<edge from-layer="1193" from-port="0" to-layer="1197" to-port="1" />
		<edge from-layer="1194" from-port="0" to-layer="1195" to-port="1" />
		<edge from-layer="1195" from-port="2" to-layer="1197" to-port="2" />
		<edge from-layer="1196" from-port="0" to-layer="1197" to-port="3" />
		<edge from-layer="1197" from-port="4" to-layer="1199" to-port="2" />
		<edge from-layer="1198" from-port="0" to-layer="1199" to-port="3" />
		<edge from-layer="1199" from-port="4" to-layer="1200" to-port="0" />
		<edge from-layer="1200" from-port="1" to-layer="1203" to-port="0" />
		<edge from-layer="1201" from-port="0" to-layer="1202" to-port="0" />
		<edge from-layer="1202" from-port="1" to-layer="1203" to-port="1" />
		<edge from-layer="1203" from-port="2" to-layer="1206" to-port="0" />
		<edge from-layer="1204" from-port="0" to-layer="1205" to-port="0" />
		<edge from-layer="1205" from-port="1" to-layer="1206" to-port="1" />
		<edge from-layer="1206" from-port="2" to-layer="1207" to-port="0" />
		<edge from-layer="1207" from-port="1" to-layer="1208" to-port="1" />
		<edge from-layer="1208" from-port="3" to-layer="1211" to-port="0" />
		<edge from-layer="1209" from-port="0" to-layer="1210" to-port="0" />
		<edge from-layer="1210" from-port="1" to-layer="1211" to-port="1" />
		<edge from-layer="1211" from-port="2" to-layer="1214" to-port="0" />
		<edge from-layer="1212" from-port="0" to-layer="1213" to-port="0" />
		<edge from-layer="1213" from-port="1" to-layer="1214" to-port="1" />
		<edge from-layer="1214" from-port="2" to-layer="1215" to-port="0" />
		<edge from-layer="1215" from-port="1" to-layer="1219" to-port="0" />
		<edge from-layer="1215" from-port="1" to-layer="1230" to-port="0" />
		<edge from-layer="1215" from-port="1" to-layer="1238" to-port="0" />
		<edge from-layer="1216" from-port="0" to-layer="1230" to-port="1" />
		<edge from-layer="1217" from-port="0" to-layer="1228" to-port="0" />
		<edge from-layer="1218" from-port="0" to-layer="1228" to-port="1" />
		<edge from-layer="1219" from-port="1" to-layer="1222" to-port="0" />
		<edge from-layer="1220" from-port="0" to-layer="1222" to-port="1" />
		<edge from-layer="1221" from-port="0" to-layer="1222" to-port="2" />
		<edge from-layer="1222" from-port="3" to-layer="1224" to-port="0" />
		<edge from-layer="1223" from-port="0" to-layer="1224" to-port="1" />
		<edge from-layer="1224" from-port="2" to-layer="1226" to-port="0" />
		<edge from-layer="1225" from-port="0" to-layer="1226" to-port="1" />
		<edge from-layer="1226" from-port="2" to-layer="1234" to-port="0" />
		<edge from-layer="1226" from-port="2" to-layer="1228" to-port="2" />
		<edge from-layer="1227" from-port="0" to-layer="1228" to-port="3" />
		<edge from-layer="1228" from-port="4" to-layer="1238" to-port="1" />
		<edge from-layer="1228" from-port="4" to-layer="1230" to-port="2" />
		<edge from-layer="1229" from-port="0" to-layer="1230" to-port="3" />
		<edge from-layer="1230" from-port="4" to-layer="1327" to-port="0" />
		<edge from-layer="1231" from-port="0" to-layer="1236" to-port="0" />
		<edge from-layer="1232" from-port="0" to-layer="1236" to-port="1" />
		<edge from-layer="1233" from-port="0" to-layer="1234" to-port="1" />
		<edge from-layer="1234" from-port="2" to-layer="1236" to-port="2" />
		<edge from-layer="1235" from-port="0" to-layer="1236" to-port="3" />
		<edge from-layer="1236" from-port="4" to-layer="1238" to-port="2" />
		<edge from-layer="1237" from-port="0" to-layer="1238" to-port="3" />
		<edge from-layer="1238" from-port="4" to-layer="1263" to-port="0" />
		<edge from-layer="1238" from-port="4" to-layer="1327" to-port="1" />
		<edge from-layer="1238" from-port="4" to-layer="1241" to-port="0" />
		<edge from-layer="1239" from-port="0" to-layer="1240" to-port="0" />
		<edge from-layer="1240" from-port="1" to-layer="1241" to-port="1" />
		<edge from-layer="1241" from-port="2" to-layer="1244" to-port="0" />
		<edge from-layer="1242" from-port="0" to-layer="1243" to-port="0" />
		<edge from-layer="1243" from-port="1" to-layer="1244" to-port="1" />
		<edge from-layer="1244" from-port="2" to-layer="1245" to-port="0" />
		<edge from-layer="1245" from-port="1" to-layer="1248" to-port="0" />
		<edge from-layer="1245" from-port="1" to-layer="1260" to-port="0" />
		<edge from-layer="1246" from-port="0" to-layer="1247" to-port="0" />
		<edge from-layer="1247" from-port="1" to-layer="1248" to-port="1" />
		<edge from-layer="1248" from-port="2" to-layer="1251" to-port="0" />
		<edge from-layer="1249" from-port="0" to-layer="1250" to-port="0" />
		<edge from-layer="1250" from-port="1" to-layer="1251" to-port="1" />
		<edge from-layer="1251" from-port="2" to-layer="1252" to-port="0" />
		<edge from-layer="1252" from-port="1" to-layer="1255" to-port="0" />
		<edge from-layer="1253" from-port="0" to-layer="1254" to-port="0" />
		<edge from-layer="1254" from-port="1" to-layer="1255" to-port="1" />
		<edge from-layer="1255" from-port="2" to-layer="1258" to-port="0" />
		<edge from-layer="1256" from-port="0" to-layer="1257" to-port="0" />
		<edge from-layer="1257" from-port="1" to-layer="1258" to-port="1" />
		<edge from-layer="1258" from-port="2" to-layer="1259" to-port="0" />
		<edge from-layer="1259" from-port="1" to-layer="1260" to-port="1" />
		<edge from-layer="1260" from-port="2" to-layer="1268" to-port="0" />
		<edge from-layer="1261" from-port="0" to-layer="1262" to-port="0" />
		<edge from-layer="1262" from-port="1" to-layer="1263" to-port="1" />
		<edge from-layer="1263" from-port="2" to-layer="1266" to-port="0" />
		<edge from-layer="1264" from-port="0" to-layer="1265" to-port="0" />
		<edge from-layer="1265" from-port="1" to-layer="1266" to-port="1" />
		<edge from-layer="1266" from-port="2" to-layer="1267" to-port="0" />
		<edge from-layer="1267" from-port="1" to-layer="1268" to-port="1" />
		<edge from-layer="1268" from-port="2" to-layer="1271" to-port="0" />
		<edge from-layer="1269" from-port="0" to-layer="1270" to-port="0" />
		<edge from-layer="1270" from-port="1" to-layer="1271" to-port="1" />
		<edge from-layer="1271" from-port="2" to-layer="1274" to-port="0" />
		<edge from-layer="1272" from-port="0" to-layer="1273" to-port="0" />
		<edge from-layer="1273" from-port="1" to-layer="1274" to-port="1" />
		<edge from-layer="1274" from-port="2" to-layer="1275" to-port="0" />
		<edge from-layer="1275" from-port="1" to-layer="1278" to-port="0" />
		<edge from-layer="1276" from-port="0" to-layer="1277" to-port="0" />
		<edge from-layer="1277" from-port="1" to-layer="1278" to-port="1" />
		<edge from-layer="1278" from-port="2" to-layer="1281" to-port="0" />
		<edge from-layer="1279" from-port="0" to-layer="1280" to-port="0" />
		<edge from-layer="1280" from-port="1" to-layer="1281" to-port="1" />
		<edge from-layer="1281" from-port="2" to-layer="1282" to-port="0" />
		<edge from-layer="1282" from-port="1" to-layer="1307" to-port="0" />
		<edge from-layer="1282" from-port="1" to-layer="1327" to-port="2" />
		<edge from-layer="1282" from-port="1" to-layer="1285" to-port="0" />
		<edge from-layer="1283" from-port="0" to-layer="1284" to-port="0" />
		<edge from-layer="1284" from-port="1" to-layer="1285" to-port="1" />
		<edge from-layer="1285" from-port="2" to-layer="1288" to-port="0" />
		<edge from-layer="1286" from-port="0" to-layer="1287" to-port="0" />
		<edge from-layer="1287" from-port="1" to-layer="1288" to-port="1" />
		<edge from-layer="1288" from-port="2" to-layer="1289" to-port="0" />
		<edge from-layer="1289" from-port="1" to-layer="1292" to-port="0" />
		<edge from-layer="1289" from-port="1" to-layer="1304" to-port="0" />
		<edge from-layer="1290" from-port="0" to-layer="1291" to-port="0" />
		<edge from-layer="1291" from-port="1" to-layer="1292" to-port="1" />
		<edge from-layer="1292" from-port="2" to-layer="1295" to-port="0" />
		<edge from-layer="1293" from-port="0" to-layer="1294" to-port="0" />
		<edge from-layer="1294" from-port="1" to-layer="1295" to-port="1" />
		<edge from-layer="1295" from-port="2" to-layer="1296" to-port="0" />
		<edge from-layer="1296" from-port="1" to-layer="1299" to-port="0" />
		<edge from-layer="1297" from-port="0" to-layer="1298" to-port="0" />
		<edge from-layer="1298" from-port="1" to-layer="1299" to-port="1" />
		<edge from-layer="1299" from-port="2" to-layer="1302" to-port="0" />
		<edge from-layer="1300" from-port="0" to-layer="1301" to-port="0" />
		<edge from-layer="1301" from-port="1" to-layer="1302" to-port="1" />
		<edge from-layer="1302" from-port="2" to-layer="1303" to-port="0" />
		<edge from-layer="1303" from-port="1" to-layer="1304" to-port="1" />
		<edge from-layer="1304" from-port="2" to-layer="1312" to-port="0" />
		<edge from-layer="1305" from-port="0" to-layer="1306" to-port="0" />
		<edge from-layer="1306" from-port="1" to-layer="1307" to-port="1" />
		<edge from-layer="1307" from-port="2" to-layer="1310" to-port="0" />
		<edge from-layer="1308" from-port="0" to-layer="1309" to-port="0" />
		<edge from-layer="1309" from-port="1" to-layer="1310" to-port="1" />
		<edge from-layer="1310" from-port="2" to-layer="1311" to-port="0" />
		<edge from-layer="1311" from-port="1" to-layer="1312" to-port="1" />
		<edge from-layer="1312" from-port="2" to-layer="1315" to-port="0" />
		<edge from-layer="1313" from-port="0" to-layer="1314" to-port="0" />
		<edge from-layer="1314" from-port="1" to-layer="1315" to-port="1" />
		<edge from-layer="1315" from-port="2" to-layer="1318" to-port="0" />
		<edge from-layer="1316" from-port="0" to-layer="1317" to-port="0" />
		<edge from-layer="1317" from-port="1" to-layer="1318" to-port="1" />
		<edge from-layer="1318" from-port="2" to-layer="1319" to-port="0" />
		<edge from-layer="1319" from-port="1" to-layer="1322" to-port="0" />
		<edge from-layer="1320" from-port="0" to-layer="1321" to-port="0" />
		<edge from-layer="1321" from-port="1" to-layer="1322" to-port="1" />
		<edge from-layer="1322" from-port="2" to-layer="1325" to-port="0" />
		<edge from-layer="1323" from-port="0" to-layer="1324" to-port="0" />
		<edge from-layer="1324" from-port="1" to-layer="1325" to-port="1" />
		<edge from-layer="1325" from-port="2" to-layer="1326" to-port="0" />
		<edge from-layer="1326" from-port="1" to-layer="1327" to-port="3" />
		<edge from-layer="1327" from-port="4" to-layer="1330" to-port="0" />
		<edge from-layer="1328" from-port="0" to-layer="1329" to-port="0" />
		<edge from-layer="1329" from-port="1" to-layer="1330" to-port="1" />
		<edge from-layer="1330" from-port="2" to-layer="1333" to-port="0" />
		<edge from-layer="1331" from-port="0" to-layer="1332" to-port="0" />
		<edge from-layer="1332" from-port="1" to-layer="1333" to-port="1" />
		<edge from-layer="1333" from-port="2" to-layer="1334" to-port="0" />
		<edge from-layer="1334" from-port="1" to-layer="1337" to-port="0" />
		<edge from-layer="1334" from-port="1" to-layer="1357" to-port="0" />
		<edge from-layer="1335" from-port="0" to-layer="1336" to-port="0" />
		<edge from-layer="1336" from-port="1" to-layer="1337" to-port="1" />
		<edge from-layer="1337" from-port="2" to-layer="1340" to-port="0" />
		<edge from-layer="1338" from-port="0" to-layer="1339" to-port="0" />
		<edge from-layer="1339" from-port="1" to-layer="1340" to-port="1" />
		<edge from-layer="1340" from-port="2" to-layer="1341" to-port="0" />
		<edge from-layer="1341" from-port="1" to-layer="1344" to-port="0" />
		<edge from-layer="1342" from-port="0" to-layer="1343" to-port="0" />
		<edge from-layer="1343" from-port="1" to-layer="1344" to-port="1" />
		<edge from-layer="1344" from-port="2" to-layer="1347" to-port="0" />
		<edge from-layer="1345" from-port="0" to-layer="1346" to-port="0" />
		<edge from-layer="1346" from-port="1" to-layer="1347" to-port="1" />
		<edge from-layer="1347" from-port="2" to-layer="1348" to-port="0" />
		<edge from-layer="1348" from-port="1" to-layer="1351" to-port="0" />
		<edge from-layer="1349" from-port="0" to-layer="1350" to-port="0" />
		<edge from-layer="1350" from-port="1" to-layer="1351" to-port="1" />
		<edge from-layer="1351" from-port="2" to-layer="1354" to-port="0" />
		<edge from-layer="1352" from-port="0" to-layer="1353" to-port="0" />
		<edge from-layer="1353" from-port="1" to-layer="1354" to-port="1" />
		<edge from-layer="1354" from-port="2" to-layer="1375" to-port="0" />
		<edge from-layer="1355" from-port="0" to-layer="1356" to-port="0" />
		<edge from-layer="1356" from-port="1" to-layer="1357" to-port="1" />
		<edge from-layer="1357" from-port="2" to-layer="1360" to-port="0" />
		<edge from-layer="1358" from-port="0" to-layer="1359" to-port="0" />
		<edge from-layer="1359" from-port="1" to-layer="1360" to-port="1" />
		<edge from-layer="1360" from-port="2" to-layer="1361" to-port="0" />
		<edge from-layer="1361" from-port="1" to-layer="1364" to-port="0" />
		<edge from-layer="1362" from-port="0" to-layer="1363" to-port="0" />
		<edge from-layer="1363" from-port="1" to-layer="1364" to-port="1" />
		<edge from-layer="1364" from-port="2" to-layer="1367" to-port="0" />
		<edge from-layer="1365" from-port="0" to-layer="1366" to-port="0" />
		<edge from-layer="1366" from-port="1" to-layer="1367" to-port="1" />
		<edge from-layer="1367" from-port="2" to-layer="1368" to-port="0" />
		<edge from-layer="1368" from-port="1" to-layer="1371" to-port="0" />
		<edge from-layer="1369" from-port="0" to-layer="1370" to-port="0" />
		<edge from-layer="1370" from-port="1" to-layer="1371" to-port="1" />
		<edge from-layer="1371" from-port="2" to-layer="1374" to-port="0" />
		<edge from-layer="1372" from-port="0" to-layer="1373" to-port="0" />
		<edge from-layer="1373" from-port="1" to-layer="1374" to-port="1" />
		<edge from-layer="1374" from-port="2" to-layer="1375" to-port="1" />
		<edge from-layer="1375" from-port="2" to-layer="1377" to-port="0" />
		<edge from-layer="1376" from-port="0" to-layer="1377" to-port="1" />
		<edge from-layer="1377" from-port="2" to-layer="1378" to-port="2" />
		<edge from-layer="1378" from-port="3" to-layer="1381" to-port="0" />
		<edge from-layer="1379" from-port="0" to-layer="1381" to-port="1" />
		<edge from-layer="1380" from-port="0" to-layer="1381" to-port="2" />
		<edge from-layer="1381" from-port="3" to-layer="1383" to-port="0" />
		<edge from-layer="1381" from-port="4" to-layer="1410" to-port="0" />
		<edge from-layer="1382" from-port="0" to-layer="1383" to-port="1" />
		<edge from-layer="1383" from-port="2" to-layer="1385" to-port="0" />
		<edge from-layer="1384" from-port="0" to-layer="1385" to-port="1" />
		<edge from-layer="1385" from-port="2" to-layer="1386" to-port="0" />
		<edge from-layer="1386" from-port="1" to-layer="1388" to-port="0" />
		<edge from-layer="1387" from-port="0" to-layer="1388" to-port="1" />
		<edge from-layer="1388" from-port="2" to-layer="1391" to-port="0" />
		<edge from-layer="1389" from-port="0" to-layer="1390" to-port="0" />
		<edge from-layer="1390" from-port="1" to-layer="1391" to-port="1" />
		<edge from-layer="1391" from-port="2" to-layer="1393" to-port="0" />
		<edge from-layer="1392" from-port="0" to-layer="1393" to-port="1" />
		<edge from-layer="1393" from-port="2" to-layer="1396" to-port="0" />
		<edge from-layer="1394" from-port="0" to-layer="1396" to-port="1" />
		<edge from-layer="1395" from-port="0" to-layer="1396" to-port="2" />
		<edge from-layer="1396" from-port="3" to-layer="1397" to-port="1" />
		<edge from-layer="1396" from-port="4" to-layer="1400" to-port="1" />
		<edge from-layer="1397" from-port="2" to-layer="1401" to-port="0" />
		<edge from-layer="1397" from-port="2" to-layer="1405" to-port="1" />
		<edge from-layer="1398" from-port="0" to-layer="1399" to-port="0" />
		<edge from-layer="1399" from-port="1" to-layer="1400" to-port="0" />
		<edge from-layer="1400" from-port="2" to-layer="1401" to-port="1" />
		<edge from-layer="1400" from-port="2" to-layer="1405" to-port="0" />
		<edge from-layer="1401" from-port="2" to-layer="1404" to-port="0" />
		<edge from-layer="1402" from-port="0" to-layer="1403" to-port="0" />
		<edge from-layer="1403" from-port="1" to-layer="1404" to-port="1" />
		<edge from-layer="1404" from-port="2" to-layer="1406" to-port="0" />
		<edge from-layer="1405" from-port="2" to-layer="1406" to-port="1" />
		<edge from-layer="1406" from-port="2" to-layer="1409" to-port="0" />
		<edge from-layer="1407" from-port="0" to-layer="1408" to-port="0" />
		<edge from-layer="1408" from-port="1" to-layer="1409" to-port="1" />
		<edge from-layer="1409" from-port="2" to-layer="1411" to-port="0" />
		<edge from-layer="1410" from-port="1" to-layer="1411" to-port="1" />
		<edge from-layer="1411" from-port="2" to-layer="1412" to-port="0" />
	</edges>
	<rt_info>
		<MO_version value="2024.1.0-15008-f4afc983258-releases/2024/1" />
		<Runtime_version value="2024.1.0-15008-f4afc983258-releases/2024/1" />
		<conversion_parameters>
			<input_model value="DIR/best-converted.onnx" />
			<is_python_api_used value="False" />
			<model_name value="best" />
			<output_dir value="DIR" />
		</conversion_parameters>
		<framework>
			<names value="{0: 'person', 1: 'vehicle', 2: 'animal'}" />
			<stride value="32" />
		</framework>
		<legacy_frontend value="False" />
	</rt_info>
</net>
