<?xml version="1.0"?>
<net name="Model0" version="11">
	<layers>
		<layer id="0" name="x" type="Parameter" version="opset1">
			<data shape="1,3,320,320" element_type="f32" />
			<output>
				<port id="0" precision="FP32" names="x">
					<dim>1</dim>
					<dim>3</dim>
					<dim>320</dim>
					<dim>320</dim>
				</port>
			</output>
		</layer>
		<layer id="1" name="__module.model.22/aten::unsqueeze/Unsqueeze" type="Const" version="opset1">
			<data element_type="f32" shape="1, 2, 2100" offset="0" size="16800" />
			<output>
				<port id="0" precision="FP32" names="1936,anchor_points">
					<dim>1</dim>
					<dim>2</dim>
					<dim>2100</dim>
				</port>
			</output>
		</layer>
		<layer id="2" name="x/fq_output_0/input_low" type="Const" version="opset1">
			<data element_type="f32" shape="" offset="16800" size="4" />
			<output>
				<port id="0" precision="FP32" />
			</output>
		</layer>
		<layer id="3" name="x/fq_output_0/input_high" type="Const" version="opset1">
			<data element_type="f32" shape="" offset="16804" size="4" />
			<output>
				<port id="0" precision="FP32" />
			</output>
		</layer>
		<layer id="4" name="x/fq_output_0/output_low" type="Const" version="opset1">
			<data element_type="f32" shape="" offset="16800" size="4" />
			<output>
				<port id="0" precision="FP32" />
			</output>
		</layer>
		<layer id="5" name="x/fq_output_0/output_high" type="Const" version="opset1">
			<data element_type="f32" shape="" offset="16804" size="4" />
			<output>
				<port id="0" precision="FP32" />
			</output>
		</layer>
		<layer id="6" name="x/fq_output_0" type="FakeQuantize" version="opset1">
			<data levels="256" auto_broadcast="numpy" />
			<input>
				<port id="0" precision="FP32">
					<dim>1</dim>
					<dim>3</dim>
					<dim>320</dim>
					<dim>320</dim>
				</port>
				<port id="1" precision="FP32" />
				<port id="2" precision="FP32" />
				<port id="3" precision="FP32" />
				<port id="4" precision="FP32" />
			</input>
			<output>
				<port id="5" precision="FP32">
					<dim>1</dim>
					<dim>3</dim>
					<dim>320</dim>
					<dim>320</dim>
				</port>
			</output>
		</layer>
		<layer id="7" name="Constant_919122" type="Const" version="opset1">
			<data element_type="i8" shape="64, 3, 3, 3" offset="16808" size="1728" />
			<output>
				<port id="0" precision="I8">
					<dim>64</dim>
					<dim>3</dim>
					<dim>3</dim>
					<dim>3</dim>
				</port>
			</output>
		</layer>
		<layer id="8" name="Convert_919123" type="Convert" version="opset1">
			<data destination_type="f32" />
			<input>
				<port id="0" precision="I8">
					<dim>64</dim>
					<dim>3</dim>
					<dim>3</dim>
					<dim>3</dim>
				</port>
			</input>
			<output>
				<port id="1" precision="FP32">
					<dim>64</dim>
					<dim>3</dim>
					<dim>3</dim>
					<dim>3</dim>
				</port>
			</output>
		</layer>
		<layer id="9" name="Constant_919124" type="Const" version="opset1">
			<data element_type="f32" shape="64, 1, 1, 1" offset="18536" size="256" />
			<output>
				<port id="0" precision="FP32">
					<dim>64</dim>
					<dim>1</dim>
					<dim>1</dim>
					<dim>1</dim>
				</port>
			</output>
		</layer>
		<layer id="10" name="__module.model.0.conv/aten::_convolution/Convolution/fq_weights_1" type="Multiply" version="opset1">
			<data auto_broadcast="numpy" />
			<input>
				<port id="0" precision="FP32">
					<dim>64</dim>
					<dim>3</dim>
					<dim>3</dim>
					<dim>3</dim>
				</port>
				<port id="1" precision="FP32">
					<dim>64</dim>
					<dim>1</dim>
					<dim>1</dim>
					<dim>1</dim>
				</port>
			</input>
			<output>
				<port id="2" precision="FP32">
					<dim>64</dim>
					<dim>3</dim>
					<dim>3</dim>
					<dim>3</dim>
				</port>
			</output>
		</layer>
		<layer id="11" name="__module.model.0.conv/aten::_convolution/Convolution" type="Convolution" version="opset1">
			<data strides="2, 2" dilations="1, 1" pads_begin="1, 1" pads_end="1, 1" auto_pad="explicit" />
			<input>
				<port id="0" precision="FP32">
					<dim>1</dim>
					<dim>3</dim>
					<dim>320</dim>
					<dim>320</dim>
				</port>
				<port id="1" precision="FP32">
					<dim>64</dim>
					<dim>3</dim>
					<dim>3</dim>
					<dim>3</dim>
				</port>
			</input>
			<output>
				<port id="2" precision="FP32">
					<dim>1</dim>
					<dim>64</dim>
					<dim>160</dim>
					<dim>160</dim>
				</port>
			</output>
		</layer>
		<layer id="12" name="__module.model.0.conv/aten::_convolution/Reshape" type="Const" version="opset1">
			<data element_type="f32" shape="1, 64, 1, 1" offset="18792" size="256" />
			<output>
				<port id="0" precision="FP32">
					<dim>1</dim>
					<dim>64</dim>
					<dim>1</dim>
					<dim>1</dim>
				</port>
			</output>
		</layer>
		<layer id="13" name="__module.model.0.conv/aten::_convolution/Add" type="Add" version="opset1">
			<data auto_broadcast="numpy" />
			<input>
				<port id="0" precision="FP32">
					<dim>1</dim>
					<dim>64</dim>
					<dim>160</dim>
					<dim>160</dim>
				</port>
				<port id="1" precision="FP32">
					<dim>1</dim>
					<dim>64</dim>
					<dim>1</dim>
					<dim>1</dim>
				</port>
			</input>
			<output>
				<port id="2" precision="FP32" names="97_1">
					<dim>1</dim>
					<dim>64</dim>
					<dim>160</dim>
					<dim>160</dim>
				</port>
			</output>
		</layer>
		<layer id="14" name="__module.model.22.cv3.2.1.act/aten::relu_/Relu" type="ReLU" version="opset1">
			<input>
				<port id="0" precision="FP32">
					<dim>1</dim>
					<dim>64</dim>
					<dim>160</dim>
					<dim>160</dim>
				</port>
			</input>
			<output>
				<port id="1" precision="FP32" names="97,input.1">
					<dim>1</dim>
					<dim>64</dim>
					<dim>160</dim>
					<dim>160</dim>
				</port>
			</output>
		</layer>
		<layer id="15" name="__module.model.22.cv3.2.1.act/aten::relu_/Relu/fq_output_0/input_low" type="Const" version="opset1">
			<data element_type="f32" shape="" offset="16800" size="4" />
			<output>
				<port id="0" precision="FP32" />
			</output>
		</layer>
		<layer id="16" name="__module.model.22.cv3.2.1.act/aten::relu_/Relu/fq_output_0/input_high" type="Const" version="opset1">
			<data element_type="f32" shape="" offset="19048" size="4" />
			<output>
				<port id="0" precision="FP32" />
			</output>
		</layer>
		<layer id="17" name="__module.model.22.cv3.2.1.act/aten::relu_/Relu/fq_output_0/output_low" type="Const" version="opset1">
			<data element_type="f32" shape="" offset="16800" size="4" />
			<output>
				<port id="0" precision="FP32" />
			</output>
		</layer>
		<layer id="18" name="__module.model.22.cv3.2.1.act/aten::relu_/Relu/fq_output_0/output_high" type="Const" version="opset1">
			<data element_type="f32" shape="" offset="19048" size="4" />
			<output>
				<port id="0" precision="FP32" />
			</output>
		</layer>
		<layer id="19" name="__module.model.22.cv3.2.1.act/aten::relu_/Relu/fq_output_0" type="FakeQuantize" version="opset1">
			<data levels="256" auto_broadcast="numpy" />
			<input>
				<port id="0" precision="FP32">
					<dim>1</dim>
					<dim>64</dim>
					<dim>160</dim>
					<dim>160</dim>
				</port>
				<port id="1" precision="FP32" />
				<port id="2" precision="FP32" />
				<port id="3" precision="FP32" />
				<port id="4" precision="FP32" />
			</input>
			<output>
				<port id="5" precision="FP32">
					<dim>1</dim>
					<dim>64</dim>
					<dim>160</dim>
					<dim>160</dim>
				</port>
			</output>
		</layer>
		<layer id="20" name="Constant_919126" type="Const" version="opset1">
			<data element_type="i8" shape="128, 64, 3, 3" offset="19052" size="73728" />
			<output>
				<port id="0" precision="I8">
					<dim>128</dim>
					<dim>64</dim>
					<dim>3</dim>
					<dim>3</dim>
				</port>
			</output>
		</layer>
		<layer id="21" name="Convert_919127" type="Convert" version="opset1">
			<data destination_type="f32" />
			<input>
				<port id="0" precision="I8">
					<dim>128</dim>
					<dim>64</dim>
					<dim>3</dim>
					<dim>3</dim>
				</port>
			</input>
			<output>
				<port id="1" precision="FP32">
					<dim>128</dim>
					<dim>64</dim>
					<dim>3</dim>
					<dim>3</dim>
				</port>
			</output>
		</layer>
		<layer id="22" name="Constant_919128" type="Const" version="opset1">
			<data element_type="f32" shape="128, 1, 1, 1" offset="92780" size="512" />
			<output>
				<port id="0" precision="FP32">
					<dim>128</dim>
					<dim>1</dim>
					<dim>1</dim>
					<dim>1</dim>
				</port>
			</output>
		</layer>
		<layer id="23" name="__module.model.1.conv/aten::_convolution/Convolution/fq_weights_1" type="Multiply" version="opset1">
			<data auto_broadcast="numpy" />
			<input>
				<port id="0" precision="FP32">
					<dim>128</dim>
					<dim>64</dim>
					<dim>3</dim>
					<dim>3</dim>
				</port>
				<port id="1" precision="FP32">
					<dim>128</dim>
					<dim>1</dim>
					<dim>1</dim>
					<dim>1</dim>
				</port>
			</input>
			<output>
				<port id="2" precision="FP32">
					<dim>128</dim>
					<dim>64</dim>
					<dim>3</dim>
					<dim>3</dim>
				</port>
			</output>
		</layer>
		<layer id="24" name="__module.model.1.conv/aten::_convolution/Convolution" type="Convolution" version="opset1">
			<data strides="2, 2" dilations="1, 1" pads_begin="1, 1" pads_end="1, 1" auto_pad="explicit" />
			<input>
				<port id="0" precision="FP32">
					<dim>1</dim>
					<dim>64</dim>
					<dim>160</dim>
					<dim>160</dim>
				</port>
				<port id="1" precision="FP32">
					<dim>128</dim>
					<dim>64</dim>
					<dim>3</dim>
					<dim>3</dim>
				</port>
			</input>
			<output>
				<port id="2" precision="FP32">
					<dim>1</dim>
					<dim>128</dim>
					<dim>80</dim>
					<dim>80</dim>
				</port>
			</output>
		</layer>
		<layer id="25" name="__module.model.1.conv/aten::_convolution/Reshape" type="Const" version="opset1">
			<data element_type="f32" shape="1, 128, 1, 1" offset="93292" size="512" />
			<output>
				<port id="0" precision="FP32">
					<dim>1</dim>
					<dim>128</dim>
					<dim>1</dim>
					<dim>1</dim>
				</port>
			</output>
		</layer>
		<layer id="26" name="__module.model.1.conv/aten::_convolution/Add" type="Add" version="opset1">
			<data auto_broadcast="numpy" />
			<input>
				<port id="0" precision="FP32">
					<dim>1</dim>
					<dim>128</dim>
					<dim>80</dim>
					<dim>80</dim>
				</port>
				<port id="1" precision="FP32">
					<dim>1</dim>
					<dim>128</dim>
					<dim>1</dim>
					<dim>1</dim>
				</port>
			</input>
			<output>
				<port id="2" precision="FP32" names="111_1">
					<dim>1</dim>
					<dim>128</dim>
					<dim>80</dim>
					<dim>80</dim>
				</port>
			</output>
		</layer>
		<layer id="27" name="__module.model.22.cv3.2.1.act/aten::relu_/Relu_1" type="ReLU" version="opset1">
			<input>
				<port id="0" precision="FP32">
					<dim>1</dim>
					<dim>128</dim>
					<dim>80</dim>
					<dim>80</dim>
				</port>
			</input>
			<output>
				<port id="1" precision="FP32" names="111,input.5">
					<dim>1</dim>
					<dim>128</dim>
					<dim>80</dim>
					<dim>80</dim>
				</port>
			</output>
		</layer>
		<layer id="28" name="__module.model.22.cv3.2.1.act/aten::relu_/Relu_1/fq_output_0/input_low" type="Const" version="opset1">
			<data element_type="f32" shape="" offset="16800" size="4" />
			<output>
				<port id="0" precision="FP32" />
			</output>
		</layer>
		<layer id="29" name="__module.model.22.cv3.2.1.act/aten::relu_/Relu_1/fq_output_0/input_high" type="Const" version="opset1">
			<data element_type="f32" shape="" offset="93804" size="4" />
			<output>
				<port id="0" precision="FP32" />
			</output>
		</layer>
		<layer id="30" name="__module.model.22.cv3.2.1.act/aten::relu_/Relu_1/fq_output_0/output_low" type="Const" version="opset1">
			<data element_type="f32" shape="" offset="16800" size="4" />
			<output>
				<port id="0" precision="FP32" />
			</output>
		</layer>
		<layer id="31" name="__module.model.22.cv3.2.1.act/aten::relu_/Relu_1/fq_output_0/output_high" type="Const" version="opset1">
			<data element_type="f32" shape="" offset="93804" size="4" />
			<output>
				<port id="0" precision="FP32" />
			</output>
		</layer>
		<layer id="32" name="__module.model.22.cv3.2.1.act/aten::relu_/Relu_1/fq_output_0" type="FakeQuantize" version="opset1">
			<data levels="256" auto_broadcast="numpy" />
			<input>
				<port id="0" precision="FP32">
					<dim>1</dim>
					<dim>128</dim>
					<dim>80</dim>
					<dim>80</dim>
				</port>
				<port id="1" precision="FP32" />
				<port id="2" precision="FP32" />
				<port id="3" precision="FP32" />
				<port id="4" precision="FP32" />
			</input>
			<output>
				<port id="5" precision="FP32">
					<dim>1</dim>
					<dim>128</dim>
					<dim>80</dim>
					<dim>80</dim>
				</port>
			</output>
		</layer>
		<layer id="33" name="Constant_919130" type="Const" version="opset1">
			<data element_type="i8" shape="128, 128, 1, 1" offset="93808" size="16384" />
			<output>
				<port id="0" precision="I8">
					<dim>128</dim>
					<dim>128</dim>
					<dim>1</dim>
					<dim>1</dim>
				</port>
			</output>
		</layer>
		<layer id="34" name="Convert_919131" type="Convert" version="opset1">
			<data destination_type="f32" />
			<input>
				<port id="0" precision="I8">
					<dim>128</dim>
					<dim>128</dim>
					<dim>1</dim>
					<dim>1</dim>
				</port>
			</input>
			<output>
				<port id="1" precision="FP32">
					<dim>128</dim>
					<dim>128</dim>
					<dim>1</dim>
					<dim>1</dim>
				</port>
			</output>
		</layer>
		<layer id="35" name="Constant_919132" type="Const" version="opset1">
			<data element_type="f32" shape="128, 1, 1, 1" offset="110192" size="512" />
			<output>
				<port id="0" precision="FP32">
					<dim>128</dim>
					<dim>1</dim>
					<dim>1</dim>
					<dim>1</dim>
				</port>
			</output>
		</layer>
		<layer id="36" name="__module.model.2.cv1.conv/aten::_convolution/Convolution/fq_weights_1" type="Multiply" version="opset1">
			<data auto_broadcast="numpy" />
			<input>
				<port id="0" precision="FP32">
					<dim>128</dim>
					<dim>128</dim>
					<dim>1</dim>
					<dim>1</dim>
				</port>
				<port id="1" precision="FP32">
					<dim>128</dim>
					<dim>1</dim>
					<dim>1</dim>
					<dim>1</dim>
				</port>
			</input>
			<output>
				<port id="2" precision="FP32">
					<dim>128</dim>
					<dim>128</dim>
					<dim>1</dim>
					<dim>1</dim>
				</port>
			</output>
		</layer>
		<layer id="37" name="__module.model.2.cv1.conv/aten::_convolution/Convolution" type="Convolution" version="opset1">
			<data strides="1, 1" dilations="1, 1" pads_begin="0, 0" pads_end="0, 0" auto_pad="explicit" />
			<input>
				<port id="0" precision="FP32">
					<dim>1</dim>
					<dim>128</dim>
					<dim>80</dim>
					<dim>80</dim>
				</port>
				<port id="1" precision="FP32">
					<dim>128</dim>
					<dim>128</dim>
					<dim>1</dim>
					<dim>1</dim>
				</port>
			</input>
			<output>
				<port id="2" precision="FP32">
					<dim>1</dim>
					<dim>128</dim>
					<dim>80</dim>
					<dim>80</dim>
				</port>
			</output>
		</layer>
		<layer id="38" name="__module.model.2.cv1.conv/aten::_convolution/Reshape" type="Const" version="opset1">
			<data element_type="f32" shape="1, 128, 1, 1" offset="110704" size="512" />
			<output>
				<port id="0" precision="FP32">
					<dim>1</dim>
					<dim>128</dim>
					<dim>1</dim>
					<dim>1</dim>
				</port>
			</output>
		</layer>
		<layer id="39" name="__module.model.2.cv1.conv/aten::_convolution/Add" type="Add" version="opset1">
			<data auto_broadcast="numpy" />
			<input>
				<port id="0" precision="FP32">
					<dim>1</dim>
					<dim>128</dim>
					<dim>80</dim>
					<dim>80</dim>
				</port>
				<port id="1" precision="FP32">
					<dim>1</dim>
					<dim>128</dim>
					<dim>1</dim>
					<dim>1</dim>
				</port>
			</input>
			<output>
				<port id="2" precision="FP32" names="129_1">
					<dim>1</dim>
					<dim>128</dim>
					<dim>80</dim>
					<dim>80</dim>
				</port>
			</output>
		</layer>
		<layer id="40" name="__module.model.22.cv3.2.1.act/aten::relu_/Relu_2" type="ReLU" version="opset1">
			<input>
				<port id="0" precision="FP32">
					<dim>1</dim>
					<dim>128</dim>
					<dim>80</dim>
					<dim>80</dim>
				</port>
			</input>
			<output>
				<port id="1" precision="FP32" names="129,input.9">
					<dim>1</dim>
					<dim>128</dim>
					<dim>80</dim>
					<dim>80</dim>
				</port>
			</output>
		</layer>
		<layer id="41" name="__module.model.22.cv3.2.1.act/aten::relu_/Relu_2/fq_output_0/input_low" type="Const" version="opset1">
			<data element_type="f32" shape="" offset="16800" size="4" />
			<output>
				<port id="0" precision="FP32" />
			</output>
		</layer>
		<layer id="42" name="__module.model.22.cv3.2.1.act/aten::relu_/Relu_2/fq_output_0/input_high" type="Const" version="opset1">
			<data element_type="f32" shape="" offset="111216" size="4" />
			<output>
				<port id="0" precision="FP32" />
			</output>
		</layer>
		<layer id="43" name="__module.model.22.cv3.2.1.act/aten::relu_/Relu_2/fq_output_0/output_low" type="Const" version="opset1">
			<data element_type="f32" shape="" offset="16800" size="4" />
			<output>
				<port id="0" precision="FP32" />
			</output>
		</layer>
		<layer id="44" name="__module.model.22.cv3.2.1.act/aten::relu_/Relu_2/fq_output_0/output_high" type="Const" version="opset1">
			<data element_type="f32" shape="" offset="111216" size="4" />
			<output>
				<port id="0" precision="FP32" />
			</output>
		</layer>
		<layer id="45" name="__module.model.22.cv3.2.1.act/aten::relu_/Relu_2/fq_output_0" type="FakeQuantize" version="opset1">
			<data levels="256" auto_broadcast="numpy" />
			<input>
				<port id="0" precision="FP32">
					<dim>1</dim>
					<dim>128</dim>
					<dim>80</dim>
					<dim>80</dim>
				</port>
				<port id="1" precision="FP32" />
				<port id="2" precision="FP32" />
				<port id="3" precision="FP32" />
				<port id="4" precision="FP32" />
			</input>
			<output>
				<port id="5" precision="FP32">
					<dim>1</dim>
					<dim>128</dim>
					<dim>80</dim>
					<dim>80</dim>
				</port>
			</output>
		</layer>
		<layer id="46" name="117" type="Const" version="opset1">
			<data element_type="i64" shape="" offset="111220" size="8" />
			<output>
				<port id="0" precision="I64" names="117" />
			</output>
		</layer>
		<layer id="47" name="__module.model.2/prim::ListUnpack/ShapeOf" type="ShapeOf" version="opset3">
			<data output_type="i32" />
			<input>
				<port id="0" precision="FP32">
					<dim>1</dim>
					<dim>128</dim>
					<dim>80</dim>
					<dim>80</dim>
				</port>
			</input>
			<output>
				<port id="1" precision="I32">
					<dim>4</dim>
				</port>
			</output>
		</layer>
		<layer id="48" name="Constant_9951" type="Const" version="opset1">
			<data element_type="i32" shape="1" offset="16800" size="4" />
			<output>
				<port id="0" precision="I32">
					<dim>1</dim>
				</port>
			</output>
		</layer>
		<layer id="49" name="__module.model.2/prim::ListUnpack/Gather" type="Gather" version="opset8">
			<data batch_dims="0" />
			<input>
				<port id="0" precision="I32">
					<dim>4</dim>
				</port>
				<port id="1" precision="I64" />
				<port id="2" precision="I32">
					<dim>1</dim>
				</port>
			</input>
			<output>
				<port id="3" precision="I32" />
			</output>
		</layer>
		<layer id="50" name="__module.model.2/prim::ListUnpack/Convert" type="Const" version="opset1">
			<data element_type="i32" shape="" offset="111228" size="4" />
			<output>
				<port id="0" precision="I32" />
			</output>
		</layer>
		<layer id="51" name="__module.model.2/prim::ListUnpack/Divide" type="Divide" version="opset1">
			<data auto_broadcast="numpy" m_pythondiv="true" />
			<input>
				<port id="0" precision="I32" />
				<port id="1" precision="I32" />
			</input>
			<output>
				<port id="2" precision="I32" />
			</output>
		</layer>
		<layer id="52" name="__module.model.2/prim::ListUnpack/Mod" type="Mod" version="opset1">
			<data auto_broadcast="numpy" />
			<input>
				<port id="0" precision="I32" />
				<port id="1" precision="I32" />
			</input>
			<output>
				<port id="2" precision="I32" />
			</output>
		</layer>
		<layer id="53" name="__module.model.2/prim::ListUnpack/Greater" type="Greater" version="opset1">
			<data auto_broadcast="numpy" />
			<input>
				<port id="0" precision="I32" />
				<port id="1" precision="I32">
					<dim>1</dim>
				</port>
			</input>
			<output>
				<port id="2" precision="BOOL">
					<dim>1</dim>
				</port>
			</output>
		</layer>
		<layer id="54" name="__module.model.2/prim::ListUnpack/Convert_0" type="Convert" version="opset1">
			<data destination_type="i32" />
			<input>
				<port id="0" precision="BOOL">
					<dim>1</dim>
				</port>
			</input>
			<output>
				<port id="1" precision="I32">
					<dim>1</dim>
				</port>
			</output>
		</layer>
		<layer id="55" name="__module.model.2/prim::ListUnpack/Add" type="Add" version="opset1">
			<data auto_broadcast="numpy" />
			<input>
				<port id="0" precision="I32" />
				<port id="1" precision="I32">
					<dim>1</dim>
				</port>
			</input>
			<output>
				<port id="2" precision="I32">
					<dim>1</dim>
				</port>
			</output>
		</layer>
		<layer id="56" name="Constant_9960" type="Const" version="opset1">
			<data element_type="i32" shape="1" offset="111232" size="4" />
			<output>
				<port id="0" precision="I32">
					<dim>1</dim>
				</port>
			</output>
		</layer>
		<layer id="57" name="__module.model.2/prim::ListUnpack/Broadcast" type="Broadcast" version="opset3">
			<data mode="numpy" />
			<input>
				<port id="0" precision="I32">
					<dim>1</dim>
				</port>
				<port id="1" precision="I32">
					<dim>1</dim>
				</port>
			</input>
			<output>
				<port id="2" precision="I32">
					<dim>1</dim>
				</port>
			</output>
		</layer>
		<layer id="58" name="Constant_9952" type="Const" version="opset1">
			<data element_type="i32" shape="1" offset="111236" size="4" />
			<output>
				<port id="0" precision="I32">
					<dim>1</dim>
				</port>
			</output>
		</layer>
		<layer id="59" name="__module.model.2/prim::ListUnpack/Concat" type="Concat" version="opset1">
			<data axis="0" />
			<input>
				<port id="0" precision="I32">
					<dim>1</dim>
				</port>
				<port id="1" precision="I32">
					<dim>1</dim>
				</port>
			</input>
			<output>
				<port id="2" precision="I32">
					<dim>2</dim>
				</port>
			</output>
		</layer>
		<layer id="60" name="__module.model.2/prim::ListUnpack/VariadicSplit" type="VariadicSplit" version="opset1">
			<input>
				<port id="0" precision="FP32">
					<dim>1</dim>
					<dim>128</dim>
					<dim>80</dim>
					<dim>80</dim>
				</port>
				<port id="1" precision="I64" />
				<port id="2" precision="I32">
					<dim>2</dim>
				</port>
			</input>
			<output>
				<port id="3" precision="FP32" names="132">
					<dim>1</dim>
					<dim>64</dim>
					<dim>80</dim>
					<dim>80</dim>
				</port>
				<port id="4" precision="FP32" names="133,input.11">
					<dim>1</dim>
					<dim>64</dim>
					<dim>80</dim>
					<dim>80</dim>
				</port>
			</output>
		</layer>
		<layer id="61" name="Constant_919134" type="Const" version="opset1">
			<data element_type="i8" shape="32, 64, 1, 1" offset="111240" size="2048" />
			<output>
				<port id="0" precision="I8">
					<dim>32</dim>
					<dim>64</dim>
					<dim>1</dim>
					<dim>1</dim>
				</port>
			</output>
		</layer>
		<layer id="62" name="Convert_919135" type="Convert" version="opset1">
			<data destination_type="f32" />
			<input>
				<port id="0" precision="I8">
					<dim>32</dim>
					<dim>64</dim>
					<dim>1</dim>
					<dim>1</dim>
				</port>
			</input>
			<output>
				<port id="1" precision="FP32">
					<dim>32</dim>
					<dim>64</dim>
					<dim>1</dim>
					<dim>1</dim>
				</port>
			</output>
		</layer>
		<layer id="63" name="Constant_919136" type="Const" version="opset1">
			<data element_type="f32" shape="32, 1, 1, 1" offset="113288" size="128" />
			<output>
				<port id="0" precision="FP32">
					<dim>32</dim>
					<dim>1</dim>
					<dim>1</dim>
					<dim>1</dim>
				</port>
			</output>
		</layer>
		<layer id="64" name="__module.model.2.cv2.0.cv1.conv/aten::_convolution/Convolution/fq_weights_1" type="Multiply" version="opset1">
			<data auto_broadcast="numpy" />
			<input>
				<port id="0" precision="FP32">
					<dim>32</dim>
					<dim>64</dim>
					<dim>1</dim>
					<dim>1</dim>
				</port>
				<port id="1" precision="FP32">
					<dim>32</dim>
					<dim>1</dim>
					<dim>1</dim>
					<dim>1</dim>
				</port>
			</input>
			<output>
				<port id="2" precision="FP32">
					<dim>32</dim>
					<dim>64</dim>
					<dim>1</dim>
					<dim>1</dim>
				</port>
			</output>
		</layer>
		<layer id="65" name="__module.model.2.cv2.0.cv1.conv/aten::_convolution/Convolution" type="Convolution" version="opset1">
			<data strides="1, 1" dilations="1, 1" pads_begin="0, 0" pads_end="0, 0" auto_pad="explicit" />
			<input>
				<port id="0" precision="FP32">
					<dim>1</dim>
					<dim>64</dim>
					<dim>80</dim>
					<dim>80</dim>
				</port>
				<port id="1" precision="FP32">
					<dim>32</dim>
					<dim>64</dim>
					<dim>1</dim>
					<dim>1</dim>
				</port>
			</input>
			<output>
				<port id="2" precision="FP32">
					<dim>1</dim>
					<dim>32</dim>
					<dim>80</dim>
					<dim>80</dim>
				</port>
			</output>
		</layer>
		<layer id="66" name="__module.model.2.cv2.0.cv1.conv/aten::_convolution/Reshape" type="Const" version="opset1">
			<data element_type="f32" shape="1, 32, 1, 1" offset="113416" size="128" />
			<output>
				<port id="0" precision="FP32">
					<dim>1</dim>
					<dim>32</dim>
					<dim>1</dim>
					<dim>1</dim>
				</port>
			</output>
		</layer>
		<layer id="67" name="__module.model.2.cv2.0.cv1.conv/aten::_convolution/Add" type="Add" version="opset1">
			<data auto_broadcast="numpy" />
			<input>
				<port id="0" precision="FP32">
					<dim>1</dim>
					<dim>32</dim>
					<dim>80</dim>
					<dim>80</dim>
				</port>
				<port id="1" precision="FP32">
					<dim>1</dim>
					<dim>32</dim>
					<dim>1</dim>
					<dim>1</dim>
				</port>
			</input>
			<output>
				<port id="2" precision="FP32" names="147_1">
					<dim>1</dim>
					<dim>32</dim>
					<dim>80</dim>
					<dim>80</dim>
				</port>
			</output>
		</layer>
		<layer id="68" name="__module.model.22.cv3.2.1.act/aten::relu_/Relu_3" type="ReLU" version="opset1">
			<input>
				<port id="0" precision="FP32">
					<dim>1</dim>
					<dim>32</dim>
					<dim>80</dim>
					<dim>80</dim>
				</port>
			</input>
			<output>
				<port id="1" precision="FP32" names="147,input.13">
					<dim>1</dim>
					<dim>32</dim>
					<dim>80</dim>
					<dim>80</dim>
				</port>
			</output>
		</layer>
		<layer id="69" name="__module.model.22.cv3.2.1.act/aten::relu_/Relu_3/fq_output_0/input_low" type="Const" version="opset1">
			<data element_type="f32" shape="" offset="16800" size="4" />
			<output>
				<port id="0" precision="FP32" />
			</output>
		</layer>
		<layer id="70" name="__module.model.22.cv3.2.1.act/aten::relu_/Relu_3/fq_output_0/input_high" type="Const" version="opset1">
			<data element_type="f32" shape="" offset="113544" size="4" />
			<output>
				<port id="0" precision="FP32" />
			</output>
		</layer>
		<layer id="71" name="__module.model.22.cv3.2.1.act/aten::relu_/Relu_3/fq_output_0/output_low" type="Const" version="opset1">
			<data element_type="f32" shape="" offset="16800" size="4" />
			<output>
				<port id="0" precision="FP32" />
			</output>
		</layer>
		<layer id="72" name="__module.model.22.cv3.2.1.act/aten::relu_/Relu_3/fq_output_0/output_high" type="Const" version="opset1">
			<data element_type="f32" shape="" offset="113544" size="4" />
			<output>
				<port id="0" precision="FP32" />
			</output>
		</layer>
		<layer id="73" name="__module.model.22.cv3.2.1.act/aten::relu_/Relu_3/fq_output_0" type="FakeQuantize" version="opset1">
			<data levels="256" auto_broadcast="numpy" />
			<input>
				<port id="0" precision="FP32">
					<dim>1</dim>
					<dim>32</dim>
					<dim>80</dim>
					<dim>80</dim>
				</port>
				<port id="1" precision="FP32" />
				<port id="2" precision="FP32" />
				<port id="3" precision="FP32" />
				<port id="4" precision="FP32" />
			</input>
			<output>
				<port id="5" precision="FP32">
					<dim>1</dim>
					<dim>32</dim>
					<dim>80</dim>
					<dim>80</dim>
				</port>
			</output>
		</layer>
		<layer id="74" name="Constant_919138" type="Const" version="opset1">
			<data element_type="i8" shape="32, 32, 3, 3" offset="113548" size="9216" />
			<output>
				<port id="0" precision="I8">
					<dim>32</dim>
					<dim>32</dim>
					<dim>3</dim>
					<dim>3</dim>
				</port>
			</output>
		</layer>
		<layer id="75" name="Convert_919139" type="Convert" version="opset1">
			<data destination_type="f32" />
			<input>
				<port id="0" precision="I8">
					<dim>32</dim>
					<dim>32</dim>
					<dim>3</dim>
					<dim>3</dim>
				</port>
			</input>
			<output>
				<port id="1" precision="FP32">
					<dim>32</dim>
					<dim>32</dim>
					<dim>3</dim>
					<dim>3</dim>
				</port>
			</output>
		</layer>
		<layer id="76" name="Constant_919140" type="Const" version="opset1">
			<data element_type="f32" shape="32, 1, 1, 1" offset="122764" size="128" />
			<output>
				<port id="0" precision="FP32">
					<dim>32</dim>
					<dim>1</dim>
					<dim>1</dim>
					<dim>1</dim>
				</port>
			</output>
		</layer>
		<layer id="77" name="__module.model.2.cv2.0.m.0.cv1.conv/aten::_convolution/Convolution/fq_weights_1" type="Multiply" version="opset1">
			<data auto_broadcast="numpy" />
			<input>
				<port id="0" precision="FP32">
					<dim>32</dim>
					<dim>32</dim>
					<dim>3</dim>
					<dim>3</dim>
				</port>
				<port id="1" precision="FP32">
					<dim>32</dim>
					<dim>1</dim>
					<dim>1</dim>
					<dim>1</dim>
				</port>
			</input>
			<output>
				<port id="2" precision="FP32">
					<dim>32</dim>
					<dim>32</dim>
					<dim>3</dim>
					<dim>3</dim>
				</port>
			</output>
		</layer>
		<layer id="78" name="__module.model.2.cv2.0.m.0.cv1.conv/aten::_convolution/Convolution" type="Convolution" version="opset1">
			<data strides="1, 1" dilations="1, 1" pads_begin="1, 1" pads_end="1, 1" auto_pad="explicit" />
			<input>
				<port id="0" precision="FP32">
					<dim>1</dim>
					<dim>32</dim>
					<dim>80</dim>
					<dim>80</dim>
				</port>
				<port id="1" precision="FP32">
					<dim>32</dim>
					<dim>32</dim>
					<dim>3</dim>
					<dim>3</dim>
				</port>
			</input>
			<output>
				<port id="2" precision="FP32">
					<dim>1</dim>
					<dim>32</dim>
					<dim>80</dim>
					<dim>80</dim>
				</port>
			</output>
		</layer>
		<layer id="79" name="__module.model.2.cv2.0.m.0.cv1.conv/aten::_convolution/Reshape" type="Const" version="opset1">
			<data element_type="f32" shape="1, 32, 1, 1" offset="122892" size="128" />
			<output>
				<port id="0" precision="FP32">
					<dim>1</dim>
					<dim>32</dim>
					<dim>1</dim>
					<dim>1</dim>
				</port>
			</output>
		</layer>
		<layer id="80" name="__module.model.2.cv2.0.m.0.cv1.conv/aten::_convolution/Add" type="Add" version="opset1">
			<data auto_broadcast="numpy" />
			<input>
				<port id="0" precision="FP32">
					<dim>1</dim>
					<dim>32</dim>
					<dim>80</dim>
					<dim>80</dim>
				</port>
				<port id="1" precision="FP32">
					<dim>1</dim>
					<dim>32</dim>
					<dim>1</dim>
					<dim>1</dim>
				</port>
			</input>
			<output>
				<port id="2" precision="FP32" names="159_1">
					<dim>1</dim>
					<dim>32</dim>
					<dim>80</dim>
					<dim>80</dim>
				</port>
			</output>
		</layer>
		<layer id="81" name="__module.model.21.cv3.0.m.0.cv1.act/aten::relu_/Relu" type="ReLU" version="opset1">
			<input>
				<port id="0" precision="FP32">
					<dim>1</dim>
					<dim>32</dim>
					<dim>80</dim>
					<dim>80</dim>
				</port>
			</input>
			<output>
				<port id="1" precision="FP32" names="159,input.17">
					<dim>1</dim>
					<dim>32</dim>
					<dim>80</dim>
					<dim>80</dim>
				</port>
			</output>
		</layer>
		<layer id="82" name="__module.model.21.cv3.0.m.0.cv1.act/aten::relu_/Relu/fq_output_0/input_low" type="Const" version="opset1">
			<data element_type="f32" shape="" offset="16800" size="4" />
			<output>
				<port id="0" precision="FP32" />
			</output>
		</layer>
		<layer id="83" name="__module.model.21.cv3.0.m.0.cv1.act/aten::relu_/Relu/fq_output_0/input_high" type="Const" version="opset1">
			<data element_type="f32" shape="" offset="123020" size="4" />
			<output>
				<port id="0" precision="FP32" />
			</output>
		</layer>
		<layer id="84" name="__module.model.21.cv3.0.m.0.cv1.act/aten::relu_/Relu/fq_output_0/output_low" type="Const" version="opset1">
			<data element_type="f32" shape="" offset="16800" size="4" />
			<output>
				<port id="0" precision="FP32" />
			</output>
		</layer>
		<layer id="85" name="__module.model.21.cv3.0.m.0.cv1.act/aten::relu_/Relu/fq_output_0/output_high" type="Const" version="opset1">
			<data element_type="f32" shape="" offset="123020" size="4" />
			<output>
				<port id="0" precision="FP32" />
			</output>
		</layer>
		<layer id="86" name="__module.model.21.cv3.0.m.0.cv1.act/aten::relu_/Relu/fq_output_0" type="FakeQuantize" version="opset1">
			<data levels="256" auto_broadcast="numpy" />
			<input>
				<port id="0" precision="FP32">
					<dim>1</dim>
					<dim>32</dim>
					<dim>80</dim>
					<dim>80</dim>
				</port>
				<port id="1" precision="FP32" />
				<port id="2" precision="FP32" />
				<port id="3" precision="FP32" />
				<port id="4" precision="FP32" />
			</input>
			<output>
				<port id="5" precision="FP32">
					<dim>1</dim>
					<dim>32</dim>
					<dim>80</dim>
					<dim>80</dim>
				</port>
			</output>
		</layer>
		<layer id="87" name="Constant_919142" type="Const" version="opset1">
			<data element_type="i8" shape="32, 32, 3, 3" offset="123024" size="9216" />
			<output>
				<port id="0" precision="I8">
					<dim>32</dim>
					<dim>32</dim>
					<dim>3</dim>
					<dim>3</dim>
				</port>
			</output>
		</layer>
		<layer id="88" name="Convert_919143" type="Convert" version="opset1">
			<data destination_type="f32" />
			<input>
				<port id="0" precision="I8">
					<dim>32</dim>
					<dim>32</dim>
					<dim>3</dim>
					<dim>3</dim>
				</port>
			</input>
			<output>
				<port id="1" precision="FP32">
					<dim>32</dim>
					<dim>32</dim>
					<dim>3</dim>
					<dim>3</dim>
				</port>
			</output>
		</layer>
		<layer id="89" name="Constant_919144" type="Const" version="opset1">
			<data element_type="f32" shape="32, 1, 1, 1" offset="132240" size="128" />
			<output>
				<port id="0" precision="FP32">
					<dim>32</dim>
					<dim>1</dim>
					<dim>1</dim>
					<dim>1</dim>
				</port>
			</output>
		</layer>
		<layer id="90" name="__module.model.2.cv2.0.m.0.cv2.conv/aten::_convolution/Convolution/fq_weights_1" type="Multiply" version="opset1">
			<data auto_broadcast="numpy" />
			<input>
				<port id="0" precision="FP32">
					<dim>32</dim>
					<dim>32</dim>
					<dim>3</dim>
					<dim>3</dim>
				</port>
				<port id="1" precision="FP32">
					<dim>32</dim>
					<dim>1</dim>
					<dim>1</dim>
					<dim>1</dim>
				</port>
			</input>
			<output>
				<port id="2" precision="FP32">
					<dim>32</dim>
					<dim>32</dim>
					<dim>3</dim>
					<dim>3</dim>
				</port>
			</output>
		</layer>
		<layer id="91" name="__module.model.2.cv2.0.m.0.cv2.conv/aten::_convolution/Convolution" type="Convolution" version="opset1">
			<data strides="1, 1" dilations="1, 1" pads_begin="1, 1" pads_end="1, 1" auto_pad="explicit" />
			<input>
				<port id="0" precision="FP32">
					<dim>1</dim>
					<dim>32</dim>
					<dim>80</dim>
					<dim>80</dim>
				</port>
				<port id="1" precision="FP32">
					<dim>32</dim>
					<dim>32</dim>
					<dim>3</dim>
					<dim>3</dim>
				</port>
			</input>
			<output>
				<port id="2" precision="FP32">
					<dim>1</dim>
					<dim>32</dim>
					<dim>80</dim>
					<dim>80</dim>
				</port>
			</output>
		</layer>
		<layer id="92" name="__module.model.2.cv2.0.m.0.cv2.conv/aten::_convolution/Reshape" type="Const" version="opset1">
			<data element_type="f32" shape="1, 32, 1, 1" offset="132368" size="128" />
			<output>
				<port id="0" precision="FP32">
					<dim>1</dim>
					<dim>32</dim>
					<dim>1</dim>
					<dim>1</dim>
				</port>
			</output>
		</layer>
		<layer id="93" name="__module.model.2.cv2.0.m.0.cv2.conv/aten::_convolution/Add" type="Add" version="opset1">
			<data auto_broadcast="numpy" />
			<input>
				<port id="0" precision="FP32">
					<dim>1</dim>
					<dim>32</dim>
					<dim>80</dim>
					<dim>80</dim>
				</port>
				<port id="1" precision="FP32">
					<dim>1</dim>
					<dim>32</dim>
					<dim>1</dim>
					<dim>1</dim>
				</port>
			</input>
			<output>
				<port id="2" precision="FP32" names="168_1">
					<dim>1</dim>
					<dim>32</dim>
					<dim>80</dim>
					<dim>80</dim>
				</port>
			</output>
		</layer>
		<layer id="94" name="__module.model.22.cv3.2.1.act/aten::relu_/Relu_4" type="ReLU" version="opset1">
			<input>
				<port id="0" precision="FP32">
					<dim>1</dim>
					<dim>32</dim>
					<dim>80</dim>
					<dim>80</dim>
				</port>
			</input>
			<output>
				<port id="1" precision="FP32" names="168,input.21">
					<dim>1</dim>
					<dim>32</dim>
					<dim>80</dim>
					<dim>80</dim>
				</port>
			</output>
		</layer>
		<layer id="95" name="__module.model.22.cv3.2.1.act/aten::relu_/Relu_4/fq_output_0/input_low" type="Const" version="opset1">
			<data element_type="f32" shape="" offset="16800" size="4" />
			<output>
				<port id="0" precision="FP32" />
			</output>
		</layer>
		<layer id="96" name="__module.model.22.cv3.2.1.act/aten::relu_/Relu_4/fq_output_0/input_high" type="Const" version="opset1">
			<data element_type="f32" shape="" offset="132496" size="4" />
			<output>
				<port id="0" precision="FP32" />
			</output>
		</layer>
		<layer id="97" name="__module.model.22.cv3.2.1.act/aten::relu_/Relu_4/fq_output_0/output_low" type="Const" version="opset1">
			<data element_type="f32" shape="" offset="16800" size="4" />
			<output>
				<port id="0" precision="FP32" />
			</output>
		</layer>
		<layer id="98" name="__module.model.22.cv3.2.1.act/aten::relu_/Relu_4/fq_output_0/output_high" type="Const" version="opset1">
			<data element_type="f32" shape="" offset="132496" size="4" />
			<output>
				<port id="0" precision="FP32" />
			</output>
		</layer>
		<layer id="99" name="__module.model.22.cv3.2.1.act/aten::relu_/Relu_4/fq_output_0" type="FakeQuantize" version="opset1">
			<data levels="256" auto_broadcast="numpy" />
			<input>
				<port id="0" precision="FP32">
					<dim>1</dim>
					<dim>32</dim>
					<dim>80</dim>
					<dim>80</dim>
				</port>
				<port id="1" precision="FP32" />
				<port id="2" precision="FP32" />
				<port id="3" precision="FP32" />
				<port id="4" precision="FP32" />
			</input>
			<output>
				<port id="5" precision="FP32">
					<dim>1</dim>
					<dim>32</dim>
					<dim>80</dim>
					<dim>80</dim>
				</port>
			</output>
		</layer>
		<layer id="100" name="__module.model.2.cv2.0.m.0/aten::add/Add" type="Add" version="opset1">
			<data auto_broadcast="numpy" />
			<input>
				<port id="0" precision="FP32">
					<dim>1</dim>
					<dim>32</dim>
					<dim>80</dim>
					<dim>80</dim>
				</port>
				<port id="1" precision="FP32">
					<dim>1</dim>
					<dim>32</dim>
					<dim>80</dim>
					<dim>80</dim>
				</port>
			</input>
			<output>
				<port id="2" precision="FP32" names="170">
					<dim>1</dim>
					<dim>32</dim>
					<dim>80</dim>
					<dim>80</dim>
				</port>
			</output>
		</layer>
		<layer id="101" name="__module.model.2.cv2.0.m.0/aten::add/Add/fq_output_0/input_low" type="Const" version="opset1">
			<data element_type="f32" shape="" offset="16800" size="4" />
			<output>
				<port id="0" precision="FP32" />
			</output>
		</layer>
		<layer id="102" name="__module.model.2.cv2.0.m.0/aten::add/Add/fq_output_0/input_high" type="Const" version="opset1">
			<data element_type="f32" shape="" offset="132500" size="4" />
			<output>
				<port id="0" precision="FP32" />
			</output>
		</layer>
		<layer id="103" name="__module.model.2.cv2.0.m.0/aten::add/Add/fq_output_0/output_low" type="Const" version="opset1">
			<data element_type="f32" shape="" offset="16800" size="4" />
			<output>
				<port id="0" precision="FP32" />
			</output>
		</layer>
		<layer id="104" name="__module.model.2.cv2.0.m.0/aten::add/Add/fq_output_0/output_high" type="Const" version="opset1">
			<data element_type="f32" shape="" offset="132500" size="4" />
			<output>
				<port id="0" precision="FP32" />
			</output>
		</layer>
		<layer id="105" name="__module.model.2.cv2.0.m.0/aten::add/Add/fq_output_0" type="FakeQuantize" version="opset1">
			<data levels="256" auto_broadcast="numpy" />
			<input>
				<port id="0" precision="FP32">
					<dim>1</dim>
					<dim>32</dim>
					<dim>80</dim>
					<dim>80</dim>
				</port>
				<port id="1" precision="FP32" />
				<port id="2" precision="FP32" />
				<port id="3" precision="FP32" />
				<port id="4" precision="FP32" />
			</input>
			<output>
				<port id="5" precision="FP32">
					<dim>1</dim>
					<dim>32</dim>
					<dim>80</dim>
					<dim>80</dim>
				</port>
			</output>
		</layer>
		<layer id="106" name="Constant_919146" type="Const" version="opset1">
			<data element_type="i8" shape="32, 64, 1, 1" offset="132504" size="2048" />
			<output>
				<port id="0" precision="I8">
					<dim>32</dim>
					<dim>64</dim>
					<dim>1</dim>
					<dim>1</dim>
				</port>
			</output>
		</layer>
		<layer id="107" name="Convert_919147" type="Convert" version="opset1">
			<data destination_type="f32" />
			<input>
				<port id="0" precision="I8">
					<dim>32</dim>
					<dim>64</dim>
					<dim>1</dim>
					<dim>1</dim>
				</port>
			</input>
			<output>
				<port id="1" precision="FP32">
					<dim>32</dim>
					<dim>64</dim>
					<dim>1</dim>
					<dim>1</dim>
				</port>
			</output>
		</layer>
		<layer id="108" name="Constant_919148" type="Const" version="opset1">
			<data element_type="f32" shape="32, 1, 1, 1" offset="134552" size="128" />
			<output>
				<port id="0" precision="FP32">
					<dim>32</dim>
					<dim>1</dim>
					<dim>1</dim>
					<dim>1</dim>
				</port>
			</output>
		</layer>
		<layer id="109" name="__module.model.2.cv2.0.cv2.conv/aten::_convolution/Convolution/fq_weights_1" type="Multiply" version="opset1">
			<data auto_broadcast="numpy" />
			<input>
				<port id="0" precision="FP32">
					<dim>32</dim>
					<dim>64</dim>
					<dim>1</dim>
					<dim>1</dim>
				</port>
				<port id="1" precision="FP32">
					<dim>32</dim>
					<dim>1</dim>
					<dim>1</dim>
					<dim>1</dim>
				</port>
			</input>
			<output>
				<port id="2" precision="FP32">
					<dim>32</dim>
					<dim>64</dim>
					<dim>1</dim>
					<dim>1</dim>
				</port>
			</output>
		</layer>
		<layer id="110" name="__module.model.2.cv2.0.cv2.conv/aten::_convolution/Convolution" type="Convolution" version="opset1">
			<data strides="1, 1" dilations="1, 1" pads_begin="0, 0" pads_end="0, 0" auto_pad="explicit" />
			<input>
				<port id="0" precision="FP32">
					<dim>1</dim>
					<dim>64</dim>
					<dim>80</dim>
					<dim>80</dim>
				</port>
				<port id="1" precision="FP32">
					<dim>32</dim>
					<dim>64</dim>
					<dim>1</dim>
					<dim>1</dim>
				</port>
			</input>
			<output>
				<port id="2" precision="FP32">
					<dim>1</dim>
					<dim>32</dim>
					<dim>80</dim>
					<dim>80</dim>
				</port>
			</output>
		</layer>
		<layer id="111" name="__module.model.2.cv2.0.cv2.conv/aten::_convolution/Reshape" type="Const" version="opset1">
			<data element_type="f32" shape="1, 32, 1, 1" offset="134680" size="128" />
			<output>
				<port id="0" precision="FP32">
					<dim>1</dim>
					<dim>32</dim>
					<dim>1</dim>
					<dim>1</dim>
				</port>
			</output>
		</layer>
		<layer id="112" name="__module.model.2.cv2.0.cv2.conv/aten::_convolution/Add" type="Add" version="opset1">
			<data auto_broadcast="numpy" />
			<input>
				<port id="0" precision="FP32">
					<dim>1</dim>
					<dim>32</dim>
					<dim>80</dim>
					<dim>80</dim>
				</port>
				<port id="1" precision="FP32">
					<dim>1</dim>
					<dim>32</dim>
					<dim>1</dim>
					<dim>1</dim>
				</port>
			</input>
			<output>
				<port id="2" precision="FP32" names="178_1">
					<dim>1</dim>
					<dim>32</dim>
					<dim>80</dim>
					<dim>80</dim>
				</port>
			</output>
		</layer>
		<layer id="113" name="__module.model.22.cv3.2.1.act/aten::relu_/Relu_5" type="ReLU" version="opset1">
			<input>
				<port id="0" precision="FP32">
					<dim>1</dim>
					<dim>32</dim>
					<dim>80</dim>
					<dim>80</dim>
				</port>
			</input>
			<output>
				<port id="1" precision="FP32" names="178,input.23">
					<dim>1</dim>
					<dim>32</dim>
					<dim>80</dim>
					<dim>80</dim>
				</port>
			</output>
		</layer>
		<layer id="114" name="__module.model.22.cv3.2.1.act/aten::relu_/Relu_5/fq_output_0/input_low" type="Const" version="opset1">
			<data element_type="f32" shape="" offset="16800" size="4" />
			<output>
				<port id="0" precision="FP32" />
			</output>
		</layer>
		<layer id="115" name="__module.model.22.cv3.2.1.act/aten::relu_/Relu_5/fq_output_0/input_high" type="Const" version="opset1">
			<data element_type="f32" shape="" offset="132500" size="4" />
			<output>
				<port id="0" precision="FP32" />
			</output>
		</layer>
		<layer id="116" name="__module.model.22.cv3.2.1.act/aten::relu_/Relu_5/fq_output_0/output_low" type="Const" version="opset1">
			<data element_type="f32" shape="" offset="16800" size="4" />
			<output>
				<port id="0" precision="FP32" />
			</output>
		</layer>
		<layer id="117" name="__module.model.22.cv3.2.1.act/aten::relu_/Relu_5/fq_output_0/output_high" type="Const" version="opset1">
			<data element_type="f32" shape="" offset="132500" size="4" />
			<output>
				<port id="0" precision="FP32" />
			</output>
		</layer>
		<layer id="118" name="__module.model.22.cv3.2.1.act/aten::relu_/Relu_5/fq_output_0" type="FakeQuantize" version="opset1">
			<data levels="256" auto_broadcast="numpy" />
			<input>
				<port id="0" precision="FP32">
					<dim>1</dim>
					<dim>32</dim>
					<dim>80</dim>
					<dim>80</dim>
				</port>
				<port id="1" precision="FP32" />
				<port id="2" precision="FP32" />
				<port id="3" precision="FP32" />
				<port id="4" precision="FP32" />
			</input>
			<output>
				<port id="5" precision="FP32">
					<dim>1</dim>
					<dim>32</dim>
					<dim>80</dim>
					<dim>80</dim>
				</port>
			</output>
		</layer>
		<layer id="119" name="__module.model.2.cv2.0/aten::cat/Concat" type="Concat" version="opset1">
			<data axis="1" />
			<input>
				<port id="0" precision="FP32">
					<dim>1</dim>
					<dim>32</dim>
					<dim>80</dim>
					<dim>80</dim>
				</port>
				<port id="1" precision="FP32">
					<dim>1</dim>
					<dim>32</dim>
					<dim>80</dim>
					<dim>80</dim>
				</port>
			</input>
			<output>
				<port id="2" precision="FP32" names="181,input.25">
					<dim>1</dim>
					<dim>64</dim>
					<dim>80</dim>
					<dim>80</dim>
				</port>
			</output>
		</layer>
		<layer id="120" name="Constant_919150" type="Const" version="opset1">
			<data element_type="i8" shape="64, 64, 1, 1" offset="134808" size="4096" />
			<output>
				<port id="0" precision="I8">
					<dim>64</dim>
					<dim>64</dim>
					<dim>1</dim>
					<dim>1</dim>
				</port>
			</output>
		</layer>
		<layer id="121" name="Convert_919151" type="Convert" version="opset1">
			<data destination_type="f32" />
			<input>
				<port id="0" precision="I8">
					<dim>64</dim>
					<dim>64</dim>
					<dim>1</dim>
					<dim>1</dim>
				</port>
			</input>
			<output>
				<port id="1" precision="FP32">
					<dim>64</dim>
					<dim>64</dim>
					<dim>1</dim>
					<dim>1</dim>
				</port>
			</output>
		</layer>
		<layer id="122" name="Constant_919152" type="Const" version="opset1">
			<data element_type="f32" shape="64, 1, 1, 1" offset="138904" size="256" />
			<output>
				<port id="0" precision="FP32">
					<dim>64</dim>
					<dim>1</dim>
					<dim>1</dim>
					<dim>1</dim>
				</port>
			</output>
		</layer>
		<layer id="123" name="__module.model.2.cv2.0.cv3.conv/aten::_convolution/Convolution/fq_weights_1" type="Multiply" version="opset1">
			<data auto_broadcast="numpy" />
			<input>
				<port id="0" precision="FP32">
					<dim>64</dim>
					<dim>64</dim>
					<dim>1</dim>
					<dim>1</dim>
				</port>
				<port id="1" precision="FP32">
					<dim>64</dim>
					<dim>1</dim>
					<dim>1</dim>
					<dim>1</dim>
				</port>
			</input>
			<output>
				<port id="2" precision="FP32">
					<dim>64</dim>
					<dim>64</dim>
					<dim>1</dim>
					<dim>1</dim>
				</port>
			</output>
		</layer>
		<layer id="124" name="__module.model.2.cv2.0.cv3.conv/aten::_convolution/Convolution" type="Convolution" version="opset1">
			<data strides="1, 1" dilations="1, 1" pads_begin="0, 0" pads_end="0, 0" auto_pad="explicit" />
			<input>
				<port id="0" precision="FP32">
					<dim>1</dim>
					<dim>64</dim>
					<dim>80</dim>
					<dim>80</dim>
				</port>
				<port id="1" precision="FP32">
					<dim>64</dim>
					<dim>64</dim>
					<dim>1</dim>
					<dim>1</dim>
				</port>
			</input>
			<output>
				<port id="2" precision="FP32">
					<dim>1</dim>
					<dim>64</dim>
					<dim>80</dim>
					<dim>80</dim>
				</port>
			</output>
		</layer>
		<layer id="125" name="__module.model.2.cv2.0.cv3.conv/aten::_convolution/Reshape" type="Const" version="opset1">
			<data element_type="f32" shape="1, 64, 1, 1" offset="139160" size="256" />
			<output>
				<port id="0" precision="FP32">
					<dim>1</dim>
					<dim>64</dim>
					<dim>1</dim>
					<dim>1</dim>
				</port>
			</output>
		</layer>
		<layer id="126" name="__module.model.2.cv2.0.cv3.conv/aten::_convolution/Add" type="Add" version="opset1">
			<data auto_broadcast="numpy" />
			<input>
				<port id="0" precision="FP32">
					<dim>1</dim>
					<dim>64</dim>
					<dim>80</dim>
					<dim>80</dim>
				</port>
				<port id="1" precision="FP32">
					<dim>1</dim>
					<dim>64</dim>
					<dim>1</dim>
					<dim>1</dim>
				</port>
			</input>
			<output>
				<port id="2" precision="FP32" names="189_1">
					<dim>1</dim>
					<dim>64</dim>
					<dim>80</dim>
					<dim>80</dim>
				</port>
			</output>
		</layer>
		<layer id="127" name="__module.model.22.cv3.2.1.act/aten::relu_/Relu_6" type="ReLU" version="opset1">
			<input>
				<port id="0" precision="FP32">
					<dim>1</dim>
					<dim>64</dim>
					<dim>80</dim>
					<dim>80</dim>
				</port>
			</input>
			<output>
				<port id="1" precision="FP32" names="189,input.27">
					<dim>1</dim>
					<dim>64</dim>
					<dim>80</dim>
					<dim>80</dim>
				</port>
			</output>
		</layer>
		<layer id="128" name="__module.model.22.cv3.2.1.act/aten::relu_/Relu_6/fq_output_0/input_low" type="Const" version="opset1">
			<data element_type="f32" shape="" offset="16800" size="4" />
			<output>
				<port id="0" precision="FP32" />
			</output>
		</layer>
		<layer id="129" name="__module.model.22.cv3.2.1.act/aten::relu_/Relu_6/fq_output_0/input_high" type="Const" version="opset1">
			<data element_type="f32" shape="" offset="139416" size="4" />
			<output>
				<port id="0" precision="FP32" />
			</output>
		</layer>
		<layer id="130" name="__module.model.22.cv3.2.1.act/aten::relu_/Relu_6/fq_output_0/output_low" type="Const" version="opset1">
			<data element_type="f32" shape="" offset="16800" size="4" />
			<output>
				<port id="0" precision="FP32" />
			</output>
		</layer>
		<layer id="131" name="__module.model.22.cv3.2.1.act/aten::relu_/Relu_6/fq_output_0/output_high" type="Const" version="opset1">
			<data element_type="f32" shape="" offset="139416" size="4" />
			<output>
				<port id="0" precision="FP32" />
			</output>
		</layer>
		<layer id="132" name="__module.model.22.cv3.2.1.act/aten::relu_/Relu_6/fq_output_0" type="FakeQuantize" version="opset1">
			<data levels="256" auto_broadcast="numpy" />
			<input>
				<port id="0" precision="FP32">
					<dim>1</dim>
					<dim>64</dim>
					<dim>80</dim>
					<dim>80</dim>
				</port>
				<port id="1" precision="FP32" />
				<port id="2" precision="FP32" />
				<port id="3" precision="FP32" />
				<port id="4" precision="FP32" />
			</input>
			<output>
				<port id="5" precision="FP32">
					<dim>1</dim>
					<dim>64</dim>
					<dim>80</dim>
					<dim>80</dim>
				</port>
			</output>
		</layer>
		<layer id="133" name="Constant_919154" type="Const" version="opset1">
			<data element_type="i8" shape="64, 64, 3, 3" offset="139420" size="36864" />
			<output>
				<port id="0" precision="I8">
					<dim>64</dim>
					<dim>64</dim>
					<dim>3</dim>
					<dim>3</dim>
				</port>
			</output>
		</layer>
		<layer id="134" name="Convert_919155" type="Convert" version="opset1">
			<data destination_type="f32" />
			<input>
				<port id="0" precision="I8">
					<dim>64</dim>
					<dim>64</dim>
					<dim>3</dim>
					<dim>3</dim>
				</port>
			</input>
			<output>
				<port id="1" precision="FP32">
					<dim>64</dim>
					<dim>64</dim>
					<dim>3</dim>
					<dim>3</dim>
				</port>
			</output>
		</layer>
		<layer id="135" name="Constant_919156" type="Const" version="opset1">
			<data element_type="f32" shape="64, 1, 1, 1" offset="176284" size="256" />
			<output>
				<port id="0" precision="FP32">
					<dim>64</dim>
					<dim>1</dim>
					<dim>1</dim>
					<dim>1</dim>
				</port>
			</output>
		</layer>
		<layer id="136" name="__module.model.2.cv2.1.conv/aten::_convolution/Convolution/fq_weights_1" type="Multiply" version="opset1">
			<data auto_broadcast="numpy" />
			<input>
				<port id="0" precision="FP32">
					<dim>64</dim>
					<dim>64</dim>
					<dim>3</dim>
					<dim>3</dim>
				</port>
				<port id="1" precision="FP32">
					<dim>64</dim>
					<dim>1</dim>
					<dim>1</dim>
					<dim>1</dim>
				</port>
			</input>
			<output>
				<port id="2" precision="FP32">
					<dim>64</dim>
					<dim>64</dim>
					<dim>3</dim>
					<dim>3</dim>
				</port>
			</output>
		</layer>
		<layer id="137" name="__module.model.2.cv2.1.conv/aten::_convolution/Convolution" type="Convolution" version="opset1">
			<data strides="1, 1" dilations="1, 1" pads_begin="1, 1" pads_end="1, 1" auto_pad="explicit" />
			<input>
				<port id="0" precision="FP32">
					<dim>1</dim>
					<dim>64</dim>
					<dim>80</dim>
					<dim>80</dim>
				</port>
				<port id="1" precision="FP32">
					<dim>64</dim>
					<dim>64</dim>
					<dim>3</dim>
					<dim>3</dim>
				</port>
			</input>
			<output>
				<port id="2" precision="FP32">
					<dim>1</dim>
					<dim>64</dim>
					<dim>80</dim>
					<dim>80</dim>
				</port>
			</output>
		</layer>
		<layer id="138" name="__module.model.2.cv2.1.conv/aten::_convolution/Reshape" type="Const" version="opset1">
			<data element_type="f32" shape="1, 64, 1, 1" offset="176540" size="256" />
			<output>
				<port id="0" precision="FP32">
					<dim>1</dim>
					<dim>64</dim>
					<dim>1</dim>
					<dim>1</dim>
				</port>
			</output>
		</layer>
		<layer id="139" name="__module.model.2.cv2.1.conv/aten::_convolution/Add" type="Add" version="opset1">
			<data auto_broadcast="numpy" />
			<input>
				<port id="0" precision="FP32">
					<dim>1</dim>
					<dim>64</dim>
					<dim>80</dim>
					<dim>80</dim>
				</port>
				<port id="1" precision="FP32">
					<dim>1</dim>
					<dim>64</dim>
					<dim>1</dim>
					<dim>1</dim>
				</port>
			</input>
			<output>
				<port id="2" precision="FP32" names="198_1">
					<dim>1</dim>
					<dim>64</dim>
					<dim>80</dim>
					<dim>80</dim>
				</port>
			</output>
		</layer>
		<layer id="140" name="__module.model.22.cv3.2.1.act/aten::relu_/Relu_7" type="ReLU" version="opset1">
			<input>
				<port id="0" precision="FP32">
					<dim>1</dim>
					<dim>64</dim>
					<dim>80</dim>
					<dim>80</dim>
				</port>
			</input>
			<output>
				<port id="1" precision="FP32" names="198,input.31">
					<dim>1</dim>
					<dim>64</dim>
					<dim>80</dim>
					<dim>80</dim>
				</port>
			</output>
		</layer>
		<layer id="141" name="__module.model.22.cv3.2.1.act/aten::relu_/Relu_7/fq_output_0/input_low" type="Const" version="opset1">
			<data element_type="f32" shape="" offset="16800" size="4" />
			<output>
				<port id="0" precision="FP32" />
			</output>
		</layer>
		<layer id="142" name="__module.model.22.cv3.2.1.act/aten::relu_/Relu_7/fq_output_0/input_high" type="Const" version="opset1">
			<data element_type="f32" shape="" offset="111216" size="4" />
			<output>
				<port id="0" precision="FP32" />
			</output>
		</layer>
		<layer id="143" name="__module.model.22.cv3.2.1.act/aten::relu_/Relu_7/fq_output_0/output_low" type="Const" version="opset1">
			<data element_type="f32" shape="" offset="16800" size="4" />
			<output>
				<port id="0" precision="FP32" />
			</output>
		</layer>
		<layer id="144" name="__module.model.22.cv3.2.1.act/aten::relu_/Relu_7/fq_output_0/output_high" type="Const" version="opset1">
			<data element_type="f32" shape="" offset="111216" size="4" />
			<output>
				<port id="0" precision="FP32" />
			</output>
		</layer>
		<layer id="145" name="__module.model.22.cv3.2.1.act/aten::relu_/Relu_7/fq_output_0" type="FakeQuantize" version="opset1">
			<data levels="256" auto_broadcast="numpy" />
			<input>
				<port id="0" precision="FP32">
					<dim>1</dim>
					<dim>64</dim>
					<dim>80</dim>
					<dim>80</dim>
				</port>
				<port id="1" precision="FP32" />
				<port id="2" precision="FP32" />
				<port id="3" precision="FP32" />
				<port id="4" precision="FP32" />
			</input>
			<output>
				<port id="5" precision="FP32">
					<dim>1</dim>
					<dim>64</dim>
					<dim>80</dim>
					<dim>80</dim>
				</port>
			</output>
		</layer>
		<layer id="146" name="Constant_919158" type="Const" version="opset1">
			<data element_type="i8" shape="32, 64, 1, 1" offset="176796" size="2048" />
			<output>
				<port id="0" precision="I8">
					<dim>32</dim>
					<dim>64</dim>
					<dim>1</dim>
					<dim>1</dim>
				</port>
			</output>
		</layer>
		<layer id="147" name="Convert_919159" type="Convert" version="opset1">
			<data destination_type="f32" />
			<input>
				<port id="0" precision="I8">
					<dim>32</dim>
					<dim>64</dim>
					<dim>1</dim>
					<dim>1</dim>
				</port>
			</input>
			<output>
				<port id="1" precision="FP32">
					<dim>32</dim>
					<dim>64</dim>
					<dim>1</dim>
					<dim>1</dim>
				</port>
			</output>
		</layer>
		<layer id="148" name="Constant_919160" type="Const" version="opset1">
			<data element_type="f32" shape="32, 1, 1, 1" offset="178844" size="128" />
			<output>
				<port id="0" precision="FP32">
					<dim>32</dim>
					<dim>1</dim>
					<dim>1</dim>
					<dim>1</dim>
				</port>
			</output>
		</layer>
		<layer id="149" name="__module.model.2.cv3.0.cv1.conv/aten::_convolution/Convolution/fq_weights_1" type="Multiply" version="opset1">
			<data auto_broadcast="numpy" />
			<input>
				<port id="0" precision="FP32">
					<dim>32</dim>
					<dim>64</dim>
					<dim>1</dim>
					<dim>1</dim>
				</port>
				<port id="1" precision="FP32">
					<dim>32</dim>
					<dim>1</dim>
					<dim>1</dim>
					<dim>1</dim>
				</port>
			</input>
			<output>
				<port id="2" precision="FP32">
					<dim>32</dim>
					<dim>64</dim>
					<dim>1</dim>
					<dim>1</dim>
				</port>
			</output>
		</layer>
		<layer id="150" name="__module.model.2.cv3.0.cv1.conv/aten::_convolution/Convolution" type="Convolution" version="opset1">
			<data strides="1, 1" dilations="1, 1" pads_begin="0, 0" pads_end="0, 0" auto_pad="explicit" />
			<input>
				<port id="0" precision="FP32">
					<dim>1</dim>
					<dim>64</dim>
					<dim>80</dim>
					<dim>80</dim>
				</port>
				<port id="1" precision="FP32">
					<dim>32</dim>
					<dim>64</dim>
					<dim>1</dim>
					<dim>1</dim>
				</port>
			</input>
			<output>
				<port id="2" precision="FP32">
					<dim>1</dim>
					<dim>32</dim>
					<dim>80</dim>
					<dim>80</dim>
				</port>
			</output>
		</layer>
		<layer id="151" name="__module.model.2.cv3.0.cv1.conv/aten::_convolution/Reshape" type="Const" version="opset1">
			<data element_type="f32" shape="1, 32, 1, 1" offset="178972" size="128" />
			<output>
				<port id="0" precision="FP32">
					<dim>1</dim>
					<dim>32</dim>
					<dim>1</dim>
					<dim>1</dim>
				</port>
			</output>
		</layer>
		<layer id="152" name="__module.model.2.cv3.0.cv1.conv/aten::_convolution/Add" type="Add" version="opset1">
			<data auto_broadcast="numpy" />
			<input>
				<port id="0" precision="FP32">
					<dim>1</dim>
					<dim>32</dim>
					<dim>80</dim>
					<dim>80</dim>
				</port>
				<port id="1" precision="FP32">
					<dim>1</dim>
					<dim>32</dim>
					<dim>1</dim>
					<dim>1</dim>
				</port>
			</input>
			<output>
				<port id="2" precision="FP32" names="213_1">
					<dim>1</dim>
					<dim>32</dim>
					<dim>80</dim>
					<dim>80</dim>
				</port>
			</output>
		</layer>
		<layer id="153" name="__module.model.22.cv3.2.1.act/aten::relu_/Relu_8" type="ReLU" version="opset1">
			<input>
				<port id="0" precision="FP32">
					<dim>1</dim>
					<dim>32</dim>
					<dim>80</dim>
					<dim>80</dim>
				</port>
			</input>
			<output>
				<port id="1" precision="FP32" names="213,input.35">
					<dim>1</dim>
					<dim>32</dim>
					<dim>80</dim>
					<dim>80</dim>
				</port>
			</output>
		</layer>
		<layer id="154" name="__module.model.22.cv3.2.1.act/aten::relu_/Relu_8/fq_output_0/input_low" type="Const" version="opset1">
			<data element_type="f32" shape="" offset="16800" size="4" />
			<output>
				<port id="0" precision="FP32" />
			</output>
		</layer>
		<layer id="155" name="__module.model.22.cv3.2.1.act/aten::relu_/Relu_8/fq_output_0/input_high" type="Const" version="opset1">
			<data element_type="f32" shape="" offset="179100" size="4" />
			<output>
				<port id="0" precision="FP32" />
			</output>
		</layer>
		<layer id="156" name="__module.model.22.cv3.2.1.act/aten::relu_/Relu_8/fq_output_0/output_low" type="Const" version="opset1">
			<data element_type="f32" shape="" offset="16800" size="4" />
			<output>
				<port id="0" precision="FP32" />
			</output>
		</layer>
		<layer id="157" name="__module.model.22.cv3.2.1.act/aten::relu_/Relu_8/fq_output_0/output_high" type="Const" version="opset1">
			<data element_type="f32" shape="" offset="179100" size="4" />
			<output>
				<port id="0" precision="FP32" />
			</output>
		</layer>
		<layer id="158" name="__module.model.22.cv3.2.1.act/aten::relu_/Relu_8/fq_output_0" type="FakeQuantize" version="opset1">
			<data levels="256" auto_broadcast="numpy" />
			<input>
				<port id="0" precision="FP32">
					<dim>1</dim>
					<dim>32</dim>
					<dim>80</dim>
					<dim>80</dim>
				</port>
				<port id="1" precision="FP32" />
				<port id="2" precision="FP32" />
				<port id="3" precision="FP32" />
				<port id="4" precision="FP32" />
			</input>
			<output>
				<port id="5" precision="FP32">
					<dim>1</dim>
					<dim>32</dim>
					<dim>80</dim>
					<dim>80</dim>
				</port>
			</output>
		</layer>
		<layer id="159" name="Constant_919162" type="Const" version="opset1">
			<data element_type="i8" shape="32, 32, 3, 3" offset="179104" size="9216" />
			<output>
				<port id="0" precision="I8">
					<dim>32</dim>
					<dim>32</dim>
					<dim>3</dim>
					<dim>3</dim>
				</port>
			</output>
		</layer>
		<layer id="160" name="Convert_919163" type="Convert" version="opset1">
			<data destination_type="f32" />
			<input>
				<port id="0" precision="I8">
					<dim>32</dim>
					<dim>32</dim>
					<dim>3</dim>
					<dim>3</dim>
				</port>
			</input>
			<output>
				<port id="1" precision="FP32">
					<dim>32</dim>
					<dim>32</dim>
					<dim>3</dim>
					<dim>3</dim>
				</port>
			</output>
		</layer>
		<layer id="161" name="Constant_919164" type="Const" version="opset1">
			<data element_type="f32" shape="32, 1, 1, 1" offset="188320" size="128" />
			<output>
				<port id="0" precision="FP32">
					<dim>32</dim>
					<dim>1</dim>
					<dim>1</dim>
					<dim>1</dim>
				</port>
			</output>
		</layer>
		<layer id="162" name="__module.model.2.cv3.0.m.0.cv1.conv/aten::_convolution/Convolution/fq_weights_1" type="Multiply" version="opset1">
			<data auto_broadcast="numpy" />
			<input>
				<port id="0" precision="FP32">
					<dim>32</dim>
					<dim>32</dim>
					<dim>3</dim>
					<dim>3</dim>
				</port>
				<port id="1" precision="FP32">
					<dim>32</dim>
					<dim>1</dim>
					<dim>1</dim>
					<dim>1</dim>
				</port>
			</input>
			<output>
				<port id="2" precision="FP32">
					<dim>32</dim>
					<dim>32</dim>
					<dim>3</dim>
					<dim>3</dim>
				</port>
			</output>
		</layer>
		<layer id="163" name="__module.model.2.cv3.0.m.0.cv1.conv/aten::_convolution/Convolution" type="Convolution" version="opset1">
			<data strides="1, 1" dilations="1, 1" pads_begin="1, 1" pads_end="1, 1" auto_pad="explicit" />
			<input>
				<port id="0" precision="FP32">
					<dim>1</dim>
					<dim>32</dim>
					<dim>80</dim>
					<dim>80</dim>
				</port>
				<port id="1" precision="FP32">
					<dim>32</dim>
					<dim>32</dim>
					<dim>3</dim>
					<dim>3</dim>
				</port>
			</input>
			<output>
				<port id="2" precision="FP32">
					<dim>1</dim>
					<dim>32</dim>
					<dim>80</dim>
					<dim>80</dim>
				</port>
			</output>
		</layer>
		<layer id="164" name="__module.model.2.cv3.0.m.0.cv1.conv/aten::_convolution/Reshape" type="Const" version="opset1">
			<data element_type="f32" shape="1, 32, 1, 1" offset="188448" size="128" />
			<output>
				<port id="0" precision="FP32">
					<dim>1</dim>
					<dim>32</dim>
					<dim>1</dim>
					<dim>1</dim>
				</port>
			</output>
		</layer>
		<layer id="165" name="__module.model.2.cv3.0.m.0.cv1.conv/aten::_convolution/Add" type="Add" version="opset1">
			<data auto_broadcast="numpy" />
			<input>
				<port id="0" precision="FP32">
					<dim>1</dim>
					<dim>32</dim>
					<dim>80</dim>
					<dim>80</dim>
				</port>
				<port id="1" precision="FP32">
					<dim>1</dim>
					<dim>32</dim>
					<dim>1</dim>
					<dim>1</dim>
				</port>
			</input>
			<output>
				<port id="2" precision="FP32" names="225_1">
					<dim>1</dim>
					<dim>32</dim>
					<dim>80</dim>
					<dim>80</dim>
				</port>
			</output>
		</layer>
		<layer id="166" name="__module.model.21.cv3.0.m.0.cv1.act/aten::relu_/Relu_1" type="ReLU" version="opset1">
			<input>
				<port id="0" precision="FP32">
					<dim>1</dim>
					<dim>32</dim>
					<dim>80</dim>
					<dim>80</dim>
				</port>
			</input>
			<output>
				<port id="1" precision="FP32" names="225,input.39">
					<dim>1</dim>
					<dim>32</dim>
					<dim>80</dim>
					<dim>80</dim>
				</port>
			</output>
		</layer>
		<layer id="167" name="__module.model.21.cv3.0.m.0.cv1.act/aten::relu_/Relu_1/fq_output_0/input_low" type="Const" version="opset1">
			<data element_type="f32" shape="" offset="16800" size="4" />
			<output>
				<port id="0" precision="FP32" />
			</output>
		</layer>
		<layer id="168" name="__module.model.21.cv3.0.m.0.cv1.act/aten::relu_/Relu_1/fq_output_0/input_high" type="Const" version="opset1">
			<data element_type="f32" shape="" offset="188576" size="4" />
			<output>
				<port id="0" precision="FP32" />
			</output>
		</layer>
		<layer id="169" name="__module.model.21.cv3.0.m.0.cv1.act/aten::relu_/Relu_1/fq_output_0/output_low" type="Const" version="opset1">
			<data element_type="f32" shape="" offset="16800" size="4" />
			<output>
				<port id="0" precision="FP32" />
			</output>
		</layer>
		<layer id="170" name="__module.model.21.cv3.0.m.0.cv1.act/aten::relu_/Relu_1/fq_output_0/output_high" type="Const" version="opset1">
			<data element_type="f32" shape="" offset="188576" size="4" />
			<output>
				<port id="0" precision="FP32" />
			</output>
		</layer>
		<layer id="171" name="__module.model.21.cv3.0.m.0.cv1.act/aten::relu_/Relu_1/fq_output_0" type="FakeQuantize" version="opset1">
			<data levels="256" auto_broadcast="numpy" />
			<input>
				<port id="0" precision="FP32">
					<dim>1</dim>
					<dim>32</dim>
					<dim>80</dim>
					<dim>80</dim>
				</port>
				<port id="1" precision="FP32" />
				<port id="2" precision="FP32" />
				<port id="3" precision="FP32" />
				<port id="4" precision="FP32" />
			</input>
			<output>
				<port id="5" precision="FP32">
					<dim>1</dim>
					<dim>32</dim>
					<dim>80</dim>
					<dim>80</dim>
				</port>
			</output>
		</layer>
		<layer id="172" name="Constant_919166" type="Const" version="opset1">
			<data element_type="i8" shape="32, 32, 3, 3" offset="188580" size="9216" />
			<output>
				<port id="0" precision="I8">
					<dim>32</dim>
					<dim>32</dim>
					<dim>3</dim>
					<dim>3</dim>
				</port>
			</output>
		</layer>
		<layer id="173" name="Convert_919167" type="Convert" version="opset1">
			<data destination_type="f32" />
			<input>
				<port id="0" precision="I8">
					<dim>32</dim>
					<dim>32</dim>
					<dim>3</dim>
					<dim>3</dim>
				</port>
			</input>
			<output>
				<port id="1" precision="FP32">
					<dim>32</dim>
					<dim>32</dim>
					<dim>3</dim>
					<dim>3</dim>
				</port>
			</output>
		</layer>
		<layer id="174" name="Constant_919168" type="Const" version="opset1">
			<data element_type="f32" shape="32, 1, 1, 1" offset="197796" size="128" />
			<output>
				<port id="0" precision="FP32">
					<dim>32</dim>
					<dim>1</dim>
					<dim>1</dim>
					<dim>1</dim>
				</port>
			</output>
		</layer>
		<layer id="175" name="__module.model.2.cv3.0.m.0.cv2.conv/aten::_convolution/Convolution/fq_weights_1" type="Multiply" version="opset1">
			<data auto_broadcast="numpy" />
			<input>
				<port id="0" precision="FP32">
					<dim>32</dim>
					<dim>32</dim>
					<dim>3</dim>
					<dim>3</dim>
				</port>
				<port id="1" precision="FP32">
					<dim>32</dim>
					<dim>1</dim>
					<dim>1</dim>
					<dim>1</dim>
				</port>
			</input>
			<output>
				<port id="2" precision="FP32">
					<dim>32</dim>
					<dim>32</dim>
					<dim>3</dim>
					<dim>3</dim>
				</port>
			</output>
		</layer>
		<layer id="176" name="__module.model.2.cv3.0.m.0.cv2.conv/aten::_convolution/Convolution" type="Convolution" version="opset1">
			<data strides="1, 1" dilations="1, 1" pads_begin="1, 1" pads_end="1, 1" auto_pad="explicit" />
			<input>
				<port id="0" precision="FP32">
					<dim>1</dim>
					<dim>32</dim>
					<dim>80</dim>
					<dim>80</dim>
				</port>
				<port id="1" precision="FP32">
					<dim>32</dim>
					<dim>32</dim>
					<dim>3</dim>
					<dim>3</dim>
				</port>
			</input>
			<output>
				<port id="2" precision="FP32">
					<dim>1</dim>
					<dim>32</dim>
					<dim>80</dim>
					<dim>80</dim>
				</port>
			</output>
		</layer>
		<layer id="177" name="__module.model.2.cv3.0.m.0.cv2.conv/aten::_convolution/Reshape" type="Const" version="opset1">
			<data element_type="f32" shape="1, 32, 1, 1" offset="197924" size="128" />
			<output>
				<port id="0" precision="FP32">
					<dim>1</dim>
					<dim>32</dim>
					<dim>1</dim>
					<dim>1</dim>
				</port>
			</output>
		</layer>
		<layer id="178" name="__module.model.2.cv3.0.m.0.cv2.conv/aten::_convolution/Add" type="Add" version="opset1">
			<data auto_broadcast="numpy" />
			<input>
				<port id="0" precision="FP32">
					<dim>1</dim>
					<dim>32</dim>
					<dim>80</dim>
					<dim>80</dim>
				</port>
				<port id="1" precision="FP32">
					<dim>1</dim>
					<dim>32</dim>
					<dim>1</dim>
					<dim>1</dim>
				</port>
			</input>
			<output>
				<port id="2" precision="FP32" names="234_1">
					<dim>1</dim>
					<dim>32</dim>
					<dim>80</dim>
					<dim>80</dim>
				</port>
			</output>
		</layer>
		<layer id="179" name="__module.model.22.cv3.2.1.act/aten::relu_/Relu_9" type="ReLU" version="opset1">
			<input>
				<port id="0" precision="FP32">
					<dim>1</dim>
					<dim>32</dim>
					<dim>80</dim>
					<dim>80</dim>
				</port>
			</input>
			<output>
				<port id="1" precision="FP32" names="234,input.43">
					<dim>1</dim>
					<dim>32</dim>
					<dim>80</dim>
					<dim>80</dim>
				</port>
			</output>
		</layer>
		<layer id="180" name="__module.model.22.cv3.2.1.act/aten::relu_/Relu_9/fq_output_0/input_low" type="Const" version="opset1">
			<data element_type="f32" shape="" offset="16800" size="4" />
			<output>
				<port id="0" precision="FP32" />
			</output>
		</layer>
		<layer id="181" name="__module.model.22.cv3.2.1.act/aten::relu_/Relu_9/fq_output_0/input_high" type="Const" version="opset1">
			<data element_type="f32" shape="" offset="198052" size="4" />
			<output>
				<port id="0" precision="FP32" />
			</output>
		</layer>
		<layer id="182" name="__module.model.22.cv3.2.1.act/aten::relu_/Relu_9/fq_output_0/output_low" type="Const" version="opset1">
			<data element_type="f32" shape="" offset="16800" size="4" />
			<output>
				<port id="0" precision="FP32" />
			</output>
		</layer>
		<layer id="183" name="__module.model.22.cv3.2.1.act/aten::relu_/Relu_9/fq_output_0/output_high" type="Const" version="opset1">
			<data element_type="f32" shape="" offset="198052" size="4" />
			<output>
				<port id="0" precision="FP32" />
			</output>
		</layer>
		<layer id="184" name="__module.model.22.cv3.2.1.act/aten::relu_/Relu_9/fq_output_0" type="FakeQuantize" version="opset1">
			<data levels="256" auto_broadcast="numpy" />
			<input>
				<port id="0" precision="FP32">
					<dim>1</dim>
					<dim>32</dim>
					<dim>80</dim>
					<dim>80</dim>
				</port>
				<port id="1" precision="FP32" />
				<port id="2" precision="FP32" />
				<port id="3" precision="FP32" />
				<port id="4" precision="FP32" />
			</input>
			<output>
				<port id="5" precision="FP32">
					<dim>1</dim>
					<dim>32</dim>
					<dim>80</dim>
					<dim>80</dim>
				</port>
			</output>
		</layer>
		<layer id="185" name="__module.model.2.cv3.0.m.0/aten::add/Add" type="Add" version="opset1">
			<data auto_broadcast="numpy" />
			<input>
				<port id="0" precision="FP32">
					<dim>1</dim>
					<dim>32</dim>
					<dim>80</dim>
					<dim>80</dim>
				</port>
				<port id="1" precision="FP32">
					<dim>1</dim>
					<dim>32</dim>
					<dim>80</dim>
					<dim>80</dim>
				</port>
			</input>
			<output>
				<port id="2" precision="FP32" names="236">
					<dim>1</dim>
					<dim>32</dim>
					<dim>80</dim>
					<dim>80</dim>
				</port>
			</output>
		</layer>
		<layer id="186" name="__module.model.2.cv3.0.m.0/aten::add/Add/fq_output_0/input_low" type="Const" version="opset1">
			<data element_type="f32" shape="" offset="16800" size="4" />
			<output>
				<port id="0" precision="FP32" />
			</output>
		</layer>
		<layer id="187" name="__module.model.2.cv3.0.m.0/aten::add/Add/fq_output_0/input_high" type="Const" version="opset1">
			<data element_type="f32" shape="" offset="198056" size="4" />
			<output>
				<port id="0" precision="FP32" />
			</output>
		</layer>
		<layer id="188" name="__module.model.2.cv3.0.m.0/aten::add/Add/fq_output_0/output_low" type="Const" version="opset1">
			<data element_type="f32" shape="" offset="16800" size="4" />
			<output>
				<port id="0" precision="FP32" />
			</output>
		</layer>
		<layer id="189" name="__module.model.2.cv3.0.m.0/aten::add/Add/fq_output_0/output_high" type="Const" version="opset1">
			<data element_type="f32" shape="" offset="198056" size="4" />
			<output>
				<port id="0" precision="FP32" />
			</output>
		</layer>
		<layer id="190" name="__module.model.2.cv3.0.m.0/aten::add/Add/fq_output_0" type="FakeQuantize" version="opset1">
			<data levels="256" auto_broadcast="numpy" />
			<input>
				<port id="0" precision="FP32">
					<dim>1</dim>
					<dim>32</dim>
					<dim>80</dim>
					<dim>80</dim>
				</port>
				<port id="1" precision="FP32" />
				<port id="2" precision="FP32" />
				<port id="3" precision="FP32" />
				<port id="4" precision="FP32" />
			</input>
			<output>
				<port id="5" precision="FP32">
					<dim>1</dim>
					<dim>32</dim>
					<dim>80</dim>
					<dim>80</dim>
				</port>
			</output>
		</layer>
		<layer id="191" name="Constant_919170" type="Const" version="opset1">
			<data element_type="i8" shape="32, 64, 1, 1" offset="198060" size="2048" />
			<output>
				<port id="0" precision="I8">
					<dim>32</dim>
					<dim>64</dim>
					<dim>1</dim>
					<dim>1</dim>
				</port>
			</output>
		</layer>
		<layer id="192" name="Convert_919171" type="Convert" version="opset1">
			<data destination_type="f32" />
			<input>
				<port id="0" precision="I8">
					<dim>32</dim>
					<dim>64</dim>
					<dim>1</dim>
					<dim>1</dim>
				</port>
			</input>
			<output>
				<port id="1" precision="FP32">
					<dim>32</dim>
					<dim>64</dim>
					<dim>1</dim>
					<dim>1</dim>
				</port>
			</output>
		</layer>
		<layer id="193" name="Constant_919172" type="Const" version="opset1">
			<data element_type="f32" shape="32, 1, 1, 1" offset="200108" size="128" />
			<output>
				<port id="0" precision="FP32">
					<dim>32</dim>
					<dim>1</dim>
					<dim>1</dim>
					<dim>1</dim>
				</port>
			</output>
		</layer>
		<layer id="194" name="__module.model.2.cv3.0.cv2.conv/aten::_convolution/Convolution/fq_weights_1" type="Multiply" version="opset1">
			<data auto_broadcast="numpy" />
			<input>
				<port id="0" precision="FP32">
					<dim>32</dim>
					<dim>64</dim>
					<dim>1</dim>
					<dim>1</dim>
				</port>
				<port id="1" precision="FP32">
					<dim>32</dim>
					<dim>1</dim>
					<dim>1</dim>
					<dim>1</dim>
				</port>
			</input>
			<output>
				<port id="2" precision="FP32">
					<dim>32</dim>
					<dim>64</dim>
					<dim>1</dim>
					<dim>1</dim>
				</port>
			</output>
		</layer>
		<layer id="195" name="__module.model.2.cv3.0.cv2.conv/aten::_convolution/Convolution" type="Convolution" version="opset1">
			<data strides="1, 1" dilations="1, 1" pads_begin="0, 0" pads_end="0, 0" auto_pad="explicit" />
			<input>
				<port id="0" precision="FP32">
					<dim>1</dim>
					<dim>64</dim>
					<dim>80</dim>
					<dim>80</dim>
				</port>
				<port id="1" precision="FP32">
					<dim>32</dim>
					<dim>64</dim>
					<dim>1</dim>
					<dim>1</dim>
				</port>
			</input>
			<output>
				<port id="2" precision="FP32">
					<dim>1</dim>
					<dim>32</dim>
					<dim>80</dim>
					<dim>80</dim>
				</port>
			</output>
		</layer>
		<layer id="196" name="__module.model.2.cv3.0.cv2.conv/aten::_convolution/Reshape" type="Const" version="opset1">
			<data element_type="f32" shape="1, 32, 1, 1" offset="200236" size="128" />
			<output>
				<port id="0" precision="FP32">
					<dim>1</dim>
					<dim>32</dim>
					<dim>1</dim>
					<dim>1</dim>
				</port>
			</output>
		</layer>
		<layer id="197" name="__module.model.2.cv3.0.cv2.conv/aten::_convolution/Add" type="Add" version="opset1">
			<data auto_broadcast="numpy" />
			<input>
				<port id="0" precision="FP32">
					<dim>1</dim>
					<dim>32</dim>
					<dim>80</dim>
					<dim>80</dim>
				</port>
				<port id="1" precision="FP32">
					<dim>1</dim>
					<dim>32</dim>
					<dim>1</dim>
					<dim>1</dim>
				</port>
			</input>
			<output>
				<port id="2" precision="FP32" names="244_1">
					<dim>1</dim>
					<dim>32</dim>
					<dim>80</dim>
					<dim>80</dim>
				</port>
			</output>
		</layer>
		<layer id="198" name="__module.model.22.cv3.2.1.act/aten::relu_/Relu_10" type="ReLU" version="opset1">
			<input>
				<port id="0" precision="FP32">
					<dim>1</dim>
					<dim>32</dim>
					<dim>80</dim>
					<dim>80</dim>
				</port>
			</input>
			<output>
				<port id="1" precision="FP32" names="244,input.45">
					<dim>1</dim>
					<dim>32</dim>
					<dim>80</dim>
					<dim>80</dim>
				</port>
			</output>
		</layer>
		<layer id="199" name="__module.model.22.cv3.2.1.act/aten::relu_/Relu_10/fq_output_0/input_low" type="Const" version="opset1">
			<data element_type="f32" shape="" offset="16800" size="4" />
			<output>
				<port id="0" precision="FP32" />
			</output>
		</layer>
		<layer id="200" name="__module.model.22.cv3.2.1.act/aten::relu_/Relu_10/fq_output_0/input_high" type="Const" version="opset1">
			<data element_type="f32" shape="" offset="198056" size="4" />
			<output>
				<port id="0" precision="FP32" />
			</output>
		</layer>
		<layer id="201" name="__module.model.22.cv3.2.1.act/aten::relu_/Relu_10/fq_output_0/output_low" type="Const" version="opset1">
			<data element_type="f32" shape="" offset="16800" size="4" />
			<output>
				<port id="0" precision="FP32" />
			</output>
		</layer>
		<layer id="202" name="__module.model.22.cv3.2.1.act/aten::relu_/Relu_10/fq_output_0/output_high" type="Const" version="opset1">
			<data element_type="f32" shape="" offset="198056" size="4" />
			<output>
				<port id="0" precision="FP32" />
			</output>
		</layer>
		<layer id="203" name="__module.model.22.cv3.2.1.act/aten::relu_/Relu_10/fq_output_0" type="FakeQuantize" version="opset1">
			<data levels="256" auto_broadcast="numpy" />
			<input>
				<port id="0" precision="FP32">
					<dim>1</dim>
					<dim>32</dim>
					<dim>80</dim>
					<dim>80</dim>
				</port>
				<port id="1" precision="FP32" />
				<port id="2" precision="FP32" />
				<port id="3" precision="FP32" />
				<port id="4" precision="FP32" />
			</input>
			<output>
				<port id="5" precision="FP32">
					<dim>1</dim>
					<dim>32</dim>
					<dim>80</dim>
					<dim>80</dim>
				</port>
			</output>
		</layer>
		<layer id="204" name="__module.model.2.cv3.0/aten::cat/Concat" type="Concat" version="opset1">
			<data axis="1" />
			<input>
				<port id="0" precision="FP32">
					<dim>1</dim>
					<dim>32</dim>
					<dim>80</dim>
					<dim>80</dim>
				</port>
				<port id="1" precision="FP32">
					<dim>1</dim>
					<dim>32</dim>
					<dim>80</dim>
					<dim>80</dim>
				</port>
			</input>
			<output>
				<port id="2" precision="FP32" names="247,input.47">
					<dim>1</dim>
					<dim>64</dim>
					<dim>80</dim>
					<dim>80</dim>
				</port>
			</output>
		</layer>
		<layer id="205" name="Constant_919174" type="Const" version="opset1">
			<data element_type="i8" shape="64, 64, 1, 1" offset="200364" size="4096" />
			<output>
				<port id="0" precision="I8">
					<dim>64</dim>
					<dim>64</dim>
					<dim>1</dim>
					<dim>1</dim>
				</port>
			</output>
		</layer>
		<layer id="206" name="Convert_919175" type="Convert" version="opset1">
			<data destination_type="f32" />
			<input>
				<port id="0" precision="I8">
					<dim>64</dim>
					<dim>64</dim>
					<dim>1</dim>
					<dim>1</dim>
				</port>
			</input>
			<output>
				<port id="1" precision="FP32">
					<dim>64</dim>
					<dim>64</dim>
					<dim>1</dim>
					<dim>1</dim>
				</port>
			</output>
		</layer>
		<layer id="207" name="Constant_919176" type="Const" version="opset1">
			<data element_type="f32" shape="64, 1, 1, 1" offset="204460" size="256" />
			<output>
				<port id="0" precision="FP32">
					<dim>64</dim>
					<dim>1</dim>
					<dim>1</dim>
					<dim>1</dim>
				</port>
			</output>
		</layer>
		<layer id="208" name="__module.model.2.cv3.0.cv3.conv/aten::_convolution/Convolution/fq_weights_1" type="Multiply" version="opset1">
			<data auto_broadcast="numpy" />
			<input>
				<port id="0" precision="FP32">
					<dim>64</dim>
					<dim>64</dim>
					<dim>1</dim>
					<dim>1</dim>
				</port>
				<port id="1" precision="FP32">
					<dim>64</dim>
					<dim>1</dim>
					<dim>1</dim>
					<dim>1</dim>
				</port>
			</input>
			<output>
				<port id="2" precision="FP32">
					<dim>64</dim>
					<dim>64</dim>
					<dim>1</dim>
					<dim>1</dim>
				</port>
			</output>
		</layer>
		<layer id="209" name="__module.model.2.cv3.0.cv3.conv/aten::_convolution/Convolution" type="Convolution" version="opset1">
			<data strides="1, 1" dilations="1, 1" pads_begin="0, 0" pads_end="0, 0" auto_pad="explicit" />
			<input>
				<port id="0" precision="FP32">
					<dim>1</dim>
					<dim>64</dim>
					<dim>80</dim>
					<dim>80</dim>
				</port>
				<port id="1" precision="FP32">
					<dim>64</dim>
					<dim>64</dim>
					<dim>1</dim>
					<dim>1</dim>
				</port>
			</input>
			<output>
				<port id="2" precision="FP32">
					<dim>1</dim>
					<dim>64</dim>
					<dim>80</dim>
					<dim>80</dim>
				</port>
			</output>
		</layer>
		<layer id="210" name="__module.model.2.cv3.0.cv3.conv/aten::_convolution/Reshape" type="Const" version="opset1">
			<data element_type="f32" shape="1, 64, 1, 1" offset="204716" size="256" />
			<output>
				<port id="0" precision="FP32">
					<dim>1</dim>
					<dim>64</dim>
					<dim>1</dim>
					<dim>1</dim>
				</port>
			</output>
		</layer>
		<layer id="211" name="__module.model.2.cv3.0.cv3.conv/aten::_convolution/Add" type="Add" version="opset1">
			<data auto_broadcast="numpy" />
			<input>
				<port id="0" precision="FP32">
					<dim>1</dim>
					<dim>64</dim>
					<dim>80</dim>
					<dim>80</dim>
				</port>
				<port id="1" precision="FP32">
					<dim>1</dim>
					<dim>64</dim>
					<dim>1</dim>
					<dim>1</dim>
				</port>
			</input>
			<output>
				<port id="2" precision="FP32" names="255_1">
					<dim>1</dim>
					<dim>64</dim>
					<dim>80</dim>
					<dim>80</dim>
				</port>
			</output>
		</layer>
		<layer id="212" name="__module.model.22.cv3.2.1.act/aten::relu_/Relu_11" type="ReLU" version="opset1">
			<input>
				<port id="0" precision="FP32">
					<dim>1</dim>
					<dim>64</dim>
					<dim>80</dim>
					<dim>80</dim>
				</port>
			</input>
			<output>
				<port id="1" precision="FP32" names="255,input.49">
					<dim>1</dim>
					<dim>64</dim>
					<dim>80</dim>
					<dim>80</dim>
				</port>
			</output>
		</layer>
		<layer id="213" name="__module.model.22.cv3.2.1.act/aten::relu_/Relu_11/fq_output_0/input_low" type="Const" version="opset1">
			<data element_type="f32" shape="" offset="16800" size="4" />
			<output>
				<port id="0" precision="FP32" />
			</output>
		</layer>
		<layer id="214" name="__module.model.22.cv3.2.1.act/aten::relu_/Relu_11/fq_output_0/input_high" type="Const" version="opset1">
			<data element_type="f32" shape="" offset="204972" size="4" />
			<output>
				<port id="0" precision="FP32" />
			</output>
		</layer>
		<layer id="215" name="__module.model.22.cv3.2.1.act/aten::relu_/Relu_11/fq_output_0/output_low" type="Const" version="opset1">
			<data element_type="f32" shape="" offset="16800" size="4" />
			<output>
				<port id="0" precision="FP32" />
			</output>
		</layer>
		<layer id="216" name="__module.model.22.cv3.2.1.act/aten::relu_/Relu_11/fq_output_0/output_high" type="Const" version="opset1">
			<data element_type="f32" shape="" offset="204972" size="4" />
			<output>
				<port id="0" precision="FP32" />
			</output>
		</layer>
		<layer id="217" name="__module.model.22.cv3.2.1.act/aten::relu_/Relu_11/fq_output_0" type="FakeQuantize" version="opset1">
			<data levels="256" auto_broadcast="numpy" />
			<input>
				<port id="0" precision="FP32">
					<dim>1</dim>
					<dim>64</dim>
					<dim>80</dim>
					<dim>80</dim>
				</port>
				<port id="1" precision="FP32" />
				<port id="2" precision="FP32" />
				<port id="3" precision="FP32" />
				<port id="4" precision="FP32" />
			</input>
			<output>
				<port id="5" precision="FP32">
					<dim>1</dim>
					<dim>64</dim>
					<dim>80</dim>
					<dim>80</dim>
				</port>
			</output>
		</layer>
		<layer id="218" name="Constant_919178" type="Const" version="opset1">
			<data element_type="i8" shape="64, 64, 3, 3" offset="204976" size="36864" />
			<output>
				<port id="0" precision="I8">
					<dim>64</dim>
					<dim>64</dim>
					<dim>3</dim>
					<dim>3</dim>
				</port>
			</output>
		</layer>
		<layer id="219" name="Convert_919179" type="Convert" version="opset1">
			<data destination_type="f32" />
			<input>
				<port id="0" precision="I8">
					<dim>64</dim>
					<dim>64</dim>
					<dim>3</dim>
					<dim>3</dim>
				</port>
			</input>
			<output>
				<port id="1" precision="FP32">
					<dim>64</dim>
					<dim>64</dim>
					<dim>3</dim>
					<dim>3</dim>
				</port>
			</output>
		</layer>
		<layer id="220" name="Constant_919180" type="Const" version="opset1">
			<data element_type="f32" shape="64, 1, 1, 1" offset="241840" size="256" />
			<output>
				<port id="0" precision="FP32">
					<dim>64</dim>
					<dim>1</dim>
					<dim>1</dim>
					<dim>1</dim>
				</port>
			</output>
		</layer>
		<layer id="221" name="__module.model.2.cv3.1.conv/aten::_convolution/Convolution/fq_weights_1" type="Multiply" version="opset1">
			<data auto_broadcast="numpy" />
			<input>
				<port id="0" precision="FP32">
					<dim>64</dim>
					<dim>64</dim>
					<dim>3</dim>
					<dim>3</dim>
				</port>
				<port id="1" precision="FP32">
					<dim>64</dim>
					<dim>1</dim>
					<dim>1</dim>
					<dim>1</dim>
				</port>
			</input>
			<output>
				<port id="2" precision="FP32">
					<dim>64</dim>
					<dim>64</dim>
					<dim>3</dim>
					<dim>3</dim>
				</port>
			</output>
		</layer>
		<layer id="222" name="__module.model.2.cv3.1.conv/aten::_convolution/Convolution" type="Convolution" version="opset1">
			<data strides="1, 1" dilations="1, 1" pads_begin="1, 1" pads_end="1, 1" auto_pad="explicit" />
			<input>
				<port id="0" precision="FP32">
					<dim>1</dim>
					<dim>64</dim>
					<dim>80</dim>
					<dim>80</dim>
				</port>
				<port id="1" precision="FP32">
					<dim>64</dim>
					<dim>64</dim>
					<dim>3</dim>
					<dim>3</dim>
				</port>
			</input>
			<output>
				<port id="2" precision="FP32">
					<dim>1</dim>
					<dim>64</dim>
					<dim>80</dim>
					<dim>80</dim>
				</port>
			</output>
		</layer>
		<layer id="223" name="__module.model.2.cv3.1.conv/aten::_convolution/Reshape" type="Const" version="opset1">
			<data element_type="f32" shape="1, 64, 1, 1" offset="242096" size="256" />
			<output>
				<port id="0" precision="FP32">
					<dim>1</dim>
					<dim>64</dim>
					<dim>1</dim>
					<dim>1</dim>
				</port>
			</output>
		</layer>
		<layer id="224" name="__module.model.2.cv3.1.conv/aten::_convolution/Add" type="Add" version="opset1">
			<data auto_broadcast="numpy" />
			<input>
				<port id="0" precision="FP32">
					<dim>1</dim>
					<dim>64</dim>
					<dim>80</dim>
					<dim>80</dim>
				</port>
				<port id="1" precision="FP32">
					<dim>1</dim>
					<dim>64</dim>
					<dim>1</dim>
					<dim>1</dim>
				</port>
			</input>
			<output>
				<port id="2" precision="FP32" names="264_1">
					<dim>1</dim>
					<dim>64</dim>
					<dim>80</dim>
					<dim>80</dim>
				</port>
			</output>
		</layer>
		<layer id="225" name="__module.model.22.cv3.2.1.act/aten::relu_/Relu_12" type="ReLU" version="opset1">
			<input>
				<port id="0" precision="FP32">
					<dim>1</dim>
					<dim>64</dim>
					<dim>80</dim>
					<dim>80</dim>
				</port>
			</input>
			<output>
				<port id="1" precision="FP32" names="264,input.53">
					<dim>1</dim>
					<dim>64</dim>
					<dim>80</dim>
					<dim>80</dim>
				</port>
			</output>
		</layer>
		<layer id="226" name="__module.model.22.cv3.2.1.act/aten::relu_/Relu_12/fq_output_0/input_low" type="Const" version="opset1">
			<data element_type="f32" shape="" offset="16800" size="4" />
			<output>
				<port id="0" precision="FP32" />
			</output>
		</layer>
		<layer id="227" name="__module.model.22.cv3.2.1.act/aten::relu_/Relu_12/fq_output_0/input_high" type="Const" version="opset1">
			<data element_type="f32" shape="" offset="111216" size="4" />
			<output>
				<port id="0" precision="FP32" />
			</output>
		</layer>
		<layer id="228" name="__module.model.22.cv3.2.1.act/aten::relu_/Relu_12/fq_output_0/output_low" type="Const" version="opset1">
			<data element_type="f32" shape="" offset="16800" size="4" />
			<output>
				<port id="0" precision="FP32" />
			</output>
		</layer>
		<layer id="229" name="__module.model.22.cv3.2.1.act/aten::relu_/Relu_12/fq_output_0/output_high" type="Const" version="opset1">
			<data element_type="f32" shape="" offset="111216" size="4" />
			<output>
				<port id="0" precision="FP32" />
			</output>
		</layer>
		<layer id="230" name="__module.model.22.cv3.2.1.act/aten::relu_/Relu_12/fq_output_0" type="FakeQuantize" version="opset1">
			<data levels="256" auto_broadcast="numpy" />
			<input>
				<port id="0" precision="FP32">
					<dim>1</dim>
					<dim>64</dim>
					<dim>80</dim>
					<dim>80</dim>
				</port>
				<port id="1" precision="FP32" />
				<port id="2" precision="FP32" />
				<port id="3" precision="FP32" />
				<port id="4" precision="FP32" />
			</input>
			<output>
				<port id="5" precision="FP32">
					<dim>1</dim>
					<dim>64</dim>
					<dim>80</dim>
					<dim>80</dim>
				</port>
			</output>
		</layer>
		<layer id="231" name="__module.model.2/aten::cat/Concat" type="Concat" version="opset1">
			<data axis="1" />
			<input>
				<port id="0" precision="FP32">
					<dim>1</dim>
					<dim>64</dim>
					<dim>80</dim>
					<dim>80</dim>
				</port>
				<port id="1" precision="FP32">
					<dim>1</dim>
					<dim>64</dim>
					<dim>80</dim>
					<dim>80</dim>
				</port>
				<port id="2" precision="FP32">
					<dim>1</dim>
					<dim>64</dim>
					<dim>80</dim>
					<dim>80</dim>
				</port>
				<port id="3" precision="FP32">
					<dim>1</dim>
					<dim>64</dim>
					<dim>80</dim>
					<dim>80</dim>
				</port>
			</input>
			<output>
				<port id="4" precision="FP32" names="267,input.55">
					<dim>1</dim>
					<dim>256</dim>
					<dim>80</dim>
					<dim>80</dim>
				</port>
			</output>
		</layer>
		<layer id="232" name="Constant_919182" type="Const" version="opset1">
			<data element_type="i8" shape="256, 256, 1, 1" offset="242352" size="65536" />
			<output>
				<port id="0" precision="I8">
					<dim>256</dim>
					<dim>256</dim>
					<dim>1</dim>
					<dim>1</dim>
				</port>
			</output>
		</layer>
		<layer id="233" name="Convert_919183" type="Convert" version="opset1">
			<data destination_type="f32" />
			<input>
				<port id="0" precision="I8">
					<dim>256</dim>
					<dim>256</dim>
					<dim>1</dim>
					<dim>1</dim>
				</port>
			</input>
			<output>
				<port id="1" precision="FP32">
					<dim>256</dim>
					<dim>256</dim>
					<dim>1</dim>
					<dim>1</dim>
				</port>
			</output>
		</layer>
		<layer id="234" name="Constant_919184" type="Const" version="opset1">
			<data element_type="f32" shape="256, 1, 1, 1" offset="307888" size="1024" />
			<output>
				<port id="0" precision="FP32">
					<dim>256</dim>
					<dim>1</dim>
					<dim>1</dim>
					<dim>1</dim>
				</port>
			</output>
		</layer>
		<layer id="235" name="__module.model.2.cv4.conv/aten::_convolution/Convolution/fq_weights_1" type="Multiply" version="opset1">
			<data auto_broadcast="numpy" />
			<input>
				<port id="0" precision="FP32">
					<dim>256</dim>
					<dim>256</dim>
					<dim>1</dim>
					<dim>1</dim>
				</port>
				<port id="1" precision="FP32">
					<dim>256</dim>
					<dim>1</dim>
					<dim>1</dim>
					<dim>1</dim>
				</port>
			</input>
			<output>
				<port id="2" precision="FP32">
					<dim>256</dim>
					<dim>256</dim>
					<dim>1</dim>
					<dim>1</dim>
				</port>
			</output>
		</layer>
		<layer id="236" name="__module.model.2.cv4.conv/aten::_convolution/Convolution" type="Convolution" version="opset1">
			<data strides="1, 1" dilations="1, 1" pads_begin="0, 0" pads_end="0, 0" auto_pad="explicit" />
			<input>
				<port id="0" precision="FP32">
					<dim>1</dim>
					<dim>256</dim>
					<dim>80</dim>
					<dim>80</dim>
				</port>
				<port id="1" precision="FP32">
					<dim>256</dim>
					<dim>256</dim>
					<dim>1</dim>
					<dim>1</dim>
				</port>
			</input>
			<output>
				<port id="2" precision="FP32">
					<dim>1</dim>
					<dim>256</dim>
					<dim>80</dim>
					<dim>80</dim>
				</port>
			</output>
		</layer>
		<layer id="237" name="__module.model.2.cv4.conv/aten::_convolution/Reshape" type="Const" version="opset1">
			<data element_type="f32" shape="1, 256, 1, 1" offset="308912" size="1024" />
			<output>
				<port id="0" precision="FP32">
					<dim>1</dim>
					<dim>256</dim>
					<dim>1</dim>
					<dim>1</dim>
				</port>
			</output>
		</layer>
		<layer id="238" name="__module.model.2.cv4.conv/aten::_convolution/Add" type="Add" version="opset1">
			<data auto_broadcast="numpy" />
			<input>
				<port id="0" precision="FP32">
					<dim>1</dim>
					<dim>256</dim>
					<dim>80</dim>
					<dim>80</dim>
				</port>
				<port id="1" precision="FP32">
					<dim>1</dim>
					<dim>256</dim>
					<dim>1</dim>
					<dim>1</dim>
				</port>
			</input>
			<output>
				<port id="2" precision="FP32" names="275_1">
					<dim>1</dim>
					<dim>256</dim>
					<dim>80</dim>
					<dim>80</dim>
				</port>
			</output>
		</layer>
		<layer id="239" name="__module.model.22.cv3.2.1.act/aten::relu_/Relu_13" type="ReLU" version="opset1">
			<input>
				<port id="0" precision="FP32">
					<dim>1</dim>
					<dim>256</dim>
					<dim>80</dim>
					<dim>80</dim>
				</port>
			</input>
			<output>
				<port id="1" precision="FP32" names="275,input.57">
					<dim>1</dim>
					<dim>256</dim>
					<dim>80</dim>
					<dim>80</dim>
				</port>
			</output>
		</layer>
		<layer id="240" name="__module.model.22.cv3.2.1.act/aten::relu_/Relu_13/fq_output_0/input_low" type="Const" version="opset1">
			<data element_type="f32" shape="" offset="16800" size="4" />
			<output>
				<port id="0" precision="FP32" />
			</output>
		</layer>
		<layer id="241" name="__module.model.22.cv3.2.1.act/aten::relu_/Relu_13/fq_output_0/input_high" type="Const" version="opset1">
			<data element_type="f32" shape="" offset="309936" size="4" />
			<output>
				<port id="0" precision="FP32" />
			</output>
		</layer>
		<layer id="242" name="__module.model.22.cv3.2.1.act/aten::relu_/Relu_13/fq_output_0/output_low" type="Const" version="opset1">
			<data element_type="f32" shape="" offset="16800" size="4" />
			<output>
				<port id="0" precision="FP32" />
			</output>
		</layer>
		<layer id="243" name="__module.model.22.cv3.2.1.act/aten::relu_/Relu_13/fq_output_0/output_high" type="Const" version="opset1">
			<data element_type="f32" shape="" offset="309936" size="4" />
			<output>
				<port id="0" precision="FP32" />
			</output>
		</layer>
		<layer id="244" name="__module.model.22.cv3.2.1.act/aten::relu_/Relu_13/fq_output_0" type="FakeQuantize" version="opset1">
			<data levels="256" auto_broadcast="numpy" />
			<input>
				<port id="0" precision="FP32">
					<dim>1</dim>
					<dim>256</dim>
					<dim>80</dim>
					<dim>80</dim>
				</port>
				<port id="1" precision="FP32" />
				<port id="2" precision="FP32" />
				<port id="3" precision="FP32" />
				<port id="4" precision="FP32" />
			</input>
			<output>
				<port id="5" precision="FP32">
					<dim>1</dim>
					<dim>256</dim>
					<dim>80</dim>
					<dim>80</dim>
				</port>
			</output>
		</layer>
		<layer id="245" name="__module.model.3/aten::avg_pool2d/AvgPool" type="AvgPool" version="opset1">
			<data kernel="2, 2" strides="1, 1" pads_begin="0, 0" pads_end="0, 0" exclude-pad="false" auto_pad="explicit" rounding_type="floor" />
			<input>
				<port id="0" precision="FP32">
					<dim>1</dim>
					<dim>256</dim>
					<dim>80</dim>
					<dim>80</dim>
				</port>
			</input>
			<output>
				<port id="1" precision="FP32" names="289,x.5">
					<dim>1</dim>
					<dim>256</dim>
					<dim>79</dim>
					<dim>79</dim>
				</port>
			</output>
		</layer>
		<layer id="246" name="__module.model.3/aten::avg_pool2d/AvgPool/fq_output_0/input_low" type="Const" version="opset1">
			<data element_type="f32" shape="" offset="16800" size="4" />
			<output>
				<port id="0" precision="FP32" />
			</output>
		</layer>
		<layer id="247" name="__module.model.3/aten::avg_pool2d/AvgPool/fq_output_0/input_high" type="Const" version="opset1">
			<data element_type="f32" shape="" offset="309940" size="4" />
			<output>
				<port id="0" precision="FP32" />
			</output>
		</layer>
		<layer id="248" name="__module.model.3/aten::avg_pool2d/AvgPool/fq_output_0/output_low" type="Const" version="opset1">
			<data element_type="f32" shape="" offset="16800" size="4" />
			<output>
				<port id="0" precision="FP32" />
			</output>
		</layer>
		<layer id="249" name="__module.model.3/aten::avg_pool2d/AvgPool/fq_output_0/output_high" type="Const" version="opset1">
			<data element_type="f32" shape="" offset="309940" size="4" />
			<output>
				<port id="0" precision="FP32" />
			</output>
		</layer>
		<layer id="250" name="__module.model.3/aten::avg_pool2d/AvgPool/fq_output_0" type="FakeQuantize" version="opset1">
			<data levels="256" auto_broadcast="numpy" />
			<input>
				<port id="0" precision="FP32">
					<dim>1</dim>
					<dim>256</dim>
					<dim>79</dim>
					<dim>79</dim>
				</port>
				<port id="1" precision="FP32" />
				<port id="2" precision="FP32" />
				<port id="3" precision="FP32" />
				<port id="4" precision="FP32" />
			</input>
			<output>
				<port id="5" precision="FP32">
					<dim>1</dim>
					<dim>256</dim>
					<dim>79</dim>
					<dim>79</dim>
				</port>
			</output>
		</layer>
		<layer id="251" name="282" type="Const" version="opset1">
			<data element_type="i64" shape="" offset="111220" size="8" />
			<output>
				<port id="0" precision="I64" names="282" />
			</output>
		</layer>
		<layer id="252" name="__module.model.3/prim::ListUnpack/ShapeOf" type="ShapeOf" version="opset3">
			<data output_type="i32" />
			<input>
				<port id="0" precision="FP32">
					<dim>1</dim>
					<dim>256</dim>
					<dim>79</dim>
					<dim>79</dim>
				</port>
			</input>
			<output>
				<port id="1" precision="I32">
					<dim>4</dim>
				</port>
			</output>
		</layer>
		<layer id="253" name="Constant_10023" type="Const" version="opset1">
			<data element_type="i32" shape="1" offset="16800" size="4" />
			<output>
				<port id="0" precision="I32">
					<dim>1</dim>
				</port>
			</output>
		</layer>
		<layer id="254" name="__module.model.3/prim::ListUnpack/Gather" type="Gather" version="opset8">
			<data batch_dims="0" />
			<input>
				<port id="0" precision="I32">
					<dim>4</dim>
				</port>
				<port id="1" precision="I64" />
				<port id="2" precision="I32">
					<dim>1</dim>
				</port>
			</input>
			<output>
				<port id="3" precision="I32" />
			</output>
		</layer>
		<layer id="255" name="__module.model.3/prim::ListUnpack/Convert" type="Const" version="opset1">
			<data element_type="i32" shape="" offset="111228" size="4" />
			<output>
				<port id="0" precision="I32" />
			</output>
		</layer>
		<layer id="256" name="__module.model.3/prim::ListUnpack/Divide" type="Divide" version="opset1">
			<data auto_broadcast="numpy" m_pythondiv="true" />
			<input>
				<port id="0" precision="I32" />
				<port id="1" precision="I32" />
			</input>
			<output>
				<port id="2" precision="I32" />
			</output>
		</layer>
		<layer id="257" name="__module.model.3/prim::ListUnpack/Mod" type="Mod" version="opset1">
			<data auto_broadcast="numpy" />
			<input>
				<port id="0" precision="I32" />
				<port id="1" precision="I32" />
			</input>
			<output>
				<port id="2" precision="I32" />
			</output>
		</layer>
		<layer id="258" name="__module.model.3/prim::ListUnpack/Greater" type="Greater" version="opset1">
			<data auto_broadcast="numpy" />
			<input>
				<port id="0" precision="I32" />
				<port id="1" precision="I32">
					<dim>1</dim>
				</port>
			</input>
			<output>
				<port id="2" precision="BOOL">
					<dim>1</dim>
				</port>
			</output>
		</layer>
		<layer id="259" name="__module.model.3/prim::ListUnpack/Convert_0" type="Convert" version="opset1">
			<data destination_type="i32" />
			<input>
				<port id="0" precision="BOOL">
					<dim>1</dim>
				</port>
			</input>
			<output>
				<port id="1" precision="I32">
					<dim>1</dim>
				</port>
			</output>
		</layer>
		<layer id="260" name="__module.model.3/prim::ListUnpack/Add" type="Add" version="opset1">
			<data auto_broadcast="numpy" />
			<input>
				<port id="0" precision="I32" />
				<port id="1" precision="I32">
					<dim>1</dim>
				</port>
			</input>
			<output>
				<port id="2" precision="I32">
					<dim>1</dim>
				</port>
			</output>
		</layer>
		<layer id="261" name="Constant_10032" type="Const" version="opset1">
			<data element_type="i32" shape="1" offset="111232" size="4" />
			<output>
				<port id="0" precision="I32">
					<dim>1</dim>
				</port>
			</output>
		</layer>
		<layer id="262" name="__module.model.3/prim::ListUnpack/Broadcast" type="Broadcast" version="opset3">
			<data mode="numpy" />
			<input>
				<port id="0" precision="I32">
					<dim>1</dim>
				</port>
				<port id="1" precision="I32">
					<dim>1</dim>
				</port>
			</input>
			<output>
				<port id="2" precision="I32">
					<dim>1</dim>
				</port>
			</output>
		</layer>
		<layer id="263" name="Constant_10024" type="Const" version="opset1">
			<data element_type="i32" shape="1" offset="111236" size="4" />
			<output>
				<port id="0" precision="I32">
					<dim>1</dim>
				</port>
			</output>
		</layer>
		<layer id="264" name="__module.model.3/prim::ListUnpack/Concat" type="Concat" version="opset1">
			<data axis="0" />
			<input>
				<port id="0" precision="I32">
					<dim>1</dim>
				</port>
				<port id="1" precision="I32">
					<dim>1</dim>
				</port>
			</input>
			<output>
				<port id="2" precision="I32">
					<dim>2</dim>
				</port>
			</output>
		</layer>
		<layer id="265" name="__module.model.3/prim::ListUnpack/VariadicSplit" type="VariadicSplit" version="opset1">
			<input>
				<port id="0" precision="FP32">
					<dim>1</dim>
					<dim>256</dim>
					<dim>79</dim>
					<dim>79</dim>
				</port>
				<port id="1" precision="I64" />
				<port id="2" precision="I32">
					<dim>2</dim>
				</port>
			</input>
			<output>
				<port id="3" precision="FP32" names="291,input.59">
					<dim>1</dim>
					<dim>128</dim>
					<dim>79</dim>
					<dim>79</dim>
				</port>
				<port id="4" precision="FP32" names="292,input.63">
					<dim>1</dim>
					<dim>128</dim>
					<dim>79</dim>
					<dim>79</dim>
				</port>
			</output>
		</layer>
		<layer id="266" name="Constant_919186" type="Const" version="opset1">
			<data element_type="i8" shape="128, 128, 3, 3" offset="309944" size="147456" />
			<output>
				<port id="0" precision="I8">
					<dim>128</dim>
					<dim>128</dim>
					<dim>3</dim>
					<dim>3</dim>
				</port>
			</output>
		</layer>
		<layer id="267" name="Convert_919187" type="Convert" version="opset1">
			<data destination_type="f32" />
			<input>
				<port id="0" precision="I8">
					<dim>128</dim>
					<dim>128</dim>
					<dim>3</dim>
					<dim>3</dim>
				</port>
			</input>
			<output>
				<port id="1" precision="FP32">
					<dim>128</dim>
					<dim>128</dim>
					<dim>3</dim>
					<dim>3</dim>
				</port>
			</output>
		</layer>
		<layer id="268" name="Constant_919188" type="Const" version="opset1">
			<data element_type="f32" shape="128, 1, 1, 1" offset="457400" size="512" />
			<output>
				<port id="0" precision="FP32">
					<dim>128</dim>
					<dim>1</dim>
					<dim>1</dim>
					<dim>1</dim>
				</port>
			</output>
		</layer>
		<layer id="269" name="__module.model.3.cv1.conv/aten::_convolution/Convolution/fq_weights_1" type="Multiply" version="opset1">
			<data auto_broadcast="numpy" />
			<input>
				<port id="0" precision="FP32">
					<dim>128</dim>
					<dim>128</dim>
					<dim>3</dim>
					<dim>3</dim>
				</port>
				<port id="1" precision="FP32">
					<dim>128</dim>
					<dim>1</dim>
					<dim>1</dim>
					<dim>1</dim>
				</port>
			</input>
			<output>
				<port id="2" precision="FP32">
					<dim>128</dim>
					<dim>128</dim>
					<dim>3</dim>
					<dim>3</dim>
				</port>
			</output>
		</layer>
		<layer id="270" name="__module.model.3.cv1.conv/aten::_convolution/Convolution" type="Convolution" version="opset1">
			<data strides="2, 2" dilations="1, 1" pads_begin="1, 1" pads_end="1, 1" auto_pad="explicit" />
			<input>
				<port id="0" precision="FP32">
					<dim>1</dim>
					<dim>128</dim>
					<dim>79</dim>
					<dim>79</dim>
				</port>
				<port id="1" precision="FP32">
					<dim>128</dim>
					<dim>128</dim>
					<dim>3</dim>
					<dim>3</dim>
				</port>
			</input>
			<output>
				<port id="2" precision="FP32">
					<dim>1</dim>
					<dim>128</dim>
					<dim>40</dim>
					<dim>40</dim>
				</port>
			</output>
		</layer>
		<layer id="271" name="__module.model.3.cv1.conv/aten::_convolution/Reshape" type="Const" version="opset1">
			<data element_type="f32" shape="1, 128, 1, 1" offset="457912" size="512" />
			<output>
				<port id="0" precision="FP32">
					<dim>1</dim>
					<dim>128</dim>
					<dim>1</dim>
					<dim>1</dim>
				</port>
			</output>
		</layer>
		<layer id="272" name="__module.model.3.cv1.conv/aten::_convolution/Add" type="Add" version="opset1">
			<data auto_broadcast="numpy" />
			<input>
				<port id="0" precision="FP32">
					<dim>1</dim>
					<dim>128</dim>
					<dim>40</dim>
					<dim>40</dim>
				</port>
				<port id="1" precision="FP32">
					<dim>1</dim>
					<dim>128</dim>
					<dim>1</dim>
					<dim>1</dim>
				</port>
			</input>
			<output>
				<port id="2" precision="FP32" names="300_1">
					<dim>1</dim>
					<dim>128</dim>
					<dim>40</dim>
					<dim>40</dim>
				</port>
			</output>
		</layer>
		<layer id="273" name="__module.model.22.cv3.2.1.act/aten::relu_/Relu_14" type="ReLU" version="opset1">
			<input>
				<port id="0" precision="FP32">
					<dim>1</dim>
					<dim>128</dim>
					<dim>40</dim>
					<dim>40</dim>
				</port>
			</input>
			<output>
				<port id="1" precision="FP32" names="300,input.61">
					<dim>1</dim>
					<dim>128</dim>
					<dim>40</dim>
					<dim>40</dim>
				</port>
			</output>
		</layer>
		<layer id="274" name="__module.model.22.cv3.2.1.act/aten::relu_/Relu_14/fq_output_0/input_low" type="Const" version="opset1">
			<data element_type="f32" shape="" offset="16800" size="4" />
			<output>
				<port id="0" precision="FP32" />
			</output>
		</layer>
		<layer id="275" name="__module.model.22.cv3.2.1.act/aten::relu_/Relu_14/fq_output_0/input_high" type="Const" version="opset1">
			<data element_type="f32" shape="" offset="458424" size="4" />
			<output>
				<port id="0" precision="FP32" />
			</output>
		</layer>
		<layer id="276" name="__module.model.22.cv3.2.1.act/aten::relu_/Relu_14/fq_output_0/output_low" type="Const" version="opset1">
			<data element_type="f32" shape="" offset="16800" size="4" />
			<output>
				<port id="0" precision="FP32" />
			</output>
		</layer>
		<layer id="277" name="__module.model.22.cv3.2.1.act/aten::relu_/Relu_14/fq_output_0/output_high" type="Const" version="opset1">
			<data element_type="f32" shape="" offset="458424" size="4" />
			<output>
				<port id="0" precision="FP32" />
			</output>
		</layer>
		<layer id="278" name="__module.model.22.cv3.2.1.act/aten::relu_/Relu_14/fq_output_0" type="FakeQuantize" version="opset1">
			<data levels="256" auto_broadcast="numpy" />
			<input>
				<port id="0" precision="FP32">
					<dim>1</dim>
					<dim>128</dim>
					<dim>40</dim>
					<dim>40</dim>
				</port>
				<port id="1" precision="FP32" />
				<port id="2" precision="FP32" />
				<port id="3" precision="FP32" />
				<port id="4" precision="FP32" />
			</input>
			<output>
				<port id="5" precision="FP32">
					<dim>1</dim>
					<dim>128</dim>
					<dim>40</dim>
					<dim>40</dim>
				</port>
			</output>
		</layer>
		<layer id="279" name="__module.model.3/aten::max_pool2d/MaxPool" type="MaxPool" version="opset8">
			<data strides="2, 2" dilations="1, 1" pads_begin="1, 1" pads_end="1, 1" kernel="3, 3" rounding_type="floor" auto_pad="explicit" index_element_type="i64" axis="2" />
			<input>
				<port id="0" precision="FP32">
					<dim>1</dim>
					<dim>128</dim>
					<dim>79</dim>
					<dim>79</dim>
				</port>
			</input>
			<output>
				<port id="1" precision="FP32" names="306,input.65">
					<dim>1</dim>
					<dim>128</dim>
					<dim>40</dim>
					<dim>40</dim>
				</port>
				<port id="2" precision="I64">
					<dim>1</dim>
					<dim>128</dim>
					<dim>40</dim>
					<dim>40</dim>
				</port>
			</output>
		</layer>
		<layer id="280" name="Constant_919190" type="Const" version="opset1">
			<data element_type="i8" shape="128, 128, 1, 1" offset="458428" size="16384" />
			<output>
				<port id="0" precision="I8">
					<dim>128</dim>
					<dim>128</dim>
					<dim>1</dim>
					<dim>1</dim>
				</port>
			</output>
		</layer>
		<layer id="281" name="Convert_919191" type="Convert" version="opset1">
			<data destination_type="f32" />
			<input>
				<port id="0" precision="I8">
					<dim>128</dim>
					<dim>128</dim>
					<dim>1</dim>
					<dim>1</dim>
				</port>
			</input>
			<output>
				<port id="1" precision="FP32">
					<dim>128</dim>
					<dim>128</dim>
					<dim>1</dim>
					<dim>1</dim>
				</port>
			</output>
		</layer>
		<layer id="282" name="Constant_919192" type="Const" version="opset1">
			<data element_type="f32" shape="128, 1, 1, 1" offset="474812" size="512" />
			<output>
				<port id="0" precision="FP32">
					<dim>128</dim>
					<dim>1</dim>
					<dim>1</dim>
					<dim>1</dim>
				</port>
			</output>
		</layer>
		<layer id="283" name="__module.model.3.cv2.conv/aten::_convolution/Convolution/fq_weights_1" type="Multiply" version="opset1">
			<data auto_broadcast="numpy" />
			<input>
				<port id="0" precision="FP32">
					<dim>128</dim>
					<dim>128</dim>
					<dim>1</dim>
					<dim>1</dim>
				</port>
				<port id="1" precision="FP32">
					<dim>128</dim>
					<dim>1</dim>
					<dim>1</dim>
					<dim>1</dim>
				</port>
			</input>
			<output>
				<port id="2" precision="FP32">
					<dim>128</dim>
					<dim>128</dim>
					<dim>1</dim>
					<dim>1</dim>
				</port>
			</output>
		</layer>
		<layer id="284" name="__module.model.3.cv2.conv/aten::_convolution/Convolution" type="Convolution" version="opset1">
			<data strides="1, 1" dilations="1, 1" pads_begin="0, 0" pads_end="0, 0" auto_pad="explicit" />
			<input>
				<port id="0" precision="FP32">
					<dim>1</dim>
					<dim>128</dim>
					<dim>40</dim>
					<dim>40</dim>
				</port>
				<port id="1" precision="FP32">
					<dim>128</dim>
					<dim>128</dim>
					<dim>1</dim>
					<dim>1</dim>
				</port>
			</input>
			<output>
				<port id="2" precision="FP32">
					<dim>1</dim>
					<dim>128</dim>
					<dim>40</dim>
					<dim>40</dim>
				</port>
			</output>
		</layer>
		<layer id="285" name="__module.model.3.cv2.conv/aten::_convolution/Reshape" type="Const" version="opset1">
			<data element_type="f32" shape="1, 128, 1, 1" offset="475324" size="512" />
			<output>
				<port id="0" precision="FP32">
					<dim>1</dim>
					<dim>128</dim>
					<dim>1</dim>
					<dim>1</dim>
				</port>
			</output>
		</layer>
		<layer id="286" name="__module.model.3.cv2.conv/aten::_convolution/Add" type="Add" version="opset1">
			<data auto_broadcast="numpy" />
			<input>
				<port id="0" precision="FP32">
					<dim>1</dim>
					<dim>128</dim>
					<dim>40</dim>
					<dim>40</dim>
				</port>
				<port id="1" precision="FP32">
					<dim>1</dim>
					<dim>128</dim>
					<dim>1</dim>
					<dim>1</dim>
				</port>
			</input>
			<output>
				<port id="2" precision="FP32" names="314_1">
					<dim>1</dim>
					<dim>128</dim>
					<dim>40</dim>
					<dim>40</dim>
				</port>
			</output>
		</layer>
		<layer id="287" name="__module.model.22.cv3.2.1.act/aten::relu_/Relu_15" type="ReLU" version="opset1">
			<input>
				<port id="0" precision="FP32">
					<dim>1</dim>
					<dim>128</dim>
					<dim>40</dim>
					<dim>40</dim>
				</port>
			</input>
			<output>
				<port id="1" precision="FP32" names="314,input.67">
					<dim>1</dim>
					<dim>128</dim>
					<dim>40</dim>
					<dim>40</dim>
				</port>
			</output>
		</layer>
		<layer id="288" name="__module.model.22.cv3.2.1.act/aten::relu_/Relu_15/fq_output_0/input_low" type="Const" version="opset1">
			<data element_type="f32" shape="" offset="16800" size="4" />
			<output>
				<port id="0" precision="FP32" />
			</output>
		</layer>
		<layer id="289" name="__module.model.22.cv3.2.1.act/aten::relu_/Relu_15/fq_output_0/input_high" type="Const" version="opset1">
			<data element_type="f32" shape="" offset="458424" size="4" />
			<output>
				<port id="0" precision="FP32" />
			</output>
		</layer>
		<layer id="290" name="__module.model.22.cv3.2.1.act/aten::relu_/Relu_15/fq_output_0/output_low" type="Const" version="opset1">
			<data element_type="f32" shape="" offset="16800" size="4" />
			<output>
				<port id="0" precision="FP32" />
			</output>
		</layer>
		<layer id="291" name="__module.model.22.cv3.2.1.act/aten::relu_/Relu_15/fq_output_0/output_high" type="Const" version="opset1">
			<data element_type="f32" shape="" offset="458424" size="4" />
			<output>
				<port id="0" precision="FP32" />
			</output>
		</layer>
		<layer id="292" name="__module.model.22.cv3.2.1.act/aten::relu_/Relu_15/fq_output_0" type="FakeQuantize" version="opset1">
			<data levels="256" auto_broadcast="numpy" />
			<input>
				<port id="0" precision="FP32">
					<dim>1</dim>
					<dim>128</dim>
					<dim>40</dim>
					<dim>40</dim>
				</port>
				<port id="1" precision="FP32" />
				<port id="2" precision="FP32" />
				<port id="3" precision="FP32" />
				<port id="4" precision="FP32" />
			</input>
			<output>
				<port id="5" precision="FP32">
					<dim>1</dim>
					<dim>128</dim>
					<dim>40</dim>
					<dim>40</dim>
				</port>
			</output>
		</layer>
		<layer id="293" name="__module.model.3/aten::cat/Concat" type="Concat" version="opset1">
			<data axis="1" />
			<input>
				<port id="0" precision="FP32">
					<dim>1</dim>
					<dim>128</dim>
					<dim>40</dim>
					<dim>40</dim>
				</port>
				<port id="1" precision="FP32">
					<dim>1</dim>
					<dim>128</dim>
					<dim>40</dim>
					<dim>40</dim>
				</port>
			</input>
			<output>
				<port id="2" precision="FP32" names="317,input.69">
					<dim>1</dim>
					<dim>256</dim>
					<dim>40</dim>
					<dim>40</dim>
				</port>
			</output>
		</layer>
		<layer id="294" name="Constant_919194" type="Const" version="opset1">
			<data element_type="i8" shape="256, 256, 1, 1" offset="475836" size="65536" />
			<output>
				<port id="0" precision="I8">
					<dim>256</dim>
					<dim>256</dim>
					<dim>1</dim>
					<dim>1</dim>
				</port>
			</output>
		</layer>
		<layer id="295" name="Convert_919195" type="Convert" version="opset1">
			<data destination_type="f32" />
			<input>
				<port id="0" precision="I8">
					<dim>256</dim>
					<dim>256</dim>
					<dim>1</dim>
					<dim>1</dim>
				</port>
			</input>
			<output>
				<port id="1" precision="FP32">
					<dim>256</dim>
					<dim>256</dim>
					<dim>1</dim>
					<dim>1</dim>
				</port>
			</output>
		</layer>
		<layer id="296" name="Constant_919196" type="Const" version="opset1">
			<data element_type="f32" shape="256, 1, 1, 1" offset="541372" size="1024" />
			<output>
				<port id="0" precision="FP32">
					<dim>256</dim>
					<dim>1</dim>
					<dim>1</dim>
					<dim>1</dim>
				</port>
			</output>
		</layer>
		<layer id="297" name="__module.model.4.cv1.conv/aten::_convolution/Convolution/fq_weights_1" type="Multiply" version="opset1">
			<data auto_broadcast="numpy" />
			<input>
				<port id="0" precision="FP32">
					<dim>256</dim>
					<dim>256</dim>
					<dim>1</dim>
					<dim>1</dim>
				</port>
				<port id="1" precision="FP32">
					<dim>256</dim>
					<dim>1</dim>
					<dim>1</dim>
					<dim>1</dim>
				</port>
			</input>
			<output>
				<port id="2" precision="FP32">
					<dim>256</dim>
					<dim>256</dim>
					<dim>1</dim>
					<dim>1</dim>
				</port>
			</output>
		</layer>
		<layer id="298" name="__module.model.4.cv1.conv/aten::_convolution/Convolution" type="Convolution" version="opset1">
			<data strides="1, 1" dilations="1, 1" pads_begin="0, 0" pads_end="0, 0" auto_pad="explicit" />
			<input>
				<port id="0" precision="FP32">
					<dim>1</dim>
					<dim>256</dim>
					<dim>40</dim>
					<dim>40</dim>
				</port>
				<port id="1" precision="FP32">
					<dim>256</dim>
					<dim>256</dim>
					<dim>1</dim>
					<dim>1</dim>
				</port>
			</input>
			<output>
				<port id="2" precision="FP32">
					<dim>1</dim>
					<dim>256</dim>
					<dim>40</dim>
					<dim>40</dim>
				</port>
			</output>
		</layer>
		<layer id="299" name="__module.model.4.cv1.conv/aten::_convolution/Reshape" type="Const" version="opset1">
			<data element_type="f32" shape="1, 256, 1, 1" offset="542396" size="1024" />
			<output>
				<port id="0" precision="FP32">
					<dim>1</dim>
					<dim>256</dim>
					<dim>1</dim>
					<dim>1</dim>
				</port>
			</output>
		</layer>
		<layer id="300" name="__module.model.4.cv1.conv/aten::_convolution/Add" type="Add" version="opset1">
			<data auto_broadcast="numpy" />
			<input>
				<port id="0" precision="FP32">
					<dim>1</dim>
					<dim>256</dim>
					<dim>40</dim>
					<dim>40</dim>
				</port>
				<port id="1" precision="FP32">
					<dim>1</dim>
					<dim>256</dim>
					<dim>1</dim>
					<dim>1</dim>
				</port>
			</input>
			<output>
				<port id="2" precision="FP32" names="334_1">
					<dim>1</dim>
					<dim>256</dim>
					<dim>40</dim>
					<dim>40</dim>
				</port>
			</output>
		</layer>
		<layer id="301" name="__module.model.22.cv3.2.1.act/aten::relu_/Relu_16" type="ReLU" version="opset1">
			<input>
				<port id="0" precision="FP32">
					<dim>1</dim>
					<dim>256</dim>
					<dim>40</dim>
					<dim>40</dim>
				</port>
			</input>
			<output>
				<port id="1" precision="FP32" names="334,input.71">
					<dim>1</dim>
					<dim>256</dim>
					<dim>40</dim>
					<dim>40</dim>
				</port>
			</output>
		</layer>
		<layer id="302" name="__module.model.22.cv3.2.1.act/aten::relu_/Relu_16/fq_output_0/input_low" type="Const" version="opset1">
			<data element_type="f32" shape="" offset="16800" size="4" />
			<output>
				<port id="0" precision="FP32" />
			</output>
		</layer>
		<layer id="303" name="__module.model.22.cv3.2.1.act/aten::relu_/Relu_16/fq_output_0/input_high" type="Const" version="opset1">
			<data element_type="f32" shape="" offset="543420" size="4" />
			<output>
				<port id="0" precision="FP32" />
			</output>
		</layer>
		<layer id="304" name="__module.model.22.cv3.2.1.act/aten::relu_/Relu_16/fq_output_0/output_low" type="Const" version="opset1">
			<data element_type="f32" shape="" offset="16800" size="4" />
			<output>
				<port id="0" precision="FP32" />
			</output>
		</layer>
		<layer id="305" name="__module.model.22.cv3.2.1.act/aten::relu_/Relu_16/fq_output_0/output_high" type="Const" version="opset1">
			<data element_type="f32" shape="" offset="543420" size="4" />
			<output>
				<port id="0" precision="FP32" />
			</output>
		</layer>
		<layer id="306" name="__module.model.22.cv3.2.1.act/aten::relu_/Relu_16/fq_output_0" type="FakeQuantize" version="opset1">
			<data levels="256" auto_broadcast="numpy" />
			<input>
				<port id="0" precision="FP32">
					<dim>1</dim>
					<dim>256</dim>
					<dim>40</dim>
					<dim>40</dim>
				</port>
				<port id="1" precision="FP32" />
				<port id="2" precision="FP32" />
				<port id="3" precision="FP32" />
				<port id="4" precision="FP32" />
			</input>
			<output>
				<port id="5" precision="FP32">
					<dim>1</dim>
					<dim>256</dim>
					<dim>40</dim>
					<dim>40</dim>
				</port>
			</output>
		</layer>
		<layer id="307" name="322" type="Const" version="opset1">
			<data element_type="i64" shape="" offset="111220" size="8" />
			<output>
				<port id="0" precision="I64" names="322" />
			</output>
		</layer>
		<layer id="308" name="__module.model.4/prim::ListUnpack/ShapeOf" type="ShapeOf" version="opset3">
			<data output_type="i32" />
			<input>
				<port id="0" precision="FP32">
					<dim>1</dim>
					<dim>256</dim>
					<dim>40</dim>
					<dim>40</dim>
				</port>
			</input>
			<output>
				<port id="1" precision="I32">
					<dim>4</dim>
				</port>
			</output>
		</layer>
		<layer id="309" name="Constant_10095" type="Const" version="opset1">
			<data element_type="i32" shape="1" offset="16800" size="4" />
			<output>
				<port id="0" precision="I32">
					<dim>1</dim>
				</port>
			</output>
		</layer>
		<layer id="310" name="__module.model.4/prim::ListUnpack/Gather" type="Gather" version="opset8">
			<data batch_dims="0" />
			<input>
				<port id="0" precision="I32">
					<dim>4</dim>
				</port>
				<port id="1" precision="I64" />
				<port id="2" precision="I32">
					<dim>1</dim>
				</port>
			</input>
			<output>
				<port id="3" precision="I32" />
			</output>
		</layer>
		<layer id="311" name="__module.model.4/prim::ListUnpack/Convert" type="Const" version="opset1">
			<data element_type="i32" shape="" offset="111228" size="4" />
			<output>
				<port id="0" precision="I32" />
			</output>
		</layer>
		<layer id="312" name="__module.model.4/prim::ListUnpack/Divide" type="Divide" version="opset1">
			<data auto_broadcast="numpy" m_pythondiv="true" />
			<input>
				<port id="0" precision="I32" />
				<port id="1" precision="I32" />
			</input>
			<output>
				<port id="2" precision="I32" />
			</output>
		</layer>
		<layer id="313" name="__module.model.4/prim::ListUnpack/Mod" type="Mod" version="opset1">
			<data auto_broadcast="numpy" />
			<input>
				<port id="0" precision="I32" />
				<port id="1" precision="I32" />
			</input>
			<output>
				<port id="2" precision="I32" />
			</output>
		</layer>
		<layer id="314" name="__module.model.4/prim::ListUnpack/Greater" type="Greater" version="opset1">
			<data auto_broadcast="numpy" />
			<input>
				<port id="0" precision="I32" />
				<port id="1" precision="I32">
					<dim>1</dim>
				</port>
			</input>
			<output>
				<port id="2" precision="BOOL">
					<dim>1</dim>
				</port>
			</output>
		</layer>
		<layer id="315" name="__module.model.4/prim::ListUnpack/Convert_0" type="Convert" version="opset1">
			<data destination_type="i32" />
			<input>
				<port id="0" precision="BOOL">
					<dim>1</dim>
				</port>
			</input>
			<output>
				<port id="1" precision="I32">
					<dim>1</dim>
				</port>
			</output>
		</layer>
		<layer id="316" name="__module.model.4/prim::ListUnpack/Add" type="Add" version="opset1">
			<data auto_broadcast="numpy" />
			<input>
				<port id="0" precision="I32" />
				<port id="1" precision="I32">
					<dim>1</dim>
				</port>
			</input>
			<output>
				<port id="2" precision="I32">
					<dim>1</dim>
				</port>
			</output>
		</layer>
		<layer id="317" name="Constant_10104" type="Const" version="opset1">
			<data element_type="i32" shape="1" offset="111232" size="4" />
			<output>
				<port id="0" precision="I32">
					<dim>1</dim>
				</port>
			</output>
		</layer>
		<layer id="318" name="__module.model.4/prim::ListUnpack/Broadcast" type="Broadcast" version="opset3">
			<data mode="numpy" />
			<input>
				<port id="0" precision="I32">
					<dim>1</dim>
				</port>
				<port id="1" precision="I32">
					<dim>1</dim>
				</port>
			</input>
			<output>
				<port id="2" precision="I32">
					<dim>1</dim>
				</port>
			</output>
		</layer>
		<layer id="319" name="Constant_10096" type="Const" version="opset1">
			<data element_type="i32" shape="1" offset="111236" size="4" />
			<output>
				<port id="0" precision="I32">
					<dim>1</dim>
				</port>
			</output>
		</layer>
		<layer id="320" name="__module.model.4/prim::ListUnpack/Concat" type="Concat" version="opset1">
			<data axis="0" />
			<input>
				<port id="0" precision="I32">
					<dim>1</dim>
				</port>
				<port id="1" precision="I32">
					<dim>1</dim>
				</port>
			</input>
			<output>
				<port id="2" precision="I32">
					<dim>2</dim>
				</port>
			</output>
		</layer>
		<layer id="321" name="__module.model.4/prim::ListUnpack/VariadicSplit" type="VariadicSplit" version="opset1">
			<input>
				<port id="0" precision="FP32">
					<dim>1</dim>
					<dim>256</dim>
					<dim>40</dim>
					<dim>40</dim>
				</port>
				<port id="1" precision="I64" />
				<port id="2" precision="I32">
					<dim>2</dim>
				</port>
			</input>
			<output>
				<port id="3" precision="FP32" names="337">
					<dim>1</dim>
					<dim>128</dim>
					<dim>40</dim>
					<dim>40</dim>
				</port>
				<port id="4" precision="FP32" names="338,input.73">
					<dim>1</dim>
					<dim>128</dim>
					<dim>40</dim>
					<dim>40</dim>
				</port>
			</output>
		</layer>
		<layer id="322" name="Constant_919198" type="Const" version="opset1">
			<data element_type="i8" shape="64, 128, 1, 1" offset="543424" size="8192" />
			<output>
				<port id="0" precision="I8">
					<dim>64</dim>
					<dim>128</dim>
					<dim>1</dim>
					<dim>1</dim>
				</port>
			</output>
		</layer>
		<layer id="323" name="Convert_919199" type="Convert" version="opset1">
			<data destination_type="f32" />
			<input>
				<port id="0" precision="I8">
					<dim>64</dim>
					<dim>128</dim>
					<dim>1</dim>
					<dim>1</dim>
				</port>
			</input>
			<output>
				<port id="1" precision="FP32">
					<dim>64</dim>
					<dim>128</dim>
					<dim>1</dim>
					<dim>1</dim>
				</port>
			</output>
		</layer>
		<layer id="324" name="Constant_919200" type="Const" version="opset1">
			<data element_type="f32" shape="64, 1, 1, 1" offset="551616" size="256" />
			<output>
				<port id="0" precision="FP32">
					<dim>64</dim>
					<dim>1</dim>
					<dim>1</dim>
					<dim>1</dim>
				</port>
			</output>
		</layer>
		<layer id="325" name="__module.model.4.cv2.0.cv1.conv/aten::_convolution/Convolution/fq_weights_1" type="Multiply" version="opset1">
			<data auto_broadcast="numpy" />
			<input>
				<port id="0" precision="FP32">
					<dim>64</dim>
					<dim>128</dim>
					<dim>1</dim>
					<dim>1</dim>
				</port>
				<port id="1" precision="FP32">
					<dim>64</dim>
					<dim>1</dim>
					<dim>1</dim>
					<dim>1</dim>
				</port>
			</input>
			<output>
				<port id="2" precision="FP32">
					<dim>64</dim>
					<dim>128</dim>
					<dim>1</dim>
					<dim>1</dim>
				</port>
			</output>
		</layer>
		<layer id="326" name="__module.model.4.cv2.0.cv1.conv/aten::_convolution/Convolution" type="Convolution" version="opset1">
			<data strides="1, 1" dilations="1, 1" pads_begin="0, 0" pads_end="0, 0" auto_pad="explicit" />
			<input>
				<port id="0" precision="FP32">
					<dim>1</dim>
					<dim>128</dim>
					<dim>40</dim>
					<dim>40</dim>
				</port>
				<port id="1" precision="FP32">
					<dim>64</dim>
					<dim>128</dim>
					<dim>1</dim>
					<dim>1</dim>
				</port>
			</input>
			<output>
				<port id="2" precision="FP32">
					<dim>1</dim>
					<dim>64</dim>
					<dim>40</dim>
					<dim>40</dim>
				</port>
			</output>
		</layer>
		<layer id="327" name="__module.model.4.cv2.0.cv1.conv/aten::_convolution/Reshape" type="Const" version="opset1">
			<data element_type="f32" shape="1, 64, 1, 1" offset="551872" size="256" />
			<output>
				<port id="0" precision="FP32">
					<dim>1</dim>
					<dim>64</dim>
					<dim>1</dim>
					<dim>1</dim>
				</port>
			</output>
		</layer>
		<layer id="328" name="__module.model.4.cv2.0.cv1.conv/aten::_convolution/Add" type="Add" version="opset1">
			<data auto_broadcast="numpy" />
			<input>
				<port id="0" precision="FP32">
					<dim>1</dim>
					<dim>64</dim>
					<dim>40</dim>
					<dim>40</dim>
				</port>
				<port id="1" precision="FP32">
					<dim>1</dim>
					<dim>64</dim>
					<dim>1</dim>
					<dim>1</dim>
				</port>
			</input>
			<output>
				<port id="2" precision="FP32" names="352_1">
					<dim>1</dim>
					<dim>64</dim>
					<dim>40</dim>
					<dim>40</dim>
				</port>
			</output>
		</layer>
		<layer id="329" name="__module.model.22.cv3.2.1.act/aten::relu_/Relu_17" type="ReLU" version="opset1">
			<input>
				<port id="0" precision="FP32">
					<dim>1</dim>
					<dim>64</dim>
					<dim>40</dim>
					<dim>40</dim>
				</port>
			</input>
			<output>
				<port id="1" precision="FP32" names="352,input.75">
					<dim>1</dim>
					<dim>64</dim>
					<dim>40</dim>
					<dim>40</dim>
				</port>
			</output>
		</layer>
		<layer id="330" name="__module.model.22.cv3.2.1.act/aten::relu_/Relu_17/fq_output_0/input_low" type="Const" version="opset1">
			<data element_type="f32" shape="" offset="16800" size="4" />
			<output>
				<port id="0" precision="FP32" />
			</output>
		</layer>
		<layer id="331" name="__module.model.22.cv3.2.1.act/aten::relu_/Relu_17/fq_output_0/input_high" type="Const" version="opset1">
			<data element_type="f32" shape="" offset="552128" size="4" />
			<output>
				<port id="0" precision="FP32" />
			</output>
		</layer>
		<layer id="332" name="__module.model.22.cv3.2.1.act/aten::relu_/Relu_17/fq_output_0/output_low" type="Const" version="opset1">
			<data element_type="f32" shape="" offset="16800" size="4" />
			<output>
				<port id="0" precision="FP32" />
			</output>
		</layer>
		<layer id="333" name="__module.model.22.cv3.2.1.act/aten::relu_/Relu_17/fq_output_0/output_high" type="Const" version="opset1">
			<data element_type="f32" shape="" offset="552128" size="4" />
			<output>
				<port id="0" precision="FP32" />
			</output>
		</layer>
		<layer id="334" name="__module.model.22.cv3.2.1.act/aten::relu_/Relu_17/fq_output_0" type="FakeQuantize" version="opset1">
			<data levels="256" auto_broadcast="numpy" />
			<input>
				<port id="0" precision="FP32">
					<dim>1</dim>
					<dim>64</dim>
					<dim>40</dim>
					<dim>40</dim>
				</port>
				<port id="1" precision="FP32" />
				<port id="2" precision="FP32" />
				<port id="3" precision="FP32" />
				<port id="4" precision="FP32" />
			</input>
			<output>
				<port id="5" precision="FP32">
					<dim>1</dim>
					<dim>64</dim>
					<dim>40</dim>
					<dim>40</dim>
				</port>
			</output>
		</layer>
		<layer id="335" name="Constant_919202" type="Const" version="opset1">
			<data element_type="i8" shape="64, 64, 3, 3" offset="552132" size="36864" />
			<output>
				<port id="0" precision="I8">
					<dim>64</dim>
					<dim>64</dim>
					<dim>3</dim>
					<dim>3</dim>
				</port>
			</output>
		</layer>
		<layer id="336" name="Convert_919203" type="Convert" version="opset1">
			<data destination_type="f32" />
			<input>
				<port id="0" precision="I8">
					<dim>64</dim>
					<dim>64</dim>
					<dim>3</dim>
					<dim>3</dim>
				</port>
			</input>
			<output>
				<port id="1" precision="FP32">
					<dim>64</dim>
					<dim>64</dim>
					<dim>3</dim>
					<dim>3</dim>
				</port>
			</output>
		</layer>
		<layer id="337" name="Constant_919204" type="Const" version="opset1">
			<data element_type="f32" shape="64, 1, 1, 1" offset="588996" size="256" />
			<output>
				<port id="0" precision="FP32">
					<dim>64</dim>
					<dim>1</dim>
					<dim>1</dim>
					<dim>1</dim>
				</port>
			</output>
		</layer>
		<layer id="338" name="__module.model.4.cv2.0.m.0.cv1.conv/aten::_convolution/Convolution/fq_weights_1" type="Multiply" version="opset1">
			<data auto_broadcast="numpy" />
			<input>
				<port id="0" precision="FP32">
					<dim>64</dim>
					<dim>64</dim>
					<dim>3</dim>
					<dim>3</dim>
				</port>
				<port id="1" precision="FP32">
					<dim>64</dim>
					<dim>1</dim>
					<dim>1</dim>
					<dim>1</dim>
				</port>
			</input>
			<output>
				<port id="2" precision="FP32">
					<dim>64</dim>
					<dim>64</dim>
					<dim>3</dim>
					<dim>3</dim>
				</port>
			</output>
		</layer>
		<layer id="339" name="__module.model.4.cv2.0.m.0.cv1.conv/aten::_convolution/Convolution" type="Convolution" version="opset1">
			<data strides="1, 1" dilations="1, 1" pads_begin="1, 1" pads_end="1, 1" auto_pad="explicit" />
			<input>
				<port id="0" precision="FP32">
					<dim>1</dim>
					<dim>64</dim>
					<dim>40</dim>
					<dim>40</dim>
				</port>
				<port id="1" precision="FP32">
					<dim>64</dim>
					<dim>64</dim>
					<dim>3</dim>
					<dim>3</dim>
				</port>
			</input>
			<output>
				<port id="2" precision="FP32">
					<dim>1</dim>
					<dim>64</dim>
					<dim>40</dim>
					<dim>40</dim>
				</port>
			</output>
		</layer>
		<layer id="340" name="__module.model.4.cv2.0.m.0.cv1.conv/aten::_convolution/Reshape" type="Const" version="opset1">
			<data element_type="f32" shape="1, 64, 1, 1" offset="589252" size="256" />
			<output>
				<port id="0" precision="FP32">
					<dim>1</dim>
					<dim>64</dim>
					<dim>1</dim>
					<dim>1</dim>
				</port>
			</output>
		</layer>
		<layer id="341" name="__module.model.4.cv2.0.m.0.cv1.conv/aten::_convolution/Add" type="Add" version="opset1">
			<data auto_broadcast="numpy" />
			<input>
				<port id="0" precision="FP32">
					<dim>1</dim>
					<dim>64</dim>
					<dim>40</dim>
					<dim>40</dim>
				</port>
				<port id="1" precision="FP32">
					<dim>1</dim>
					<dim>64</dim>
					<dim>1</dim>
					<dim>1</dim>
				</port>
			</input>
			<output>
				<port id="2" precision="FP32" names="364_1">
					<dim>1</dim>
					<dim>64</dim>
					<dim>40</dim>
					<dim>40</dim>
				</port>
			</output>
		</layer>
		<layer id="342" name="__module.model.21.cv3.0.m.0.cv1.act/aten::relu_/Relu_2" type="ReLU" version="opset1">
			<input>
				<port id="0" precision="FP32">
					<dim>1</dim>
					<dim>64</dim>
					<dim>40</dim>
					<dim>40</dim>
				</port>
			</input>
			<output>
				<port id="1" precision="FP32" names="364,input.79">
					<dim>1</dim>
					<dim>64</dim>
					<dim>40</dim>
					<dim>40</dim>
				</port>
			</output>
		</layer>
		<layer id="343" name="__module.model.21.cv3.0.m.0.cv1.act/aten::relu_/Relu_2/fq_output_0/input_low" type="Const" version="opset1">
			<data element_type="f32" shape="" offset="16800" size="4" />
			<output>
				<port id="0" precision="FP32" />
			</output>
		</layer>
		<layer id="344" name="__module.model.21.cv3.0.m.0.cv1.act/aten::relu_/Relu_2/fq_output_0/input_high" type="Const" version="opset1">
			<data element_type="f32" shape="" offset="589508" size="4" />
			<output>
				<port id="0" precision="FP32" />
			</output>
		</layer>
		<layer id="345" name="__module.model.21.cv3.0.m.0.cv1.act/aten::relu_/Relu_2/fq_output_0/output_low" type="Const" version="opset1">
			<data element_type="f32" shape="" offset="16800" size="4" />
			<output>
				<port id="0" precision="FP32" />
			</output>
		</layer>
		<layer id="346" name="__module.model.21.cv3.0.m.0.cv1.act/aten::relu_/Relu_2/fq_output_0/output_high" type="Const" version="opset1">
			<data element_type="f32" shape="" offset="589508" size="4" />
			<output>
				<port id="0" precision="FP32" />
			</output>
		</layer>
		<layer id="347" name="__module.model.21.cv3.0.m.0.cv1.act/aten::relu_/Relu_2/fq_output_0" type="FakeQuantize" version="opset1">
			<data levels="256" auto_broadcast="numpy" />
			<input>
				<port id="0" precision="FP32">
					<dim>1</dim>
					<dim>64</dim>
					<dim>40</dim>
					<dim>40</dim>
				</port>
				<port id="1" precision="FP32" />
				<port id="2" precision="FP32" />
				<port id="3" precision="FP32" />
				<port id="4" precision="FP32" />
			</input>
			<output>
				<port id="5" precision="FP32">
					<dim>1</dim>
					<dim>64</dim>
					<dim>40</dim>
					<dim>40</dim>
				</port>
			</output>
		</layer>
		<layer id="348" name="Constant_919206" type="Const" version="opset1">
			<data element_type="i8" shape="64, 64, 3, 3" offset="589512" size="36864" />
			<output>
				<port id="0" precision="I8">
					<dim>64</dim>
					<dim>64</dim>
					<dim>3</dim>
					<dim>3</dim>
				</port>
			</output>
		</layer>
		<layer id="349" name="Convert_919207" type="Convert" version="opset1">
			<data destination_type="f32" />
			<input>
				<port id="0" precision="I8">
					<dim>64</dim>
					<dim>64</dim>
					<dim>3</dim>
					<dim>3</dim>
				</port>
			</input>
			<output>
				<port id="1" precision="FP32">
					<dim>64</dim>
					<dim>64</dim>
					<dim>3</dim>
					<dim>3</dim>
				</port>
			</output>
		</layer>
		<layer id="350" name="Constant_919208" type="Const" version="opset1">
			<data element_type="f32" shape="64, 1, 1, 1" offset="626376" size="256" />
			<output>
				<port id="0" precision="FP32">
					<dim>64</dim>
					<dim>1</dim>
					<dim>1</dim>
					<dim>1</dim>
				</port>
			</output>
		</layer>
		<layer id="351" name="__module.model.4.cv2.0.m.0.cv2.conv/aten::_convolution/Convolution/fq_weights_1" type="Multiply" version="opset1">
			<data auto_broadcast="numpy" />
			<input>
				<port id="0" precision="FP32">
					<dim>64</dim>
					<dim>64</dim>
					<dim>3</dim>
					<dim>3</dim>
				</port>
				<port id="1" precision="FP32">
					<dim>64</dim>
					<dim>1</dim>
					<dim>1</dim>
					<dim>1</dim>
				</port>
			</input>
			<output>
				<port id="2" precision="FP32">
					<dim>64</dim>
					<dim>64</dim>
					<dim>3</dim>
					<dim>3</dim>
				</port>
			</output>
		</layer>
		<layer id="352" name="__module.model.4.cv2.0.m.0.cv2.conv/aten::_convolution/Convolution" type="Convolution" version="opset1">
			<data strides="1, 1" dilations="1, 1" pads_begin="1, 1" pads_end="1, 1" auto_pad="explicit" />
			<input>
				<port id="0" precision="FP32">
					<dim>1</dim>
					<dim>64</dim>
					<dim>40</dim>
					<dim>40</dim>
				</port>
				<port id="1" precision="FP32">
					<dim>64</dim>
					<dim>64</dim>
					<dim>3</dim>
					<dim>3</dim>
				</port>
			</input>
			<output>
				<port id="2" precision="FP32">
					<dim>1</dim>
					<dim>64</dim>
					<dim>40</dim>
					<dim>40</dim>
				</port>
			</output>
		</layer>
		<layer id="353" name="__module.model.4.cv2.0.m.0.cv2.conv/aten::_convolution/Reshape" type="Const" version="opset1">
			<data element_type="f32" shape="1, 64, 1, 1" offset="626632" size="256" />
			<output>
				<port id="0" precision="FP32">
					<dim>1</dim>
					<dim>64</dim>
					<dim>1</dim>
					<dim>1</dim>
				</port>
			</output>
		</layer>
		<layer id="354" name="__module.model.4.cv2.0.m.0.cv2.conv/aten::_convolution/Add" type="Add" version="opset1">
			<data auto_broadcast="numpy" />
			<input>
				<port id="0" precision="FP32">
					<dim>1</dim>
					<dim>64</dim>
					<dim>40</dim>
					<dim>40</dim>
				</port>
				<port id="1" precision="FP32">
					<dim>1</dim>
					<dim>64</dim>
					<dim>1</dim>
					<dim>1</dim>
				</port>
			</input>
			<output>
				<port id="2" precision="FP32" names="373_1">
					<dim>1</dim>
					<dim>64</dim>
					<dim>40</dim>
					<dim>40</dim>
				</port>
			</output>
		</layer>
		<layer id="355" name="__module.model.22.cv3.2.1.act/aten::relu_/Relu_18" type="ReLU" version="opset1">
			<input>
				<port id="0" precision="FP32">
					<dim>1</dim>
					<dim>64</dim>
					<dim>40</dim>
					<dim>40</dim>
				</port>
			</input>
			<output>
				<port id="1" precision="FP32" names="373,input.83">
					<dim>1</dim>
					<dim>64</dim>
					<dim>40</dim>
					<dim>40</dim>
				</port>
			</output>
		</layer>
		<layer id="356" name="__module.model.22.cv3.2.1.act/aten::relu_/Relu_18/fq_output_0/input_low" type="Const" version="opset1">
			<data element_type="f32" shape="" offset="16800" size="4" />
			<output>
				<port id="0" precision="FP32" />
			</output>
		</layer>
		<layer id="357" name="__module.model.22.cv3.2.1.act/aten::relu_/Relu_18/fq_output_0/input_high" type="Const" version="opset1">
			<data element_type="f32" shape="" offset="626888" size="4" />
			<output>
				<port id="0" precision="FP32" />
			</output>
		</layer>
		<layer id="358" name="__module.model.22.cv3.2.1.act/aten::relu_/Relu_18/fq_output_0/output_low" type="Const" version="opset1">
			<data element_type="f32" shape="" offset="16800" size="4" />
			<output>
				<port id="0" precision="FP32" />
			</output>
		</layer>
		<layer id="359" name="__module.model.22.cv3.2.1.act/aten::relu_/Relu_18/fq_output_0/output_high" type="Const" version="opset1">
			<data element_type="f32" shape="" offset="626888" size="4" />
			<output>
				<port id="0" precision="FP32" />
			</output>
		</layer>
		<layer id="360" name="__module.model.22.cv3.2.1.act/aten::relu_/Relu_18/fq_output_0" type="FakeQuantize" version="opset1">
			<data levels="256" auto_broadcast="numpy" />
			<input>
				<port id="0" precision="FP32">
					<dim>1</dim>
					<dim>64</dim>
					<dim>40</dim>
					<dim>40</dim>
				</port>
				<port id="1" precision="FP32" />
				<port id="2" precision="FP32" />
				<port id="3" precision="FP32" />
				<port id="4" precision="FP32" />
			</input>
			<output>
				<port id="5" precision="FP32">
					<dim>1</dim>
					<dim>64</dim>
					<dim>40</dim>
					<dim>40</dim>
				</port>
			</output>
		</layer>
		<layer id="361" name="__module.model.4.cv2.0.m.0/aten::add/Add" type="Add" version="opset1">
			<data auto_broadcast="numpy" />
			<input>
				<port id="0" precision="FP32">
					<dim>1</dim>
					<dim>64</dim>
					<dim>40</dim>
					<dim>40</dim>
				</port>
				<port id="1" precision="FP32">
					<dim>1</dim>
					<dim>64</dim>
					<dim>40</dim>
					<dim>40</dim>
				</port>
			</input>
			<output>
				<port id="2" precision="FP32" names="375">
					<dim>1</dim>
					<dim>64</dim>
					<dim>40</dim>
					<dim>40</dim>
				</port>
			</output>
		</layer>
		<layer id="362" name="__module.model.4.cv2.0.m.0/aten::add/Add/fq_output_0/input_low" type="Const" version="opset1">
			<data element_type="f32" shape="" offset="16800" size="4" />
			<output>
				<port id="0" precision="FP32" />
			</output>
		</layer>
		<layer id="363" name="__module.model.4.cv2.0.m.0/aten::add/Add/fq_output_0/input_high" type="Const" version="opset1">
			<data element_type="f32" shape="" offset="626892" size="4" />
			<output>
				<port id="0" precision="FP32" />
			</output>
		</layer>
		<layer id="364" name="__module.model.4.cv2.0.m.0/aten::add/Add/fq_output_0/output_low" type="Const" version="opset1">
			<data element_type="f32" shape="" offset="16800" size="4" />
			<output>
				<port id="0" precision="FP32" />
			</output>
		</layer>
		<layer id="365" name="__module.model.4.cv2.0.m.0/aten::add/Add/fq_output_0/output_high" type="Const" version="opset1">
			<data element_type="f32" shape="" offset="626892" size="4" />
			<output>
				<port id="0" precision="FP32" />
			</output>
		</layer>
		<layer id="366" name="__module.model.4.cv2.0.m.0/aten::add/Add/fq_output_0" type="FakeQuantize" version="opset1">
			<data levels="256" auto_broadcast="numpy" />
			<input>
				<port id="0" precision="FP32">
					<dim>1</dim>
					<dim>64</dim>
					<dim>40</dim>
					<dim>40</dim>
				</port>
				<port id="1" precision="FP32" />
				<port id="2" precision="FP32" />
				<port id="3" precision="FP32" />
				<port id="4" precision="FP32" />
			</input>
			<output>
				<port id="5" precision="FP32">
					<dim>1</dim>
					<dim>64</dim>
					<dim>40</dim>
					<dim>40</dim>
				</port>
			</output>
		</layer>
		<layer id="367" name="Constant_919210" type="Const" version="opset1">
			<data element_type="i8" shape="64, 128, 1, 1" offset="626896" size="8192" />
			<output>
				<port id="0" precision="I8">
					<dim>64</dim>
					<dim>128</dim>
					<dim>1</dim>
					<dim>1</dim>
				</port>
			</output>
		</layer>
		<layer id="368" name="Convert_919211" type="Convert" version="opset1">
			<data destination_type="f32" />
			<input>
				<port id="0" precision="I8">
					<dim>64</dim>
					<dim>128</dim>
					<dim>1</dim>
					<dim>1</dim>
				</port>
			</input>
			<output>
				<port id="1" precision="FP32">
					<dim>64</dim>
					<dim>128</dim>
					<dim>1</dim>
					<dim>1</dim>
				</port>
			</output>
		</layer>
		<layer id="369" name="Constant_919212" type="Const" version="opset1">
			<data element_type="f32" shape="64, 1, 1, 1" offset="635088" size="256" />
			<output>
				<port id="0" precision="FP32">
					<dim>64</dim>
					<dim>1</dim>
					<dim>1</dim>
					<dim>1</dim>
				</port>
			</output>
		</layer>
		<layer id="370" name="__module.model.4.cv2.0.cv2.conv/aten::_convolution/Convolution/fq_weights_1" type="Multiply" version="opset1">
			<data auto_broadcast="numpy" />
			<input>
				<port id="0" precision="FP32">
					<dim>64</dim>
					<dim>128</dim>
					<dim>1</dim>
					<dim>1</dim>
				</port>
				<port id="1" precision="FP32">
					<dim>64</dim>
					<dim>1</dim>
					<dim>1</dim>
					<dim>1</dim>
				</port>
			</input>
			<output>
				<port id="2" precision="FP32">
					<dim>64</dim>
					<dim>128</dim>
					<dim>1</dim>
					<dim>1</dim>
				</port>
			</output>
		</layer>
		<layer id="371" name="__module.model.4.cv2.0.cv2.conv/aten::_convolution/Convolution" type="Convolution" version="opset1">
			<data strides="1, 1" dilations="1, 1" pads_begin="0, 0" pads_end="0, 0" auto_pad="explicit" />
			<input>
				<port id="0" precision="FP32">
					<dim>1</dim>
					<dim>128</dim>
					<dim>40</dim>
					<dim>40</dim>
				</port>
				<port id="1" precision="FP32">
					<dim>64</dim>
					<dim>128</dim>
					<dim>1</dim>
					<dim>1</dim>
				</port>
			</input>
			<output>
				<port id="2" precision="FP32">
					<dim>1</dim>
					<dim>64</dim>
					<dim>40</dim>
					<dim>40</dim>
				</port>
			</output>
		</layer>
		<layer id="372" name="__module.model.4.cv2.0.cv2.conv/aten::_convolution/Reshape" type="Const" version="opset1">
			<data element_type="f32" shape="1, 64, 1, 1" offset="635344" size="256" />
			<output>
				<port id="0" precision="FP32">
					<dim>1</dim>
					<dim>64</dim>
					<dim>1</dim>
					<dim>1</dim>
				</port>
			</output>
		</layer>
		<layer id="373" name="__module.model.4.cv2.0.cv2.conv/aten::_convolution/Add" type="Add" version="opset1">
			<data auto_broadcast="numpy" />
			<input>
				<port id="0" precision="FP32">
					<dim>1</dim>
					<dim>64</dim>
					<dim>40</dim>
					<dim>40</dim>
				</port>
				<port id="1" precision="FP32">
					<dim>1</dim>
					<dim>64</dim>
					<dim>1</dim>
					<dim>1</dim>
				</port>
			</input>
			<output>
				<port id="2" precision="FP32" names="383_1">
					<dim>1</dim>
					<dim>64</dim>
					<dim>40</dim>
					<dim>40</dim>
				</port>
			</output>
		</layer>
		<layer id="374" name="__module.model.22.cv3.2.1.act/aten::relu_/Relu_19" type="ReLU" version="opset1">
			<input>
				<port id="0" precision="FP32">
					<dim>1</dim>
					<dim>64</dim>
					<dim>40</dim>
					<dim>40</dim>
				</port>
			</input>
			<output>
				<port id="1" precision="FP32" names="383,input.85">
					<dim>1</dim>
					<dim>64</dim>
					<dim>40</dim>
					<dim>40</dim>
				</port>
			</output>
		</layer>
		<layer id="375" name="__module.model.22.cv3.2.1.act/aten::relu_/Relu_19/fq_output_0/input_low" type="Const" version="opset1">
			<data element_type="f32" shape="" offset="16800" size="4" />
			<output>
				<port id="0" precision="FP32" />
			</output>
		</layer>
		<layer id="376" name="__module.model.22.cv3.2.1.act/aten::relu_/Relu_19/fq_output_0/input_high" type="Const" version="opset1">
			<data element_type="f32" shape="" offset="626892" size="4" />
			<output>
				<port id="0" precision="FP32" />
			</output>
		</layer>
…
		<edge from-layer="1647" from-port="2" to-layer="1649" to-port="0" />
		<edge from-layer="1648" from-port="0" to-layer="1649" to-port="1" />
		<edge from-layer="1649" from-port="2" to-layer="1651" to-port="0" />
		<edge from-layer="1650" from-port="0" to-layer="1651" to-port="1" />
		<edge from-layer="1651" from-port="2" to-layer="1652" to-port="2" />
		<edge from-layer="1652" from-port="4" to-layer="1823" to-port="1" />
		<edge from-layer="1652" from-port="3" to-layer="1823" to-port="0" />
		<edge from-layer="1652" from-port="4" to-layer="1702" to-port="0" />
		<edge from-layer="1652" from-port="4" to-layer="1657" to-port="0" />
		<edge from-layer="1653" from-port="0" to-layer="1654" to-port="0" />
		<edge from-layer="1654" from-port="1" to-layer="1656" to-port="0" />
		<edge from-layer="1655" from-port="0" to-layer="1656" to-port="1" />
		<edge from-layer="1656" from-port="2" to-layer="1657" to-port="1" />
		<edge from-layer="1657" from-port="2" to-layer="1659" to-port="0" />
		<edge from-layer="1658" from-port="0" to-layer="1659" to-port="1" />
		<edge from-layer="1659" from-port="2" to-layer="1660" to-port="0" />
		<edge from-layer="1660" from-port="1" to-layer="1665" to-port="0" />
		<edge from-layer="1661" from-port="0" to-layer="1665" to-port="1" />
		<edge from-layer="1662" from-port="0" to-layer="1665" to-port="2" />
		<edge from-layer="1663" from-port="0" to-layer="1665" to-port="3" />
		<edge from-layer="1664" from-port="0" to-layer="1665" to-port="4" />
		<edge from-layer="1665" from-port="5" to-layer="1670" to-port="0" />
		<edge from-layer="1665" from-port="5" to-layer="1692" to-port="0" />
		<edge from-layer="1666" from-port="0" to-layer="1667" to-port="0" />
		<edge from-layer="1667" from-port="1" to-layer="1669" to-port="0" />
		<edge from-layer="1668" from-port="0" to-layer="1669" to-port="1" />
		<edge from-layer="1669" from-port="2" to-layer="1670" to-port="1" />
		<edge from-layer="1670" from-port="2" to-layer="1672" to-port="0" />
		<edge from-layer="1671" from-port="0" to-layer="1672" to-port="1" />
		<edge from-layer="1672" from-port="2" to-layer="1673" to-port="0" />
		<edge from-layer="1673" from-port="1" to-layer="1678" to-port="0" />
		<edge from-layer="1674" from-port="0" to-layer="1678" to-port="1" />
		<edge from-layer="1675" from-port="0" to-layer="1678" to-port="2" />
		<edge from-layer="1676" from-port="0" to-layer="1678" to-port="3" />
		<edge from-layer="1677" from-port="0" to-layer="1678" to-port="4" />
		<edge from-layer="1678" from-port="5" to-layer="1683" to-port="0" />
		<edge from-layer="1679" from-port="0" to-layer="1680" to-port="0" />
		<edge from-layer="1680" from-port="1" to-layer="1682" to-port="0" />
		<edge from-layer="1681" from-port="0" to-layer="1682" to-port="1" />
		<edge from-layer="1682" from-port="2" to-layer="1683" to-port="1" />
		<edge from-layer="1683" from-port="2" to-layer="1685" to-port="0" />
		<edge from-layer="1684" from-port="0" to-layer="1685" to-port="1" />
		<edge from-layer="1685" from-port="2" to-layer="1686" to-port="0" />
		<edge from-layer="1686" from-port="1" to-layer="1691" to-port="0" />
		<edge from-layer="1687" from-port="0" to-layer="1691" to-port="1" />
		<edge from-layer="1688" from-port="0" to-layer="1691" to-port="2" />
		<edge from-layer="1689" from-port="0" to-layer="1691" to-port="3" />
		<edge from-layer="1690" from-port="0" to-layer="1691" to-port="4" />
		<edge from-layer="1691" from-port="5" to-layer="1692" to-port="1" />
		<edge from-layer="1692" from-port="2" to-layer="1697" to-port="0" />
		<edge from-layer="1693" from-port="0" to-layer="1697" to-port="1" />
		<edge from-layer="1694" from-port="0" to-layer="1697" to-port="2" />
		<edge from-layer="1695" from-port="0" to-layer="1697" to-port="3" />
		<edge from-layer="1696" from-port="0" to-layer="1697" to-port="4" />
		<edge from-layer="1697" from-port="5" to-layer="1711" to-port="0" />
		<edge from-layer="1698" from-port="0" to-layer="1699" to-port="0" />
		<edge from-layer="1699" from-port="1" to-layer="1701" to-port="0" />
		<edge from-layer="1700" from-port="0" to-layer="1701" to-port="1" />
		<edge from-layer="1701" from-port="2" to-layer="1702" to-port="1" />
		<edge from-layer="1702" from-port="2" to-layer="1704" to-port="0" />
		<edge from-layer="1703" from-port="0" to-layer="1704" to-port="1" />
		<edge from-layer="1704" from-port="2" to-layer="1705" to-port="0" />
		<edge from-layer="1705" from-port="1" to-layer="1710" to-port="0" />
		<edge from-layer="1706" from-port="0" to-layer="1710" to-port="1" />
		<edge from-layer="1707" from-port="0" to-layer="1710" to-port="2" />
		<edge from-layer="1708" from-port="0" to-layer="1710" to-port="3" />
		<edge from-layer="1709" from-port="0" to-layer="1710" to-port="4" />
		<edge from-layer="1710" from-port="5" to-layer="1711" to-port="1" />
		<edge from-layer="1711" from-port="2" to-layer="1716" to-port="0" />
		<edge from-layer="1712" from-port="0" to-layer="1713" to-port="0" />
		<edge from-layer="1713" from-port="1" to-layer="1715" to-port="0" />
		<edge from-layer="1714" from-port="0" to-layer="1715" to-port="1" />
		<edge from-layer="1715" from-port="2" to-layer="1716" to-port="1" />
		<edge from-layer="1716" from-port="2" to-layer="1718" to-port="0" />
		<edge from-layer="1717" from-port="0" to-layer="1718" to-port="1" />
		<edge from-layer="1718" from-port="2" to-layer="1719" to-port="0" />
		<edge from-layer="1719" from-port="1" to-layer="1724" to-port="0" />
		<edge from-layer="1720" from-port="0" to-layer="1724" to-port="1" />
		<edge from-layer="1721" from-port="0" to-layer="1724" to-port="2" />
		<edge from-layer="1722" from-port="0" to-layer="1724" to-port="3" />
		<edge from-layer="1723" from-port="0" to-layer="1724" to-port="4" />
		<edge from-layer="1724" from-port="5" to-layer="1729" to-port="0" />
		<edge from-layer="1725" from-port="0" to-layer="1726" to-port="0" />
		<edge from-layer="1726" from-port="1" to-layer="1728" to-port="0" />
		<edge from-layer="1727" from-port="0" to-layer="1728" to-port="1" />
		<edge from-layer="1728" from-port="2" to-layer="1729" to-port="1" />
		<edge from-layer="1729" from-port="2" to-layer="1731" to-port="0" />
		<edge from-layer="1730" from-port="0" to-layer="1731" to-port="1" />
		<edge from-layer="1731" from-port="2" to-layer="1732" to-port="0" />
		<edge from-layer="1732" from-port="1" to-layer="1737" to-port="0" />
		<edge from-layer="1733" from-port="0" to-layer="1737" to-port="1" />
		<edge from-layer="1734" from-port="0" to-layer="1737" to-port="2" />
		<edge from-layer="1735" from-port="0" to-layer="1737" to-port="3" />
		<edge from-layer="1736" from-port="0" to-layer="1737" to-port="4" />
		<edge from-layer="1737" from-port="5" to-layer="1742" to-port="0" />
		<edge from-layer="1737" from-port="5" to-layer="1823" to-port="2" />
		<edge from-layer="1737" from-port="5" to-layer="1787" to-port="0" />
		<edge from-layer="1738" from-port="0" to-layer="1739" to-port="0" />
		<edge from-layer="1739" from-port="1" to-layer="1741" to-port="0" />
		<edge from-layer="1740" from-port="0" to-layer="1741" to-port="1" />
		<edge from-layer="1741" from-port="2" to-layer="1742" to-port="1" />
		<edge from-layer="1742" from-port="2" to-layer="1744" to-port="0" />
		<edge from-layer="1743" from-port="0" to-layer="1744" to-port="1" />
		<edge from-layer="1744" from-port="2" to-layer="1745" to-port="0" />
		<edge from-layer="1745" from-port="1" to-layer="1750" to-port="0" />
		<edge from-layer="1746" from-port="0" to-layer="1750" to-port="1" />
		<edge from-layer="1747" from-port="0" to-layer="1750" to-port="2" />
		<edge from-layer="1748" from-port="0" to-layer="1750" to-port="3" />
		<edge from-layer="1749" from-port="0" to-layer="1750" to-port="4" />
		<edge from-layer="1750" from-port="5" to-layer="1755" to-port="0" />
		<edge from-layer="1750" from-port="5" to-layer="1777" to-port="0" />
		<edge from-layer="1751" from-port="0" to-layer="1752" to-port="0" />
		<edge from-layer="1752" from-port="1" to-layer="1754" to-port="0" />
		<edge from-layer="1753" from-port="0" to-layer="1754" to-port="1" />
		<edge from-layer="1754" from-port="2" to-layer="1755" to-port="1" />
		<edge from-layer="1755" from-port="2" to-layer="1757" to-port="0" />
		<edge from-layer="1756" from-port="0" to-layer="1757" to-port="1" />
		<edge from-layer="1757" from-port="2" to-layer="1758" to-port="0" />
		<edge from-layer="1758" from-port="1" to-layer="1763" to-port="0" />
		<edge from-layer="1759" from-port="0" to-layer="1763" to-port="1" />
		<edge from-layer="1760" from-port="0" to-layer="1763" to-port="2" />
		<edge from-layer="1761" from-port="0" to-layer="1763" to-port="3" />
		<edge from-layer="1762" from-port="0" to-layer="1763" to-port="4" />
		<edge from-layer="1763" from-port="5" to-layer="1768" to-port="0" />
		<edge from-layer="1764" from-port="0" to-layer="1765" to-port="0" />
		<edge from-layer="1765" from-port="1" to-layer="1767" to-port="0" />
		<edge from-layer="1766" from-port="0" to-layer="1767" to-port="1" />
		<edge from-layer="1767" from-port="2" to-layer="1768" to-port="1" />
		<edge from-layer="1768" from-port="2" to-layer="1770" to-port="0" />
		<edge from-layer="1769" from-port="0" to-layer="1770" to-port="1" />
		<edge from-layer="1770" from-port="2" to-layer="1771" to-port="0" />
		<edge from-layer="1771" from-port="1" to-layer="1776" to-port="0" />
		<edge from-layer="1772" from-port="0" to-layer="1776" to-port="1" />
		<edge from-layer="1773" from-port="0" to-layer="1776" to-port="2" />
		<edge from-layer="1774" from-port="0" to-layer="1776" to-port="3" />
		<edge from-layer="1775" from-port="0" to-layer="1776" to-port="4" />
		<edge from-layer="1776" from-port="5" to-layer="1777" to-port="1" />
		<edge from-layer="1777" from-port="2" to-layer="1782" to-port="0" />
		<edge from-layer="1778" from-port="0" to-layer="1782" to-port="1" />
		<edge from-layer="1779" from-port="0" to-layer="1782" to-port="2" />
		<edge from-layer="1780" from-port="0" to-layer="1782" to-port="3" />
		<edge from-layer="1781" from-port="0" to-layer="1782" to-port="4" />
		<edge from-layer="1782" from-port="5" to-layer="1796" to-port="0" />
		<edge from-layer="1783" from-port="0" to-layer="1784" to-port="0" />
		<edge from-layer="1784" from-port="1" to-layer="1786" to-port="0" />
		<edge from-layer="1785" from-port="0" to-layer="1786" to-port="1" />
		<edge from-layer="1786" from-port="2" to-layer="1787" to-port="1" />
		<edge from-layer="1787" from-port="2" to-layer="1789" to-port="0" />
		<edge from-layer="1788" from-port="0" to-layer="1789" to-port="1" />
		<edge from-layer="1789" from-port="2" to-layer="1790" to-port="0" />
		<edge from-layer="1790" from-port="1" to-layer="1795" to-port="0" />
		<edge from-layer="1791" from-port="0" to-layer="1795" to-port="1" />
		<edge from-layer="1792" from-port="0" to-layer="1795" to-port="2" />
		<edge from-layer="1793" from-port="0" to-layer="1795" to-port="3" />
		<edge from-layer="1794" from-port="0" to-layer="1795" to-port="4" />
		<edge from-layer="1795" from-port="5" to-layer="1796" to-port="1" />
		<edge from-layer="1796" from-port="2" to-layer="1801" to-port="0" />
		<edge from-layer="1797" from-port="0" to-layer="1798" to-port="0" />
		<edge from-layer="1798" from-port="1" to-layer="1800" to-port="0" />
		<edge from-layer="1799" from-port="0" to-layer="1800" to-port="1" />
		<edge from-layer="1800" from-port="2" to-layer="1801" to-port="1" />
		<edge from-layer="1801" from-port="2" to-layer="1803" to-port="0" />
		<edge from-layer="1802" from-port="0" to-layer="1803" to-port="1" />
		<edge from-layer="1803" from-port="2" to-layer="1804" to-port="0" />
		<edge from-layer="1804" from-port="1" to-layer="1809" to-port="0" />
		<edge from-layer="1805" from-port="0" to-layer="1809" to-port="1" />
		<edge from-layer="1806" from-port="0" to-layer="1809" to-port="2" />
		<edge from-layer="1807" from-port="0" to-layer="1809" to-port="3" />
		<edge from-layer="1808" from-port="0" to-layer="1809" to-port="4" />
		<edge from-layer="1809" from-port="5" to-layer="1814" to-port="0" />
		<edge from-layer="1810" from-port="0" to-layer="1811" to-port="0" />
		<edge from-layer="1811" from-port="1" to-layer="1813" to-port="0" />
		<edge from-layer="1812" from-port="0" to-layer="1813" to-port="1" />
		<edge from-layer="1813" from-port="2" to-layer="1814" to-port="1" />
		<edge from-layer="1814" from-port="2" to-layer="1816" to-port="0" />
		<edge from-layer="1815" from-port="0" to-layer="1816" to-port="1" />
		<edge from-layer="1816" from-port="2" to-layer="1817" to-port="0" />
		<edge from-layer="1817" from-port="1" to-layer="1822" to-port="0" />
		<edge from-layer="1818" from-port="0" to-layer="1822" to-port="1" />
		<edge from-layer="1819" from-port="0" to-layer="1822" to-port="2" />
		<edge from-layer="1820" from-port="0" to-layer="1822" to-port="3" />
		<edge from-layer="1821" from-port="0" to-layer="1822" to-port="4" />
		<edge from-layer="1822" from-port="5" to-layer="1823" to-port="3" />
		<edge from-layer="1823" from-port="4" to-layer="1828" to-port="0" />
		<edge from-layer="1824" from-port="0" to-layer="1825" to-port="0" />
		<edge from-layer="1825" from-port="1" to-layer="1827" to-port="0" />
		<edge from-layer="1826" from-port="0" to-layer="1827" to-port="1" />
		<edge from-layer="1827" from-port="2" to-layer="1828" to-port="1" />
		<edge from-layer="1828" from-port="2" to-layer="1830" to-port="0" />
		<edge from-layer="1829" from-port="0" to-layer="1830" to-port="1" />
		<edge from-layer="1830" from-port="2" to-layer="1831" to-port="0" />
		<edge from-layer="1831" from-port="1" to-layer="1836" to-port="0" />
		<edge from-layer="1832" from-port="0" to-layer="1836" to-port="1" />
		<edge from-layer="1833" from-port="0" to-layer="1836" to-port="2" />
		<edge from-layer="1834" from-port="0" to-layer="1836" to-port="3" />
		<edge from-layer="1835" from-port="0" to-layer="1836" to-port="4" />
		<edge from-layer="1836" from-port="5" to-layer="1905" to-port="0" />
		<edge from-layer="1836" from-port="5" to-layer="1874" to-port="0" />
		<edge from-layer="1836" from-port="5" to-layer="1841" to-port="0" />
		<edge from-layer="1837" from-port="0" to-layer="1838" to-port="0" />
		<edge from-layer="1838" from-port="1" to-layer="1840" to-port="0" />
		<edge from-layer="1839" from-port="0" to-layer="1840" to-port="1" />
		<edge from-layer="1840" from-port="2" to-layer="1841" to-port="1" />
		<edge from-layer="1841" from-port="2" to-layer="1843" to-port="0" />
		<edge from-layer="1842" from-port="0" to-layer="1843" to-port="1" />
		<edge from-layer="1843" from-port="2" to-layer="1844" to-port="0" />
		<edge from-layer="1844" from-port="1" to-layer="1849" to-port="0" />
		<edge from-layer="1845" from-port="0" to-layer="1849" to-port="1" />
		<edge from-layer="1846" from-port="0" to-layer="1849" to-port="2" />
		<edge from-layer="1847" from-port="0" to-layer="1849" to-port="3" />
		<edge from-layer="1848" from-port="0" to-layer="1849" to-port="4" />
		<edge from-layer="1849" from-port="5" to-layer="1854" to-port="0" />
		<edge from-layer="1850" from-port="0" to-layer="1851" to-port="0" />
		<edge from-layer="1851" from-port="1" to-layer="1853" to-port="0" />
		<edge from-layer="1852" from-port="0" to-layer="1853" to-port="1" />
		<edge from-layer="1853" from-port="2" to-layer="1854" to-port="1" />
		<edge from-layer="1854" from-port="2" to-layer="1856" to-port="0" />
		<edge from-layer="1855" from-port="0" to-layer="1856" to-port="1" />
		<edge from-layer="1856" from-port="2" to-layer="1857" to-port="0" />
		<edge from-layer="1857" from-port="1" to-layer="1862" to-port="0" />
		<edge from-layer="1858" from-port="0" to-layer="1862" to-port="1" />
		<edge from-layer="1859" from-port="0" to-layer="1862" to-port="2" />
		<edge from-layer="1860" from-port="0" to-layer="1862" to-port="3" />
		<edge from-layer="1861" from-port="0" to-layer="1862" to-port="4" />
		<edge from-layer="1862" from-port="5" to-layer="1867" to-port="0" />
		<edge from-layer="1863" from-port="0" to-layer="1864" to-port="0" />
		<edge from-layer="1864" from-port="1" to-layer="1866" to-port="0" />
		<edge from-layer="1865" from-port="0" to-layer="1866" to-port="1" />
		<edge from-layer="1866" from-port="2" to-layer="1867" to-port="1" />
		<edge from-layer="1867" from-port="2" to-layer="1869" to-port="0" />
		<edge from-layer="1868" from-port="0" to-layer="1869" to-port="1" />
		<edge from-layer="1869" from-port="2" to-layer="1903" to-port="0" />
		<edge from-layer="1870" from-port="0" to-layer="1871" to-port="0" />
		<edge from-layer="1871" from-port="1" to-layer="1873" to-port="0" />
		<edge from-layer="1872" from-port="0" to-layer="1873" to-port="1" />
		<edge from-layer="1873" from-port="2" to-layer="1874" to-port="1" />
		<edge from-layer="1874" from-port="2" to-layer="1876" to-port="0" />
		<edge from-layer="1875" from-port="0" to-layer="1876" to-port="1" />
		<edge from-layer="1876" from-port="2" to-layer="1877" to-port="0" />
		<edge from-layer="1877" from-port="1" to-layer="1882" to-port="0" />
		<edge from-layer="1878" from-port="0" to-layer="1882" to-port="1" />
		<edge from-layer="1879" from-port="0" to-layer="1882" to-port="2" />
		<edge from-layer="1880" from-port="0" to-layer="1882" to-port="3" />
		<edge from-layer="1881" from-port="0" to-layer="1882" to-port="4" />
		<edge from-layer="1882" from-port="5" to-layer="1887" to-port="0" />
		<edge from-layer="1883" from-port="0" to-layer="1884" to-port="0" />
		<edge from-layer="1884" from-port="1" to-layer="1886" to-port="0" />
		<edge from-layer="1885" from-port="0" to-layer="1886" to-port="1" />
		<edge from-layer="1886" from-port="2" to-layer="1887" to-port="1" />
		<edge from-layer="1887" from-port="2" to-layer="1889" to-port="0" />
		<edge from-layer="1888" from-port="0" to-layer="1889" to-port="1" />
		<edge from-layer="1889" from-port="2" to-layer="1890" to-port="0" />
		<edge from-layer="1890" from-port="1" to-layer="1895" to-port="0" />
		<edge from-layer="1891" from-port="0" to-layer="1895" to-port="1" />
		<edge from-layer="1892" from-port="0" to-layer="1895" to-port="2" />
		<edge from-layer="1893" from-port="0" to-layer="1895" to-port="3" />
		<edge from-layer="1894" from-port="0" to-layer="1895" to-port="4" />
		<edge from-layer="1895" from-port="5" to-layer="1900" to-port="0" />
		<edge from-layer="1896" from-port="0" to-layer="1897" to-port="0" />
		<edge from-layer="1897" from-port="1" to-layer="1899" to-port="0" />
		<edge from-layer="1898" from-port="0" to-layer="1899" to-port="1" />
		<edge from-layer="1899" from-port="2" to-layer="1900" to-port="1" />
		<edge from-layer="1900" from-port="2" to-layer="1902" to-port="0" />
		<edge from-layer="1901" from-port="0" to-layer="1902" to-port="1" />
		<edge from-layer="1902" from-port="2" to-layer="1903" to-port="1" />
		<edge from-layer="1903" from-port="2" to-layer="1904" to-port="0" />
		<edge from-layer="1904" from-port="2" to-layer="2235" to-port="1" />
		<edge from-layer="1905" from-port="1" to-layer="1910" to-port="0" />
		<edge from-layer="1906" from-port="0" to-layer="1910" to-port="1" />
		<edge from-layer="1907" from-port="0" to-layer="1910" to-port="2" />
		<edge from-layer="1908" from-port="0" to-layer="1910" to-port="3" />
		<edge from-layer="1909" from-port="0" to-layer="1910" to-port="4" />
		<edge from-layer="1910" from-port="5" to-layer="1925" to-port="0" />
		<edge from-layer="1910" from-port="5" to-layer="1912" to-port="0" />
		<edge from-layer="1911" from-port="0" to-layer="1925" to-port="1" />
		<edge from-layer="1911" from-port="0" to-layer="1914" to-port="1" />
		<edge from-layer="1912" from-port="1" to-layer="1914" to-port="0" />
		<edge from-layer="1913" from-port="0" to-layer="1914" to-port="2" />
		<edge from-layer="1913" from-port="0" to-layer="1918" to-port="1" />
		<edge from-layer="1914" from-port="3" to-layer="1917" to-port="0" />
		<edge from-layer="1914" from-port="3" to-layer="1916" to-port="0" />
		<edge from-layer="1915" from-port="0" to-layer="1917" to-port="1" />
		<edge from-layer="1915" from-port="0" to-layer="1916" to-port="1" />
		<edge from-layer="1916" from-port="2" to-layer="1920" to-port="0" />
		<edge from-layer="1917" from-port="2" to-layer="1918" to-port="0" />
		<edge from-layer="1918" from-port="2" to-layer="1919" to-port="0" />
		<edge from-layer="1919" from-port="1" to-layer="1920" to-port="1" />
		<edge from-layer="1920" from-port="2" to-layer="1922" to-port="0" />
		<edge from-layer="1921" from-port="0" to-layer="1922" to-port="1" />
		<edge from-layer="1922" from-port="2" to-layer="1924" to-port="0" />
		<edge from-layer="1923" from-port="0" to-layer="1924" to-port="1" />
		<edge from-layer="1924" from-port="2" to-layer="1925" to-port="2" />
		<edge from-layer="1925" from-port="3" to-layer="1930" to-port="0" />
		<edge from-layer="1925" from-port="4" to-layer="1939" to-port="0" />
		<edge from-layer="1926" from-port="0" to-layer="1927" to-port="0" />
		<edge from-layer="1927" from-port="1" to-layer="1929" to-port="0" />
		<edge from-layer="1928" from-port="0" to-layer="1929" to-port="1" />
		<edge from-layer="1929" from-port="2" to-layer="1930" to-port="1" />
		<edge from-layer="1930" from-port="2" to-layer="1932" to-port="0" />
		<edge from-layer="1931" from-port="0" to-layer="1932" to-port="1" />
		<edge from-layer="1932" from-port="2" to-layer="1933" to-port="0" />
		<edge from-layer="1933" from-port="1" to-layer="1938" to-port="0" />
		<edge from-layer="1934" from-port="0" to-layer="1938" to-port="1" />
		<edge from-layer="1935" from-port="0" to-layer="1938" to-port="2" />
		<edge from-layer="1936" from-port="0" to-layer="1938" to-port="3" />
		<edge from-layer="1937" from-port="0" to-layer="1938" to-port="4" />
		<edge from-layer="1938" from-port="5" to-layer="1953" to-port="0" />
		<edge from-layer="1939" from-port="1" to-layer="1944" to-port="0" />
		<edge from-layer="1940" from-port="0" to-layer="1941" to-port="0" />
		<edge from-layer="1941" from-port="1" to-layer="1943" to-port="0" />
		<edge from-layer="1942" from-port="0" to-layer="1943" to-port="1" />
		<edge from-layer="1943" from-port="2" to-layer="1944" to-port="1" />
		<edge from-layer="1944" from-port="2" to-layer="1946" to-port="0" />
		<edge from-layer="1945" from-port="0" to-layer="1946" to-port="1" />
		<edge from-layer="1946" from-port="2" to-layer="1947" to-port="0" />
		<edge from-layer="1947" from-port="1" to-layer="1952" to-port="0" />
		<edge from-layer="1948" from-port="0" to-layer="1952" to-port="1" />
		<edge from-layer="1949" from-port="0" to-layer="1952" to-port="2" />
		<edge from-layer="1950" from-port="0" to-layer="1952" to-port="3" />
		<edge from-layer="1951" from-port="0" to-layer="1952" to-port="4" />
		<edge from-layer="1952" from-port="5" to-layer="1953" to-port="1" />
		<edge from-layer="1953" from-port="2" to-layer="1954" to-port="0" />
		<edge from-layer="1954" from-port="2" to-layer="1959" to-port="0" />
		<edge from-layer="1955" from-port="0" to-layer="1956" to-port="0" />
		<edge from-layer="1956" from-port="1" to-layer="1958" to-port="0" />
		<edge from-layer="1957" from-port="0" to-layer="1958" to-port="1" />
		<edge from-layer="1958" from-port="2" to-layer="1959" to-port="1" />
		<edge from-layer="1959" from-port="2" to-layer="1961" to-port="0" />
		<edge from-layer="1960" from-port="0" to-layer="1961" to-port="1" />
		<edge from-layer="1961" from-port="2" to-layer="1962" to-port="0" />
		<edge from-layer="1962" from-port="1" to-layer="1967" to-port="0" />
		<edge from-layer="1963" from-port="0" to-layer="1967" to-port="1" />
		<edge from-layer="1964" from-port="0" to-layer="1967" to-port="2" />
		<edge from-layer="1965" from-port="0" to-layer="1967" to-port="3" />
		<edge from-layer="1966" from-port="0" to-layer="1967" to-port="4" />
		<edge from-layer="1967" from-port="5" to-layer="1969" to-port="0" />
		<edge from-layer="1967" from-port="5" to-layer="1982" to-port="0" />
		<edge from-layer="1968" from-port="0" to-layer="1971" to-port="1" />
		<edge from-layer="1968" from-port="0" to-layer="1982" to-port="1" />
		<edge from-layer="1969" from-port="1" to-layer="1971" to-port="0" />
		<edge from-layer="1970" from-port="0" to-layer="1975" to-port="1" />
		<edge from-layer="1970" from-port="0" to-layer="1971" to-port="2" />
		<edge from-layer="1971" from-port="3" to-layer="1973" to-port="0" />
		<edge from-layer="1971" from-port="3" to-layer="1974" to-port="0" />
		<edge from-layer="1972" from-port="0" to-layer="1973" to-port="1" />
		<edge from-layer="1972" from-port="0" to-layer="1974" to-port="1" />
		<edge from-layer="1973" from-port="2" to-layer="1977" to-port="0" />
		<edge from-layer="1974" from-port="2" to-layer="1975" to-port="0" />
		<edge from-layer="1975" from-port="2" to-layer="1976" to-port="0" />
		<edge from-layer="1976" from-port="1" to-layer="1977" to-port="1" />
		<edge from-layer="1977" from-port="2" to-layer="1979" to-port="0" />
		<edge from-layer="1978" from-port="0" to-layer="1979" to-port="1" />
		<edge from-layer="1979" from-port="2" to-layer="1981" to-port="0" />
		<edge from-layer="1980" from-port="0" to-layer="1981" to-port="1" />
		<edge from-layer="1981" from-port="2" to-layer="1982" to-port="2" />
		<edge from-layer="1982" from-port="3" to-layer="2153" to-port="0" />
		<edge from-layer="1982" from-port="4" to-layer="2153" to-port="1" />
		<edge from-layer="1982" from-port="4" to-layer="2032" to-port="0" />
		<edge from-layer="1982" from-port="4" to-layer="1987" to-port="0" />
		<edge from-layer="1983" from-port="0" to-layer="1984" to-port="0" />
		<edge from-layer="1984" from-port="1" to-layer="1986" to-port="0" />
		<edge from-layer="1985" from-port="0" to-layer="1986" to-port="1" />
		<edge from-layer="1986" from-port="2" to-layer="1987" to-port="1" />
		<edge from-layer="1987" from-port="2" to-layer="1989" to-port="0" />
		<edge from-layer="1988" from-port="0" to-layer="1989" to-port="1" />
		<edge from-layer="1989" from-port="2" to-layer="1990" to-port="0" />
		<edge from-layer="1990" from-port="1" to-layer="1995" to-port="0" />
		<edge from-layer="1991" from-port="0" to-layer="1995" to-port="1" />
		<edge from-layer="1992" from-port="0" to-layer="1995" to-port="2" />
		<edge from-layer="1993" from-port="0" to-layer="1995" to-port="3" />
		<edge from-layer="1994" from-port="0" to-layer="1995" to-port="4" />
		<edge from-layer="1995" from-port="5" to-layer="2000" to-port="0" />
		<edge from-layer="1995" from-port="5" to-layer="2022" to-port="0" />
		<edge from-layer="1996" from-port="0" to-layer="1997" to-port="0" />
		<edge from-layer="1997" from-port="1" to-layer="1999" to-port="0" />
		<edge from-layer="1998" from-port="0" to-layer="1999" to-port="1" />
		<edge from-layer="1999" from-port="2" to-layer="2000" to-port="1" />
		<edge from-layer="2000" from-port="2" to-layer="2002" to-port="0" />
		<edge from-layer="2001" from-port="0" to-layer="2002" to-port="1" />
		<edge from-layer="2002" from-port="2" to-layer="2003" to-port="0" />
		<edge from-layer="2003" from-port="1" to-layer="2008" to-port="0" />
		<edge from-layer="2004" from-port="0" to-layer="2008" to-port="1" />
		<edge from-layer="2005" from-port="0" to-layer="2008" to-port="2" />
		<edge from-layer="2006" from-port="0" to-layer="2008" to-port="3" />
		<edge from-layer="2007" from-port="0" to-layer="2008" to-port="4" />
		<edge from-layer="2008" from-port="5" to-layer="2013" to-port="0" />
		<edge from-layer="2009" from-port="0" to-layer="2010" to-port="0" />
		<edge from-layer="2010" from-port="1" to-layer="2012" to-port="0" />
		<edge from-layer="2011" from-port="0" to-layer="2012" to-port="1" />
		<edge from-layer="2012" from-port="2" to-layer="2013" to-port="1" />
		<edge from-layer="2013" from-port="2" to-layer="2015" to-port="0" />
		<edge from-layer="2014" from-port="0" to-layer="2015" to-port="1" />
		<edge from-layer="2015" from-port="2" to-layer="2016" to-port="0" />
		<edge from-layer="2016" from-port="1" to-layer="2021" to-port="0" />
		<edge from-layer="2017" from-port="0" to-layer="2021" to-port="1" />
		<edge from-layer="2018" from-port="0" to-layer="2021" to-port="2" />
		<edge from-layer="2019" from-port="0" to-layer="2021" to-port="3" />
		<edge from-layer="2020" from-port="0" to-layer="2021" to-port="4" />
		<edge from-layer="2021" from-port="5" to-layer="2022" to-port="1" />
		<edge from-layer="2022" from-port="2" to-layer="2027" to-port="0" />
		<edge from-layer="2023" from-port="0" to-layer="2027" to-port="1" />
		<edge from-layer="2024" from-port="0" to-layer="2027" to-port="2" />
		<edge from-layer="2025" from-port="0" to-layer="2027" to-port="3" />
		<edge from-layer="2026" from-port="0" to-layer="2027" to-port="4" />
		<edge from-layer="2027" from-port="5" to-layer="2041" to-port="0" />
		<edge from-layer="2028" from-port="0" to-layer="2029" to-port="0" />
		<edge from-layer="2029" from-port="1" to-layer="2031" to-port="0" />
		<edge from-layer="2030" from-port="0" to-layer="2031" to-port="1" />
		<edge from-layer="2031" from-port="2" to-layer="2032" to-port="1" />
		<edge from-layer="2032" from-port="2" to-layer="2034" to-port="0" />
		<edge from-layer="2033" from-port="0" to-layer="2034" to-port="1" />
		<edge from-layer="2034" from-port="2" to-layer="2035" to-port="0" />
		<edge from-layer="2035" from-port="1" to-layer="2040" to-port="0" />
		<edge from-layer="2036" from-port="0" to-layer="2040" to-port="1" />
		<edge from-layer="2037" from-port="0" to-layer="2040" to-port="2" />
		<edge from-layer="2038" from-port="0" to-layer="2040" to-port="3" />
		<edge from-layer="2039" from-port="0" to-layer="2040" to-port="4" />
		<edge from-layer="2040" from-port="5" to-layer="2041" to-port="1" />
		<edge from-layer="2041" from-port="2" to-layer="2046" to-port="0" />
		<edge from-layer="2042" from-port="0" to-layer="2043" to-port="0" />
		<edge from-layer="2043" from-port="1" to-layer="2045" to-port="0" />
		<edge from-layer="2044" from-port="0" to-layer="2045" to-port="1" />
		<edge from-layer="2045" from-port="2" to-layer="2046" to-port="1" />
		<edge from-layer="2046" from-port="2" to-layer="2048" to-port="0" />
		<edge from-layer="2047" from-port="0" to-layer="2048" to-port="1" />
		<edge from-layer="2048" from-port="2" to-layer="2049" to-port="0" />
		<edge from-layer="2049" from-port="1" to-layer="2054" to-port="0" />
		<edge from-layer="2050" from-port="0" to-layer="2054" to-port="1" />
		<edge from-layer="2051" from-port="0" to-layer="2054" to-port="2" />
		<edge from-layer="2052" from-port="0" to-layer="2054" to-port="3" />
		<edge from-layer="2053" from-port="0" to-layer="2054" to-port="4" />
		<edge from-layer="2054" from-port="5" to-layer="2059" to-port="0" />
		<edge from-layer="2055" from-port="0" to-layer="2056" to-port="0" />
		<edge from-layer="2056" from-port="1" to-layer="2058" to-port="0" />
		<edge from-layer="2057" from-port="0" to-layer="2058" to-port="1" />
		<edge from-layer="2058" from-port="2" to-layer="2059" to-port="1" />
		<edge from-layer="2059" from-port="2" to-layer="2061" to-port="0" />
		<edge from-layer="2060" from-port="0" to-layer="2061" to-port="1" />
		<edge from-layer="2061" from-port="2" to-layer="2062" to-port="0" />
		<edge from-layer="2062" from-port="1" to-layer="2067" to-port="0" />
		<edge from-layer="2063" from-port="0" to-layer="2067" to-port="1" />
		<edge from-layer="2064" from-port="0" to-layer="2067" to-port="2" />
		<edge from-layer="2065" from-port="0" to-layer="2067" to-port="3" />
		<edge from-layer="2066" from-port="0" to-layer="2067" to-port="4" />
		<edge from-layer="2067" from-port="5" to-layer="2117" to-port="0" />
		<edge from-layer="2067" from-port="5" to-layer="2072" to-port="0" />
		<edge from-layer="2067" from-port="5" to-layer="2153" to-port="2" />
		<edge from-layer="2068" from-port="0" to-layer="2069" to-port="0" />
		<edge from-layer="2069" from-port="1" to-layer="2071" to-port="0" />
		<edge from-layer="2070" from-port="0" to-layer="2071" to-port="1" />
		<edge from-layer="2071" from-port="2" to-layer="2072" to-port="1" />
		<edge from-layer="2072" from-port="2" to-layer="2074" to-port="0" />
		<edge from-layer="2073" from-port="0" to-layer="2074" to-port="1" />
		<edge from-layer="2074" from-port="2" to-layer="2075" to-port="0" />
		<edge from-layer="2075" from-port="1" to-layer="2080" to-port="0" />
		<edge from-layer="2076" from-port="0" to-layer="2080" to-port="1" />
		<edge from-layer="2077" from-port="0" to-layer="2080" to-port="2" />
		<edge from-layer="2078" from-port="0" to-layer="2080" to-port="3" />
		<edge from-layer="2079" from-port="0" to-layer="2080" to-port="4" />
		<edge from-layer="2080" from-port="5" to-layer="2107" to-port="0" />
		<edge from-layer="2080" from-port="5" to-layer="2085" to-port="0" />
		<edge from-layer="2081" from-port="0" to-layer="2082" to-port="0" />
		<edge from-layer="2082" from-port="1" to-layer="2084" to-port="0" />
		<edge from-layer="2083" from-port="0" to-layer="2084" to-port="1" />
		<edge from-layer="2084" from-port="2" to-layer="2085" to-port="1" />
		<edge from-layer="2085" from-port="2" to-layer="2087" to-port="0" />
		<edge from-layer="2086" from-port="0" to-layer="2087" to-port="1" />
		<edge from-layer="2087" from-port="2" to-layer="2088" to-port="0" />
		<edge from-layer="2088" from-port="1" to-layer="2093" to-port="0" />
		<edge from-layer="2089" from-port="0" to-layer="2093" to-port="1" />
		<edge from-layer="2090" from-port="0" to-layer="2093" to-port="2" />
		<edge from-layer="2091" from-port="0" to-layer="2093" to-port="3" />
		<edge from-layer="2092" from-port="0" to-layer="2093" to-port="4" />
		<edge from-layer="2093" from-port="5" to-layer="2098" to-port="0" />
		<edge from-layer="2094" from-port="0" to-layer="2095" to-port="0" />
		<edge from-layer="2095" from-port="1" to-layer="2097" to-port="0" />
		<edge from-layer="2096" from-port="0" to-layer="2097" to-port="1" />
		<edge from-layer="2097" from-port="2" to-layer="2098" to-port="1" />
		<edge from-layer="2098" from-port="2" to-layer="2100" to-port="0" />
		<edge from-layer="2099" from-port="0" to-layer="2100" to-port="1" />
		<edge from-layer="2100" from-port="2" to-layer="2101" to-port="0" />
		<edge from-layer="2101" from-port="1" to-layer="2106" to-port="0" />
		<edge from-layer="2102" from-port="0" to-layer="2106" to-port="1" />
		<edge from-layer="2103" from-port="0" to-layer="2106" to-port="2" />
		<edge from-layer="2104" from-port="0" to-layer="2106" to-port="3" />
		<edge from-layer="2105" from-port="0" to-layer="2106" to-port="4" />
		<edge from-layer="2106" from-port="5" to-layer="2107" to-port="1" />
		<edge from-layer="2107" from-port="2" to-layer="2112" to-port="0" />
		<edge from-layer="2108" from-port="0" to-layer="2112" to-port="1" />
		<edge from-layer="2109" from-port="0" to-layer="2112" to-port="2" />
		<edge from-layer="2110" from-port="0" to-layer="2112" to-port="3" />
		<edge from-layer="2111" from-port="0" to-layer="2112" to-port="4" />
		<edge from-layer="2112" from-port="5" to-layer="2126" to-port="0" />
		<edge from-layer="2113" from-port="0" to-layer="2114" to-port="0" />
		<edge from-layer="2114" from-port="1" to-layer="2116" to-port="0" />
		<edge from-layer="2115" from-port="0" to-layer="2116" to-port="1" />
		<edge from-layer="2116" from-port="2" to-layer="2117" to-port="1" />
		<edge from-layer="2117" from-port="2" to-layer="2119" to-port="0" />
		<edge from-layer="2118" from-port="0" to-layer="2119" to-port="1" />
		<edge from-layer="2119" from-port="2" to-layer="2120" to-port="0" />
		<edge from-layer="2120" from-port="1" to-layer="2125" to-port="0" />
		<edge from-layer="2121" from-port="0" to-layer="2125" to-port="1" />
		<edge from-layer="2122" from-port="0" to-layer="2125" to-port="2" />
		<edge from-layer="2123" from-port="0" to-layer="2125" to-port="3" />
		<edge from-layer="2124" from-port="0" to-layer="2125" to-port="4" />
		<edge from-layer="2125" from-port="5" to-layer="2126" to-port="1" />
		<edge from-layer="2126" from-port="2" to-layer="2131" to-port="0" />
		<edge from-layer="2127" from-port="0" to-layer="2128" to-port="0" />
		<edge from-layer="2128" from-port="1" to-layer="2130" to-port="0" />
		<edge from-layer="2129" from-port="0" to-layer="2130" to-port="1" />
		<edge from-layer="2130" from-port="2" to-layer="2131" to-port="1" />
		<edge from-layer="2131" from-port="2" to-layer="2133" to-port="0" />
		<edge from-layer="2132" from-port="0" to-layer="2133" to-port="1" />
		<edge from-layer="2133" from-port="2" to-layer="2134" to-port="0" />
		<edge from-layer="2134" from-port="1" to-layer="2139" to-port="0" />
		<edge from-layer="2135" from-port="0" to-layer="2139" to-port="1" />
		<edge from-layer="2136" from-port="0" to-layer="2139" to-port="2" />
		<edge from-layer="2137" from-port="0" to-layer="2139" to-port="3" />
		<edge from-layer="2138" from-port="0" to-layer="2139" to-port="4" />
		<edge from-layer="2139" from-port="5" to-layer="2144" to-port="0" />
		<edge from-layer="2140" from-port="0" to-layer="2141" to-port="0" />
		<edge from-layer="2141" from-port="1" to-layer="2143" to-port="0" />
		<edge from-layer="2142" from-port="0" to-layer="2143" to-port="1" />
		<edge from-layer="2143" from-port="2" to-layer="2144" to-port="1" />
		<edge from-layer="2144" from-port="2" to-layer="2146" to-port="0" />
		<edge from-layer="2145" from-port="0" to-layer="2146" to-port="1" />
		<edge from-layer="2146" from-port="2" to-layer="2147" to-port="0" />
		<edge from-layer="2147" from-port="1" to-layer="2152" to-port="0" />
		<edge from-layer="2148" from-port="0" to-layer="2152" to-port="1" />
		<edge from-layer="2149" from-port="0" to-layer="2152" to-port="2" />
		<edge from-layer="2150" from-port="0" to-layer="2152" to-port="3" />
		<edge from-layer="2151" from-port="0" to-layer="2152" to-port="4" />
		<edge from-layer="2152" from-port="5" to-layer="2153" to-port="3" />
		<edge from-layer="2153" from-port="4" to-layer="2158" to-port="0" />
		<edge from-layer="2154" from-port="0" to-layer="2155" to-port="0" />
		<edge from-layer="2155" from-port="1" to-layer="2157" to-port="0" />
		<edge from-layer="2156" from-port="0" to-layer="2157" to-port="1" />
		<edge from-layer="2157" from-port="2" to-layer="2158" to-port="1" />
		<edge from-layer="2158" from-port="2" to-layer="2160" to-port="0" />
		<edge from-layer="2159" from-port="0" to-layer="2160" to-port="1" />
		<edge from-layer="2160" from-port="2" to-layer="2161" to-port="0" />
		<edge from-layer="2161" from-port="1" to-layer="2166" to-port="0" />
		<edge from-layer="2162" from-port="0" to-layer="2166" to-port="1" />
		<edge from-layer="2163" from-port="0" to-layer="2166" to-port="2" />
		<edge from-layer="2164" from-port="0" to-layer="2166" to-port="3" />
		<edge from-layer="2165" from-port="0" to-layer="2166" to-port="4" />
		<edge from-layer="2166" from-port="5" to-layer="2171" to-port="0" />
		<edge from-layer="2166" from-port="5" to-layer="2204" to-port="0" />
		<edge from-layer="2167" from-port="0" to-layer="2168" to-port="0" />
		<edge from-layer="2168" from-port="1" to-layer="2170" to-port="0" />
		<edge from-layer="2169" from-port="0" to-layer="2170" to-port="1" />
		<edge from-layer="2170" from-port="2" to-layer="2171" to-port="1" />
		<edge from-layer="2171" from-port="2" to-layer="2173" to-port="0" />
		<edge from-layer="2172" from-port="0" to-layer="2173" to-port="1" />
		<edge from-layer="2173" from-port="2" to-layer="2174" to-port="0" />
		<edge from-layer="2174" from-port="1" to-layer="2179" to-port="0" />
		<edge from-layer="2175" from-port="0" to-layer="2179" to-port="1" />
		<edge from-layer="2176" from-port="0" to-layer="2179" to-port="2" />
		<edge from-layer="2177" from-port="0" to-layer="2179" to-port="3" />
		<edge from-layer="2178" from-port="0" to-layer="2179" to-port="4" />
		<edge from-layer="2179" from-port="5" to-layer="2184" to-port="0" />
		<edge from-layer="2180" from-port="0" to-layer="2181" to-port="0" />
		<edge from-layer="2181" from-port="1" to-layer="2183" to-port="0" />
		<edge from-layer="2182" from-port="0" to-layer="2183" to-port="1" />
		<edge from-layer="2183" from-port="2" to-layer="2184" to-port="1" />
		<edge from-layer="2184" from-port="2" to-layer="2186" to-port="0" />
		<edge from-layer="2185" from-port="0" to-layer="2186" to-port="1" />
		<edge from-layer="2186" from-port="2" to-layer="2187" to-port="0" />
		<edge from-layer="2187" from-port="1" to-layer="2192" to-port="0" />
		<edge from-layer="2188" from-port="0" to-layer="2192" to-port="1" />
		<edge from-layer="2189" from-port="0" to-layer="2192" to-port="2" />
		<edge from-layer="2190" from-port="0" to-layer="2192" to-port="3" />
		<edge from-layer="2191" from-port="0" to-layer="2192" to-port="4" />
		<edge from-layer="2192" from-port="5" to-layer="2197" to-port="0" />
		<edge from-layer="2193" from-port="0" to-layer="2194" to-port="0" />
		<edge from-layer="2194" from-port="1" to-layer="2196" to-port="0" />
		<edge from-layer="2195" from-port="0" to-layer="2196" to-port="1" />
		<edge from-layer="2196" from-port="2" to-layer="2197" to-port="1" />
		<edge from-layer="2197" from-port="2" to-layer="2199" to-port="0" />
		<edge from-layer="2198" from-port="0" to-layer="2199" to-port="1" />
		<edge from-layer="2199" from-port="2" to-layer="2233" to-port="0" />
		<edge from-layer="2200" from-port="0" to-layer="2201" to-port="0" />
		<edge from-layer="2201" from-port="1" to-layer="2203" to-port="0" />
		<edge from-layer="2202" from-port="0" to-layer="2203" to-port="1" />
		<edge from-layer="2203" from-port="2" to-layer="2204" to-port="1" />
		<edge from-layer="2204" from-port="2" to-layer="2206" to-port="0" />
		<edge from-layer="2205" from-port="0" to-layer="2206" to-port="1" />
		<edge from-layer="2206" from-port="2" to-layer="2207" to-port="0" />
		<edge from-layer="2207" from-port="1" to-layer="2212" to-port="0" />
		<edge from-layer="2208" from-port="0" to-layer="2212" to-port="1" />
		<edge from-layer="2209" from-port="0" to-layer="2212" to-port="2" />
		<edge from-layer="2210" from-port="0" to-layer="2212" to-port="3" />
		<edge from-layer="2211" from-port="0" to-layer="2212" to-port="4" />
		<edge from-layer="2212" from-port="5" to-layer="2217" to-port="0" />
		<edge from-layer="2213" from-port="0" to-layer="2214" to-port="0" />
		<edge from-layer="2214" from-port="1" to-layer="2216" to-port="0" />
		<edge from-layer="2215" from-port="0" to-layer="2216" to-port="1" />
		<edge from-layer="2216" from-port="2" to-layer="2217" to-port="1" />
		<edge from-layer="2217" from-port="2" to-layer="2219" to-port="0" />
		<edge from-layer="2218" from-port="0" to-layer="2219" to-port="1" />
		<edge from-layer="2219" from-port="2" to-layer="2220" to-port="0" />
		<edge from-layer="2220" from-port="1" to-layer="2225" to-port="0" />
		<edge from-layer="2221" from-port="0" to-layer="2225" to-port="1" />
		<edge from-layer="2222" from-port="0" to-layer="2225" to-port="2" />
		<edge from-layer="2223" from-port="0" to-layer="2225" to-port="3" />
		<edge from-layer="2224" from-port="0" to-layer="2225" to-port="4" />
		<edge from-layer="2225" from-port="5" to-layer="2230" to-port="0" />
		<edge from-layer="2226" from-port="0" to-layer="2227" to-port="0" />
		<edge from-layer="2227" from-port="1" to-layer="2229" to-port="0" />
		<edge from-layer="2228" from-port="0" to-layer="2229" to-port="1" />
		<edge from-layer="2229" from-port="2" to-layer="2230" to-port="1" />
		<edge from-layer="2230" from-port="2" to-layer="2232" to-port="0" />
		<edge from-layer="2231" from-port="0" to-layer="2232" to-port="1" />
		<edge from-layer="2232" from-port="2" to-layer="2233" to-port="1" />
		<edge from-layer="2233" from-port="2" to-layer="2234" to-port="0" />
		<edge from-layer="2234" from-port="2" to-layer="2235" to-port="2" />
		<edge from-layer="2235" from-port="3" to-layer="2238" to-port="0" />
		<edge from-layer="2236" from-port="0" to-layer="2238" to-port="1" />
		<edge from-layer="2236" from-port="0" to-layer="2272" to-port="1" />
		<edge from-layer="2237" from-port="0" to-layer="2238" to-port="2" />
		<edge from-layer="2238" from-port="3" to-layer="2242" to-port="0" />
		<edge from-layer="2238" from-port="4" to-layer="2302" to-port="0" />
		<edge from-layer="2238" from-port="3" to-layer="2247" to-port="0" />
		<edge from-layer="2239" from-port="0" to-layer="2246" to-port="0" />
		<edge from-layer="2240" from-port="0" to-layer="2246" to-port="1" />
		<edge from-layer="2240" from-port="0" to-layer="2269" to-port="1" />
		<edge from-layer="2241" from-port="0" to-layer="2246" to-port="2" />
		<edge from-layer="2242" from-port="1" to-layer="2245" to-port="0" />
		<edge from-layer="2242" from-port="1" to-layer="2268" to-port="0" />
		<edge from-layer="2243" from-port="0" to-layer="2245" to-port="1" />
		<edge from-layer="2244" from-port="0" to-layer="2245" to-port="2" />
		<edge from-layer="2245" from-port="3" to-layer="2246" to-port="3" />
		<edge from-layer="2245" from-port="3" to-layer="2269" to-port="2" />
		<edge from-layer="2246" from-port="4" to-layer="2247" to-port="1" />
		<edge from-layer="2247" from-port="2" to-layer="2249" to-port="0" />
		<edge from-layer="2248" from-port="0" to-layer="2249" to-port="1" />
		<edge from-layer="2249" from-port="2" to-layer="2250" to-port="0" />
		<edge from-layer="2250" from-port="1" to-layer="2255" to-port="0" />
		<edge from-layer="2251" from-port="0" to-layer="2255" to-port="1" />
		<edge from-layer="2252" from-port="0" to-layer="2255" to-port="2" />
		<edge from-layer="2253" from-port="0" to-layer="2255" to-port="3" />
		<edge from-layer="2254" from-port="0" to-layer="2255" to-port="4" />
		<edge from-layer="2255" from-port="5" to-layer="2260" to-port="0" />
		<edge from-layer="2256" from-port="0" to-layer="2257" to-port="0" />
		<edge from-layer="2257" from-port="1" to-layer="2259" to-port="0" />
		<edge from-layer="2258" from-port="0" to-layer="2259" to-port="1" />
		<edge from-layer="2259" from-port="2" to-layer="2260" to-port="1" />
		<edge from-layer="2260" from-port="2" to-layer="2265" to-port="0" />
		<edge from-layer="2261" from-port="0" to-layer="2265" to-port="1" />
		<edge from-layer="2262" from-port="0" to-layer="2265" to-port="2" />
		<edge from-layer="2263" from-port="0" to-layer="2265" to-port="3" />
		<edge from-layer="2264" from-port="0" to-layer="2265" to-port="4" />
		<edge from-layer="2265" from-port="5" to-layer="2270" to-port="0" />
		<edge from-layer="2266" from-port="0" to-layer="2268" to-port="1" />
		<edge from-layer="2267" from-port="0" to-layer="2268" to-port="2" />
		<edge from-layer="2268" from-port="3" to-layer="2269" to-port="0" />
		<edge from-layer="2269" from-port="3" to-layer="2270" to-port="1" />
		<edge from-layer="2270" from-port="2" to-layer="2272" to-port="0" />
		<edge from-layer="2271" from-port="0" to-layer="2272" to-port="2" />
		<edge from-layer="2272" from-port="3" to-layer="2273" to-port="1" />
		<edge from-layer="2272" from-port="4" to-layer="2279" to-port="1" />
		<edge from-layer="2273" from-port="2" to-layer="2278" to-port="0" />
		<edge from-layer="2274" from-port="0" to-layer="2278" to-port="1" />
		<edge from-layer="2275" from-port="0" to-layer="2278" to-port="2" />
		<edge from-layer="2276" from-port="0" to-layer="2278" to-port="3" />
		<edge from-layer="2277" from-port="0" to-layer="2278" to-port="4" />
		<edge from-layer="2278" from-port="5" to-layer="2285" to-port="0" />
		<edge from-layer="2278" from-port="5" to-layer="2293" to-port="1" />
		<edge from-layer="2279" from-port="2" to-layer="2284" to-port="0" />
		<edge from-layer="2280" from-port="0" to-layer="2284" to-port="1" />
		<edge from-layer="2281" from-port="0" to-layer="2284" to-port="2" />
		<edge from-layer="2282" from-port="0" to-layer="2284" to-port="3" />
		<edge from-layer="2283" from-port="0" to-layer="2284" to-port="4" />
		<edge from-layer="2284" from-port="5" to-layer="2293" to-port="0" />
		<edge from-layer="2284" from-port="5" to-layer="2285" to-port="1" />
		<edge from-layer="2285" from-port="2" to-layer="2287" to-port="0" />
		<edge from-layer="2286" from-port="0" to-layer="2287" to-port="1" />
		<edge from-layer="2287" from-port="2" to-layer="2292" to-port="0" />
		<edge from-layer="2288" from-port="0" to-layer="2292" to-port="1" />
		<edge from-layer="2289" from-port="0" to-layer="2292" to-port="2" />
		<edge from-layer="2290" from-port="0" to-layer="2292" to-port="3" />
		<edge from-layer="2291" from-port="0" to-layer="2292" to-port="4" />
		<edge from-layer="2292" from-port="5" to-layer="2299" to-port="0" />
		<edge from-layer="2293" from-port="2" to-layer="2298" to-port="0" />
		<edge from-layer="2294" from-port="0" to-layer="2298" to-port="1" />
		<edge from-layer="2295" from-port="0" to-layer="2298" to-port="2" />
		<edge from-layer="2296" from-port="0" to-layer="2298" to-port="3" />
		<edge from-layer="2297" from-port="0" to-layer="2298" to-port="4" />
		<edge from-layer="2298" from-port="5" to-layer="2299" to-port="1" />
		<edge from-layer="2299" from-port="2" to-layer="2301" to-port="0" />
		<edge from-layer="2300" from-port="0" to-layer="2301" to-port="1" />
		<edge from-layer="2301" from-port="2" to-layer="2303" to-port="0" />
		<edge from-layer="2302" from-port="1" to-layer="2303" to-port="1" />
		<edge from-layer="2303" from-port="2" to-layer="2304" to-port="0" />
	</edges>
	<rt_info>
		<Runtime_version value="2024.1.0-15008-f4afc983258-releases/2024/1" />
		<conversion_parameters>
			<framework value="pytorch" />
			<is_python_object value="True" />
		</conversion_parameters>
		<model_info>
			<labels value="person vehicle animal" />
			<model_type value="YOLO" />
			<pad_value value="114" />
			<reverse_input_channels value="YES" />
			<scale_values value="255" />
		</model_info>
		<nncf>
			<friendly_names_were_updated value="True" />
			<quantization>
				<advanced_parameters value="{}" />
				<fast_bias_correction value="True" />
				<ignored_scope value="None" />
				<model_type value="None" />
				<preset value="mixed" />
				<subset_size value="300" />
				<target_device value="ANY" />
			</quantization>
		</nncf>
	</rt_info>
</net>
