<?xml version="1.0"?>
<net name="efficientdet-d0-tf" version="11">
	<layers>
		<layer id="0" name="image_arrays" type="Parameter" version="opset1">
			<data shape="1,512,512,3" element_type="f32" />
			<rt_info>
				<attribute name="old_api_map_order" version="0" value="0, 2, 3, 1" />
			</rt_info>
			<output>
				<port id="0" precision="FP32" names="image_arrays,image_arrays:0">
					<dim>1</dim>
					<dim>512</dim>
					<dim>512</dim>
					<dim>3</dim>
					<rt_info>
						<attribute name="layout" version="0" layout="[N,H,W,C]" />
					</rt_info>
				</port>
			</output>
		</layer>
		<layer id="1" name="image_arrays/Transpose([0 3 1 2])/value2910247697" type="Const" version="opset1">
			<data element_type="i64" shape="4" offset="0" size="32" />
			<output>
				<port id="0" precision="I64">
					<dim>4</dim>
				</port>
			</output>
		</layer>
		<layer id="2" name="image_arrays/Transpose([0 3 1 2])" type="Transpose" version="opset1">
			<input>
				<port id="0" precision="FP32">
					<dim>1</dim>
					<dim>512</dim>
					<dim>512</dim>
					<dim>3</dim>
				</port>
				<port id="1" precision="I64">
					<dim>4</dim>
				</port>
			</input>
			<output>
				<port id="2" precision="FP32" names="convert_image/Cast:0">
					<dim>1</dim>
					<dim>3</dim>
					<dim>512</dim>
					<dim>512</dim>
				</port>
			</output>
		</layer>
		<layer id="3" name="data_mul_20569" type="Const" version="opset1">
			<data element_type="f32" shape="1, 3, 1, 1" offset="32" size="12" />
			<output>
				<port id="0" precision="FP32">
					<dim>1</dim>
					<dim>3</dim>
					<dim>1</dim>
					<dim>1</dim>
				</port>
			</output>
		</layer>
		<layer id="4" name="convert_image/Fused_Mul_" type="Multiply" version="opset1">
			<data auto_broadcast="numpy" />
			<input>
				<port id="0" precision="FP32">
					<dim>1</dim>
					<dim>3</dim>
					<dim>512</dim>
					<dim>512</dim>
				</port>
				<port id="1" precision="FP32">
					<dim>1</dim>
					<dim>3</dim>
					<dim>1</dim>
					<dim>1</dim>
				</port>
			</input>
			<output>
				<port id="2" precision="FP32">
					<dim>1</dim>
					<dim>3</dim>
					<dim>512</dim>
					<dim>512</dim>
				</port>
			</output>
		</layer>
		<layer id="5" name="data_add_20571" type="Const" version="opset1">
			<data element_type="f32" shape="1, 3, 1, 1" offset="44" size="12" />
			<output>
				<port id="0" precision="FP32">
					<dim>1</dim>
					<dim>3</dim>
					<dim>1</dim>
					<dim>1</dim>
				</port>
			</output>
		</layer>
		<layer id="6" name="sub_1/Fused_Add_" type="Add" version="opset1">
			<data auto_broadcast="numpy" />
			<input>
				<port id="0" precision="FP32">
					<dim>1</dim>
					<dim>3</dim>
					<dim>512</dim>
					<dim>512</dim>
				</port>
				<port id="1" precision="FP32">
					<dim>1</dim>
					<dim>3</dim>
					<dim>1</dim>
					<dim>1</dim>
				</port>
			</input>
			<output>
				<port id="2" precision="FP32" names="stack:0">
					<dim>1</dim>
					<dim>3</dim>
					<dim>512</dim>
					<dim>512</dim>
				</port>
			</output>
		</layer>
		<layer id="7" name="efficientnet-b0/stem/conv2d/Conv2D_weights" type="Const" version="opset1">
			<data element_type="f32" shape="32, 3, 3, 3" offset="56" size="3456" />
			<output>
				<port id="0" precision="FP32" names="efficientnet-b0/stem/conv2d/Conv2D_weights:0">
					<dim>32</dim>
					<dim>3</dim>
					<dim>3</dim>
					<dim>3</dim>
				</port>
			</output>
		</layer>
		<layer id="8" name="efficientnet-b0/stem/conv2d/Conv2D" type="Convolution" version="opset1">
			<data strides="2, 2" dilations="1, 1" pads_begin="0, 0" pads_end="0, 0" auto_pad="same_upper" />
			<input>
				<port id="0" precision="FP32">
					<dim>1</dim>
					<dim>3</dim>
					<dim>512</dim>
					<dim>512</dim>
				</port>
				<port id="1" precision="FP32">
					<dim>32</dim>
					<dim>3</dim>
					<dim>3</dim>
					<dim>3</dim>
				</port>
			</input>
			<output>
				<port id="2" precision="FP32" names="efficientnet-b0/stem/conv2d/Conv2D:0">
					<dim>1</dim>
					<dim>32</dim>
					<dim>256</dim>
					<dim>256</dim>
				</port>
			</output>
		</layer>
		<layer id="9" name="efficientnet-b0/stem/conv2d/Conv2D_bn_offset" type="Const" version="opset1">
			<data element_type="f32" shape="1, 32, 1, 1" offset="3512" size="128" />
			<output>
				<port id="0" precision="FP32" names="efficientnet-b0/stem/conv2d/Conv2D_bn_offset:0">
					<dim>1</dim>
					<dim>32</dim>
					<dim>1</dim>
					<dim>1</dim>
				</port>
			</output>
		</layer>
		<layer id="10" name="efficientnet-b0/stem/tpu_batch_normalization/FusedBatchNormV3/Add" type="Add" version="opset1">
			<data auto_broadcast="numpy" />
			<input>
				<port id="0" precision="FP32">
					<dim>1</dim>
					<dim>32</dim>
					<dim>256</dim>
					<dim>256</dim>
				</port>
				<port id="1" precision="FP32">
					<dim>1</dim>
					<dim>32</dim>
					<dim>1</dim>
					<dim>1</dim>
				</port>
			</input>
			<output>
				<port id="2" precision="FP32" names="efficientnet-b0/stem/tpu_batch_normalization/FusedBatchNormV3:0">
					<dim>1</dim>
					<dim>32</dim>
					<dim>256</dim>
					<dim>256</dim>
				</port>
			</output>
		</layer>
		<layer id="11" name="efficientnet-b0/stem/mul" type="Swish" version="opset4">
			<input>
				<port id="0" precision="FP32">
					<dim>1</dim>
					<dim>32</dim>
					<dim>256</dim>
					<dim>256</dim>
				</port>
			</input>
			<output>
				<port id="1" precision="FP32" names="efficientnet-b0/stem/IdentityN:0,efficientnet-b0/stem/mul:0">
					<dim>1</dim>
					<dim>32</dim>
					<dim>256</dim>
					<dim>256</dim>
				</port>
			</output>
		</layer>
		<layer id="12" name="efficientnet-b0/blocks_0/depthwise_conv2d/depthwise_weights" type="Const" version="opset1">
			<data element_type="f32" shape="32, 1, 1, 3, 3" offset="3640" size="1152" />
			<output>
				<port id="0" precision="FP32" names="efficientnet-b0/blocks_0/depthwise_conv2d/depthwise_weights:0">
					<dim>32</dim>
					<dim>1</dim>
					<dim>1</dim>
					<dim>3</dim>
					<dim>3</dim>
				</port>
			</output>
		</layer>
		<layer id="13" name="efficientnet-b0/blocks_0/depthwise_conv2d/depthwise" type="GroupConvolution" version="opset1">
			<data strides="1, 1" pads_begin="0, 0" pads_end="0, 0" dilations="1, 1" auto_pad="same_upper" />
			<input>
				<port id="0" precision="FP32">
					<dim>1</dim>
					<dim>32</dim>
					<dim>256</dim>
					<dim>256</dim>
				</port>
				<port id="1" precision="FP32">
					<dim>32</dim>
					<dim>1</dim>
					<dim>1</dim>
					<dim>3</dim>
					<dim>3</dim>
				</port>
			</input>
			<output>
				<port id="2" precision="FP32" names="efficientnet-b0/blocks_0/depthwise_conv2d/depthwise:0">
					<dim>1</dim>
					<dim>32</dim>
					<dim>256</dim>
					<dim>256</dim>
				</port>
			</output>
		</layer>
		<layer id="14" name="efficientnet-b0/blocks_0/depthwise_conv2d/depthwise_bn_offset" type="Const" version="opset1">
			<data element_type="f32" shape="1, 32, 1, 1" offset="4792" size="128" />
			<output>
				<port id="0" precision="FP32" names="efficientnet-b0/blocks_0/depthwise_conv2d/depthwise_bn_offset:0">
					<dim>1</dim>
					<dim>32</dim>
					<dim>1</dim>
					<dim>1</dim>
				</port>
			</output>
		</layer>
		<layer id="15" name="efficientnet-b0/blocks_0/tpu_batch_normalization/FusedBatchNormV3/Add" type="Add" version="opset1">
			<data auto_broadcast="numpy" />
			<input>
				<port id="0" precision="FP32">
					<dim>1</dim>
					<dim>32</dim>
					<dim>256</dim>
					<dim>256</dim>
				</port>
				<port id="1" precision="FP32">
					<dim>1</dim>
					<dim>32</dim>
					<dim>1</dim>
					<dim>1</dim>
				</port>
			</input>
			<output>
				<port id="2" precision="FP32" names="efficientnet-b0/blocks_0/tpu_batch_normalization/FusedBatchNormV3:0">
					<dim>1</dim>
					<dim>32</dim>
					<dim>256</dim>
					<dim>256</dim>
				</port>
			</output>
		</layer>
		<layer id="16" name="efficientnet-b0/blocks_0/mul" type="Swish" version="opset4">
			<input>
				<port id="0" precision="FP32">
					<dim>1</dim>
					<dim>32</dim>
					<dim>256</dim>
					<dim>256</dim>
				</port>
			</input>
			<output>
				<port id="1" precision="FP32" names="efficientnet-b0/blocks_0/IdentityN:0,efficientnet-b0/blocks_0/mul:0">
					<dim>1</dim>
					<dim>32</dim>
					<dim>256</dim>
					<dim>256</dim>
				</port>
			</output>
		</layer>
		<layer id="17" name="2911748168" type="Const" version="opset1">
			<data element_type="i64" shape="2" offset="4920" size="16" />
			<output>
				<port id="0" precision="I64">
					<dim>2</dim>
				</port>
			</output>
		</layer>
		<layer id="18" name="efficientnet-b0/blocks_0/se/Mean" type="ReduceMean" version="opset1">
			<data keep_dims="true" />
			<input>
				<port id="0" precision="FP32">
					<dim>1</dim>
					<dim>32</dim>
					<dim>256</dim>
					<dim>256</dim>
				</port>
				<port id="1" precision="I64">
					<dim>2</dim>
				</port>
			</input>
			<output>
				<port id="2" precision="FP32" names="efficientnet-b0/blocks_0/se/Mean:0">
					<dim>1</dim>
					<dim>32</dim>
					<dim>1</dim>
					<dim>1</dim>
				</port>
			</output>
		</layer>
		<layer id="19" name="efficientnet-b0/blocks_0/se/conv2d/kernel" type="Const" version="opset1">
			<data element_type="f32" shape="8, 32, 1, 1" offset="4936" size="1024" />
			<output>
				<port id="0" precision="FP32" names="efficientnet-b0/blocks_0/se/conv2d/kernel:0">
					<dim>8</dim>
					<dim>32</dim>
					<dim>1</dim>
					<dim>1</dim>
				</port>
			</output>
		</layer>
		<layer id="20" name="efficientnet-b0/blocks_0/se/conv2d/Conv2D" type="Convolution" version="opset1">
			<data strides="1, 1" dilations="1, 1" pads_begin="0, 0" pads_end="0, 0" auto_pad="same_upper" />
			<input>
				<port id="0" precision="FP32">
					<dim>1</dim>
					<dim>32</dim>
					<dim>1</dim>
					<dim>1</dim>
				</port>
				<port id="1" precision="FP32">
					<dim>8</dim>
					<dim>32</dim>
					<dim>1</dim>
					<dim>1</dim>
				</port>
			</input>
			<output>
				<port id="2" precision="FP32" names="efficientnet-b0/blocks_0/se/conv2d/Conv2D:0">
					<dim>1</dim>
					<dim>8</dim>
					<dim>1</dim>
					<dim>1</dim>
				</port>
			</output>
		</layer>
		<layer id="21" name="efficientnet-b0/blocks_0/se/conv2d/bias" type="Const" version="opset1">
			<data element_type="f32" shape="1, 8, 1, 1" offset="5960" size="32" />
			<output>
				<port id="0" precision="FP32" names="efficientnet-b0/blocks_0/se/conv2d/bias:0">
					<dim>1</dim>
					<dim>8</dim>
					<dim>1</dim>
					<dim>1</dim>
				</port>
			</output>
		</layer>
		<layer id="22" name="efficientnet-b0/blocks_0/se/conv2d/BiasAdd/Add" type="Add" version="opset1">
			<data auto_broadcast="numpy" />
			<input>
				<port id="0" precision="FP32">
					<dim>1</dim>
					<dim>8</dim>
					<dim>1</dim>
					<dim>1</dim>
				</port>
				<port id="1" precision="FP32">
					<dim>1</dim>
					<dim>8</dim>
					<dim>1</dim>
					<dim>1</dim>
				</port>
			</input>
			<output>
				<port id="2" precision="FP32" names="efficientnet-b0/blocks_0/se/conv2d/BiasAdd:0">
					<dim>1</dim>
					<dim>8</dim>
					<dim>1</dim>
					<dim>1</dim>
				</port>
			</output>
		</layer>
		<layer id="23" name="efficientnet-b0/blocks_0/se/mul" type="Swish" version="opset4">
			<input>
				<port id="0" precision="FP32">
					<dim>1</dim>
					<dim>8</dim>
					<dim>1</dim>
					<dim>1</dim>
				</port>
			</input>
			<output>
				<port id="1" precision="FP32" names="efficientnet-b0/blocks_0/se/IdentityN:0,efficientnet-b0/blocks_0/se/mul:0">
					<dim>1</dim>
					<dim>8</dim>
					<dim>1</dim>
					<dim>1</dim>
				</port>
			</output>
		</layer>
		<layer id="24" name="efficientnet-b0/blocks_0/se/conv2d_1/kernel" type="Const" version="opset1">
			<data element_type="f32" shape="32, 8, 1, 1" offset="5992" size="1024" />
			<output>
				<port id="0" precision="FP32" names="efficientnet-b0/blocks_0/se/conv2d_1/kernel:0">
					<dim>32</dim>
					<dim>8</dim>
					<dim>1</dim>
					<dim>1</dim>
				</port>
			</output>
		</layer>
		<layer id="25" name="efficientnet-b0/blocks_0/se/conv2d_1/Conv2D" type="Convolution" version="opset1">
			<data strides="1, 1" dilations="1, 1" pads_begin="0, 0" pads_end="0, 0" auto_pad="same_upper" />
			<input>
				<port id="0" precision="FP32">
					<dim>1</dim>
					<dim>8</dim>
					<dim>1</dim>
					<dim>1</dim>
				</port>
				<port id="1" precision="FP32">
					<dim>32</dim>
					<dim>8</dim>
					<dim>1</dim>
					<dim>1</dim>
				</port>
			</input>
			<output>
				<port id="2" precision="FP32" names="efficientnet-b0/blocks_0/se/conv2d_1/Conv2D:0">
					<dim>1</dim>
					<dim>32</dim>
					<dim>1</dim>
					<dim>1</dim>
				</port>
			</output>
		</layer>
		<layer id="26" name="efficientnet-b0/blocks_0/se/conv2d_1/bias" type="Const" version="opset1">
			<data element_type="f32" shape="1, 32, 1, 1" offset="7016" size="128" />
			<output>
				<port id="0" precision="FP32" names="efficientnet-b0/blocks_0/se/conv2d_1/bias:0">
					<dim>1</dim>
					<dim>32</dim>
					<dim>1</dim>
					<dim>1</dim>
				</port>
			</output>
		</layer>
		<layer id="27" name="efficientnet-b0/blocks_0/se/conv2d_1/BiasAdd/Add" type="Add" version="opset1">
			<data auto_broadcast="numpy" />
			<input>
				<port id="0" precision="FP32">
					<dim>1</dim>
					<dim>32</dim>
					<dim>1</dim>
					<dim>1</dim>
				</port>
				<port id="1" precision="FP32">
					<dim>1</dim>
					<dim>32</dim>
					<dim>1</dim>
					<dim>1</dim>
				</port>
			</input>
			<output>
				<port id="2" precision="FP32" names="efficientnet-b0/blocks_0/se/conv2d_1/BiasAdd:0">
					<dim>1</dim>
					<dim>32</dim>
					<dim>1</dim>
					<dim>1</dim>
				</port>
			</output>
		</layer>
		<layer id="28" name="efficientnet-b0/blocks_0/se/Sigmoid_1" type="Sigmoid" version="opset1">
			<input>
				<port id="0" precision="FP32">
					<dim>1</dim>
					<dim>32</dim>
					<dim>1</dim>
					<dim>1</dim>
				</port>
			</input>
			<output>
				<port id="1" precision="FP32" names="efficientnet-b0/blocks_0/se/Sigmoid_1:0">
					<dim>1</dim>
					<dim>32</dim>
					<dim>1</dim>
					<dim>1</dim>
				</port>
			</output>
		</layer>
		<layer id="29" name="efficientnet-b0/blocks_0/se/mul_1" type="Multiply" version="opset1">
			<data auto_broadcast="numpy" />
			<input>
				<port id="0" precision="FP32">
					<dim>1</dim>
					<dim>32</dim>
					<dim>1</dim>
					<dim>1</dim>
				</port>
				<port id="1" precision="FP32">
					<dim>1</dim>
					<dim>32</dim>
					<dim>256</dim>
					<dim>256</dim>
				</port>
			</input>
			<output>
				<port id="2" precision="FP32" names="efficientnet-b0/blocks_0/se/mul_1:0">
					<dim>1</dim>
					<dim>32</dim>
					<dim>256</dim>
					<dim>256</dim>
				</port>
			</output>
		</layer>
		<layer id="30" name="efficientnet-b0/blocks_0/conv2d/Conv2D_weights" type="Const" version="opset1">
			<data element_type="f32" shape="16, 32, 1, 1" offset="7144" size="2048" />
			<output>
				<port id="0" precision="FP32" names="efficientnet-b0/blocks_0/conv2d/Conv2D_weights:0">
					<dim>16</dim>
					<dim>32</dim>
					<dim>1</dim>
					<dim>1</dim>
				</port>
			</output>
		</layer>
		<layer id="31" name="efficientnet-b0/blocks_0/conv2d/Conv2D" type="Convolution" version="opset1">
			<data strides="1, 1" dilations="1, 1" pads_begin="0, 0" pads_end="0, 0" auto_pad="same_upper" />
			<input>
				<port id="0" precision="FP32">
					<dim>1</dim>
					<dim>32</dim>
					<dim>256</dim>
					<dim>256</dim>
				</port>
				<port id="1" precision="FP32">
					<dim>16</dim>
					<dim>32</dim>
					<dim>1</dim>
					<dim>1</dim>
				</port>
			</input>
			<output>
				<port id="2" precision="FP32" names="efficientnet-b0/blocks_0/conv2d/Conv2D:0">
					<dim>1</dim>
					<dim>16</dim>
					<dim>256</dim>
					<dim>256</dim>
				</port>
			</output>
		</layer>
		<layer id="32" name="efficientnet-b0/blocks_0/conv2d/Conv2D_bn_offset" type="Const" version="opset1">
			<data element_type="f32" shape="1, 16, 1, 1" offset="9192" size="64" />
			<output>
				<port id="0" precision="FP32" names="efficientnet-b0/blocks_0/conv2d/Conv2D_bn_offset:0">
					<dim>1</dim>
					<dim>16</dim>
					<dim>1</dim>
					<dim>1</dim>
				</port>
			</output>
		</layer>
		<layer id="33" name="efficientnet-b0/blocks_0/tpu_batch_normalization_1/FusedBatchNormV3/Add" type="Add" version="opset1">
			<data auto_broadcast="numpy" />
			<input>
				<port id="0" precision="FP32">
					<dim>1</dim>
					<dim>16</dim>
					<dim>256</dim>
					<dim>256</dim>
				</port>
				<port id="1" precision="FP32">
					<dim>1</dim>
					<dim>16</dim>
					<dim>1</dim>
					<dim>1</dim>
				</port>
			</input>
			<output>
				<port id="2" precision="FP32" names="efficientnet-b0/blocks_0/tpu_batch_normalization_1/FusedBatchNormV3:0">
					<dim>1</dim>
					<dim>16</dim>
					<dim>256</dim>
					<dim>256</dim>
				</port>
			</output>
		</layer>
		<layer id="34" name="efficientnet-b0/blocks_1/conv2d/Conv2D_weights" type="Const" version="opset1">
			<data element_type="f32" shape="96, 16, 1, 1" offset="9256" size="6144" />
			<output>
				<port id="0" precision="FP32" names="efficientnet-b0/blocks_1/conv2d/Conv2D_weights:0">
					<dim>96</dim>
					<dim>16</dim>
					<dim>1</dim>
					<dim>1</dim>
				</port>
			</output>
		</layer>
		<layer id="35" name="efficientnet-b0/blocks_1/conv2d/Conv2D" type="Convolution" version="opset1">
			<data strides="1, 1" dilations="1, 1" pads_begin="0, 0" pads_end="0, 0" auto_pad="same_upper" />
			<input>
				<port id="0" precision="FP32">
					<dim>1</dim>
					<dim>16</dim>
					<dim>256</dim>
					<dim>256</dim>
				</port>
				<port id="1" precision="FP32">
					<dim>96</dim>
					<dim>16</dim>
					<dim>1</dim>
					<dim>1</dim>
				</port>
			</input>
			<output>
				<port id="2" precision="FP32" names="efficientnet-b0/blocks_1/conv2d/Conv2D:0">
					<dim>1</dim>
					<dim>96</dim>
					<dim>256</dim>
					<dim>256</dim>
				</port>
			</output>
		</layer>
		<layer id="36" name="efficientnet-b0/blocks_1/conv2d/Conv2D_bn_offset" type="Const" version="opset1">
			<data element_type="f32" shape="1, 96, 1, 1" offset="15400" size="384" />
			<output>
				<port id="0" precision="FP32" names="efficientnet-b0/blocks_1/conv2d/Conv2D_bn_offset:0">
					<dim>1</dim>
					<dim>96</dim>
					<dim>1</dim>
					<dim>1</dim>
				</port>
			</output>
		</layer>
		<layer id="37" name="efficientnet-b0/blocks_1/tpu_batch_normalization/FusedBatchNormV3/Add" type="Add" version="opset1">
			<data auto_broadcast="numpy" />
			<input>
				<port id="0" precision="FP32">
					<dim>1</dim>
					<dim>96</dim>
					<dim>256</dim>
					<dim>256</dim>
				</port>
				<port id="1" precision="FP32">
					<dim>1</dim>
					<dim>96</dim>
					<dim>1</dim>
					<dim>1</dim>
				</port>
			</input>
			<output>
				<port id="2" precision="FP32" names="efficientnet-b0/blocks_1/tpu_batch_normalization/FusedBatchNormV3:0">
					<dim>1</dim>
					<dim>96</dim>
					<dim>256</dim>
					<dim>256</dim>
				</port>
			</output>
		</layer>
		<layer id="38" name="efficientnet-b0/blocks_1/mul" type="Swish" version="opset4">
			<input>
				<port id="0" precision="FP32">
					<dim>1</dim>
					<dim>96</dim>
					<dim>256</dim>
					<dim>256</dim>
				</port>
			</input>
			<output>
				<port id="1" precision="FP32" names="efficientnet-b0/blocks_1/IdentityN:0,efficientnet-b0/blocks_1/mul:0">
					<dim>1</dim>
					<dim>96</dim>
					<dim>256</dim>
					<dim>256</dim>
				</port>
			</output>
		</layer>
		<layer id="39" name="efficientnet-b0/blocks_1/depthwise_conv2d/depthwise_weights" type="Const" version="opset1">
			<data element_type="f32" shape="96, 1, 1, 3, 3" offset="15784" size="3456" />
			<output>
				<port id="0" precision="FP32" names="efficientnet-b0/blocks_1/depthwise_conv2d/depthwise_weights:0">
					<dim>96</dim>
					<dim>1</dim>
					<dim>1</dim>
					<dim>3</dim>
					<dim>3</dim>
				</port>
			</output>
		</layer>
		<layer id="40" name="efficientnet-b0/blocks_1/depthwise_conv2d/depthwise" type="GroupConvolution" version="opset1">
			<data strides="2, 2" pads_begin="0, 0" pads_end="0, 0" dilations="1, 1" auto_pad="same_upper" />
			<input>
				<port id="0" precision="FP32">
					<dim>1</dim>
					<dim>96</dim>
					<dim>256</dim>
					<dim>256</dim>
				</port>
				<port id="1" precision="FP32">
					<dim>96</dim>
					<dim>1</dim>
					<dim>1</dim>
					<dim>3</dim>
					<dim>3</dim>
				</port>
			</input>
			<output>
				<port id="2" precision="FP32" names="efficientnet-b0/blocks_1/depthwise_conv2d/depthwise:0">
					<dim>1</dim>
					<dim>96</dim>
					<dim>128</dim>
					<dim>128</dim>
				</port>
			</output>
		</layer>
		<layer id="41" name="efficientnet-b0/blocks_1/depthwise_conv2d/depthwise_bn_offset" type="Const" version="opset1">
			<data element_type="f32" shape="1, 96, 1, 1" offset="19240" size="384" />
			<output>
				<port id="0" precision="FP32" names="efficientnet-b0/blocks_1/depthwise_conv2d/depthwise_bn_offset:0">
					<dim>1</dim>
					<dim>96</dim>
					<dim>1</dim>
					<dim>1</dim>
				</port>
			</output>
		</layer>
		<layer id="42" name="efficientnet-b0/blocks_1/tpu_batch_normalization_1/FusedBatchNormV3/Add" type="Add" version="opset1">
			<data auto_broadcast="numpy" />
			<input>
				<port id="0" precision="FP32">
					<dim>1</dim>
					<dim>96</dim>
					<dim>128</dim>
					<dim>128</dim>
				</port>
				<port id="1" precision="FP32">
					<dim>1</dim>
					<dim>96</dim>
					<dim>1</dim>
					<dim>1</dim>
				</port>
			</input>
			<output>
				<port id="2" precision="FP32" names="efficientnet-b0/blocks_1/tpu_batch_normalization_1/FusedBatchNormV3:0">
					<dim>1</dim>
					<dim>96</dim>
					<dim>128</dim>
					<dim>128</dim>
				</port>
			</output>
		</layer>
		<layer id="43" name="efficientnet-b0/blocks_1/mul_1" type="Swish" version="opset4">
			<input>
				<port id="0" precision="FP32">
					<dim>1</dim>
					<dim>96</dim>
					<dim>128</dim>
					<dim>128</dim>
				</port>
			</input>
			<output>
				<port id="1" precision="FP32" names="efficientnet-b0/blocks_1/IdentityN_1:0,efficientnet-b0/blocks_1/mul_1:0">
					<dim>1</dim>
					<dim>96</dim>
					<dim>128</dim>
					<dim>128</dim>
				</port>
			</output>
		</layer>
		<layer id="44" name="2914347865" type="Const" version="opset1">
			<data element_type="i64" shape="2" offset="4920" size="16" />
			<output>
				<port id="0" precision="I64">
					<dim>2</dim>
				</port>
			</output>
		</layer>
		<layer id="45" name="efficientnet-b0/blocks_1/se/Mean" type="ReduceMean" version="opset1">
			<data keep_dims="true" />
			<input>
				<port id="0" precision="FP32">
					<dim>1</dim>
					<dim>96</dim>
					<dim>128</dim>
					<dim>128</dim>
				</port>
				<port id="1" precision="I64">
					<dim>2</dim>
				</port>
			</input>
			<output>
				<port id="2" precision="FP32" names="efficientnet-b0/blocks_1/se/Mean:0">
					<dim>1</dim>
					<dim>96</dim>
					<dim>1</dim>
					<dim>1</dim>
				</port>
			</output>
		</layer>
		<layer id="46" name="efficientnet-b0/blocks_1/se/conv2d/kernel" type="Const" version="opset1">
			<data element_type="f32" shape="4, 96, 1, 1" offset="19624" size="1536" />
			<output>
				<port id="0" precision="FP32" names="efficientnet-b0/blocks_1/se/conv2d/kernel:0">
					<dim>4</dim>
					<dim>96</dim>
					<dim>1</dim>
					<dim>1</dim>
				</port>
			</output>
		</layer>
		<layer id="47" name="efficientnet-b0/blocks_1/se/conv2d/Conv2D" type="Convolution" version="opset1">
			<data strides="1, 1" dilations="1, 1" pads_begin="0, 0" pads_end="0, 0" auto_pad="same_upper" />
			<input>
				<port id="0" precision="FP32">
					<dim>1</dim>
					<dim>96</dim>
					<dim>1</dim>
					<dim>1</dim>
				</port>
				<port id="1" precision="FP32">
					<dim>4</dim>
					<dim>96</dim>
					<dim>1</dim>
					<dim>1</dim>
				</port>
			</input>
			<output>
				<port id="2" precision="FP32" names="efficientnet-b0/blocks_1/se/conv2d/Conv2D:0">
					<dim>1</dim>
					<dim>4</dim>
					<dim>1</dim>
					<dim>1</dim>
				</port>
			</output>
		</layer>
		<layer id="48" name="efficientnet-b0/blocks_1/se/conv2d/bias" type="Const" version="opset1">
			<data element_type="f32" shape="1, 4, 1, 1" offset="21160" size="16" />
			<output>
				<port id="0" precision="FP32" names="efficientnet-b0/blocks_1/se/conv2d/bias:0">
					<dim>1</dim>
					<dim>4</dim>
					<dim>1</dim>
					<dim>1</dim>
				</port>
			</output>
		</layer>
		<layer id="49" name="efficientnet-b0/blocks_1/se/conv2d/BiasAdd/Add" type="Add" version="opset1">
			<data auto_broadcast="numpy" />
			<input>
				<port id="0" precision="FP32">
					<dim>1</dim>
					<dim>4</dim>
					<dim>1</dim>
					<dim>1</dim>
				</port>
				<port id="1" precision="FP32">
					<dim>1</dim>
					<dim>4</dim>
					<dim>1</dim>
					<dim>1</dim>
				</port>
			</input>
			<output>
				<port id="2" precision="FP32" names="efficientnet-b0/blocks_1/se/conv2d/BiasAdd:0">
					<dim>1</dim>
					<dim>4</dim>
					<dim>1</dim>
					<dim>1</dim>
				</port>
			</output>
		</layer>
		<layer id="50" name="efficientnet-b0/blocks_1/se/mul" type="Swish" version="opset4">
			<input>
				<port id="0" precision="FP32">
					<dim>1</dim>
					<dim>4</dim>
					<dim>1</dim>
					<dim>1</dim>
				</port>
			</input>
			<output>
				<port id="1" precision="FP32" names="efficientnet-b0/blocks_1/se/IdentityN:0,efficientnet-b0/blocks_1/se/mul:0">
					<dim>1</dim>
					<dim>4</dim>
					<dim>1</dim>
					<dim>1</dim>
				</port>
			</output>
		</layer>
		<layer id="51" name="efficientnet-b0/blocks_1/se/conv2d_1/kernel" type="Const" version="opset1">
			<data element_type="f32" shape="96, 4, 1, 1" offset="21176" size="1536" />
			<output>
				<port id="0" precision="FP32" names="efficientnet-b0/blocks_1/se/conv2d_1/kernel:0">
					<dim>96</dim>
					<dim>4</dim>
					<dim>1</dim>
					<dim>1</dim>
				</port>
			</output>
		</layer>
		<layer id="52" name="efficientnet-b0/blocks_1/se/conv2d_1/Conv2D" type="Convolution" version="opset1">
			<data strides="1, 1" dilations="1, 1" pads_begin="0, 0" pads_end="0, 0" auto_pad="same_upper" />
			<input>
				<port id="0" precision="FP32">
					<dim>1</dim>
					<dim>4</dim>
					<dim>1</dim>
					<dim>1</dim>
				</port>
				<port id="1" precision="FP32">
					<dim>96</dim>
					<dim>4</dim>
					<dim>1</dim>
					<dim>1</dim>
				</port>
			</input>
			<output>
				<port id="2" precision="FP32" names="efficientnet-b0/blocks_1/se/conv2d_1/Conv2D:0">
					<dim>1</dim>
					<dim>96</dim>
					<dim>1</dim>
					<dim>1</dim>
				</port>
			</output>
		</layer>
		<layer id="53" name="efficientnet-b0/blocks_1/se/conv2d_1/bias" type="Const" version="opset1">
			<data element_type="f32" shape="1, 96, 1, 1" offset="22712" size="384" />
			<output>
				<port id="0" precision="FP32" names="efficientnet-b0/blocks_1/se/conv2d_1/bias:0">
					<dim>1</dim>
					<dim>96</dim>
					<dim>1</dim>
					<dim>1</dim>
				</port>
			</output>
		</layer>
		<layer id="54" name="efficientnet-b0/blocks_1/se/conv2d_1/BiasAdd/Add" type="Add" version="opset1">
			<data auto_broadcast="numpy" />
			<input>
				<port id="0" precision="FP32">
					<dim>1</dim>
					<dim>96</dim>
					<dim>1</dim>
					<dim>1</dim>
				</port>
				<port id="1" precision="FP32">
					<dim>1</dim>
					<dim>96</dim>
					<dim>1</dim>
					<dim>1</dim>
				</port>
			</input>
			<output>
				<port id="2" precision="FP32" names="efficientnet-b0/blocks_1/se/conv2d_1/BiasAdd:0">
					<dim>1</dim>
					<dim>96</dim>
					<dim>1</dim>
					<dim>1</dim>
				</port>
			</output>
		</layer>
		<layer id="55" name="efficientnet-b0/blocks_1/se/Sigmoid_1" type="Sigmoid" version="opset1">
			<input>
				<port id="0" precision="FP32">
					<dim>1</dim>
					<dim>96</dim>
					<dim>1</dim>
					<dim>1</dim>
				</port>
			</input>
			<output>
				<port id="1" precision="FP32" names="efficientnet-b0/blocks_1/se/Sigmoid_1:0">
					<dim>1</dim>
					<dim>96</dim>
					<dim>1</dim>
					<dim>1</dim>
				</port>
			</output>
		</layer>
		<layer id="56" name="efficientnet-b0/blocks_1/se/mul_1" type="Multiply" version="opset1">
			<data auto_broadcast="numpy" />
			<input>
				<port id="0" precision="FP32">
					<dim>1</dim>
					<dim>96</dim>
					<dim>1</dim>
					<dim>1</dim>
				</port>
				<port id="1" precision="FP32">
					<dim>1</dim>
					<dim>96</dim>
					<dim>128</dim>
					<dim>128</dim>
				</port>
			</input>
			<output>
				<port id="2" precision="FP32" names="efficientnet-b0/blocks_1/se/mul_1:0">
					<dim>1</dim>
					<dim>96</dim>
					<dim>128</dim>
					<dim>128</dim>
				</port>
			</output>
		</layer>
		<layer id="57" name="efficientnet-b0/blocks_1/conv2d_1/Conv2D_weights" type="Const" version="opset1">
			<data element_type="f32" shape="24, 96, 1, 1" offset="23096" size="9216" />
			<output>
				<port id="0" precision="FP32" names="efficientnet-b0/blocks_1/conv2d_1/Conv2D_weights:0">
					<dim>24</dim>
					<dim>96</dim>
					<dim>1</dim>
					<dim>1</dim>
				</port>
			</output>
		</layer>
		<layer id="58" name="efficientnet-b0/blocks_1/conv2d_1/Conv2D" type="Convolution" version="opset1">
			<data strides="1, 1" dilations="1, 1" pads_begin="0, 0" pads_end="0, 0" auto_pad="same_upper" />
			<input>
				<port id="0" precision="FP32">
					<dim>1</dim>
					<dim>96</dim>
					<dim>128</dim>
					<dim>128</dim>
				</port>
				<port id="1" precision="FP32">
					<dim>24</dim>
					<dim>96</dim>
					<dim>1</dim>
					<dim>1</dim>
				</port>
			</input>
			<output>
				<port id="2" precision="FP32" names="efficientnet-b0/blocks_1/conv2d_1/Conv2D:0">
					<dim>1</dim>
					<dim>24</dim>
					<dim>128</dim>
					<dim>128</dim>
				</port>
			</output>
		</layer>
		<layer id="59" name="efficientnet-b0/blocks_1/conv2d_1/Conv2D_bn_offset" type="Const" version="opset1">
			<data element_type="f32" shape="1, 24, 1, 1" offset="32312" size="96" />
			<output>
				<port id="0" precision="FP32" names="efficientnet-b0/blocks_1/conv2d_1/Conv2D_bn_offset:0">
					<dim>1</dim>
					<dim>24</dim>
					<dim>1</dim>
					<dim>1</dim>
				</port>
			</output>
		</layer>
		<layer id="60" name="efficientnet-b0/blocks_1/tpu_batch_normalization_2/FusedBatchNormV3/Add" type="Add" version="opset1">
			<data auto_broadcast="numpy" />
			<input>
				<port id="0" precision="FP32">
					<dim>1</dim>
					<dim>24</dim>
					<dim>128</dim>
					<dim>128</dim>
				</port>
				<port id="1" precision="FP32">
					<dim>1</dim>
					<dim>24</dim>
					<dim>1</dim>
					<dim>1</dim>
				</port>
			</input>
			<output>
				<port id="2" precision="FP32" names="efficientnet-b0/blocks_1/tpu_batch_normalization_2/FusedBatchNormV3:0">
					<dim>1</dim>
					<dim>24</dim>
					<dim>128</dim>
					<dim>128</dim>
				</port>
			</output>
		</layer>
		<layer id="61" name="efficientnet-b0/blocks_2/conv2d/Conv2D_weights" type="Const" version="opset1">
			<data element_type="f32" shape="144, 24, 1, 1" offset="32408" size="13824" />
			<output>
				<port id="0" precision="FP32" names="efficientnet-b0/blocks_2/conv2d/Conv2D_weights:0">
					<dim>144</dim>
					<dim>24</dim>
					<dim>1</dim>
					<dim>1</dim>
				</port>
			</output>
		</layer>
		<layer id="62" name="efficientnet-b0/blocks_2/conv2d/Conv2D" type="Convolution" version="opset1">
			<data strides="1, 1" dilations="1, 1" pads_begin="0, 0" pads_end="0, 0" auto_pad="same_upper" />
			<input>
				<port id="0" precision="FP32">
					<dim>1</dim>
					<dim>24</dim>
					<dim>128</dim>
					<dim>128</dim>
				</port>
				<port id="1" precision="FP32">
					<dim>144</dim>
					<dim>24</dim>
					<dim>1</dim>
					<dim>1</dim>
				</port>
			</input>
			<output>
				<port id="2" precision="FP32" names="efficientnet-b0/blocks_2/conv2d/Conv2D:0">
					<dim>1</dim>
					<dim>144</dim>
					<dim>128</dim>
					<dim>128</dim>
				</port>
			</output>
		</layer>
		<layer id="63" name="efficientnet-b0/blocks_2/conv2d/Conv2D_bn_offset" type="Const" version="opset1">
			<data element_type="f32" shape="1, 144, 1, 1" offset="46232" size="576" />
			<output>
				<port id="0" precision="FP32" names="efficientnet-b0/blocks_2/conv2d/Conv2D_bn_offset:0">
					<dim>1</dim>
					<dim>144</dim>
					<dim>1</dim>
					<dim>1</dim>
				</port>
			</output>
		</layer>
		<layer id="64" name="efficientnet-b0/blocks_2/tpu_batch_normalization/FusedBatchNormV3/Add" type="Add" version="opset1">
			<data auto_broadcast="numpy" />
			<input>
				<port id="0" precision="FP32">
					<dim>1</dim>
					<dim>144</dim>
					<dim>128</dim>
					<dim>128</dim>
				</port>
				<port id="1" precision="FP32">
					<dim>1</dim>
					<dim>144</dim>
					<dim>1</dim>
					<dim>1</dim>
				</port>
			</input>
			<output>
				<port id="2" precision="FP32" names="efficientnet-b0/blocks_2/tpu_batch_normalization/FusedBatchNormV3:0">
					<dim>1</dim>
					<dim>144</dim>
					<dim>128</dim>
					<dim>128</dim>
				</port>
			</output>
		</layer>
		<layer id="65" name="efficientnet-b0/blocks_2/mul" type="Swish" version="opset4">
			<input>
				<port id="0" precision="FP32">
					<dim>1</dim>
					<dim>144</dim>
					<dim>128</dim>
					<dim>128</dim>
				</port>
			</input>
			<output>
				<port id="1" precision="FP32" names="efficientnet-b0/blocks_2/IdentityN:0,efficientnet-b0/blocks_2/mul:0">
					<dim>1</dim>
					<dim>144</dim>
					<dim>128</dim>
					<dim>128</dim>
				</port>
			</output>
		</layer>
		<layer id="66" name="efficientnet-b0/blocks_2/depthwise_conv2d/depthwise_weights" type="Const" version="opset1">
			<data element_type="f32" shape="144, 1, 1, 3, 3" offset="46808" size="5184" />
			<output>
				<port id="0" precision="FP32" names="efficientnet-b0/blocks_2/depthwise_conv2d/depthwise_weights:0">
					<dim>144</dim>
					<dim>1</dim>
					<dim>1</dim>
					<dim>3</dim>
					<dim>3</dim>
				</port>
			</output>
		</layer>
		<layer id="67" name="efficientnet-b0/blocks_2/depthwise_conv2d/depthwise" type="GroupConvolution" version="opset1">
			<data strides="1, 1" pads_begin="0, 0" pads_end="0, 0" dilations="1, 1" auto_pad="same_upper" />
			<input>
				<port id="0" precision="FP32">
					<dim>1</dim>
					<dim>144</dim>
					<dim>128</dim>
					<dim>128</dim>
				</port>
				<port id="1" precision="FP32">
					<dim>144</dim>
					<dim>1</dim>
					<dim>1</dim>
					<dim>3</dim>
					<dim>3</dim>
				</port>
			</input>
			<output>
				<port id="2" precision="FP32" names="efficientnet-b0/blocks_2/depthwise_conv2d/depthwise:0">
					<dim>1</dim>
					<dim>144</dim>
					<dim>128</dim>
					<dim>128</dim>
				</port>
			</output>
		</layer>
		<layer id="68" name="efficientnet-b0/blocks_2/depthwise_conv2d/depthwise_bn_offset" type="Const" version="opset1">
			<data element_type="f32" shape="1, 144, 1, 1" offset="51992" size="576" />
			<output>
				<port id="0" precision="FP32" names="efficientnet-b0/blocks_2/depthwise_conv2d/depthwise_bn_offset:0">
					<dim>1</dim>
					<dim>144</dim>
					<dim>1</dim>
					<dim>1</dim>
				</port>
			</output>
		</layer>
		<layer id="69" name="efficientnet-b0/blocks_2/tpu_batch_normalization_1/FusedBatchNormV3/Add" type="Add" version="opset1">
			<data auto_broadcast="numpy" />
			<input>
				<port id="0" precision="FP32">
					<dim>1</dim>
					<dim>144</dim>
					<dim>128</dim>
					<dim>128</dim>
				</port>
				<port id="1" precision="FP32">
					<dim>1</dim>
					<dim>144</dim>
					<dim>1</dim>
					<dim>1</dim>
				</port>
			</input>
			<output>
				<port id="2" precision="FP32" names="efficientnet-b0/blocks_2/tpu_batch_normalization_1/FusedBatchNormV3:0">
					<dim>1</dim>
					<dim>144</dim>
					<dim>128</dim>
					<dim>128</dim>
				</port>
			</output>
		</layer>
		<layer id="70" name="efficientnet-b0/blocks_2/mul_1" type="Swish" version="opset4">
			<input>
				<port id="0" precision="FP32">
					<dim>1</dim>
					<dim>144</dim>
					<dim>128</dim>
					<dim>128</dim>
				</port>
			</input>
			<output>
				<port id="1" precision="FP32" names="efficientnet-b0/blocks_2/IdentityN_1:0,efficientnet-b0/blocks_2/mul_1:0">
					<dim>1</dim>
					<dim>144</dim>
					<dim>128</dim>
					<dim>128</dim>
				</port>
			</output>
		</layer>
		<layer id="71" name="2916946791" type="Const" version="opset1">
			<data element_type="i64" shape="2" offset="4920" size="16" />
			<output>
				<port id="0" precision="I64">
					<dim>2</dim>
				</port>
			</output>
		</layer>
		<layer id="72" name="efficientnet-b0/blocks_2/se/Mean" type="ReduceMean" version="opset1">
			<data keep_dims="true" />
			<input>
				<port id="0" precision="FP32">
					<dim>1</dim>
					<dim>144</dim>
					<dim>128</dim>
					<dim>128</dim>
				</port>
				<port id="1" precision="I64">
					<dim>2</dim>
				</port>
			</input>
			<output>
				<port id="2" precision="FP32" names="efficientnet-b0/blocks_2/se/Mean:0">
					<dim>1</dim>
					<dim>144</dim>
					<dim>1</dim>
					<dim>1</dim>
				</port>
			</output>
		</layer>
		<layer id="73" name="efficientnet-b0/blocks_2/se/conv2d/kernel" type="Const" version="opset1">
			<data element_type="f32" shape="6, 144, 1, 1" offset="52568" size="3456" />
			<output>
				<port id="0" precision="FP32" names="efficientnet-b0/blocks_2/se/conv2d/kernel:0">
					<dim>6</dim>
					<dim>144</dim>
					<dim>1</dim>
					<dim>1</dim>
				</port>
			</output>
		</layer>
		<layer id="74" name="efficientnet-b0/blocks_2/se/conv2d/Conv2D" type="Convolution" version="opset1">
			<data strides="1, 1" dilations="1, 1" pads_begin="0, 0" pads_end="0, 0" auto_pad="same_upper" />
			<input>
				<port id="0" precision="FP32">
					<dim>1</dim>
					<dim>144</dim>
					<dim>1</dim>
					<dim>1</dim>
				</port>
				<port id="1" precision="FP32">
					<dim>6</dim>
					<dim>144</dim>
					<dim>1</dim>
					<dim>1</dim>
				</port>
			</input>
			<output>
				<port id="2" precision="FP32" names="efficientnet-b0/blocks_2/se/conv2d/Conv2D:0">
					<dim>1</dim>
					<dim>6</dim>
					<dim>1</dim>
					<dim>1</dim>
				</port>
			</output>
		</layer>
		<layer id="75" name="efficientnet-b0/blocks_2/se/conv2d/bias" type="Const" version="opset1">
			<data element_type="f32" shape="1, 6, 1, 1" offset="56024" size="24" />
			<output>
				<port id="0" precision="FP32" names="efficientnet-b0/blocks_2/se/conv2d/bias:0">
					<dim>1</dim>
					<dim>6</dim>
					<dim>1</dim>
					<dim>1</dim>
				</port>
			</output>
		</layer>
		<layer id="76" name="efficientnet-b0/blocks_2/se/conv2d/BiasAdd/Add" type="Add" version="opset1">
			<data auto_broadcast="numpy" />
			<input>
				<port id="0" precision="FP32">
					<dim>1</dim>
					<dim>6</dim>
					<dim>1</dim>
					<dim>1</dim>
				</port>
				<port id="1" precision="FP32">
					<dim>1</dim>
					<dim>6</dim>
					<dim>1</dim>
					<dim>1</dim>
				</port>
			</input>
			<output>
				<port id="2" precision="FP32" names="efficientnet-b0/blocks_2/se/conv2d/BiasAdd:0">
					<dim>1</dim>
					<dim>6</dim>
					<dim>1</dim>
					<dim>1</dim>
				</port>
			</output>
		</layer>
		<layer id="77" name="efficientnet-b0/blocks_2/se/mul" type="Swish" version="opset4">
			<input>
				<port id="0" precision="FP32">
					<dim>1</dim>
					<dim>6</dim>
					<dim>1</dim>
					<dim>1</dim>
				</port>
			</input>
			<output>
				<port id="1" precision="FP32" names="efficientnet-b0/blocks_2/se/IdentityN:0,efficientnet-b0/blocks_2/se/mul:0">
					<dim>1</dim>
					<dim>6</dim>
					<dim>1</dim>
					<dim>1</dim>
				</port>
			</output>
		</layer>
		<layer id="78" name="efficientnet-b0/blocks_2/se/conv2d_1/kernel" type="Const" version="opset1">
			<data element_type="f32" shape="144, 6, 1, 1" offset="56048" size="3456" />
			<output>
				<port id="0" precision="FP32" names="efficientnet-b0/blocks_2/se/conv2d_1/kernel:0">
					<dim>144</dim>
					<dim>6</dim>
					<dim>1</dim>
					<dim>1</dim>
				</port>
			</output>
		</layer>
		<layer id="79" name="efficientnet-b0/blocks_2/se/conv2d_1/Conv2D" type="Convolution" version="opset1">
			<data strides="1, 1" dilations="1, 1" pads_begin="0, 0" pads_end="0, 0" auto_pad="same_upper" />
			<input>
				<port id="0" precision="FP32">
					<dim>1</dim>
					<dim>6</dim>
					<dim>1</dim>
					<dim>1</dim>
				</port>
				<port id="1" precision="FP32">
					<dim>144</dim>
					<dim>6</dim>
					<dim>1</dim>
					<dim>1</dim>
				</port>
			</input>
			<output>
				<port id="2" precision="FP32" names="efficientnet-b0/blocks_2/se/conv2d_1/Conv2D:0">
					<dim>1</dim>
					<dim>144</dim>
					<dim>1</dim>
					<dim>1</dim>
				</port>
			</output>
		</layer>
		<layer id="80" name="efficientnet-b0/blocks_2/se/conv2d_1/bias" type="Const" version="opset1">
			<data element_type="f32" shape="1, 144, 1, 1" offset="59504" size="576" />
			<output>
				<port id="0" precision="FP32" names="efficientnet-b0/blocks_2/se/conv2d_1/bias:0">
					<dim>1</dim>
					<dim>144</dim>
					<dim>1</dim>
					<dim>1</dim>
				</port>
			</output>
		</layer>
		<layer id="81" name="efficientnet-b0/blocks_2/se/conv2d_1/BiasAdd/Add" type="Add" version="opset1">
			<data auto_broadcast="numpy" />
			<input>
				<port id="0" precision="FP32">
					<dim>1</dim>
					<dim>144</dim>
					<dim>1</dim>
					<dim>1</dim>
				</port>
				<port id="1" precision="FP32">
					<dim>1</dim>
					<dim>144</dim>
					<dim>1</dim>
					<dim>1</dim>
				</port>
			</input>
			<output>
				<port id="2" precision="FP32" names="efficientnet-b0/blocks_2/se/conv2d_1/BiasAdd:0">
					<dim>1</dim>
					<dim>144</dim>
					<dim>1</dim>
					<dim>1</dim>
				</port>
			</output>
		</layer>
		<layer id="82" name="efficientnet-b0/blocks_2/se/Sigmoid_1" type="Sigmoid" version="opset1">
			<input>
				<port id="0" precision="FP32">
					<dim>1</dim>
					<dim>144</dim>
					<dim>1</dim>
					<dim>1</dim>
				</port>
			</input>
			<output>
				<port id="1" precision="FP32" names="efficientnet-b0/blocks_2/se/Sigmoid_1:0">
					<dim>1</dim>
					<dim>144</dim>
					<dim>1</dim>
					<dim>1</dim>
				</port>
			</output>
		</layer>
		<layer id="83" name="efficientnet-b0/blocks_2/se/mul_1" type="Multiply" version="opset1">
			<data auto_broadcast="numpy" />
			<input>
				<port id="0" precision="FP32">
					<dim>1</dim>
					<dim>144</dim>
					<dim>1</dim>
					<dim>1</dim>
				</port>
				<port id="1" precision="FP32">
					<dim>1</dim>
					<dim>144</dim>
					<dim>128</dim>
					<dim>128</dim>
				</port>
			</input>
			<output>
				<port id="2" precision="FP32" names="efficientnet-b0/blocks_2/se/mul_1:0">
					<dim>1</dim>
					<dim>144</dim>
					<dim>128</dim>
					<dim>128</dim>
				</port>
			</output>
		</layer>
		<layer id="84" name="efficientnet-b0/blocks_2/conv2d_1/Conv2D_weights" type="Const" version="opset1">
			<data element_type="f32" shape="24, 144, 1, 1" offset="60080" size="13824" />
			<output>
				<port id="0" precision="FP32" names="efficientnet-b0/blocks_2/conv2d_1/Conv2D_weights:0">
					<dim>24</dim>
					<dim>144</dim>
					<dim>1</dim>
					<dim>1</dim>
				</port>
			</output>
		</layer>
		<layer id="85" name="efficientnet-b0/blocks_2/conv2d_1/Conv2D" type="Convolution" version="opset1">
			<data strides="1, 1" dilations="1, 1" pads_begin="0, 0" pads_end="0, 0" auto_pad="same_upper" />
			<input>
				<port id="0" precision="FP32">
					<dim>1</dim>
					<dim>144</dim>
					<dim>128</dim>
					<dim>128</dim>
				</port>
				<port id="1" precision="FP32">
					<dim>24</dim>
					<dim>144</dim>
					<dim>1</dim>
					<dim>1</dim>
				</port>
			</input>
			<output>
				<port id="2" precision="FP32" names="efficientnet-b0/blocks_2/conv2d_1/Conv2D:0">
					<dim>1</dim>
					<dim>24</dim>
					<dim>128</dim>
					<dim>128</dim>
				</port>
			</output>
		</layer>
		<layer id="86" name="efficientnet-b0/blocks_2/conv2d_1/Conv2D_bn_offset" type="Const" version="opset1">
			<data element_type="f32" shape="1, 24, 1, 1" offset="73904" size="96" />
			<output>
				<port id="0" precision="FP32" names="efficientnet-b0/blocks_2/conv2d_1/Conv2D_bn_offset:0">
					<dim>1</dim>
					<dim>24</dim>
					<dim>1</dim>
					<dim>1</dim>
				</port>
			</output>
		</layer>
		<layer id="87" name="efficientnet-b0/blocks_2/tpu_batch_normalization_2/FusedBatchNormV3/Add" type="Add" version="opset1">
			<data auto_broadcast="numpy" />
			<input>
				<port id="0" precision="FP32">
					<dim>1</dim>
					<dim>24</dim>
					<dim>128</dim>
					<dim>128</dim>
				</port>
				<port id="1" precision="FP32">
					<dim>1</dim>
					<dim>24</dim>
					<dim>1</dim>
					<dim>1</dim>
				</port>
			</input>
			<output>
				<port id="2" precision="FP32" names="efficientnet-b0/blocks_2/tpu_batch_normalization_2/FusedBatchNormV3:0">
					<dim>1</dim>
					<dim>24</dim>
					<dim>128</dim>
					<dim>128</dim>
				</port>
			</output>
		</layer>
		<layer id="88" name="efficientnet-b0/blocks_2/Add" type="Add" version="opset1">
			<data auto_broadcast="numpy" />
			<input>
				<port id="0" precision="FP32">
					<dim>1</dim>
					<dim>24</dim>
					<dim>128</dim>
					<dim>128</dim>
				</port>
				<port id="1" precision="FP32">
					<dim>1</dim>
					<dim>24</dim>
					<dim>128</dim>
					<dim>128</dim>
				</port>
			</input>
			<output>
				<port id="2" precision="FP32" names="efficientnet-b0/blocks_2/Add:0">
					<dim>1</dim>
					<dim>24</dim>
					<dim>128</dim>
					<dim>128</dim>
				</port>
			</output>
		</layer>
		<layer id="89" name="efficientnet-b0/blocks_3/conv2d/Conv2D_weights" type="Const" version="opset1">
			<data element_type="f32" shape="144, 24, 1, 1" offset="74000" size="13824" />
			<output>
				<port id="0" precision="FP32" names="efficientnet-b0/blocks_3/conv2d/Conv2D_weights:0">
					<dim>144</dim>
					<dim>24</dim>
					<dim>1</dim>
					<dim>1</dim>
				</port>
			</output>
		</layer>
		<layer id="90" name="efficientnet-b0/blocks_3/conv2d/Conv2D" type="Convolution" version="opset1">
			<data strides="1, 1" dilations="1, 1" pads_begin="0, 0" pads_end="0, 0" auto_pad="same_upper" />
			<input>
				<port id="0" precision="FP32">
					<dim>1</dim>
					<dim>24</dim>
					<dim>128</dim>
					<dim>128</dim>
				</port>
				<port id="1" precision="FP32">
					<dim>144</dim>
					<dim>24</dim>
					<dim>1</dim>
					<dim>1</dim>
				</port>
			</input>
			<output>
				<port id="2" precision="FP32" names="efficientnet-b0/blocks_3/conv2d/Conv2D:0">
					<dim>1</dim>
					<dim>144</dim>
					<dim>128</dim>
					<dim>128</dim>
				</port>
			</output>
		</layer>
		<layer id="91" name="efficientnet-b0/blocks_3/conv2d/Conv2D_bn_offset" type="Const" version="opset1">
			<data element_type="f32" shape="1, 144, 1, 1" offset="87824" size="576" />
			<output>
				<port id="0" precision="FP32" names="efficientnet-b0/blocks_3/conv2d/Conv2D_bn_offset:0">
					<dim>1</dim>
					<dim>144</dim>
					<dim>1</dim>
					<dim>1</dim>
				</port>
			</output>
		</layer>
		<layer id="92" name="efficientnet-b0/blocks_3/tpu_batch_normalization/FusedBatchNormV3/Add" type="Add" version="opset1">
			<data auto_broadcast="numpy" />
			<input>
				<port id="0" precision="FP32">
					<dim>1</dim>
					<dim>144</dim>
					<dim>128</dim>
					<dim>128</dim>
				</port>
				<port id="1" precision="FP32">
					<dim>1</dim>
					<dim>144</dim>
					<dim>1</dim>
					<dim>1</dim>
				</port>
			</input>
			<output>
				<port id="2" precision="FP32" names="efficientnet-b0/blocks_3/tpu_batch_normalization/FusedBatchNormV3:0">
					<dim>1</dim>
					<dim>144</dim>
					<dim>128</dim>
					<dim>128</dim>
				</port>
			</output>
		</layer>
		<layer id="93" name="efficientnet-b0/blocks_3/mul" type="Swish" version="opset4">
			<input>
				<port id="0" precision="FP32">
					<dim>1</dim>
					<dim>144</dim>
					<dim>128</dim>
					<dim>128</dim>
				</port>
			</input>
			<output>
				<port id="1" precision="FP32" names="efficientnet-b0/blocks_3/IdentityN:0,efficientnet-b0/blocks_3/mul:0">
					<dim>1</dim>
					<dim>144</dim>
					<dim>128</dim>
					<dim>128</dim>
				</port>
			</output>
		</layer>
		<layer id="94" name="efficientnet-b0/blocks_3/depthwise_conv2d/depthwise_weights" type="Const" version="opset1">
			<data element_type="f32" shape="144, 1, 1, 5, 5" offset="88400" size="14400" />
			<output>
				<port id="0" precision="FP32" names="efficientnet-b0/blocks_3/depthwise_conv2d/depthwise_weights:0">
					<dim>144</dim>
					<dim>1</dim>
					<dim>1</dim>
					<dim>5</dim>
					<dim>5</dim>
				</port>
			</output>
		</layer>
		<layer id="95" name="efficientnet-b0/blocks_3/depthwise_conv2d/depthwise" type="GroupConvolution" version="opset1">
			<data strides="2, 2" pads_begin="0, 0" pads_end="0, 0" dilations="1, 1" auto_pad="same_upper" />
			<input>
				<port id="0" precision="FP32">
					<dim>1</dim>
					<dim>144</dim>
					<dim>128</dim>
					<dim>128</dim>
				</port>
				<port id="1" precision="FP32">
					<dim>144</dim>
					<dim>1</dim>
					<dim>1</dim>
					<dim>5</dim>
					<dim>5</dim>
				</port>
			</input>
			<output>
				<port id="2" precision="FP32" names="efficientnet-b0/blocks_3/depthwise_conv2d/depthwise:0">
					<dim>1</dim>
					<dim>144</dim>
					<dim>64</dim>
					<dim>64</dim>
				</port>
			</output>
		</layer>
		<layer id="96" name="efficientnet-b0/blocks_3/depthwise_conv2d/depthwise_bn_offset" type="Const" version="opset1">
			<data element_type="f32" shape="1, 144, 1, 1" offset="102800" size="576" />
			<output>
				<port id="0" precision="FP32" names="efficientnet-b0/blocks_3/depthwise_conv2d/depthwise_bn_offset:0">
					<dim>1</dim>
					<dim>144</dim>
					<dim>1</dim>
					<dim>1</dim>
				</port>
			</output>
		</layer>
		<layer id="97" name="efficientnet-b0/blocks_3/tpu_batch_normalization_1/FusedBatchNormV3/Add" type="Add" version="opset1">
			<data auto_broadcast="numpy" />
			<input>
				<port id="0" precision="FP32">
					<dim>1</dim>
					<dim>144</dim>
					<dim>64</dim>
					<dim>64</dim>
				</port>
				<port id="1" precision="FP32">
					<dim>1</dim>
					<dim>144</dim>
					<dim>1</dim>
					<dim>1</dim>
				</port>
			</input>
			<output>
				<port id="2" precision="FP32" names="efficientnet-b0/blocks_3/tpu_batch_normalization_1/FusedBatchNormV3:0">
					<dim>1</dim>
					<dim>144</dim>
					<dim>64</dim>
					<dim>64</dim>
				</port>
			</output>
		</layer>
		<layer id="98" name="efficientnet-b0/blocks_3/mul_1" type="Swish" version="opset4">
			<input>
				<port id="0" precision="FP32">
					<dim>1</dim>
					<dim>144</dim>
					<dim>64</dim>
					<dim>64</dim>
				</port>
			</input>
			<output>
				<port id="1" precision="FP32" names="efficientnet-b0/blocks_3/IdentityN_1:0,efficientnet-b0/blocks_3/mul_1:0">
					<dim>1</dim>
					<dim>144</dim>
					<dim>64</dim>
					<dim>64</dim>
				</port>
			</output>
		</layer>
		<layer id="99" name="2919547496" type="Const" version="opset1">
			<data element_type="i64" shape="2" offset="4920" size="16" />
			<output>
				<port id="0" precision="I64">
					<dim>2</dim>
				</port>
			</output>
		</layer>
		<layer id="100" name="efficientnet-b0/blocks_3/se/Mean" type="ReduceMean" version="opset1">
			<data keep_dims="true" />
			<input>
				<port id="0" precision="FP32">
					<dim>1</dim>
					<dim>144</dim>
					<dim>64</dim>
					<dim>64</dim>
				</port>
				<port id="1" precision="I64">
					<dim>2</dim>
				</port>
			</input>
			<output>
				<port id="2" precision="FP32" names="efficientnet-b0/blocks_3/se/Mean:0">
					<dim>1</dim>
					<dim>144</dim>
					<dim>1</dim>
					<dim>1</dim>
				</port>
			</output>
		</layer>
		<layer id="101" name="efficientnet-b0/blocks_3/se/conv2d/kernel" type="Const" version="opset1">
			<data element_type="f32" shape="6, 144, 1, 1" offset="103376" size="3456" />
			<output>
				<port id="0" precision="FP32" names="efficientnet-b0/blocks_3/se/conv2d/kernel:0">
					<dim>6</dim>
					<dim>144</dim>
					<dim>1</dim>
					<dim>1</dim>
				</port>
			</output>
		</layer>
		<layer id="102" name="efficientnet-b0/blocks_3/se/conv2d/Conv2D" type="Convolution" version="opset1">
			<data strides="1, 1" dilations="1, 1" pads_begin="0, 0" pads_end="0, 0" auto_pad="same_upper" />
			<input>
				<port id="0" precision="FP32">
					<dim>1</dim>
					<dim>144</dim>
					<dim>1</dim>
					<dim>1</dim>
				</port>
				<port id="1" precision="FP32">
					<dim>6</dim>
					<dim>144</dim>
					<dim>1</dim>
					<dim>1</dim>
				</port>
			</input>
			<output>
				<port id="2" precision="FP32" names="efficientnet-b0/blocks_3/se/conv2d/Conv2D:0">
					<dim>1</dim>
					<dim>6</dim>
					<dim>1</dim>
					<dim>1</dim>
				</port>
			</output>
		</layer>
		<layer id="103" name="efficientnet-b0/blocks_3/se/conv2d/bias" type="Const" version="opset1">
			<data element_type="f32" shape="1, 6, 1, 1" offset="106832" size="24" />
			<output>
				<port id="0" precision="FP32" names="efficientnet-b0/blocks_3/se/conv2d/bias:0">
					<dim>1</dim>
					<dim>6</dim>
					<dim>1</dim>
					<dim>1</dim>
				</port>
			</output>
		</layer>
		<layer id="104" name="efficientnet-b0/blocks_3/se/conv2d/BiasAdd/Add" type="Add" version="opset1">
			<data auto_broadcast="numpy" />
			<input>
				<port id="0" precision="FP32">
					<dim>1</dim>
					<dim>6</dim>
					<dim>1</dim>
					<dim>1</dim>
				</port>
				<port id="1" precision="FP32">
					<dim>1</dim>
					<dim>6</dim>
					<dim>1</dim>
					<dim>1</dim>
				</port>
			</input>
			<output>
				<port id="2" precision="FP32" names="efficientnet-b0/blocks_3/se/conv2d/BiasAdd:0">
					<dim>1</dim>
					<dim>6</dim>
					<dim>1</dim>
					<dim>1</dim>
				</port>
			</output>
		</layer>
		<layer id="105" name="efficientnet-b0/blocks_3/se/mul" type="Swish" version="opset4">
			<input>
				<port id="0" precision="FP32">
					<dim>1</dim>
					<dim>6</dim>
					<dim>1</dim>
					<dim>1</dim>
				</port>
			</input>
			<output>
				<port id="1" precision="FP32" names="efficientnet-b0/blocks_3/se/IdentityN:0,efficientnet-b0/blocks_3/se/mul:0">
					<dim>1</dim>
					<dim>6</dim>
					<dim>1</dim>
					<dim>1</dim>
				</port>
			</output>
		</layer>
		<layer id="106" name="efficientnet-b0/blocks_3/se/conv2d_1/kernel" type="Const" version="opset1">
			<data element_type="f32" shape="144, 6, 1, 1" offset="106856" size="3456" />
			<output>
				<port id="0" precision="FP32" names="efficientnet-b0/blocks_3/se/conv2d_1/kernel:0">
					<dim>144</dim>
					<dim>6</dim>
					<dim>1</dim>
					<dim>1</dim>
				</port>
			</output>
		</layer>
		<layer id="107" name="efficientnet-b0/blocks_3/se/conv2d_1/Conv2D" type="Convolution" version="opset1">
			<data strides="1, 1" dilations="1, 1" pads_begin="0, 0" pads_end="0, 0" auto_pad="same_upper" />
			<input>
				<port id="0" precision="FP32">
					<dim>1</dim>
					<dim>6</dim>
					<dim>1</dim>
					<dim>1</dim>
				</port>
				<port id="1" precision="FP32">
					<dim>144</dim>
					<dim>6</dim>
					<dim>1</dim>
					<dim>1</dim>
				</port>
			</input>
			<output>
				<port id="2" precision="FP32" names="efficientnet-b0/blocks_3/se/conv2d_1/Conv2D:0">
					<dim>1</dim>
					<dim>144</dim>
					<dim>1</dim>
					<dim>1</dim>
				</port>
			</output>
		</layer>
		<layer id="108" name="efficientnet-b0/blocks_3/se/conv2d_1/bias" type="Const" version="opset1">
			<data element_type="f32" shape="1, 144, 1, 1" offset="110312" size="576" />
			<output>
				<port id="0" precision="FP32" names="efficientnet-b0/blocks_3/se/conv2d_1/bias:0">
					<dim>1</dim>
					<dim>144</dim>
					<dim>1</dim>
					<dim>1</dim>
				</port>
			</output>
		</layer>
		<layer id="109" name="efficientnet-b0/blocks_3/se/conv2d_1/BiasAdd/Add" type="Add" version="opset1">
			<data auto_broadcast="numpy" />
			<input>
				<port id="0" precision="FP32">
					<dim>1</dim>
					<dim>144</dim>
					<dim>1</dim>
					<dim>1</dim>
				</port>
				<port id="1" precision="FP32">
					<dim>1</dim>
					<dim>144</dim>
					<dim>1</dim>
					<dim>1</dim>
				</port>
			</input>
			<output>
				<port id="2" precision="FP32" names="efficientnet-b0/blocks_3/se/conv2d_1/BiasAdd:0">
					<dim>1</dim>
					<dim>144</dim>
					<dim>1</dim>
					<dim>1</dim>
				</port>
			</output>
		</layer>
		<layer id="110" name="efficientnet-b0/blocks_3/se/Sigmoid_1" type="Sigmoid" version="opset1">
			<input>
				<port id="0" precision="FP32">
					<dim>1</dim>
					<dim>144</dim>
					<dim>1</dim>
					<dim>1</dim>
				</port>
			</input>
			<output>
				<port id="1" precision="FP32" names="efficientnet-b0/blocks_3/se/Sigmoid_1:0">
					<dim>1</dim>
					<dim>144</dim>
					<dim>1</dim>
					<dim>1</dim>
				</port>
			</output>
		</layer>
		<layer id="111" name="efficientnet-b0/blocks_3/se/mul_1" type="Multiply" version="opset1">
			<data auto_broadcast="numpy" />
			<input>
				<port id="0" precision="FP32">
					<dim>1</dim>
					<dim>144</dim>
					<dim>1</dim>
					<dim>1</dim>
				</port>
				<port id="1" precision="FP32">
					<dim>1</dim>
					<dim>144</dim>
					<dim>64</dim>
					<dim>64</dim>
				</port>
			</input>
			<output>
				<port id="2" precision="FP32" names="efficientnet-b0/blocks_3/se/mul_1:0">
					<dim>1</dim>
					<dim>144</dim>
					<dim>64</dim>
					<dim>64</dim>
				</port>
			</output>
		</layer>
		<layer id="112" name="efficientnet-b0/blocks_3/conv2d_1/Conv2D_weights" type="Const" version="opset1">
			<data element_type="f32" shape="40, 144, 1, 1" offset="110888" size="23040" />
			<output>
				<port id="0" precision="FP32" names="efficientnet-b0/blocks_3/conv2d_1/Conv2D_weights:0">
					<dim>40</dim>
					<dim>144</dim>
					<dim>1</dim>
					<dim>1</dim>
				</port>
			</output>
		</layer>
		<layer id="113" name="efficientnet-b0/blocks_3/conv2d_1/Conv2D" type="Convolution" version="opset1">
			<data strides="1, 1" dilations="1, 1" pads_begin="0, 0" pads_end="0, 0" auto_pad="same_upper" />
			<input>
				<port id="0" precision="FP32">
					<dim>1</dim>
					<dim>144</dim>
					<dim>64</dim>
					<dim>64</dim>
				</port>
				<port id="1" precision="FP32">
					<dim>40</dim>
					<dim>144</dim>
					<dim>1</dim>
					<dim>1</dim>
				</port>
			</input>
			<output>
				<port id="2" precision="FP32" names="efficientnet-b0/blocks_3/conv2d_1/Conv2D:0">
					<dim>1</dim>
					<dim>40</dim>
					<dim>64</dim>
					<dim>64</dim>
				</port>
			</output>
		</layer>
		<layer id="114" name="efficientnet-b0/blocks_3/conv2d_1/Conv2D_bn_offset" type="Const" version="opset1">
			<data element_type="f32" shape="1, 40, 1, 1" offset="133928" size="160" />
			<output>
				<port id="0" precision="FP32" names="efficientnet-b0/blocks_3/conv2d_1/Conv2D_bn_offset:0">
					<dim>1</dim>
					<dim>40</dim>
					<dim>1</dim>
					<dim>1</dim>
				</port>
			</output>
		</layer>
		<layer id="115" name="efficientnet-b0/blocks_3/tpu_batch_normalization_2/FusedBatchNormV3/Add" type="Add" version="opset1">
			<data auto_broadcast="numpy" />
			<input>
				<port id="0" precision="FP32">
					<dim>1</dim>
					<dim>40</dim>
					<dim>64</dim>
					<dim>64</dim>
				</port>
				<port id="1" precision="FP32">
					<dim>1</dim>
					<dim>40</dim>
					<dim>1</dim>
					<dim>1</dim>
				</port>
			</input>
			<output>
				<port id="2" precision="FP32" names="efficientnet-b0/blocks_3/tpu_batch_normalization_2/FusedBatchNormV3:0">
					<dim>1</dim>
					<dim>40</dim>
					<dim>64</dim>
					<dim>64</dim>
				</port>
			</output>
		</layer>
		<layer id="116" name="efficientnet-b0/blocks_4/conv2d/Conv2D_weights" type="Const" version="opset1">
			<data element_type="f32" shape="240, 40, 1, 1" offset="134088" size="38400" />
			<output>
				<port id="0" precision="FP32" names="efficientnet-b0/blocks_4/conv2d/Conv2D_weights:0">
					<dim>240</dim>
					<dim>40</dim>
					<dim>1</dim>
					<dim>1</dim>
				</port>
			</output>
		</layer>
		<layer id="117" name="efficientnet-b0/blocks_4/conv2d/Conv2D" type="Convolution" version="opset1">
			<data strides="1, 1" dilations="1, 1" pads_begin="0, 0" pads_end="0, 0" auto_pad="same_upper" />
			<input>
				<port id="0" precision="FP32">
					<dim>1</dim>
					<dim>40</dim>
					<dim>64</dim>
					<dim>64</dim>
				</port>
				<port id="1" precision="FP32">
					<dim>240</dim>
					<dim>40</dim>
					<dim>1</dim>
					<dim>1</dim>
				</port>
			</input>
			<output>
				<port id="2" precision="FP32" names="efficientnet-b0/blocks_4/conv2d/Conv2D:0">
					<dim>1</dim>
					<dim>240</dim>
					<dim>64</dim>
					<dim>64</dim>
				</port>
			</output>
		</layer>
		<layer id="118" name="efficientnet-b0/blocks_4/conv2d/Conv2D_bn_offset" type="Const" version="opset1">
			<data element_type="f32" shape="1, 240, 1, 1" offset="172488" size="960" />
			<output>
				<port id="0" precision="FP32" names="efficientnet-b0/blocks_4/conv2d/Conv2D_bn_offset:0">
					<dim>1</dim>
					<dim>240</dim>
					<dim>1</dim>
					<dim>1</dim>
				</port>
			</output>
		</layer>
		<layer id="119" name="efficientnet-b0/blocks_4/tpu_batch_normalization/FusedBatchNormV3/Add" type="Add" version="opset1">
			<data auto_broadcast="numpy" />
			<input>
				<port id="0" precision="FP32">
					<dim>1</dim>
					<dim>240</dim>
					<dim>64</dim>
					<dim>64</dim>
				</port>
				<port id="1" precision="FP32">
					<dim>1</dim>
					<dim>240</dim>
					<dim>1</dim>
					<dim>1</dim>
				</port>
			</input>
			<output>
				<port id="2" precision="FP32" names="efficientnet-b0/blocks_4/tpu_batch_normalization/FusedBatchNormV3:0">
					<dim>1</dim>
					<dim>240</dim>
					<dim>64</dim>
					<dim>64</dim>
				</port>
			</output>
		</layer>
		<layer id="120" name="efficientnet-b0/blocks_4/mul" type="Swish" version="opset4">
			<input>
				<port id="0" precision="FP32">
					<dim>1</dim>
					<dim>240</dim>
					<dim>64</dim>
					<dim>64</dim>
				</port>
			</input>
			<output>
				<port id="1" precision="FP32" names="efficientnet-b0/blocks_4/IdentityN:0,efficientnet-b0/blocks_4/mul:0">
					<dim>1</dim>
					<dim>240</dim>
					<dim>64</dim>
					<dim>64</dim>
				</port>
			</output>
		</layer>
		<layer id="121" name="efficientnet-b0/blocks_4/depthwise_conv2d/depthwise_weights" type="Const" version="opset1">
			<data element_type="f32" shape="240, 1, 1, 5, 5" offset="173448" size="24000" />
			<output>
				<port id="0" precision="FP32" names="efficientnet-b0/blocks_4/depthwise_conv2d/depthwise_weights:0">
					<dim>240</dim>
					<dim>1</dim>
					<dim>1</dim>
					<dim>5</dim>
					<dim>5</dim>
				</port>
			</output>
		</layer>
		<layer id="122" name="efficientnet-b0/blocks_4/depthwise_conv2d/depthwise" type="GroupConvolution" version="opset1">
			<data strides="1, 1" pads_begin="0, 0" pads_end="0, 0" dilations="1, 1" auto_pad="same_upper" />
			<input>
				<port id="0" precision="FP32">
					<dim>1</dim>
					<dim>240</dim>
					<dim>64</dim>
					<dim>64</dim>
				</port>
				<port id="1" precision="FP32">
					<dim>240</dim>
					<dim>1</dim>
					<dim>1</dim>
					<dim>5</dim>
					<dim>5</dim>
				</port>
			</input>
			<output>
				<port id="2" precision="FP32" names="efficientnet-b0/blocks_4/depthwise_conv2d/depthwise:0">
					<dim>1</dim>
					<dim>240</dim>
					<dim>64</dim>
					<dim>64</dim>
				</port>
			</output>
		</layer>
		<layer id="123" name="efficientnet-b0/blocks_4/depthwise_conv2d/depthwise_bn_offset" type="Const" version="opset1">
			<data element_type="f32" shape="1, 240, 1, 1" offset="197448" size="960" />
			<output>
				<port id="0" precision="FP32" names="efficientnet-b0/blocks_4/depthwise_conv2d/depthwise_bn_offset:0">
					<dim>1</dim>
					<dim>240</dim>
					<dim>1</dim>
					<dim>1</dim>
				</port>
			</output>
		</layer>
		<layer id="124" name="efficientnet-b0/blocks_4/tpu_batch_normalization_1/FusedBatchNormV3/Add" type="Add" version="opset1">
			<data auto_broadcast="numpy" />
			<input>
				<port id="0" precision="FP32">
					<dim>1</dim>
					<dim>240</dim>
					<dim>64</dim>
					<dim>64</dim>
				</port>
				<port id="1" precision="FP32">
					<dim>1</dim>
					<dim>240</dim>
					<dim>1</dim>
					<dim>1</dim>
				</port>
			</input>
			<output>
				<port id="2" precision="FP32" names="efficientnet-b0/blocks_4/tpu_batch_normalization_1/FusedBatchNormV3:0">
					<dim>1</dim>
					<dim>240</dim>
					<dim>64</dim>
					<dim>64</dim>
				</port>
			</output>
		</layer>
		<layer id="125" name="efficientnet-b0/blocks_4/mul_1" type="Swish" version="opset4">
			<input>
				<port id="0" precision="FP32">
					<dim>1</dim>
					<dim>240</dim>
					<dim>64</dim>
					<dim>64</dim>
				</port>
			</input>
			<output>
				<port id="1" precision="FP32" names="efficientnet-b0/blocks_4/IdentityN_1:0,efficientnet-b0/blocks_4/mul_1:0">
					<dim>1</dim>
					<dim>240</dim>
					<dim>64</dim>
					<dim>64</dim>
				</port>
			</output>
		</layer>
		<layer id="126" name="2922146986" type="Const" version="opset1">
			<data element_type="i64" shape="2" offset="4920" size="16" />
			<output>
				<port id="0" precision="I64">
					<dim>2</dim>
				</port>
			</output>
		</layer>
		<layer id="127" name="efficientnet-b0/blocks_4/se/Mean" type="ReduceMean" version="opset1">
			<data keep_dims="true" />
			<input>
				<port id="0" precision="FP32">
					<dim>1</dim>
					<dim>240</dim>
					<dim>64</dim>
					<dim>64</dim>
				</port>
				<port id="1" precision="I64">
					<dim>2</dim>
				</port>
			</input>
			<output>
				<port id="2" precision="FP32" names="efficientnet-b0/blocks_4/se/Mean:0">
					<dim>1</dim>
					<dim>240</dim>
					<dim>1</dim>
					<dim>1</dim>
				</port>
			</output>
		</layer>
		<layer id="128" name="efficientnet-b0/blocks_4/se/conv2d/kernel" type="Const" version="opset1">
			<data element_type="f32" shape="10, 240, 1, 1" offset="198408" size="9600" />
			<output>
				<port id="0" precision="FP32" names="efficientnet-b0/blocks_4/se/conv2d/kernel:0">
					<dim>10</dim>
					<dim>240</dim>
					<dim>1</dim>
					<dim>1</dim>
				</port>
			</output>
		</layer>
		<layer id="129" name="efficientnet-b0/blocks_4/se/conv2d/Conv2D" type="Convolution" version="opset1">
			<data strides="1, 1" dilations="1, 1" pads_begin="0, 0" pads_end="0, 0" auto_pad="same_upper" />
			<input>
				<port id="0" precision="FP32">
					<dim>1</dim>
					<dim>240</dim>
					<dim>1</dim>
					<dim>1</dim>
				</port>
				<port id="1" precision="FP32">
					<dim>10</dim>
					<dim>240</dim>
					<dim>1</dim>
					<dim>1</dim>
				</port>
			</input>
			<output>
				<port id="2" precision="FP32" names="efficientnet-b0/blocks_4/se/conv2d/Conv2D:0">
					<dim>1</dim>
					<dim>10</dim>
					<dim>1</dim>
					<dim>1</dim>
				</port>
			</output>
		</layer>
		<layer id="130" name="efficientnet-b0/blocks_4/se/conv2d/bias" type="Const" version="opset1">
			<data element_type="f32" shape="1, 10, 1, 1" offset="208008" size="40" />
			<output>
				<port id="0" precision="FP32" names="efficientnet-b0/blocks_4/se/conv2d/bias:0">
					<dim>1</dim>
					<dim>10</dim>
					<dim>1</dim>
					<dim>1</dim>
				</port>
			</output>
		</layer>
		<layer id="131" name="efficientnet-b0/blocks_4/se/conv2d/BiasAdd/Add" type="Add" version="opset1">
			<data auto_broadcast="numpy" />
			<input>
				<port id="0" precision="FP32">
					<dim>1</dim>
					<dim>10</dim>
					<dim>1</dim>
					<dim>1</dim>
				</port>
				<port id="1" precision="FP32">
					<dim>1</dim>
					<dim>10</dim>
					<dim>1</dim>
					<dim>1</dim>
				</port>
			</input>
			<output>
				<port id="2" precision="FP32" names="efficientnet-b0/blocks_4/se/conv2d/BiasAdd:0">
					<dim>1</dim>
					<dim>10</dim>
					<dim>1</dim>
					<dim>1</dim>
				</port>
			</output>
		</layer>
		<layer id="132" name="efficientnet-b0/blocks_4/se/mul" type="Swish" version="opset4">
			<input>
				<port id="0" precision="FP32">
					<dim>1</dim>
					<dim>10</dim>
					<dim>1</dim>
					<dim>1</dim>
				</port>
			</input>
			<output>
				<port id="1" precision="FP32" names="efficientnet-b0/blocks_4/se/IdentityN:0,efficientnet-b0/blocks_4/se/mul:0">
					<dim>1</dim>
					<dim>10</dim>
					<dim>1</dim>
					<dim>1</dim>
				</port>
			</output>
		</layer>
		<layer id="133" name="efficientnet-b0/blocks_4/se/conv2d_1/kernel" type="Const" version="opset1">
			<data element_type="f32" shape="240, 10, 1, 1" offset="208048" size="9600" />
			<output>
				<port id="0" precision="FP32" names="efficientnet-b0/blocks_4/se/conv2d_1/kernel:0">
					<dim>240</dim>
					<dim>10</dim>
					<dim>1</dim>
					<dim>1</dim>
				</port>
			</output>
		</layer>
		<layer id="134" name="efficientnet-b0/blocks_4/se/conv2d_1/Conv2D" type="Convolution" version="opset1">
			<data strides="1, 1" dilations="1, 1" pads_begin="0, 0" pads_end="0, 0" auto_pad="same_upper" />
			<input>
				<port id="0" precision="FP32">
					<dim>1</dim>
					<dim>10</dim>
					<dim>1</dim>
					<dim>1</dim>
				</port>
				<port id="1" precision="FP32">
					<dim>240</dim>
					<dim>10</dim>
					<dim>1</dim>
					<dim>1</dim>
				</port>
			</input>
			<output>
				<port id="2" precision="FP32" names="efficientnet-b0/blocks_4/se/conv2d_1/Conv2D:0">
					<dim>1</dim>
					<dim>240</dim>
					<dim>1</dim>
					<dim>1</dim>
				</port>
			</output>
		</layer>
		<layer id="135" name="efficientnet-b0/blocks_4/se/conv2d_1/bias" type="Const" version="opset1">
			<data element_type="f32" shape="1, 240, 1, 1" offset="217648" size="960" />
			<output>
				<port id="0" precision="FP32" names="efficientnet-b0/blocks_4/se/conv2d_1/bias:0">
					<dim>1</dim>
					<dim>240</dim>
					<dim>1</dim>
					<dim>1</dim>
				</port>
			</output>
		</layer>
		<layer id="136" name="efficientnet-b0/blocks_4/se/conv2d_1/BiasAdd/Add" type="Add" version="opset1">
			<data auto_broadcast="numpy" />
			<input>
				<port id="0" precision="FP32">
					<dim>1</dim>
					<dim>240</dim>
					<dim>1</dim>
					<dim>1</dim>
				</port>
				<port id="1" precision="FP32">
					<dim>1</dim>
					<dim>240</dim>
					<dim>1</dim>
					<dim>1</dim>
				</port>
			</input>
			<output>
				<port id="2" precision="FP32" names="efficientnet-b0/blocks_4/se/conv2d_1/BiasAdd:0">
					<dim>1</dim>
					<dim>240</dim>
					<dim>1</dim>
					<dim>1</dim>
				</port>
			</output>
		</layer>
		<layer id="137" name="efficientnet-b0/blocks_4/se/Sigmoid_1" type="Sigmoid" version="opset1">
			<input>
				<port id="0" precision="FP32">
					<dim>1</dim>
					<dim>240</dim>
					<dim>1</dim>
					<dim>1</dim>
				</port>
			</input>
			<output>
				<port id="1" precision="FP32" names="efficientnet-b0/blocks_4/se/Sigmoid_1:0">
					<dim>1</dim>
					<dim>240</dim>
					<dim>1</dim>
					<dim>1</dim>
				</port>
			</output>
		</layer>
		<layer id="138" name="efficientnet-b0/blocks_4/se/mul_1" type="Multiply" version="opset1">
			<data auto_broadcast="numpy" />
			<input>
				<port id="0" precision="FP32">
					<dim>1</dim>
					<dim>240</dim>
					<dim>1</dim>
					<dim>1</dim>
				</port>
				<port id="1" precision="FP32">
					<dim>1</dim>
					<dim>240</dim>
					<dim>64</dim>
					<dim>64</dim>
				</port>
			</input>
			<output>
				<port id="2" precision="FP32" names="efficientnet-b0/blocks_4/se/mul_1:0">
					<dim>1</dim>
					<dim>240</dim>
					<dim>64</dim>
					<dim>64</dim>
				</port>
			</output>
		</layer>
		<layer id="139" name="efficientnet-b0/blocks_4/conv2d_1/Conv2D_weights" type="Const" version="opset1">
			<data element_type="f32" shape="40, 240, 1, 1" offset="218608" size="38400" />
			<output>
				<port id="0" precision="FP32" names="efficientnet-b0/blocks_4/conv2d_1/Conv2D_weights:0">
					<dim>40</dim>
					<dim>240</dim>
					<dim>1</dim>
					<dim>1</dim>
				</port>
			</output>
		</layer>
		<layer id="140" name="efficientnet-b0/blocks_4/conv2d_1/Conv2D" type="Convolution" version="opset1">
			<data strides="1, 1" dilations="1, 1" pads_begin="0, 0" pads_end="0, 0" auto_pad="same_upper" />
			<input>
				<port id="0" precision="FP32">
					<dim>1</dim>
					<dim>240</dim>
					<dim>64</dim>
					<dim>64</dim>
				</port>
				<port id="1" precision="FP32">
					<dim>40</dim>
					<dim>240</dim>
					<dim>1</dim>
					<dim>1</dim>
				</port>
			</input>
			<output>
				<port id="2" precision="FP32" names="efficientnet-b0/blocks_4/conv2d_1/Conv2D:0">
					<dim>1</dim>
					<dim>40</dim>
					<dim>64</dim>
					<dim>64</dim>
				</port>
			</output>
		</layer>
		<layer id="141" name="efficientnet-b0/blocks_4/conv2d_1/Conv2D_bn_offset" type="Const" version="opset1">
			<data element_type="f32" shape="1, 40, 1, 1" offset="257008" size="160" />
			<output>
				<port id="0" precision="FP32" names="efficientnet-b0/blocks_4/conv2d_1/Conv2D_bn_offset:0">
					<dim>1</dim>
					<dim>40</dim>
					<dim>1</dim>
					<dim>1</dim>
				</port>
			</output>
		</layer>
		<layer id="142" name="efficientnet-b0/blocks_4/tpu_batch_normalization_2/FusedBatchNormV3/Add" type="Add" version="opset1">
			<data auto_broadcast="numpy" />
			<input>
				<port id="0" precision="FP32">
					<dim>1</dim>
					<dim>40</dim>
					<dim>64</dim>
					<dim>64</dim>
				</port>
				<port id="1" precision="FP32">
					<dim>1</dim>
					<dim>40</dim>
					<dim>1</dim>
					<dim>1</dim>
				</port>
			</input>
			<output>
				<port id="2" precision="FP32" names="efficientnet-b0/blocks_4/tpu_batch_normalization_2/FusedBatchNormV3:0">
					<dim>1</dim>
					<dim>40</dim>
					<dim>64</dim>
					<dim>64</dim>
				</port>
			</output>
		</layer>
		<layer id="143" name="efficientnet-b0/blocks_4/Add" type="Add" version="opset1">
			<data auto_broadcast="numpy" />
			<input>
				<port id="0" precision="FP32">
					<dim>1</dim>
					<dim>40</dim>
					<dim>64</dim>
					<dim>64</dim>
				</port>
				<port id="1" precision="FP32">
					<dim>1</dim>
					<dim>40</dim>
					<dim>64</dim>
					<dim>64</dim>
				</port>
			</input>
			<output>
				<port id="2" precision="FP32" names="efficientnet-b0/blocks_4/Add:0">
					<dim>1</dim>
					<dim>40</dim>
					<dim>64</dim>
					<dim>64</dim>
				</port>
			</output>
		</layer>
		<layer id="144" name="fpn_cells/cell_0/fnode3/mul/Fused_Mul__copy" type="Const" version="opset1">
			<data element_type="f32" shape="64, 40, 1, 1" offset="257168" size="10240" />
			<output>
				<port id="0" precision="FP32" names="fpn_cells/cell_0/fnode3/resample_0_0_8/conv2d/Conv2D_weights:0">
					<dim>64</dim>
					<dim>40</dim>
					<dim>1</dim>
					<dim>1</dim>
				</port>
			</output>
		</layer>
		<layer id="145" name="fpn_cells/cell_0/fnode3/resample_0_0_8/conv2d/Conv2D" type="Convolution" version="opset1">
			<data strides="1, 1" dilations="1, 1" pads_begin="0, 0" pads_end="0, 0" auto_pad="same_upper" />
			<input>
				<port id="0" precision="FP32">
					<dim>1</dim>
					<dim>40</dim>
					<dim>64</dim>
					<dim>64</dim>
				</port>
				<port id="1" precision="FP32">
					<dim>64</dim>
					<dim>40</dim>
					<dim>1</dim>
					<dim>1</dim>
				</port>
			</input>
			<output>
				<port id="2" precision="FP32">
					<dim>1</dim>
					<dim>64</dim>
					<dim>64</dim>
					<dim>64</dim>
				</port>
			</output>
		</layer>
		<layer id="146" name="data_add_2057420579" type="Const" version="opset1">
			<data element_type="f32" shape="1, 64, 1, 1" offset="267408" size="256" />
			<output>
				<port id="0" precision="FP32">
					<dim>1</dim>
					<dim>64</dim>
					<dim>1</dim>
					<dim>1</dim>
				</port>
			</output>
		</layer>
		<layer id="147" name="fpn_cells/cell_0/fnode3/resample_0_0_8/bn/FusedBatchNormV3/Add/Fused_Add_" type="Add" version="opset1">
			<data auto_broadcast="numpy" />
			<input>
				<port id="0" precision="FP32">
					<dim>1</dim>
					<dim>64</dim>
					<dim>64</dim>
					<dim>64</dim>
				</port>
				<port id="1" precision="FP32">
					<dim>1</dim>
					<dim>64</dim>
					<dim>1</dim>
					<dim>1</dim>
				</port>
			</input>
			<output>
				<port id="2" precision="FP32" names="fpn_cells/cell_0/fnode3/truediv:0">
					<dim>1</dim>
					<dim>64</dim>
					<dim>64</dim>
					<dim>64</dim>
				</port>
			</output>
		</layer>
		<layer id="148" name="efficientnet-b0/blocks_5/conv2d/Conv2D_weights" type="Const" version="opset1">
			<data element_type="f32" shape="240, 40, 1, 1" offset="267664" size="38400" />
			<output>
				<port id="0" precision="FP32" names="efficientnet-b0/blocks_5/conv2d/Conv2D_weights:0">
					<dim>240</dim>
					<dim>40</dim>
					<dim>1</dim>
					<dim>1</dim>
				</port>
			</output>
		</layer>
		<layer id="149" name="efficientnet-b0/blocks_5/conv2d/Conv2D" type="Convolution" version="opset1">
			<data strides="1, 1" dilations="1, 1" pads_begin="0, 0" pads_end="0, 0" auto_pad="same_upper" />
			<input>
				<port id="0" precision="FP32">
					<dim>1</dim>
					<dim>40</dim>
					<dim>64</dim>
					<dim>64</dim>
				</port>
				<port id="1" precision="FP32">
					<dim>240</dim>
					<dim>40</dim>
					<dim>1</dim>
					<dim>1</dim>
				</port>
			</input>
			<output>
				<port id="2" precision="FP32" names="efficientnet-b0/blocks_5/conv2d/Conv2D:0">
					<dim>1</dim>
					<dim>240</dim>
					<dim>64</dim>
					<dim>64</dim>
				</port>
			</output>
		</layer>
		<layer id="150" name="efficientnet-b0/blocks_5/conv2d/Conv2D_bn_offset" type="Const" version="opset1">
			<data element_type="f32" shape="1, 240, 1, 1" offset="306064" size="960" />
			<output>
				<port id="0" precision="FP32" names="efficientnet-b0/blocks_5/conv2d/Conv2D_bn_offset:0">
					<dim>1</dim>
					<dim>240</dim>
					<dim>1</dim>
					<dim>1</dim>
				</port>
			</output>
		</layer>
		<layer id="151" name="efficientnet-b0/blocks_5/tpu_batch_normalization/FusedBatchNormV3/Add" type="Add" version="opset1">
			<data auto_broadcast="numpy" />
			<input>
				<port id="0" precision="FP32">
					<dim>1</dim>
					<dim>240</dim>
					<dim>64</dim>
					<dim>64</dim>
				</port>
				<port id="1" precision="FP32">
					<dim>1</dim>
					<dim>240</dim>
					<dim>1</dim>
					<dim>1</dim>
				</port>
			</input>
			<output>
				<port id="2" precision="FP32" names="efficientnet-b0/blocks_5/tpu_batch_normalization/FusedBatchNormV3:0">
					<dim>1</dim>
					<dim>240</dim>
					<dim>64</dim>
					<dim>64</dim>
				</port>
			</output>
		</layer>
		<layer id="152" name="efficientnet-b0/blocks_5/mul" type="Swish" version="opset4">
			<input>
				<port id="0" precision="FP32">
					<dim>1</dim>
					<dim>240</dim>
					<dim>64</dim>
					<dim>64</dim>
				</port>
			</input>
			<output>
				<port id="1" precision="FP32" names="efficientnet-b0/blocks_5/IdentityN:0,efficientnet-b0/blocks_5/mul:0">
					<dim>1</dim>
					<dim>240</dim>
					<dim>64</dim>
					<dim>64</dim>
				</port>
			</output>
		</layer>
		<layer id="153" name="efficientnet-b0/blocks_5/depthwise_conv2d/depthwise_weights" type="Const" version="opset1">
			<data element_type="f32" shape="240, 1, 1, 3, 3" offset="307024" size="8640" />
			<output>
				<port id="0" precision="FP32" names="efficientnet-b0/blocks_5/depthwise_conv2d/depthwise_weights:0">
					<dim>240</dim>
					<dim>1</dim>
					<dim>1</dim>
					<dim>3</dim>
					<dim>3</dim>
				</port>
			</output>
		</layer>
		<layer id="154" name="efficientnet-b0/blocks_5/depthwise_conv2d/depthwise" type="GroupConvolution" version="opset1">
			<data strides="2, 2" pads_begin="0, 0" pads_end="0, 0" dilations="1, 1" auto_pad="same_upper" />
			<input>
				<port id="0" precision="FP32">
					<dim>1</dim>
					<dim>240</dim>
					<dim>64</dim>
					<dim>64</dim>
				</port>
				<port id="1" precision="FP32">
					<dim>240</dim>
					<dim>1</dim>
					<dim>1</dim>
					<dim>3</dim>
					<dim>3</dim>
				</port>
			</input>
			<output>
				<port id="2" precision="FP32" names="efficientnet-b0/blocks_5/depthwise_conv2d/depthwise:0">
					<dim>1</dim>
					<dim>240</dim>
					<dim>32</dim>
					<dim>32</dim>
				</port>
			</output>
		</layer>
		<layer id="155" name="efficientnet-b0/blocks_5/depthwise_conv2d/depthwise_bn_offset" type="Const" version="opset1">
			<data element_type="f32" shape="1, 240, 1, 1" offset="315664" size="960" />
			<output>
				<port id="0" precision="FP32" names="efficientnet-b0/blocks_5/depthwise_conv2d/depthwise_bn_offset:0">
					<dim>1</dim>
					<dim>240</dim>
					<dim>1</dim>
					<dim>1</dim>
				</port>
			</output>
		</layer>
		<layer id="156" name="efficientnet-b0/blocks_5/tpu_batch_normalization_1/FusedBatchNormV3/Add" type="Add" version="opset1">
			<data auto_broadcast="numpy" />
			<input>
				<port id="0" precision="FP32">
					<dim>1</dim>
					<dim>240</dim>
					<dim>32</dim>
					<dim>32</dim>
				</port>
				<port id="1" precision="FP32">
					<dim>1</dim>
					<dim>240</dim>
					<dim>1</dim>
					<dim>1</dim>
				</port>
			</input>
			<output>
				<port id="2" precision="FP32" names="efficientnet-b0/blocks_5/tpu_batch_normalization_1/FusedBatchNormV3:0">
					<dim>1</dim>
					<dim>240</dim>
					<dim>32</dim>
					<dim>32</dim>
				</port>
			</output>
		</layer>
		<layer id="157" name="efficientnet-b0/blocks_5/mul_1" type="Swish" version="opset4">
			<input>
				<port id="0" precision="FP32">
					<dim>1</dim>
					<dim>240</dim>
					<dim>32</dim>
					<dim>32</dim>
				</port>
			</input>
			<output>
				<port id="1" precision="FP32" names="efficientnet-b0/blocks_5/IdentityN_1:0,efficientnet-b0/blocks_5/mul_1:0">
					<dim>1</dim>
					<dim>240</dim>
					<dim>32</dim>
					<dim>32</dim>
				</port>
			</output>
		</layer>
		<layer id="158" name="2924747805" type="Const" version="opset1">
			<data element_type="i64" shape="2" offset="4920" size="16" />
			<output>
				<port id="0" precision="I64">
					<dim>2</dim>
				</port>
			</output>
		</layer>
		<layer id="159" name="efficientnet-b0/blocks_5/se/Mean" type="ReduceMean" version="opset1">
			<data keep_dims="true" />
			<input>
				<port id="0" precision="FP32">
					<dim>1</dim>
					<dim>240</dim>
					<dim>32</dim>
					<dim>32</dim>
				</port>
				<port id="1" precision="I64">
					<dim>2</dim>
				</port>
			</input>
			<output>
				<port id="2" precision="FP32" names="efficientnet-b0/blocks_5/se/Mean:0">
					<dim>1</dim>
					<dim>240</dim>
					<dim>1</dim>
					<dim>1</dim>
				</port>
			</output>
		</layer>
		<layer id="160" name="efficientnet-b0/blocks_5/se/conv2d/kernel" type="Const" version="opset1">
			<data element_type="f32" shape="10, 240, 1, 1" offset="316624" size="9600" />
			<output>
				<port id="0" precision="FP32" names="efficientnet-b0/blocks_5/se/conv2d/kernel:0">
					<dim>10</dim>
					<dim>240</dim>
					<dim>1</dim>
					<dim>1</dim>
				</port>
			</output>
		</layer>
		<layer id="161" name="efficientnet-b0/blocks_5/se/conv2d/Conv2D" type="Convolution" version="opset1">
			<data strides="1, 1" dilations="1, 1" pads_begin="0, 0" pads_end="0, 0" auto_pad="same_upper" />
			<input>
				<port id="0" precision="FP32">
					<dim>1</dim>
					<dim>240</dim>
					<dim>1</dim>
					<dim>1</dim>
				</port>
				<port id="1" precision="FP32">
					<dim>10</dim>
					<dim>240</dim>
					<dim>1</dim>
					<dim>1</dim>
				</port>
			</input>
			<output>
				<port id="2" precision="FP32" names="efficientnet-b0/blocks_5/se/conv2d/Conv2D:0">
					<dim>1</dim>
					<dim>10</dim>
					<dim>1</dim>
					<dim>1</dim>
				</port>
			</output>
		</layer>
		<layer id="162" name="efficientnet-b0/blocks_5/se/conv2d/bias" type="Const" version="opset1">
			<data element_type="f32" shape="1, 10, 1, 1" offset="326224" size="40" />
			<output>
				<port id="0" precision="FP32" names="efficientnet-b0/blocks_5/se/conv2d/bias:0">
					<dim>1</dim>
					<dim>10</dim>
					<dim>1</dim>
					<dim>1</dim>
				</port>
			</output>
		</layer>
		<layer id="163" name="efficientnet-b0/blocks_5/se/conv2d/BiasAdd/Add" type="Add" version="opset1">
			<data auto_broadcast="numpy" />
			<input>
				<port id="0" precision="FP32">
					<dim>1</dim>
					<dim>10</dim>
					<dim>1</dim>
					<dim>1</dim>
				</port>
				<port id="1" precision="FP32">
					<dim>1</dim>
					<dim>10</dim>
					<dim>1</dim>
					<dim>1</dim>
				</port>
			</input>
			<output>
				<port id="2" precision="FP32" names="efficientnet-b0/blocks_5/se/conv2d/BiasAdd:0">
					<dim>1</dim>
					<dim>10</dim>
					<dim>1</dim>
					<dim>1</dim>
				</port>
			</output>
		</layer>
		<layer id="164" name="efficientnet-b0/blocks_5/se/mul" type="Swish" version="opset4">
			<input>
				<port id="0" precision="FP32">
					<dim>1</dim>
					<dim>10</dim>
					<dim>1</dim>
					<dim>1</dim>
				</port>
			</input>
			<output>
				<port id="1" precision="FP32" names="efficientnet-b0/blocks_5/se/IdentityN:0,efficientnet-b0/blocks_5/se/mul:0">
					<dim>1</dim>
					<dim>10</dim>
					<dim>1</dim>
					<dim>1</dim>
				</port>
			</output>
		</layer>
		<layer id="165" name="efficientnet-b0/blocks_5/se/conv2d_1/kernel" type="Const" version="opset1">
			<data element_type="f32" shape="240, 10, 1, 1" offset="326264" size="9600" />
			<output>
				<port id="0" precision="FP32" names="efficientnet-b0/blocks_5/se/conv2d_1/kernel:0">
					<dim>240</dim>
					<dim>10</dim>
					<dim>1</dim>
					<dim>1</dim>
				</port>
			</output>
		</layer>
		<layer id="166" name="efficientnet-b0/blocks_5/se/conv2d_1/Conv2D" type="Convolution" version="opset1">
			<data strides="1, 1" dilations="1, 1" pads_begin="0, 0" pads_end="0, 0" auto_pad="same_upper" />
			<input>
				<port id="0" precision="FP32">
					<dim>1</dim>
					<dim>10</dim>
					<dim>1</dim>
					<dim>1</dim>
				</port>
				<port id="1" precision="FP32">
					<dim>240</dim>
					<dim>10</dim>
					<dim>1</dim>
					<dim>1</dim>
				</port>
			</input>
			<output>
				<port id="2" precision="FP32" names="efficientnet-b0/blocks_5/se/conv2d_1/Conv2D:0">
					<dim>1</dim>
					<dim>240</dim>
					<dim>1</dim>
					<dim>1</dim>
				</port>
			</output>
		</layer>
		<layer id="167" name="efficientnet-b0/blocks_5/se/conv2d_1/bias" type="Const" version="opset1">
			<data element_type="f32" shape="1, 240, 1, 1" offset="335864" size="960" />
			<output>
				<port id="0" precision="FP32" names="efficientnet-b0/blocks_5/se/conv2d_1/bias:0">
					<dim>1</dim>
					<dim>240</dim>
					<dim>1</dim>
					<dim>1</dim>
				</port>
			</output>
		</layer>
		<layer id="168" name="efficientnet-b0/blocks_5/se/conv2d_1/BiasAdd/Add" type="Add" version="opset1">
			<data auto_broadcast="numpy" />
			<input>
				<port id="0" precision="FP32">
					<dim>1</dim>
					<dim>240</dim>
					<dim>1</dim>
					<dim>1</dim>
				</port>
				<port id="1" precision="FP32">
					<dim>1</dim>
					<dim>240</dim>
					<dim>1</dim>
					<dim>1</dim>
				</port>
			</input>
			<output>
				<port id="2" precision="FP32" names="efficientnet-b0/blocks_5/se/conv2d_1/BiasAdd:0">
					<dim>1</dim>
					<dim>240</dim>
					<dim>1</dim>
					<dim>1</dim>
				</port>
			</output>
		</layer>
		<layer id="169" name="efficientnet-b0/blocks_5/se/Sigmoid_1" type="Sigmoid" version="opset1">
			<input>
				<port id="0" precision="FP32">
					<dim>1</dim>
					<dim>240</dim>
					<dim>1</dim>
					<dim>1</dim>
				</port>
			</input>
			<output>
				<port id="1" precision="FP32" names="efficientnet-b0/blocks_5/se/Sigmoid_1:0">
					<dim>1</dim>
					<dim>240</dim>
					<dim>1</dim>
					<dim>1</dim>
				</port>
			</output>
		</layer>
		<layer id="170" name="efficientnet-b0/blocks_5/se/mul_1" type="Multiply" version="opset1">
			<data auto_broadcast="numpy" />
			<input>
				<port id="0" precision="FP32">
					<dim>1</dim>
					<dim>240</dim>
					<dim>1</dim>
					<dim>1</dim>
				</port>
				<port id="1" precision="FP32">
					<dim>1</dim>
					<dim>240</dim>
					<dim>32</dim>
					<dim>32</dim>
				</port>
			</input>
			<output>
				<port id="2" precision="FP32" names="efficientnet-b0/blocks_5/se/mul_1:0">
					<dim>1</dim>
					<dim>240</dim>
					<dim>32</dim>
					<dim>32</dim>
				</port>
			</output>
		</layer>
		<layer id="171" name="efficientnet-b0/blocks_5/conv2d_1/Conv2D_weights" type="Const" version="opset1">
			<data element_type="f32" shape="80, 240, 1, 1" offset="336824" size="76800" />
			<output>
				<port id="0" precision="FP32" names="efficientnet-b0/blocks_5/conv2d_1/Conv2D_weights:0">
					<dim>80</dim>
					<dim>240</dim>
					<dim>1</dim>
					<dim>1</dim>
				</port>
			</output>
		</layer>
		<layer id="172" name="efficientnet-b0/blocks_5/conv2d_1/Conv2D" type="Convolution" version="opset1">
			<data strides="1, 1" dilations="1, 1" pads_begin="0, 0" pads_end="0, 0" auto_pad="same_upper" />
			<input>
				<port id="0" precision="FP32">
					<dim>1</dim>
					<dim>240</dim>
					<dim>32</dim>
					<dim>32</dim>
				</port>
				<port id="1" precision="FP32">
					<dim>80</dim>
					<dim>240</dim>
					<dim>1</dim>
					<dim>1</dim>
				</port>
			</input>
			<output>
				<port id="2" precision="FP32" names="efficientnet-b0/blocks_5/conv2d_1/Conv2D:0">
					<dim>1</dim>
					<dim>80</dim>
					<dim>32</dim>
					<dim>32</dim>
				</port>
			</output>
		</layer>
		<layer id="173" name="efficientnet-b0/blocks_5/conv2d_1/Conv2D_bn_offset" type="Const" version="opset1">
			<data element_type="f32" shape="1, 80, 1, 1" offset="413624" size="320" />
			<output>
				<port id="0" precision="FP32" names="efficientnet-b0/blocks_5/conv2d_1/Conv2D_bn_offset:0">
					<dim>1</dim>
					<dim>80</dim>
					<dim>1</dim>
					<dim>1</dim>
				</port>
			</output>
		</layer>
		<layer id="174" name="efficientnet-b0/blocks_5/tpu_batch_normalization_2/FusedBatchNormV3/Add" type="Add" version="opset1">
			<data auto_broadcast="numpy" />
			<input>
				<port id="0" precision="FP32">
					<dim>1</dim>
					<dim>80</dim>
					<dim>32</dim>
					<dim>32</dim>
				</port>
				<port id="1" precision="FP32">
					<dim>1</dim>
					<dim>80</dim>
					<dim>1</dim>
					<dim>1</dim>
				</port>
			</input>
			<output>
				<port id="2" precision="FP32" names="efficientnet-b0/blocks_5/tpu_batch_normalization_2/FusedBatchNormV3:0">
					<dim>1</dim>
					<dim>80</dim>
					<dim>32</dim>
					<dim>32</dim>
				</port>
			</output>
		</layer>
		<layer id="175" name="efficientnet-b0/blocks_6/conv2d/Conv2D_weights" type="Const" version="opset1">
			<data element_type="f32" shape="480, 80, 1, 1" offset="413944" size="153600" />
			<output>
				<port id="0" precision="FP32" names="efficientnet-b0/blocks_6/conv2d/Conv2D_weights:0">
					<dim>480</dim>
					<dim>80</dim>
					<dim>1</dim>
					<dim>1</dim>
				</port>
			</output>
		</layer>
		<layer id="176" name="efficientnet-b0/blocks_6/conv2d/Conv2D" type="Convolution" version="opset1">
			<data strides="1, 1" dilations="1, 1" pads_begin="0, 0" pads_end="0, 0" auto_pad="same_upper" />
			<input>
				<port id="0" precision="FP32">
					<dim>1</dim>
					<dim>80</dim>
					<dim>32</dim>
					<dim>32</dim>
				</port>
				<port id="1" precision="FP32">
					<dim>480</dim>
					<dim>80</dim>
					<dim>1</dim>
					<dim>1</dim>
				</port>
			</input>
			<output>
				<port id="2" precision="FP32" names="efficientnet-b0/blocks_6/conv2d/Conv2D:0">
					<dim>1</dim>
					<dim>480</dim>
					<dim>32</dim>
					<dim>32</dim>
				</port>
			</output>
		</layer>
		<layer id="177" name="efficientnet-b0/blocks_6/conv2d/Conv2D_bn_offset" type="Const" version="opset1">
			<data element_type="f32" shape="1, 480, 1, 1" offset="567544" size="1920" />
			<output>
				<port id="0" precision="FP32" names="efficientnet-b0/blocks_6/conv2d/Conv2D_bn_offset:0">
					<dim>1</dim>
					<dim>480</dim>
					<dim>1</dim>
					<dim>1</dim>
				</port>
			</output>
		</layer>
		<layer id="178" name="efficientnet-b0/blocks_6/tpu_batch_normalization/FusedBatchNormV3/Add" type="Add" version="opset1">
			<data auto_broadcast="numpy" />
			<input>
				<port id="0" precision="FP32">
					<dim>1</dim>
					<dim>480</dim>
					<dim>32</dim>
					<dim>32</dim>
				</port>
				<port id="1" precision="FP32">
					<dim>1</dim>
					<dim>480</dim>
					<dim>1</dim>
					<dim>1</dim>
				</port>
			</input>
			<output>
				<port id="2" precision="FP32" names="efficientnet-b0/blocks_6/tpu_batch_normalization/FusedBatchNormV3:0">
					<dim>1</dim>
					<dim>480</dim>
					<dim>32</dim>
					<dim>32</dim>
				</port>
			</output>
		</layer>
		<layer id="179" name="efficientnet-b0/blocks_6/mul" type="Swish" version="opset4">
			<input>
				<port id="0" precision="FP32">
					<dim>1</dim>
					<dim>480</dim>
					<dim>32</dim>
					<dim>32</dim>
				</port>
			</input>
			<output>
				<port id="1" precision="FP32" names="efficientnet-b0/blocks_6/IdentityN:0,efficientnet-b0/blocks_6/mul:0">
					<dim>1</dim>
					<dim>480</dim>
					<dim>32</dim>
					<dim>32</dim>
				</port>
			</output>
		</layer>
		<layer id="180" name="efficientnet-b0/blocks_6/depthwise_conv2d/depthwise_weights" type="Const" version="opset1">
			<data element_type="f32" shape="480, 1, 1, 3, 3" offset="569464" size="17280" />
			<output>
				<port id="0" precision="FP32" names="efficientnet-b0/blocks_6/depthwise_conv2d/depthwise_weights:0">
					<dim>480</dim>
					<dim>1</dim>
					<dim>1</dim>
					<dim>3</dim>
					<dim>3</dim>
				</port>
			</output>
		</layer>
		<layer id="181" name="efficientnet-b0/blocks_6/depthwise_conv2d/depthwise" type="GroupConvolution" version="opset1">
			<data strides="1, 1" pads_begin="0, 0" pads_end="0, 0" dilations="1, 1" auto_pad="same_upper" />
			<input>
				<port id="0" precision="FP32">
					<dim>1</dim>
					<dim>480</dim>
					<dim>32</dim>
					<dim>32</dim>
				</port>
				<port id="1" precision="FP32">
					<dim>480</dim>
					<dim>1</dim>
					<dim>1</dim>
					<dim>3</dim>
					<dim>3</dim>
				</port>
			</input>
			<output>
				<port id="2" precision="FP32" names="efficientnet-b0/blocks_6/depthwise_conv2d/depthwise:0">
					<dim>1</dim>
					<dim>480</dim>
					<dim>32</dim>
					<dim>32</dim>
				</port>
			</output>
		</layer>
		<layer id="182" name="efficientnet-b0/blocks_6/depthwise_conv2d/depthwise_bn_offset" type="Const" version="opset1">
			<data element_type="f32" shape="1, 480, 1, 1" offset="586744" size="1920" />
			<output>
				<port id="0" precision="FP32" names="efficientnet-b0/blocks_6/depthwise_conv2d/depthwise_bn_offset:0">
					<dim>1</dim>
					<dim>480</dim>
					<dim>1</dim>
					<dim>1</dim>
				</port>
			</output>
		</layer>
		<layer id="183" name="efficientnet-b0/blocks_6/tpu_batch_normalization_1/FusedBatchNormV3/Add" type="Add" version="opset1">
			<data auto_broadcast="numpy" />
			<input>
				<port id="0" precision="FP32">
					<dim>1</dim>
					<dim>480</dim>
					<dim>32</dim>
					<dim>32</dim>
				</port>
				<port id="1" precision="FP32">
					<dim>1</dim>
					<dim>480</dim>
					<dim>1</dim>
					<dim>1</dim>
				</port>
			</input>
			<output>
				<port id="2" precision="FP32" names="efficientnet-b0/blocks_6/tpu_batch_normalization_1/FusedBatchNormV3:0">
					<dim>1</dim>
					<dim>480</dim>
					<dim>32</dim>
					<dim>32</dim>
				</port>
			</output>
		</layer>
		<layer id="184" name="efficientnet-b0/blocks_6/mul_1" type="Swish" version="opset4">
			<input>
				<port id="0" precision="FP32">
					<dim>1</dim>
					<dim>480</dim>
					<dim>32</dim>
					<dim>32</dim>
				</port>
			</input>
			<output>
				<port id="1" precision="FP32" names="efficientnet-b0/blocks_6/IdentityN_1:0,efficientnet-b0/blocks_6/mul_1:0">
					<dim>1</dim>
					<dim>480</dim>
					<dim>32</dim>
					<dim>32</dim>
				</port>
			</output>
		</layer>
		<layer id="185" name="2927347688" type="Const" version="opset1">
			<data element_type="i64" shape="2" offset="4920" size="16" />
			<output>
				<port id="0" precision="I64">
					<dim>2</dim>
				</port>
			</output>
		</layer>
		<layer id="186" name="efficientnet-b0/blocks_6/se/Mean" type="ReduceMean" version="opset1">
			<data keep_dims="true" />
			<input>
				<port id="0" precision="FP32">
					<dim>1</dim>
					<dim>480</dim>
					<dim>32</dim>
					<dim>32</dim>
				</port>
				<port id="1" precision="I64">
					<dim>2</dim>
				</port>
			</input>
			<output>
				<port id="2" precision="FP32" names="efficientnet-b0/blocks_6/se/Mean:0">
					<dim>1</dim>
					<dim>480</dim>
					<dim>1</dim>
					<dim>1</dim>
				</port>
			</output>
		</layer>
		<layer id="187" name="efficientnet-b0/blocks_6/se/conv2d/kernel" type="Const" version="opset1">
			<data element_type="f32" shape="20, 480, 1, 1" offset="588664" size="38400" />
			<output>
				<port id="0" precision="FP32" names="efficientnet-b0/blocks_6/se/conv2d/kernel:0">
					<dim>20</dim>
					<dim>480</dim>
					<dim>1</dim>
					<dim>1</dim>
				</port>
			</output>
		</layer>
		<layer id="188" name="efficientnet-b0/blocks_6/se/conv2d/Conv2D" type="Convolution" version="opset1">
			<data strides="1, 1" dilations="1, 1" pads_begin="0, 0" pads_end="0, 0" auto_pad="same_upper" />
			<input>
				<port id="0" precision="FP32">
					<dim>1</dim>
					<dim>480</dim>
					<dim>1</dim>
					<dim>1</dim>
				</port>
				<port id="1" precision="FP32">
					<dim>20</dim>
					<dim>480</dim>
					<dim>1</dim>
					<dim>1</dim>
				</port>
			</input>
			<output>
				<port id="2" precision="FP32" names="efficientnet-b0/blocks_6/se/conv2d/Conv2D:0">
					<dim>1</dim>
					<dim>20</dim>
					<dim>1</dim>
					<dim>1</dim>
				</port>
			</output>
		</layer>
		<layer id="189" name="efficientnet-b0/blocks_6/se/conv2d/bias" type="Const" version="opset1">
			<data element_type="f32" shape="1, 20, 1, 1" offset="627064" size="80" />
			<output>
				<port id="0" precision="FP32" names="efficientnet-b0/blocks_6/se/conv2d/bias:0">
					<dim>1</dim>
					<dim>20</dim>
					<dim>1</dim>
					<dim>1</dim>
				</port>
			</output>
		</layer>
		<layer id="190" name="efficientnet-b0/blocks_6/se/conv2d/BiasAdd/Add" type="Add" version="opset1">
			<data auto_broadcast="numpy" />
			<input>
				<port id="0" precision="FP32">
					<dim>1</dim>
					<dim>20</dim>
					<dim>1</dim>
					<dim>1</dim>
				</port>
				<port id="1" precision="FP32">
					<dim>1</dim>
					<dim>20</dim>
					<dim>1</dim>
					<dim>1</dim>
				</port>
			</input>
			<output>
				<port id="2" precision="FP32" names="efficientnet-b0/blocks_6/se/conv2d/BiasAdd:0">
					<dim>1</dim>
					<dim>20</dim>
					<dim>1</dim>
					<dim>1</dim>
				</port>
			</output>
		</layer>
		<layer id="191" name="efficientnet-b0/blocks_6/se/mul" type="Swish" version="opset4">
			<input>
				<port id="0" precision="FP32">
					<dim>1</dim>
					<dim>20</dim>
					<dim>1</dim>
					<dim>1</dim>
				</port>
			</input>
			<output>
				<port id="1" precision="FP32" names="efficientnet-b0/blocks_6/se/IdentityN:0,efficientnet-b0/blocks_6/se/mul:0">
					<dim>1</dim>
					<dim>20</dim>
					<dim>1</dim>
					<dim>1</dim>
				</port>
			</output>
		</layer>
		<layer id="192" name="efficientnet-b0/blocks_6/se/conv2d_1/kernel" type="Const" version="opset1">
			<data element_type="f32" shape="480, 20, 1, 1" offset="627144" size="38400" />
			<output>
				<port id="0" precision="FP32" names="efficientnet-b0/blocks_6/se/conv2d_1/kernel:0">
					<dim>480</dim>
					<dim>20</dim>
					<dim>1</dim>
					<dim>1</dim>
				</port>
			</output>
		</layer>
		<layer id="193" name="efficientnet-b0/blocks_6/se/conv2d_1/Conv2D" type="Convolution" version="opset1">
			<data strides="1, 1" dilations="1, 1" pads_begin="0, 0" pads_end="0, 0" auto_pad="same_upper" />
			<input>
				<port id="0" precision="FP32">
					<dim>1</dim>
					<dim>20</dim>
					<dim>1</dim>
					<dim>1</dim>
				</port>
				<port id="1" precision="FP32">
					<dim>480</dim>
					<dim>20</dim>
					<dim>1</dim>
					<dim>1</dim>
				</port>
			</input>
			<output>
				<port id="2" precision="FP32" names="efficientnet-b0/blocks_6/se/conv2d_1/Conv2D:0">
					<dim>1</dim>
					<dim>480</dim>
					<dim>1</dim>
					<dim>1</dim>
				</port>
			</output>
		</layer>
		<layer id="194" name="efficientnet-b0/blocks_6/se/conv2d_1/bias" type="Const" version="opset1">
			<data element_type="f32" shape="1, 480, 1, 1" offset="665544" size="1920" />
			<output>
				<port id="0" precision="FP32" names="efficientnet-b0/blocks_6/se/conv2d_1/bias:0">
					<dim>1</dim>
					<dim>480</dim>
					<dim>1</dim>
					<dim>1</dim>
				</port>
			</output>
		</layer>
		<layer id="195" name="efficientnet-b0/blocks_6/se/conv2d_1/BiasAdd/Add" type="Add" version="opset1">
			<data auto_broadcast="numpy" />
			<input>
				<port id="0" precision="FP32">
					<dim>1</dim>
					<dim>480</dim>
					<dim>1</dim>
					<dim>1</dim>
				</port>
				<port id="1" precision="FP32">
					<dim>1</dim>
					<dim>480</dim>
					<dim>1</dim>
					<dim>1</dim>
				</port>
			</input>
			<output>
				<port id="2" precision="FP32" names="efficientnet-b0/blocks_6/se/conv2d_1/BiasAdd:0">
					<dim>1</dim>
					<dim>480</dim>
					<dim>1</dim>
					<dim>1</dim>
				</port>
			</output>
		</layer>
		<layer id="196" name="efficientnet-b0/blocks_6/se/Sigmoid_1" type="Sigmoid" version="opset1">
			<input>
				<port id="0" precision="FP32">
					<dim>1</dim>
					<dim>480</dim>
					<dim>1</dim>
					<dim>1</dim>
				</port>
			</input>
			<output>
				<port id="1" precision="FP32" names="efficientnet-b0/blocks_6/se/Sigmoid_1:0">
					<dim>1</dim>
					<dim>480</dim>
					<dim>1</dim>
					<dim>1</dim>
				</port>
			</output>
		</layer>
		<layer id="197" name="efficientnet-b0/blocks_6/se/mul_1" type="Multiply" version="opset1">
			<data auto_broadcast="numpy" />
			<input>
				<port id="0" precision="FP32">
					<dim>1</dim>
					<dim>480</dim>
					<dim>1</dim>
					<dim>1</dim>
				</port>
				<port id="1" precision="FP32">
					<dim>1</dim>
					<dim>480</dim>
					<dim>32</dim>
					<dim>32</dim>
				</port>
			</input>
			<output>
				<port id="2" precision="FP32" names="efficientnet-b0/blocks_6/se/mul_1:0">
					<dim>1</dim>
					<dim>480</dim>
					<dim>32</dim>
					<dim>32</dim>
				</port>
			</output>
		</layer>
		<layer id="198" name="efficientnet-b0/blocks_6/conv2d_1/Conv2D_weights" type="Const" version="opset1">
			<data element_type="f32" shape="80, 480, 1, 1" offset="667464" size="153600" />
			<output>
				<port id="0" precision="FP32" names="efficientnet-b0/blocks_6/conv2d_1/Conv2D_weights:0">
					<dim>80</dim>
					<dim>480</dim>
					<dim>1</dim>
					<dim>1</dim>
				</port>
			</output>
		</layer>
		<layer id="199" name="efficientnet-b0/blocks_6/conv2d_1/Conv2D" type="Convolution" version="opset1">
			<data strides="1, 1" dilations="1, 1" pads_begin="0, 0" pads_end="0, 0" auto_pad="same_upper" />
			<input>
				<port id="0" precision="FP32">
					<dim>1</dim>
					<dim>480</dim>
					<dim>32</dim>
					<dim>32</dim>
				</port>
				<port id="1" precision="FP32">
					<dim>80</dim>
					<dim>480</dim>
					<dim>1</dim>
					<dim>1</dim>
				</port>
			</input>
			<output>
				<port id="2" precision="FP32" names="efficientnet-b0/blocks_6/conv2d_1/Conv2D:0">
					<dim>1</dim>
					<dim>80</dim>
					<dim>32</dim>
					<dim>32</dim>
				</port>
			</output>
		</layer>
		<layer id="200" name="efficientnet-b0/blocks_6/conv2d_1/Conv2D_bn_offset" type="Const" version="opset1">
			<data element_type="f32" shape="1, 80, 1, 1" offset="821064" size="320" />
			<output>
				<port id="0" precision="FP32" names="efficientnet-b0/blocks_6/conv2d_1/Conv2D_bn_offset:0">
					<dim>1</dim>
					<dim>80</dim>
					<dim>1</dim>
					<dim>1</dim>
				</port>
			</output>
		</layer>
		<layer id="201" name="efficientnet-b0/blocks_6/tpu_batch_normalization_2/FusedBatchNormV3/Add" type="Add" version="opset1">
			<data auto_broadcast="numpy" />
			<input>
				<port id="0" precision="FP32">
					<dim>1</dim>
					<dim>80</dim>
					<dim>32</dim>
					<dim>32</dim>
				</port>
				<port id="1" precision="FP32">
					<dim>1</dim>
					<dim>80</dim>
					<dim>1</dim>
					<dim>1</dim>
				</port>
			</input>
			<output>
				<port id="2" precision="FP32" names="efficientnet-b0/blocks_6/tpu_batch_normalization_2/FusedBatchNormV3:0">
					<dim>1</dim>
					<dim>80</dim>
					<dim>32</dim>
					<dim>32</dim>
				</port>
			</output>
		</layer>
		<layer id="202" name="efficientnet-b0/blocks_6/Add" type="Add" version="opset1">
			<data auto_broadcast="numpy" />
			<input>
				<port id="0" precision="FP32">
					<dim>1</dim>
					<dim>80</dim>
					<dim>32</dim>
					<dim>32</dim>
				</port>
				<port id="1" precision="FP32">
					<dim>1</dim>
					<dim>80</dim>
					<dim>32</dim>
					<dim>32</dim>
				</port>
			</input>
			<output>
				<port id="2" precision="FP32" names="efficientnet-b0/blocks_6/Add:0">
					<dim>1</dim>
					<dim>80</dim>
					<dim>32</dim>
					<dim>32</dim>
				</port>
			</output>
		</layer>
		<layer id="203" name="efficientnet-b0/blocks_7/conv2d/Conv2D_weights" type="Const" version="opset1">
			<data element_type="f32" shape="480, 80, 1, 1" offset="821384" size="153600" />
			<output>
				<port id="0" precision="FP32" names="efficientnet-b0/blocks_7/conv2d/Conv2D_weights:0">
					<dim>480</dim>
					<dim>80</dim>
					<dim>1</dim>
					<dim>1</dim>
				</port>
			</output>
		</layer>
		<layer id="204" name="efficientnet-b0/blocks_7/conv2d/Conv2D" type="Convolution" version="opset1">
			<data strides="1, 1" dilations="1, 1" pads_begin="0, 0" pads_end="0, 0" auto_pad="same_upper" />
			<input>
				<port id="0" precision="FP32">
					<dim>1</dim>
					<dim>80</dim>
					<dim>32</dim>
					<dim>32</dim>
				</port>
				<port id="1" precision="FP32">
					<dim>480</dim>
					<dim>80</dim>
					<dim>1</dim>
					<dim>1</dim>
				</port>
			</input>
			<output>
				<port id="2" precision="FP32" names="efficientnet-b0/blocks_7/conv2d/Conv2D:0">
					<dim>1</dim>
					<dim>480</dim>
					<dim>32</dim>
					<dim>32</dim>
				</port>
			</output>
		</layer>
		<layer id="205" name="efficientnet-b0/blocks_7/conv2d/Conv2D_bn_offset" type="Const" version="opset1">
			<data element_type="f32" shape="1, 480, 1, 1" offset="974984" size="1920" />
			<output>
				<port id="0" precision="FP32" names="efficientnet-b0/blocks_7/conv2d/Conv2D_bn_offset:0">
					<dim>1</dim>
					<dim>480</dim>
					<dim>1</dim>
					<dim>1</dim>
				</port>
			</output>
		</layer>
		<layer id="206" name="efficientnet-b0/blocks_7/tpu_batch_normalization/FusedBatchNormV3/Add" type="Add" version="opset1">
			<data auto_broadcast="numpy" />
			<input>
				<port id="0" precision="FP32">
					<dim>1</dim>
					<dim>480</dim>
					<dim>32</dim>
					<dim>32</dim>
				</port>
				<port id="1" precision="FP32">
					<dim>1</dim>
					<dim>480</dim>
					<dim>1</dim>
					<dim>1</dim>
				</port>
			</input>
			<output>
				<port id="2" precision="FP32" names="efficientnet-b0/blocks_7/tpu_batch_normalization/FusedBatchNormV3:0">
					<dim>1</dim>
					<dim>480</dim>
					<dim>32</dim>
					<dim>32</dim>
				</port>
			</output>
		</layer>
		<layer id="207" name="efficientnet-b0/blocks_7/mul" type="Swish" version="opset4">
			<input>
				<port id="0" precision="FP32">
					<dim>1</dim>
					<dim>480</dim>
					<dim>32</dim>
					<dim>32</dim>
				</port>
			</input>
			<output>
				<port id="1" precision="FP32" names="efficientnet-b0/blocks_7/IdentityN:0,efficientnet-b0/blocks_7/mul:0">
					<dim>1</dim>
					<dim>480</dim>
					<dim>32</dim>
					<dim>32</dim>
				</port>
			</output>
		</layer>
		<layer id="208" name="efficientnet-b0/blocks_7/depthwise_conv2d/depthwise_weights" type="Const" version="opset1">
			<data element_type="f32" shape="480, 1, 1, 3, 3" offset="976904" size="17280" />
			<output>
				<port id="0" precision="FP32" names="efficientnet-b0/blocks_7/depthwise_conv2d/depthwise_weights:0">
					<dim>480</dim>
					<dim>1</dim>
					<dim>1</dim>
					<dim>3</dim>
					<dim>3</dim>
				</port>
			</output>
		</layer>
		<layer id="209" name="efficientnet-b0/blocks_7/depthwise_conv2d/depthwise" type="GroupConvolution" version="opset1">
			<data strides="1, 1" pads_begin="0, 0" pads_end="0, 0" dilations="1, 1" auto_pad="same_upper" />
			<input>
				<port id="0" precision="FP32">
					<dim>1</dim>
					<dim>480</dim>
					<dim>32</dim>
					<dim>32</dim>
				</port>
				<port id="1" precision="FP32">
					<dim>480</dim>
					<dim>1</dim>
					<dim>1</dim>
					<dim>3</dim>
					<dim>3</dim>
				</port>
			</input>
			<output>
				<port id="2" precision="FP32" names="efficientnet-b0/blocks_7/depthwise_conv2d/depthwise:0">
					<dim>1</dim>
					<dim>480</dim>
					<dim>32</dim>
					<dim>32</dim>
				</port>
			</output>
		</layer>
		<layer id="210" name="efficientnet-b0/blocks_7/depthwise_conv2d/depthwise_bn_offset" type="Const" version="opset1">
			<data element_type="f32" shape="1, 480, 1, 1" offset="994184" size="1920" />
			<output>
				<port id="0" precision="FP32" names="efficientnet-b0/blocks_7/depthwise_conv2d/depthwise_bn_offset:0">
					<dim>1</dim>
					<dim>480</dim>
					<dim>1</dim>
					<dim>1</dim>
				</port>
			</output>
		</layer>
		<layer id="211" name="efficientnet-b0/blocks_7/tpu_batch_normalization_1/FusedBatchNormV3/Add" type="Add" version="opset1">
			<data auto_broadcast="numpy" />
			<input>
				<port id="0" precision="FP32">
					<dim>1</dim>
					<dim>480</dim>
					<dim>32</dim>
					<dim>32</dim>
				</port>
				<port id="1" precision="FP32">
					<dim>1</dim>
					<dim>480</dim>
					<dim>1</dim>
					<dim>1</dim>
				</port>
			</input>
			<output>
				<port id="2" precision="FP32" names="efficientnet-b0/blocks_7/tpu_batch_normalization_1/FusedBatchNormV3:0">
					<dim>1</dim>
					<dim>480</dim>
					<dim>32</dim>
					<dim>32</dim>
				</port>
			</output>
		</layer>
		<layer id="212" name="efficientnet-b0/blocks_7/mul_1" type="Swish" version="opset4">
			<input>
				<port id="0" precision="FP32">
					<dim>1</dim>
					<dim>480</dim>
					<dim>32</dim>
					<dim>32</dim>
				</port>
			</input>
			<output>
				<port id="1" precision="FP32" names="efficientnet-b0/blocks_7/IdentityN_1:0,efficientnet-b0/blocks_7/mul_1:0">
					<dim>1</dim>
					<dim>480</dim>
					<dim>32</dim>
					<dim>32</dim>
				</port>
			</output>
		</layer>
		<layer id="213" name="2929948030" type="Const" version="opset1">
			<data element_type="i64" shape="2" offset="4920" size="16" />
			<output>
				<port id="0" precision="I64">
					<dim>2</dim>
				</port>
			</output>
		</layer>
		<layer id="214" name="efficientnet-b0/blocks_7/se/Mean" type="ReduceMean" version="opset1">
			<data keep_dims="true" />
			<input>
				<port id="0" precision="FP32">
					<dim>1</dim>
					<dim>480</dim>
					<dim>32</dim>
					<dim>32</dim>
				</port>
				<port id="1" precision="I64">
					<dim>2</dim>
				</port>
			</input>
			<output>
				<port id="2" precision="FP32" names="efficientnet-b0/blocks_7/se/Mean:0">
					<dim>1</dim>
					<dim>480</dim>
					<dim>1</dim>
					<dim>1</dim>
				</port>
			</output>
		</layer>
		<layer id="215" name="efficientnet-b0/blocks_7/se/conv2d/kernel" type="Const" version="opset1">
			<data element_type="f32" shape="20, 480, 1, 1" offset="996104" size="38400" />
			<output>
				<port id="0" precision="FP32" names="efficientnet-b0/blocks_7/se/conv2d/kernel:0">
					<dim>20</dim>
					<dim>480</dim>
					<dim>1</dim>
					<dim>1</dim>
				</port>
			</output>
		</layer>
		<layer id="216" name="efficientnet-b0/blocks_7/se/conv2d/Conv2D" type="Convolution" version="opset1">
			<data strides="1, 1" dilations="1, 1" pads_begin="0, 0" pads_end="0, 0" auto_pad="same_upper" />
			<input>
				<port id="0" precision="FP32">
					<dim>1</dim>
					<dim>480</dim>
					<dim>1</dim>
					<dim>1</dim>
				</port>
				<port id="1" precision="FP32">
					<dim>20</dim>
					<dim>480</dim>
					<dim>1</dim>
					<dim>1</dim>
				</port>
			</input>
			<output>
				<port id="2" precision="FP32" names="efficientnet-b0/blocks_7/se/conv2d/Conv2D:0">
					<dim>1</dim>
					<dim>20</dim>
					<dim>1</dim>
					<dim>1</dim>
				</port>
			</output>
		</layer>
		<layer id="217" name="efficientnet-b0/blocks_7/se/conv2d/bias" type="Const" version="opset1">
			<data element_type="f32" shape="1, 20, 1, 1" offset="1034504" size="80" />
			<output>
				<port id="0" precision="FP32" names="efficientnet-b0/blocks_7/se/conv2d/bias:0">
					<dim>1</dim>
					<dim>20</dim>
					<dim>1</dim>
					<dim>1</dim>
				</port>
			</output>
		</layer>
		<layer id="218" name="efficientnet-b0/blocks_7/se/conv2d/BiasAdd/Add" type="Add" version="opset1">
			<data auto_broadcast="numpy" />
			<input>
				<port id="0" precision="FP32">
					<dim>1</dim>
					<dim>20</dim>
					<dim>1</dim>
					<dim>1</dim>
				</port>
				<port id="1" precision="FP32">
					<dim>1</dim>
					<dim>20</dim>
					<dim>1</dim>
					<dim>1</dim>
				</port>
			</input>
			<output>
				<port id="2" precision="FP32" names="efficientnet-b0/blocks_7/se/conv2d/BiasAdd:0">
					<dim>1</dim>
					<dim>20</dim>
					<dim>1</dim>
					<dim>1</dim>
				</port>
			</output>
		</layer>
		<layer id="219" name="efficientnet-b0/blocks_7/se/mul" type="Swish" version="opset4">
			<input>
				<port id="0" precision="FP32">
					<dim>1</dim>
					<dim>20</dim>
					<dim>1</dim>
					<dim>1</dim>
				</port>
			</input>
			<output>
				<port id="1" precision="FP32" names="efficientnet-b0/blocks_7/se/IdentityN:0,efficientnet-b0/blocks_7/se/mul:0">
					<dim>1</dim>
					<dim>20</dim>
					<dim>1</dim>
					<dim>1</dim>
				</port>
			</output>
		</layer>
		<layer id="220" name="efficientnet-b0/blocks_7/se/conv2d_1/kernel" type="Const" version="opset1">
			<data element_type="f32" shape="480, 20, 1, 1" offset="1034584" size="38400" />
			<output>
				<port id="0" precision="FP32" names="efficientnet-b0/blocks_7/se/conv2d_1/kernel:0">
					<dim>480</dim>
					<dim>20</dim>
					<dim>1</dim>
					<dim>1</dim>
				</port>
			</output>
		</layer>
		<layer id="221" name="efficientnet-b0/blocks_7/se/conv2d_1/Conv2D" type="Convolution" version="opset1">
			<data strides="1, 1" dilations="1, 1" pads_begin="0, 0" pads_end="0, 0" auto_pad="same_upper" />
			<input>
				<port id="0" precision="FP32">
					<dim>1</dim>
					<dim>20</dim>
					<dim>1</dim>
					<dim>1</dim>
				</port>
				<port id="1" precision="FP32">
					<dim>480</dim>
					<dim>20</dim>
					<dim>1</dim>
					<dim>1</dim>
				</port>
			</input>
			<output>
				<port id="2" precision="FP32" names="efficientnet-b0/blocks_7/se/conv2d_1/Conv2D:0">
					<dim>1</dim>
					<dim>480</dim>
					<dim>1</dim>
					<dim>1</dim>
				</port>
			</output>
		</layer>
		<layer id="222" name="efficientnet-b0/blocks_7/se/conv2d_1/bias" type="Const" version="opset1">
			<data element_type="f32" shape="1, 480, 1, 1" offset="1072984" size="1920" />
			<output>
				<port id="0" precision="FP32" names="efficientnet-b0/blocks_7/se/conv2d_1/bias:0">
					<dim>1</dim>
					<dim>480</dim>
					<dim>1</dim>
					<dim>1</dim>
				</port>
			</output>
		</layer>
		<layer id="223" name="efficientnet-b0/blocks_7/se/conv2d_1/BiasAdd/Add" type="Add" version="opset1">
			<data auto_broadcast="numpy" />
			<input>
				<port id="0" precision="FP32">
					<dim>1</dim>
					<dim>480</dim>
					<dim>1</dim>
					<dim>1</dim>
				</port>
				<port id="1" precision="FP32">
					<dim>1</dim>
					<dim>480</dim>
					<dim>1</dim>
					<dim>1</dim>
				</port>
			</input>
			<output>
				<port id="2" precision="FP32" names="efficientnet-b0/blocks_7/se/conv2d_1/BiasAdd:0">
					<dim>1</dim>
					<dim>480</dim>
					<dim>1</dim>
					<dim>1</dim>
				</port>
			</output>
		</layer>
		<layer id="224" name="efficientnet-b0/blocks_7/se/Sigmoid_1" type="Sigmoid" version="opset1">
			<input>
				<port id="0" precision="FP32">
					<dim>1</dim>
					<dim>480</dim>
					<dim>1</dim>
					<dim>1</dim>
				</port>
			</input>
			<output>
				<port id="1" precision="FP32" names="efficientnet-b0/blocks_7/se/Sigmoid_1:0">
					<dim>1</dim>
					<dim>480</dim>
					<dim>1</dim>
					<dim>1</dim>
				</port>
			</output>
		</layer>
		<layer id="225" name="efficientnet-b0/blocks_7/se/mul_1" type="Multiply" version="opset1">
			<data auto_broadcast="numpy" />
			<input>
				<port id="0" precision="FP32">
					<dim>1</dim>
					<dim>480</dim>
					<dim>1</dim>
					<dim>1</dim>
				</port>
				<port id="1" precision="FP32">
					<dim>1</dim>
					<dim>480</dim>
					<dim>32</dim>
					<dim>32</dim>
				</port>
			</input>
			<output>
				<port id="2" precision="FP32" names="efficientnet-b0/blocks_7/se/mul_1:0">
					<dim>1</dim>
					<dim>480</dim>
					<dim>32</dim>
					<dim>32</dim>
				</port>
			</output>
		</layer>
		<layer id="226" name="efficientnet-b0/blocks_7/conv2d_1/Conv2D_weights" type="Const" version="opset1">
			<data element_type="f32" shape="80, 480, 1, 1" offset="1074904" size="153600" />
			<output>
				<port id="0" precision="FP32" names="efficientnet-b0/blocks_7/conv2d_1/Conv2D_weights:0">
					<dim>80</dim>
					<dim>480</dim>
					<dim>1</dim>
					<dim>1</dim>
				</port>
			</output>
		</layer>
		<layer id="227" name="efficientnet-b0/blocks_7/conv2d_1/Conv2D" type="Convolution" version="opset1">
			<data strides="1, 1" dilations="1, 1" pads_begin="0, 0" pads_end="0, 0" auto_pad="same_upper" />
			<input>
				<port id="0" precision="FP32">
					<dim>1</dim>
					<dim>480</dim>
					<dim>32</dim>
					<dim>32</dim>
				</port>
				<port id="1" precision="FP32">
					<dim>80</dim>
					<dim>480</dim>
					<dim>1</dim>
					<dim>1</dim>
				</port>
			</input>
			<output>
				<port id="2" precision="FP32" names="efficientnet-b0/blocks_7/conv2d_1/Conv2D:0">
					<dim>1</dim>
					<dim>80</dim>
					<dim>32</dim>
					<dim>32</dim>
				</port>
			</output>
		</layer>
		<layer id="228" name="efficientnet-b0/blocks_7/conv2d_1/Conv2D_bn_offset" type="Const" version="opset1">
			<data element_type="f32" shape="1, 80, 1, 1" offset="1228504" size="320" />
			<output>
				<port id="0" precision="FP32" names="efficientnet-b0/blocks_7/conv2d_1/Conv2D_bn_offset:0">
					<dim>1</dim>
					<dim>80</dim>
					<dim>1</dim>
					<dim>1</dim>
				</port>
			</output>
		</layer>
		<layer id="229" name="efficientnet-b0/blocks_7/tpu_batch_normalization_2/FusedBatchNormV3/Add" type="Add" version="opset1">
			<data auto_broadcast="numpy" />
			<input>
				<port id="0" precision="FP32">
					<dim>1</dim>
					<dim>80</dim>
					<dim>32</dim>
					<dim>32</dim>
				</port>
				<port id="1" precision="FP32">
					<dim>1</dim>
					<dim>80</dim>
					<dim>1</dim>
					<dim>1</dim>
				</port>
			</input>
			<output>
				<port id="2" precision="FP32" names="efficientnet-b0/blocks_7/tpu_batch_normalization_2/FusedBatchNormV3:0">
					<dim>1</dim>
					<dim>80</dim>
					<dim>32</dim>
					<dim>32</dim>
				</port>
			</output>
		</layer>
		<layer id="230" name="efficientnet-b0/blocks_7/Add" type="Add" version="opset1">
			<data auto_broadcast="numpy" />
			<input>
				<port id="0" precision="FP32">
					<dim>1</dim>
					<dim>80</dim>
					<dim>32</dim>
					<dim>32</dim>
				</port>
				<port id="1" precision="FP32">
					<dim>1</dim>
					<dim>80</dim>
					<dim>32</dim>
					<dim>32</dim>
				</port>
			</input>
			<output>
				<port id="2" precision="FP32" names="efficientnet-b0/blocks_7/Add:0">
					<dim>1</dim>
					<dim>80</dim>
					<dim>32</dim>
					<dim>32</dim>
				</port>
			</output>
		</layer>
		<layer id="231" name="efficientnet-b0/blocks_8/conv2d/Conv2D_weights" type="Const" version="opset1">
			<data element_type="f32" shape="480, 80, 1, 1" offset="1228824" size="153600" />
			<output>
				<port id="0" precision="FP32" names="efficientnet-b0/blocks_8/conv2d/Conv2D_weights:0">
					<dim>480</dim>
					<dim>80</dim>
					<dim>1</dim>
					<dim>1</dim>
				</port>
			</output>
		</layer>
		<layer id="232" name="efficientnet-b0/blocks_8/conv2d/Conv2D" type="Convolution" version="opset1">
			<data strides="1, 1" dilations="1, 1" pads_begin="0, 0" pads_end="0, 0" auto_pad="same_upper" />
			<input>
				<port id="0" precision="FP32">
					<dim>1</dim>
					<dim>80</dim>
					<dim>32</dim>
					<dim>32</dim>
				</port>
				<port id="1" precision="FP32">
					<dim>480</dim>
					<dim>80</dim>
					<dim>1</dim>
					<dim>1</dim>
				</port>
			</input>
			<output>
				<port id="2" precision="FP32" names="efficientnet-b0/blocks_8/conv2d/Conv2D:0">
					<dim>1</dim>
					<dim>480</dim>
					<dim>32</dim>
					<dim>32</dim>
				</port>
			</output>
		</layer>
		<layer id="233" name="efficientnet-b0/blocks_8/conv2d/Conv2D_bn_offset" type="Const" version="opset1">
			<data element_type="f32" shape="1, 480, 1, 1" offset="1382424" size="1920" />
			<output>
				<port id="0" precision="FP32" names="efficientnet-b0/blocks_8/conv2d/Conv2D_bn_offset:0">
					<dim>1</dim>
					<dim>480</dim>
					<dim>1</dim>
					<dim>1</dim>
				</port>
			</output>
		</layer>
		<layer id="234" name="efficientnet-b0/blocks_8/tpu_batch_normalization/FusedBatchNormV3/Add" type="Add" version="opset1">
			<data auto_broadcast="numpy" />
			<input>
				<port id="0" precision="FP32">
					<dim>1</dim>
					<dim>480</dim>
					<dim>32</dim>
					<dim>32</dim>
				</port>
				<port id="1" precision="FP32">
					<dim>1</dim>
					<dim>480</dim>
					<dim>1</dim>
					<dim>1</dim>
				</port>
			</input>
			<output>
				<port id="2" precision="FP32" names="efficientnet-b0/blocks_8/tpu_batch_normalization/FusedBatchNormV3:0">
					<dim>1</dim>
					<dim>480</dim>
					<dim>32</dim>
					<dim>32</dim>
				</port>
			</output>
		</layer>
		<layer id="235" name="efficientnet-b0/blocks_8/mul" type="Swish" version="opset4">
			<input>
				<port id="0" precision="FP32">
					<dim>1</dim>
					<dim>480</dim>
					<dim>32</dim>
					<dim>32</dim>
				</port>
			</input>
			<output>
				<port id="1" precision="FP32" names="efficientnet-b0/blocks_8/IdentityN:0,efficientnet-b0/blocks_8/mul:0">
					<dim>1</dim>
					<dim>480</dim>
					<dim>32</dim>
					<dim>32</dim>
				</port>
			</output>
		</layer>
		<layer id="236" name="efficientnet-b0/blocks_8/depthwise_conv2d/depthwise_weights" type="Const" version="opset1">
			<data element_type="f32" shape="480, 1, 1, 5, 5" offset="1384344" size="48000" />
			<output>
				<port id="0" precision="FP32" names="efficientnet-b0/blocks_8/depthwise_conv2d/depthwise_weights:0">
					<dim>480</dim>
					<dim>1</dim>
					<dim>1</dim>
					<dim>5</dim>
					<dim>5</dim>
				</port>
			</output>
		</layer>
		<layer id="237" name="efficientnet-b0/blocks_8/depthwise_conv2d/depthwise" type="GroupConvolution" version="opset1">
			<data strides="1, 1" pads_begin="0, 0" pads_end="0, 0" dilations="1, 1" auto_pad="same_upper" />
			<input>
				<port id="0" precision="FP32">
					<dim>1</dim>
					<dim>480</dim>
					<dim>32</dim>
					<dim>32</dim>
				</port>
				<port id="1" precision="FP32">
					<dim>480</dim>
					<dim>1</dim>
					<dim>1</dim>
					<dim>5</dim>
					<dim>5</dim>
				</port>
			</input>
			<output>
				<port id="2" precision="FP32" names="efficientnet-b0/blocks_8/depthwise_conv2d/depthwise:0">
					<dim>1</dim>
					<dim>480</dim>
					<dim>32</dim>
					<dim>32</dim>
				</port>
			</output>
		</layer>
		<layer id="238" name="efficientnet-b0/blocks_8/depthwise_conv2d/depthwise_bn_offset" type="Const" version="opset1">
			<data element_type="f32" shape="1, 480, 1, 1" offset="1432344" size="1920" />
			<output>
				<port id="0" precision="FP32" names="efficientnet-b0/blocks_8/depthwise_conv2d/depthwise_bn_offset:0">
					<dim>1</dim>
					<dim>480</dim>
					<dim>1</dim>
					<dim>1</dim>
				</port>
			</output>
		</layer>
		<layer id="239" name="efficientnet-b0/blocks_8/tpu_batch_normalization_1/FusedBatchNormV3/Add" type="Add" version="opset1">
			<data auto_broadcast="numpy" />
			<input>
				<port id="0" precision="FP32">
					<dim>1</dim>
					<dim>480</dim>
					<dim>32</dim>
					<dim>32</dim>
				</port>
				<port id="1" precision="FP32">
					<dim>1</dim>
					<dim>480</dim>
					<dim>1</dim>
					<dim>1</dim>
				</port>
			</input>
			<output>
				<port id="2" precision="FP32" names="efficientnet-b0/blocks_8/tpu_batch_normalization_1/FusedBatchNormV3:0">
					<dim>1</dim>
					<dim>480</dim>
					<dim>32</dim>
					<dim>32</dim>
				</port>
			</output>
		</layer>
		<layer id="240" name="efficientnet-b0/blocks_8/mul_1" type="Swish" version="opset4">
			<input>
				<port id="0" precision="FP32">
					<dim>1</dim>
					<dim>480</dim>
					<dim>32</dim>
					<dim>32</dim>
				</port>
			</input>
			<output>
				<port id="1" precision="FP32" names="efficientnet-b0/blocks_8/IdentityN_1:0,efficientnet-b0/blocks_8/mul_1:0">
					<dim>1</dim>
					<dim>480</dim>
					<dim>32</dim>
					<dim>32</dim>
				</port>
			</output>
		</layer>
		<layer id="241" name="2932547541" type="Const" version="opset1">
			<data element_type="i64" shape="2" offset="4920" size="16" />
			<output>
				<port id="0" precision="I64">
					<dim>2</dim>
				</port>
			</output>
		</layer>
		<layer id="242" name="efficientnet-b0/blocks_8/se/Mean" type="ReduceMean" version="opset1">
			<data keep_dims="true" />
			<input>
				<port id="0" precision="FP32">
					<dim>1</dim>
					<dim>480</dim>
					<dim>32</dim>
					<dim>32</dim>
				</port>
				<port id="1" precision="I64">
					<dim>2</dim>
				</port>
			</input>
			<output>
				<port id="2" precision="FP32" names="efficientnet-b0/blocks_8/se/Mean:0">
					<dim>1</dim>
					<dim>480</dim>
					<dim>1</dim>
					<dim>1</dim>
				</port>
			</output>
		</layer>
		<layer id="243" name="efficientnet-b0/blocks_8/se/conv2d/kernel" type="Const" version="opset1">
			<data element_type="f32" shape="20, 480, 1, 1" offset="1434264" size="38400" />
			<output>
				<port id="0" precision="FP32" names="efficientnet-b0/blocks_8/se/conv2d/kernel:0">
					<dim>20</dim>
					<dim>480</dim>
					<dim>1</dim>
					<dim>1</dim>
				</port>
			</output>
		</layer>
		<layer id="244" name="efficientnet-b0/blocks_8/se/conv2d/Conv2D" type="Convolution" version="opset1">
			<data strides="1, 1" dilations="1, 1" pads_begin="0, 0" pads_end="0, 0" auto_pad="same_upper" />
			<input>
				<port id="0" precision="FP32">
					<dim>1</dim>
					<dim>480</dim>
					<dim>1</dim>
					<dim>1</dim>
				</port>
				<port id="1" precision="FP32">
					<dim>20</dim>
					<dim>480</dim>
					<dim>1</dim>
					<dim>1</dim>
				</port>
			</input>
			<output>
				<port id="2" precision="FP32" names="efficientnet-b0/blocks_8/se/conv2d/Conv2D:0">
					<dim>1</dim>
					<dim>20</dim>
					<dim>1</dim>
					<dim>1</dim>
				</port>
			</output>
		</layer>
		<layer id="245" name="efficientnet-b0/blocks_8/se/conv2d/bias" type="Const" version="opset1">
			<data element_type="f32" shape="1, 20, 1, 1" offset="1472664" size="80" />
			<output>
				<port id="0" precision="FP32" names="efficientnet-b0/blocks_8/se/conv2d/bias:0">
					<dim>1</dim>
					<dim>20</dim>
					<dim>1</dim>
					<dim>1</dim>
				</port>
			</output>
		</layer>
		<layer id="246" name="efficientnet-b0/blocks_8/se/conv2d/BiasAdd/Add" type="Add" version="opset1">
			<data auto_broadcast="numpy" />
			<input>
				<port id="0" precision="FP32">
					<dim>1</dim>
					<dim>20</dim>
					<dim>1</dim>
					<dim>1</dim>
				</port>
				<port id="1" precision="FP32">
					<dim>1</dim>
					<dim>20</dim>
					<dim>1</dim>
					<dim>1</dim>
				</port>
			</input>
			<output>
				<port id="2" precision="FP32" names="efficientnet-b0/blocks_8/se/conv2d/BiasAdd:0">
					<dim>1</dim>
					<dim>20</dim>
					<dim>1</dim>
					<dim>1</dim>
				</port>
			</output>
		</layer>
		<layer id="247" name="efficientnet-b0/blocks_8/se/mul" type="Swish" version="opset4">
			<input>
				<port id="0" precision="FP32">
					<dim>1</dim>
					<dim>20</dim>
					<dim>1</dim>
					<dim>1</dim>
				</port>
			</input>
			<output>
				<port id="1" precision="FP32" names="efficientnet-b0/blocks_8/se/IdentityN:0,efficientnet-b0/blocks_8/se/mul:0">
					<dim>1</dim>
					<dim>20</dim>
					<dim>1</dim>
					<dim>1</dim>
				</port>
			</output>
		</layer>
		<layer id="248" name="efficientnet-b0/blocks_8/se/conv2d_1/kernel" type="Const" version="opset1">
			<data element_type="f32" shape="480, 20, 1, 1" offset="1472744" size="38400" />
			<output>
				<port id="0" precision="FP32" names="efficientnet-b0/blocks_8/se/conv2d_1/kernel:0">
					<dim>480</dim>
					<dim>20</dim>
					<dim>1</dim>
					<dim>1</dim>
				</port>
			</output>
		</layer>
		<layer id="249" name="efficientnet-b0/blocks_8/se/conv2d_1/Conv2D" type="Convolution" version="opset1">
			<data strides="1, 1" dilations="1, 1" pads_begin="0, 0" pads_end="0, 0" auto_pad="same_upper" />
			<input>
				<port id="0" precision="FP32">
					<dim>1</dim>
					<dim>20</dim>
					<dim>1</dim>
					<dim>1</dim>
				</port>
				<port id="1" precision="FP32">
					<dim>480</dim>
					<dim>20</dim>
					<dim>1</dim>
					<dim>1</dim>
				</port>
			</input>
			<output>
				<port id="2" precision="FP32" names="efficientnet-b0/blocks_8/se/conv2d_1/Conv2D:0">
					<dim>1</dim>
					<dim>480</dim>
					<dim>1</dim>
					<dim>1</dim>
				</port>
			</output>
		</layer>
		<layer id="250" name="efficientnet-b0/blocks_8/se/conv2d_1/bias" type="Const" version="opset1">
			<data element_type="f32" shape="1, 480, 1, 1" offset="1511144" size="1920" />
			<output>
				<port id="0" precision="FP32" names="efficientnet-b0/blocks_8/se/conv2d_1/bias:0">
					<dim>1</dim>
					<dim>480</dim>
					<dim>1</dim>
					<dim>1</dim>
				</port>
			</output>
		</layer>
		<layer id="251" name="efficientnet-b0/blocks_8/se/conv2d_1/BiasAdd/Add" type="Add" version="opset1">
			<data auto_broadcast="numpy" />
			<input>
				<port id="0" precision="FP32">
					<dim>1</dim>
					<dim>480</dim>
					<dim>1</dim>
					<dim>1</dim>
				</port>
				<port id="1" precision="FP32">
					<dim>1</dim>
					<dim>480</dim>
					<dim>1</dim>
					<dim>1</dim>
				</port>
			</input>
			<output>
				<port id="2" precision="FP32" names="efficientnet-b0/blocks_8/se/conv2d_1/BiasAdd:0">
					<dim>1</dim>
					<dim>480</dim>
					<dim>1</dim>
					<dim>1</dim>
				</port>
			</output>
		</layer>
		<layer id="252" name="efficientnet-b0/blocks_8/se/Sigmoid_1" type="Sigmoid" version="opset1">
			<input>
				<port id="0" precision="FP32">
					<dim>1</dim>
					<dim>480</dim>
					<dim>1</dim>
					<dim>1</dim>
				</port>
			</input>
			<output>
				<port id="1" precision="FP32" names="efficientnet-b0/blocks_8/se/Sigmoid_1:0">
					<dim>1</dim>
					<dim>480</dim>
					<dim>1</dim>
					<dim>1</dim>
				</port>
			</output>
		</layer>
		<layer id="253" name="efficientnet-b0/blocks_8/se/mul_1" type="Multiply" version="opset1">
			<data auto_broadcast="numpy" />
			<input>
				<port id="0" precision="FP32">
					<dim>1</dim>
					<dim>480</dim>
					<dim>1</dim>
					<dim>1</dim>
				</port>
				<port id="1" precision="FP32">
					<dim>1</dim>
					<dim>480</dim>
					<dim>32</dim>
					<dim>32</dim>
				</port>
			</input>
			<output>
				<port id="2" precision="FP32" names="efficientnet-b0/blocks_8/se/mul_1:0">
					<dim>1</dim>
					<dim>480</dim>
					<dim>32</dim>
					<dim>32</dim>
				</port>
			</output>
		</layer>
		<layer id="254" name="efficientnet-b0/blocks_8/conv2d_1/Conv2D_weights" type="Const" version="opset1">
			<data element_type="f32" shape="112, 480, 1, 1" offset="1513064" size="215040" />
			<output>
				<port id="0" precision="FP32" names="efficientnet-b0/blocks_8/conv2d_1/Conv2D_weights:0">
					<dim>112</dim>
					<dim>480</dim>
					<dim>1</dim>
					<dim>1</dim>
				</port>
			</output>
		</layer>
		<layer id="255" name="efficientnet-b0/blocks_8/conv2d_1/Conv2D" type="Convolution" version="opset1">
			<data strides="1, 1" dilations="1, 1" pads_begin="0, 0" pads_end="0, 0" auto_pad="same_upper" />
			<input>
				<port id="0" precision="FP32">
					<dim>1</dim>
					<dim>480</dim>
					<dim>32</dim>
					<dim>32</dim>
				</port>
				<port id="1" precision="FP32">
					<dim>112</dim>
					<dim>480</dim>
					<dim>1</dim>
					<dim>1</dim>
				</port>
			</input>
			<output>
				<port id="2" precision="FP32" names="efficientnet-b0/blocks_8/conv2d_1/Conv2D:0">
					<dim>1</dim>
					<dim>112</dim>
					<dim>32</dim>
					<dim>32</dim>
				</port>
			</output>
		</layer>
		<layer id="256" name="efficientnet-b0/blocks_8/conv2d_1/Conv2D_bn_offset" type="Const" version="opset1">
			<data element_type="f32" shape="1, 112, 1, 1" offset="1728104" size="448" />
			<output>
				<port id="0" precision="FP32" names="efficientnet-b0/blocks_8/conv2d_1/Conv2D_bn_offset:0">
					<dim>1</dim>
					<dim>112</dim>
					<dim>1</dim>
					<dim>1</dim>
				</port>
			</output>
		</layer>
		<layer id="257" name="efficientnet-b0/blocks_8/tpu_batch_normalization_2/FusedBatchNormV3/Add" type="Add" version="opset1">
			<data auto_broadcast="numpy" />
			<input>
				<port id="0" precision="FP32">
					<dim>1</dim>
					<dim>112</dim>
					<dim>32</dim>
					<dim>32</dim>
				</port>
				<port id="1" precision="FP32">
					<dim>1</dim>
					<dim>112</dim>
					<dim>1</dim>
					<dim>1</dim>
				</port>
			</input>
			<output>
				<port id="2" precision="FP32" names="efficientnet-b0/blocks_8/tpu_batch_normalization_2/FusedBatchNormV3:0">
					<dim>1</dim>
					<dim>112</dim>
					<dim>32</dim>
					<dim>32</dim>
				</port>
			</output>
		</layer>
		<layer id="258" name="efficientnet-b0/blocks_9/conv2d/Conv2D_weights" type="Const" version="opset1">
			<data element_type="f32" shape="672, 112, 1, 1" offset="1728552" size="301056" />
			<output>
				<port id="0" precision="FP32" names="efficientnet-b0/blocks_9/conv2d/Conv2D_weights:0">
					<dim>672</dim>
					<dim>112</dim>
					<dim>1</dim>
					<dim>1</dim>
				</port>
			</output>
		</layer>
		<layer id="259" name="efficientnet-b0/blocks_9/conv2d/Conv2D" type="Convolution" version="opset1">
			<data strides="1, 1" dilations="1, 1" pads_begin="0, 0" pads_end="0, 0" auto_pad="same_upper" />
			<input>
				<port id="0" precision="FP32">
					<dim>1</dim>
					<dim>112</dim>
					<dim>32</dim>
					<dim>32</dim>
				</port>
				<port id="1" precision="FP32">
					<dim>672</dim>
					<dim>112</dim>
					<dim>1</dim>
					<dim>1</dim>
				</port>
			</input>
			<output>
				<port id="2" precision="FP32" names="efficientnet-b0/blocks_9/conv2d/Conv2D:0">
					<dim>1</dim>
					<dim>672</dim>
					<dim>32</dim>
					<dim>32</dim>
				</port>
			</output>
		</layer>
		<layer id="260" name="efficientnet-b0/blocks_9/conv2d/Conv2D_bn_offset" type="Const" version="opset1">
			<data element_type="f32" shape="1, 672, 1, 1" offset="2029608" size="2688" />
			<output>
				<port id="0" precision="FP32" names="efficientnet-b0/blocks_9/conv2d/Conv2D_bn_offset:0">
					<dim>1</dim>
					<dim>672</dim>
					<dim>1</dim>
					<dim>1</dim>
				</port>
			</output>
		</layer>
		<layer id="261" name="efficientnet-b0/blocks_9/tpu_batch_normalization/FusedBatchNormV3/Add" type="Add" version="opset1">
			<data auto_broadcast="numpy" />
			<input>
				<port id="0" precision="FP32">
					<dim>1</dim>
					<dim>672</dim>
					<dim>32</dim>
					<dim>32</dim>
				</port>
				<port id="1" precision="FP32">
					<dim>1</dim>
					<dim>672</dim>
					<dim>1</dim>
					<dim>1</dim>
				</port>
			</input>
			<output>
				<port id="2" precision="FP32" names="efficientnet-b0/blocks_9/tpu_batch_normalization/FusedBatchNormV3:0">
					<dim>1</dim>
					<dim>672</dim>
					<dim>32</dim>
					<dim>32</dim>
				</port>
			</output>
		</layer>
		<layer id="262" name="efficientnet-b0/blocks_9/mul" type="Swish" version="opset4">
			<input>
				<port id="0" precision="FP32">
					<dim>1</dim>
					<dim>672</dim>
					<dim>32</dim>
					<dim>32</dim>
				</port>
			</input>
			<output>
				<port id="1" precision="FP32" names="efficientnet-b0/blocks_9/IdentityN:0,efficientnet-b0/blocks_9/mul:0">
					<dim>1</dim>
					<dim>672</dim>
					<dim>32</dim>
					<dim>32</dim>
				</port>
			</output>
		</layer>
		<layer id="263" name="efficientnet-b0/blocks_9/depthwise_conv2d/depthwise_weights" type="Const" version="opset1">
			<data element_type="f32" shape="672, 1, 1, 5, 5" offset="2032296" size="67200" />
			<output>
				<port id="0" precision="FP32" names="efficientnet-b0/blocks_9/depthwise_conv2d/depthwise_weights:0">
					<dim>672</dim>
					<dim>1</dim>
					<dim>1</dim>
					<dim>5</dim>
					<dim>5</dim>
				</port>
			</output>
		</layer>
		<layer id="264" name="efficientnet-b0/blocks_9/depthwise_conv2d/depthwise" type="GroupConvolution" version="opset1">
			<data strides="1, 1" pads_begin="0, 0" pads_end="0, 0" dilations="1, 1" auto_pad="same_upper" />
			<input>
				<port id="0" precision="FP32">
					<dim>1</dim>
					<dim>672</dim>
					<dim>32</dim>
					<dim>32</dim>
				</port>
				<port id="1" precision="FP32">
					<dim>672</dim>
					<dim>1</dim>
					<dim>1</dim>
					<dim>5</dim>
					<dim>5</dim>
				</port>
			</input>
			<output>
				<port id="2" precision="FP32" names="efficientnet-b0/blocks_9/depthwise_conv2d/depthwise:0">
					<dim>1</dim>
					<dim>672</dim>
					<dim>32</dim>
					<dim>32</dim>
				</port>
			</output>
		</layer>
		<layer id="265" name="efficientnet-b0/blocks_9/depthwise_conv2d/depthwise_bn_offset" type="Const" version="opset1">
			<data element_type="f32" shape="1, 672, 1, 1" offset="2099496" size="2688" />
			<output>
				<port id="0" precision="FP32" names="efficientnet-b0/blocks_9/depthwise_conv2d/depthwise_bn_offset:0">
					<dim>1</dim>
					<dim>672</dim>
					<dim>1</dim>
					<dim>1</dim>
				</port>
			</output>
		</layer>
		<layer id="266" name="efficientnet-b0/blocks_9/tpu_batch_normalization_1/FusedBatchNormV3/Add" type="Add" version="opset1">
			<data auto_broadcast="numpy" />
			<input>
				<port id="0" precision="FP32">
					<dim>1</dim>
					<dim>672</dim>
					<dim>32</dim>
					<dim>32</dim>
				</port>
				<port id="1" precision="FP32">
					<dim>1</dim>
					<dim>672</dim>
					<dim>1</dim>
					<dim>1</dim>
				</port>
			</input>
			<output>
				<port id="2" precision="FP32" names="efficientnet-b0/blocks_9/tpu_batch_normalization_1/FusedBatchNormV3:0">
					<dim>1</dim>
					<dim>672</dim>
					<dim>32</dim>
					<dim>32</dim>
				</port>
			</output>
		</layer>
		<layer id="267" name="efficientnet-b0/blocks_9/mul_1" type="Swish" version="opset4">
			<input>
				<port id="0" precision="FP32">
					<dim>1</dim>
					<dim>672</dim>
					<dim>32</dim>
					<dim>32</dim>
				</port>
			</input>
			<output>
				<port id="1" precision="FP32" names="efficientnet-b0/blocks_9/IdentityN_1:0,efficientnet-b0/blocks_9/mul_1:0">
					<dim>1</dim>
					<dim>672</dim>
					<dim>32</dim>
					<dim>32</dim>
				</port>
			</output>
		</layer>
		<layer id="268" name="2935147982" type="Const" version="opset1">
			<data element_type="i64" shape="2" offset="4920" size="16" />
			<output>
				<port id="0" precision="I64">
					<dim>2</dim>
				</port>
			</output>
		</layer>
		<layer id="269" name="efficientnet-b0/blocks_9/se/Mean" type="ReduceMean" version="opset1">
			<data keep_dims="true" />
			<input>
				<port id="0" precision="FP32">
					<dim>1</dim>
					<dim>672</dim>
					<dim>32</dim>
					<dim>32</dim>
				</port>
				<port id="1" precision="I64">
					<dim>2</dim>
				</port>
			</input>
			<output>
				<port id="2" precision="FP32" names="efficientnet-b0/blocks_9/se/Mean:0">
					<dim>1</dim>
					<dim>672</dim>
					<dim>1</dim>
					<dim>1</dim>
				</port>
			</output>
		</layer>
		<layer id="270" name="efficientnet-b0/blocks_9/se/conv2d/kernel" type="Const" version="opset1">
			<data element_type="f32" shape="28, 672, 1, 1" offset="2102184" size="75264" />
			<output>
				<port id="0" precision="FP32" names="efficientnet-b0/blocks_9/se/conv2d/kernel:0">
					<dim>28</dim>
					<dim>672</dim>
					<dim>1</dim>
					<dim>1</dim>
				</port>
			</output>
		</layer>
		<layer id="271" name="efficientnet-b0/blocks_9/se/conv2d/Conv2D" type="Convolution" version="opset1">
			<data strides="1, 1" dilations="1, 1" pads_begin="0, 0" pads_end="0, 0" auto_pad="same_upper" />
			<input>
				<port id="0" precision="FP32">
					<dim>1</dim>
					<dim>672</dim>
					<dim>1</dim>
					<dim>1</dim>
				</port>
				<port id="1" precision="FP32">
					<dim>28</dim>
					<dim>672</dim>
					<dim>1</dim>
					<dim>1</dim>
				</port>
			</input>
			<output>
				<port id="2" precision="FP32" names="efficientnet-b0/blocks_9/se/conv2d/Conv2D:0">
					<dim>1</dim>
					<dim>28</dim>
					<dim>1</dim>
					<dim>1</dim>
				</port>
			</output>
		</layer>
		<layer id="272" name="efficientnet-b0/blocks_9/se/conv2d/bias" type="Const" version="opset1">
			<data element_type="f32" shape="1, 28, 1, 1" offset="2177448" size="112" />
			<output>
				<port id="0" precision="FP32" names="efficientnet-b0/blocks_9/se/conv2d/bias:0">
					<dim>1</dim>
					<dim>28</dim>
					<dim>1</dim>
					<dim>1</dim>
				</port>
			</output>
		</layer>
		<layer id="273" name="efficientnet-b0/blocks_9/se/conv2d/BiasAdd/Add" type="Add" version="opset1">
			<data auto_broadcast="numpy" />
			<input>
				<port id="0" precision="FP32">
					<dim>1</dim>
					<dim>28</dim>
					<dim>1</dim>
					<dim>1</dim>
				</port>
				<port id="1" precision="FP32">
					<dim>1</dim>
					<dim>28</dim>
					<dim>1</dim>
					<dim>1</dim>
				</port>
			</input>
			<output>
				<port id="2" precision="FP32" names="efficientnet-b0/blocks_9/se/conv2d/BiasAdd:0">
					<dim>1</dim>
					<dim>28</dim>
					<dim>1</dim>
					<dim>1</dim>
				</port>
			</output>
		</layer>
		<layer id="274" name="efficientnet-b0/blocks_9/se/mul" type="Swish" version="opset4">
			<input>
				<port id="0" precision="FP32">
					<dim>1</dim>
					<dim>28</dim>
					<dim>1</dim>
					<dim>1</dim>
				</port>
			</input>
			<output>
				<port id="1" precision="FP32" names="efficientnet-b0/blocks_9/se/IdentityN:0,efficientnet-b0/blocks_9/se/mul:0">
					<dim>1</dim>
					<dim>28</dim>
					<dim>1</dim>
					<dim>1</dim>
				</port>
			</output>
		</layer>
		<layer id="275" name="efficientnet-b0/blocks_9/se/conv2d_1/kernel" type="Const" version="opset1">
			<data element_type="f32" shape="672, 28, 1, 1" offset="2177560" size="75264" />
			<output>
				<port id="0" precision="FP32" names="efficientnet-b0/blocks_9/se/conv2d_1/kernel:0">
					<dim>672</dim>
					<dim>28</dim>
					<dim>1</dim>
					<dim>1</dim>
				</port>
			</output>
		</layer>
		<layer id="276" name="efficientnet-b0/blocks_9/se/conv2d_1/Conv2D" type="Convolution" version="opset1">
			<data strides="1, 1" dilations="1, 1" pads_begin="0, 0" pads_end="0, 0" auto_pad="same_upper" />
			<input>
				<port id="0" precision="FP32">
					<dim>1</dim>
					<dim>28</dim>
					<dim>1</dim>
					<dim>1</dim>
				</port>
				<port id="1" precision="FP32">
					<dim>672</dim>
					<dim>28</dim>
					<dim>1</dim>
					<dim>1</dim>
				</port>
			</input>
			<output>
				<port id="2" precision="FP32" names="efficientnet-b0/blocks_9/se/conv2d_1/Conv2D:0">
					<dim>1</dim>
					<dim>672</dim>
					<dim>1</dim>
					<dim>1</dim>
				</port>
			</output>
		</layer>
		<layer id="277" name="efficientnet-b0/blocks_9/se/conv2d_1/bias" type="Const" version="opset1">
			<data element_type="f32" shape="1, 672, 1, 1" offset="2252824" size="2688" />
			<output>
				<port id="0" precision="FP32" names="efficientnet-b0/blocks_9/se/conv2d_1/bias:0">
					<dim>1</dim>
					<dim>672</dim>
					<dim>1</dim>
					<dim>1</dim>
				</port>
			</output>
		</layer>
		<layer id="278" name="efficientnet-b0/blocks_9/se/conv2d_1/BiasAdd/Add" type="Add" version="opset1">
			<data auto_broadcast="numpy" />
			<input>
				<port id="0" precision="FP32">
					<dim>1</dim>
					<dim>672</dim>
					<dim>1</dim>
					<dim>1</dim>
				</port>
				<port id="1" precision="FP32">
					<dim>1</dim>
					<dim>672</dim>
					<dim>1</dim>
					<dim>1</dim>
				</port>
			</input>
			<output>
				<port id="2" precision="FP32" names="efficientnet-b0/blocks_9/se/conv2d_1/BiasAdd:0">
					<dim>1</dim>
					<dim>672</dim>
					<dim>1</dim>
					<dim>1</dim>
				</port>
			</output>
		</layer>
		<layer id="279" name="efficientnet-b0/blocks_9/se/Sigmoid_1" type="Sigmoid" version="opset1">
			<input>
				<port id="0" precision="FP32">
					<dim>1</dim>
					<dim>672</dim>
					<dim>1</dim>
					<dim>1</dim>
				</port>
			</input>
			<output>
				<port id="1" precision="FP32" names="efficientnet-b0/blocks_9/se/Sigmoid_1:0">
					<dim>1</dim>
					<dim>672</dim>
					<dim>1</dim>
					<dim>1</dim>
				</port>
			</output>
		</layer>
		<layer id="280" name="efficientnet-b0/blocks_9/se/mul_1" type="Multiply" version="opset1">
			<data auto_broadcast="numpy" />
			<input>
				<port id="0" precision="FP32">
					<dim>1</dim>
					<dim>672</dim>
					<dim>1</dim>
					<dim>1</dim>
				</port>
				<port id="1" precision="FP32">
					<dim>1</dim>
					<dim>672</dim>
					<dim>32</dim>
					<dim>32</dim>
				</port>
			</input>
			<output>
				<port id="2" precision="FP32" names="efficientnet-b0/blocks_9/se/mul_1:0">
					<dim>1</dim>
					<dim>672</dim>
					<dim>32</dim>
					<dim>32</dim>
				</port>
			</output>
		</layer>
		<layer id="281" name="efficientnet-b0/blocks_9/conv2d_1/Conv2D_weights" type="Const" version="opset1">
			<data element_type="f32" shape="112, 672, 1, 1" offset="2255512" size="301056" />
			<output>
				<port id="0" precision="FP32" names="efficientnet-b0/blocks_9/conv2d_1/Conv2D_weights:0">
					<dim>112</dim>
					<dim>672</dim>
					<dim>1</dim>
					<dim>1</dim>
				</port>
			</output>
		</layer>
		<layer id="282" name="efficientnet-b0/blocks_9/conv2d_1/Conv2D" type="Convolution" version="opset1">
			<data strides="1, 1" dilations="1, 1" pads_begin="0, 0" pads_end="0, 0" auto_pad="same_upper" />
			<input>
				<port id="0" precision="FP32">
					<dim>1</dim>
					<dim>672</dim>
					<dim>32</dim>
					<dim>32</dim>
				</port>
				<port id="1" precision="FP32">
					<dim>112</dim>
					<dim>672</dim>
					<dim>1</dim>
					<dim>1</dim>
				</port>
			</input>
			<output>
				<port id="2" precision="FP32" names="efficientnet-b0/blocks_9/conv2d_1/Conv2D:0">
					<dim>1</dim>
					<dim>112</dim>
					<dim>32</dim>
					<dim>32</dim>
				</port>
			</output>
		</layer>
		<layer id="283" name="efficientnet-b0/blocks_9/conv2d_1/Conv2D_bn_offset" type="Const" version="opset1">
			<data element_type="f32" shape="1, 112, 1, 1" offset="2556568" size="448" />
			<output>
				<port id="0" precision="FP32" names="efficientnet-b0/blocks_9/conv2d_1/Conv2D_bn_offset:0">
					<dim>1</dim>
					<dim>112</dim>
					<dim>1</dim>
					<dim>1</dim>
				</port>
			</output>
		</layer>
		<layer id="284" name="efficientnet-b0/blocks_9/tpu_batch_normalization_2/FusedBatchNormV3/Add" type="Add" version="opset1">
			<data auto_broadcast="numpy" />
			<input>
				<port id="0" precision="FP32">
					<dim>1</dim>
					<dim>112</dim>
					<dim>32</dim>
					<dim>32</dim>
				</port>
				<port id="1" precision="FP32">
					<dim>1</dim>
					<dim>112</dim>
					<dim>1</dim>
					<dim>1</dim>
				</port>
			</input>
			<output>
				<port id="2" precision="FP32" names="efficientnet-b0/blocks_9/tpu_batch_normalization_2/FusedBatchNormV3:0">
					<dim>1</dim>
					<dim>112</dim>
					<dim>32</dim>
					<dim>32</dim>
				</port>
			</output>
		</layer>
		<layer id="285" name="efficientnet-b0/blocks_9/Add" type="Add" version="opset1">
			<data auto_broadcast="numpy" />
			<input>
				<port id="0" precision="FP32">
					<dim>1</dim>
					<dim>112</dim>
					<dim>32</dim>
					<dim>32</dim>
				</port>
				<port id="1" precision="FP32">
					<dim>1</dim>
					<dim>112</dim>
					<dim>32</dim>
					<dim>32</dim>
				</port>
			</input>
			<output>
				<port id="2" precision="FP32" names="efficientnet-b0/blocks_9/Add:0">
					<dim>1</dim>
					<dim>112</dim>
					<dim>32</dim>
					<dim>32</dim>
				</port>
			</output>
		</layer>
		<layer id="286" name="efficientnet-b0/blocks_10/conv2d/Conv2D_weights" type="Const" version="opset1">
			<data element_type="f32" shape="672, 112, 1, 1" offset="2557016" size="301056" />
			<output>
				<port id="0" precision="FP32" names="efficientnet-b0/blocks_10/conv2d/Conv2D_weights:0">
					<dim>672</dim>
					<dim>112</dim>
					<dim>1</dim>
					<dim>1</dim>
				</port>
			</output>
		</layer>
		<layer id="287" name="efficientnet-b0/blocks_10/conv2d/Conv2D" type="Convolution" version="opset1">
			<data strides="1, 1" dilations="1, 1" pads_begin="0, 0" pads_end="0, 0" auto_pad="same_upper" />
			<input>
				<port id="0" precision="FP32">
					<dim>1</dim>
					<dim>112</dim>
					<dim>32</dim>
					<dim>32</dim>
				</port>
				<port id="1" precision="FP32">
					<dim>672</dim>
					<dim>112</dim>
					<dim>1</dim>
					<dim>1</dim>
				</port>
			</input>
			<output>
				<port id="2" precision="FP32" names="efficientnet-b0/blocks_10/conv2d/Conv2D:0">
					<dim>1</dim>
					<dim>672</dim>
					<dim>32</dim>
					<dim>32</dim>
				</port>
			</output>
		</layer>
		<layer id="288" name="efficientnet-b0/blocks_10/conv2d/Conv2D_bn_offset" type="Const" version="opset1">
			<data element_type="f32" shape="1, 672, 1, 1" offset="2858072" size="2688" />
			<output>
				<port id="0" precision="FP32" names="efficientnet-b0/blocks_10/conv2d/Conv2D_bn_offset:0">
					<dim>1</dim>
					<dim>672</dim>
					<dim>1</dim>
					<dim>1</dim>
				</port>
			</output>
		</layer>
		<layer id="289" name="efficientnet-b0/blocks_10/tpu_batch_normalization/FusedBatchNormV3/Add" type="Add" version="opset1">
			<data auto_broadcast="numpy" />
			<input>
				<port id="0" precision="FP32">
					<dim>1</dim>
					<dim>672</dim>
					<dim>32</dim>
					<dim>32</dim>
				</port>
				<port id="1" precision="FP32">
					<dim>1</dim>
					<dim>672</dim>
					<dim>1</dim>
					<dim>1</dim>
				</port>
			</input>
			<output>
				<port id="2" precision="FP32" names="efficientnet-b0/blocks_10/tpu_batch_normalization/FusedBatchNormV3:0">
					<dim>1</dim>
					<dim>672</dim>
					<dim>32</dim>
					<dim>32</dim>
				</port>
			</output>
		</layer>
		<layer id="290" name="efficientnet-b0/blocks_10/mul" type="Swish" version="opset4">
			<input>
				<port id="0" precision="FP32">
					<dim>1</dim>
					<dim>672</dim>
					<dim>32</dim>
					<dim>32</dim>
				</port>
			</input>
			<output>
				<port id="1" precision="FP32" names="efficientnet-b0/blocks_10/IdentityN:0,efficientnet-b0/blocks_10/mul:0">
					<dim>1</dim>
					<dim>672</dim>
					<dim>32</dim>
					<dim>32</dim>
				</port>
			</output>
		</layer>
		<layer id="291" name="efficientnet-b0/blocks_10/depthwise_conv2d/depthwise_weights" type="Const" version="opset1">
			<data element_type="f32" shape="672, 1, 1, 5, 5" offset="2860760" size="67200" />
			<output>
				<port id="0" precision="FP32" names="efficientnet-b0/blocks_10/depthwise_conv2d/depthwise_weights:0">
					<dim>672</dim>
					<dim>1</dim>
					<dim>1</dim>
					<dim>5</dim>
					<dim>5</dim>
				</port>
			</output>
		</layer>
		<layer id="292" name="efficientnet-b0/blocks_10/depthwise_conv2d/depthwise" type="GroupConvolution" version="opset1">
			<data strides="1, 1" pads_begin="0, 0" pads_end="0, 0" dilations="1, 1" auto_pad="same_upper" />
			<input>
…
		<edge from-layer="534" from-port="0" to-layer="535" to-port="1" />
		<edge from-layer="535" from-port="2" to-layer="655" to-port="0" />
		<edge from-layer="536" from-port="0" to-layer="537" to-port="1" />
		<edge from-layer="537" from-port="2" to-layer="539" to-port="0" />
		<edge from-layer="538" from-port="0" to-layer="539" to-port="1" />
		<edge from-layer="539" from-port="2" to-layer="542" to-port="0" />
		<edge from-layer="540" from-port="0" to-layer="541" to-port="1" />
		<edge from-layer="541" from-port="2" to-layer="542" to-port="1" />
		<edge from-layer="542" from-port="2" to-layer="546" to-port="0" />
		<edge from-layer="543" from-port="1" to-layer="545" to-port="0" />
		<edge from-layer="544" from-port="0" to-layer="545" to-port="1" />
		<edge from-layer="545" from-port="2" to-layer="546" to-port="1" />
		<edge from-layer="546" from-port="2" to-layer="547" to-port="0" />
		<edge from-layer="547" from-port="1" to-layer="549" to-port="0" />
		<edge from-layer="548" from-port="0" to-layer="549" to-port="1" />
		<edge from-layer="549" from-port="2" to-layer="551" to-port="0" />
		<edge from-layer="550" from-port="0" to-layer="551" to-port="1" />
		<edge from-layer="551" from-port="2" to-layer="553" to-port="0" />
		<edge from-layer="552" from-port="0" to-layer="553" to-port="1" />
		<edge from-layer="553" from-port="2" to-layer="563" to-port="0" />
		<edge from-layer="553" from-port="2" to-layer="555" to-port="0" />
		<edge from-layer="553" from-port="2" to-layer="666" to-port="0" />
		<edge from-layer="554" from-port="0" to-layer="555" to-port="1" />
		<edge from-layer="555" from-port="2" to-layer="641" to-port="0" />
		<edge from-layer="556" from-port="0" to-layer="557" to-port="1" />
		<edge from-layer="557" from-port="2" to-layer="559" to-port="0" />
		<edge from-layer="558" from-port="0" to-layer="559" to-port="1" />
		<edge from-layer="559" from-port="2" to-layer="562" to-port="0" />
		<edge from-layer="560" from-port="0" to-layer="561" to-port="1" />
		<edge from-layer="561" from-port="2" to-layer="562" to-port="1" />
		<edge from-layer="562" from-port="2" to-layer="566" to-port="0" />
		<edge from-layer="563" from-port="1" to-layer="565" to-port="0" />
		<edge from-layer="564" from-port="0" to-layer="565" to-port="1" />
		<edge from-layer="565" from-port="2" to-layer="566" to-port="1" />
		<edge from-layer="566" from-port="2" to-layer="567" to-port="0" />
		<edge from-layer="567" from-port="1" to-layer="569" to-port="0" />
		<edge from-layer="568" from-port="0" to-layer="569" to-port="1" />
		<edge from-layer="569" from-port="2" to-layer="571" to-port="0" />
		<edge from-layer="570" from-port="0" to-layer="571" to-port="1" />
		<edge from-layer="571" from-port="2" to-layer="573" to-port="0" />
		<edge from-layer="572" from-port="0" to-layer="573" to-port="1" />
		<edge from-layer="573" from-port="2" to-layer="581" to-port="0" />
		<edge from-layer="573" from-port="2" to-layer="575" to-port="0" />
		<edge from-layer="573" from-port="2" to-layer="684" to-port="0" />
		<edge from-layer="574" from-port="0" to-layer="575" to-port="1" />
		<edge from-layer="575" from-port="2" to-layer="627" to-port="0" />
		<edge from-layer="576" from-port="0" to-layer="577" to-port="1" />
		<edge from-layer="577" from-port="2" to-layer="580" to-port="0" />
		<edge from-layer="578" from-port="0" to-layer="579" to-port="1" />
		<edge from-layer="579" from-port="2" to-layer="580" to-port="1" />
		<edge from-layer="580" from-port="2" to-layer="584" to-port="0" />
		<edge from-layer="581" from-port="1" to-layer="583" to-port="0" />
		<edge from-layer="582" from-port="0" to-layer="583" to-port="1" />
		<edge from-layer="583" from-port="2" to-layer="584" to-port="1" />
		<edge from-layer="584" from-port="2" to-layer="585" to-port="0" />
		<edge from-layer="585" from-port="1" to-layer="587" to-port="0" />
		<edge from-layer="586" from-port="0" to-layer="587" to-port="1" />
		<edge from-layer="587" from-port="2" to-layer="589" to-port="0" />
		<edge from-layer="588" from-port="0" to-layer="589" to-port="1" />
		<edge from-layer="589" from-port="2" to-layer="591" to-port="0" />
		<edge from-layer="590" from-port="0" to-layer="591" to-port="1" />
		<edge from-layer="591" from-port="2" to-layer="593" to-port="0" />
		<edge from-layer="591" from-port="2" to-layer="596" to-port="0" />
		<edge from-layer="591" from-port="2" to-layer="702" to-port="0" />
		<edge from-layer="592" from-port="0" to-layer="593" to-port="1" />
		<edge from-layer="593" from-port="2" to-layer="613" to-port="0" />
		<edge from-layer="594" from-port="0" to-layer="595" to-port="1" />
		<edge from-layer="595" from-port="2" to-layer="599" to-port="0" />
		<edge from-layer="596" from-port="1" to-layer="598" to-port="0" />
		<edge from-layer="597" from-port="0" to-layer="598" to-port="1" />
		<edge from-layer="598" from-port="2" to-layer="599" to-port="1" />
		<edge from-layer="599" from-port="2" to-layer="600" to-port="0" />
		<edge from-layer="600" from-port="1" to-layer="602" to-port="0" />
		<edge from-layer="601" from-port="0" to-layer="602" to-port="1" />
		<edge from-layer="602" from-port="2" to-layer="604" to-port="0" />
		<edge from-layer="603" from-port="0" to-layer="604" to-port="1" />
		<edge from-layer="604" from-port="2" to-layer="606" to-port="0" />
		<edge from-layer="605" from-port="0" to-layer="606" to-port="1" />
		<edge from-layer="606" from-port="2" to-layer="610" to-port="0" />
		<edge from-layer="606" from-port="2" to-layer="720" to-port="0" />
		<edge from-layer="607" from-port="0" to-layer="610" to-port="1" />
		<edge from-layer="608" from-port="0" to-layer="610" to-port="2" />
		<edge from-layer="609" from-port="0" to-layer="610" to-port="3" />
		<edge from-layer="610" from-port="4" to-layer="612" to-port="0" />
		<edge from-layer="611" from-port="0" to-layer="612" to-port="1" />
		<edge from-layer="612" from-port="2" to-layer="613" to-port="1" />
		<edge from-layer="613" from-port="2" to-layer="614" to-port="0" />
		<edge from-layer="614" from-port="1" to-layer="616" to-port="0" />
		<edge from-layer="615" from-port="0" to-layer="616" to-port="1" />
		<edge from-layer="616" from-port="2" to-layer="618" to-port="0" />
		<edge from-layer="617" from-port="0" to-layer="618" to-port="1" />
		<edge from-layer="618" from-port="2" to-layer="620" to-port="0" />
		<edge from-layer="619" from-port="0" to-layer="620" to-port="1" />
		<edge from-layer="620" from-port="2" to-layer="704" to-port="0" />
		<edge from-layer="620" from-port="2" to-layer="624" to-port="0" />
		<edge from-layer="621" from-port="0" to-layer="624" to-port="1" />
		<edge from-layer="622" from-port="0" to-layer="624" to-port="2" />
		<edge from-layer="623" from-port="0" to-layer="624" to-port="3" />
		<edge from-layer="624" from-port="4" to-layer="626" to-port="0" />
		<edge from-layer="625" from-port="0" to-layer="626" to-port="1" />
		<edge from-layer="626" from-port="2" to-layer="627" to-port="1" />
		<edge from-layer="627" from-port="2" to-layer="628" to-port="0" />
		<edge from-layer="628" from-port="1" to-layer="630" to-port="0" />
		<edge from-layer="629" from-port="0" to-layer="630" to-port="1" />
		<edge from-layer="630" from-port="2" to-layer="632" to-port="0" />
		<edge from-layer="631" from-port="0" to-layer="632" to-port="1" />
		<edge from-layer="632" from-port="2" to-layer="634" to-port="0" />
		<edge from-layer="633" from-port="0" to-layer="634" to-port="1" />
		<edge from-layer="634" from-port="2" to-layer="638" to-port="0" />
		<edge from-layer="634" from-port="2" to-layer="686" to-port="0" />
		<edge from-layer="635" from-port="0" to-layer="638" to-port="1" />
		<edge from-layer="636" from-port="0" to-layer="638" to-port="2" />
		<edge from-layer="637" from-port="0" to-layer="638" to-port="3" />
		<edge from-layer="638" from-port="4" to-layer="640" to-port="0" />
		<edge from-layer="639" from-port="0" to-layer="640" to-port="1" />
		<edge from-layer="640" from-port="2" to-layer="641" to-port="1" />
		<edge from-layer="641" from-port="2" to-layer="642" to-port="0" />
		<edge from-layer="642" from-port="1" to-layer="644" to-port="0" />
		<edge from-layer="643" from-port="0" to-layer="644" to-port="1" />
		<edge from-layer="644" from-port="2" to-layer="646" to-port="0" />
		<edge from-layer="645" from-port="0" to-layer="646" to-port="1" />
		<edge from-layer="646" from-port="2" to-layer="648" to-port="0" />
		<edge from-layer="647" from-port="0" to-layer="648" to-port="1" />
		<edge from-layer="648" from-port="2" to-layer="668" to-port="0" />
		<edge from-layer="648" from-port="2" to-layer="652" to-port="0" />
		<edge from-layer="649" from-port="0" to-layer="652" to-port="1" />
		<edge from-layer="650" from-port="0" to-layer="652" to-port="2" />
		<edge from-layer="651" from-port="0" to-layer="652" to-port="3" />
		<edge from-layer="652" from-port="4" to-layer="654" to-port="0" />
		<edge from-layer="653" from-port="0" to-layer="654" to-port="1" />
		<edge from-layer="654" from-port="2" to-layer="655" to-port="1" />
		<edge from-layer="655" from-port="2" to-layer="656" to-port="0" />
		<edge from-layer="656" from-port="1" to-layer="658" to-port="0" />
		<edge from-layer="657" from-port="0" to-layer="658" to-port="1" />
		<edge from-layer="658" from-port="2" to-layer="660" to-port="0" />
		<edge from-layer="659" from-port="0" to-layer="660" to-port="1" />
		<edge from-layer="660" from-port="2" to-layer="662" to-port="0" />
		<edge from-layer="661" from-port="0" to-layer="662" to-port="1" />
		<edge from-layer="662" from-port="2" to-layer="664" to-port="0" />
		<edge from-layer="662" from-port="2" to-layer="670" to-port="0" />
		<edge from-layer="663" from-port="0" to-layer="664" to-port="1" />
		<edge from-layer="664" from-port="2" to-layer="780" to-port="0" />
		<edge from-layer="665" from-port="0" to-layer="666" to-port="1" />
		<edge from-layer="666" from-port="2" to-layer="669" to-port="0" />
		<edge from-layer="667" from-port="0" to-layer="668" to-port="1" />
		<edge from-layer="668" from-port="2" to-layer="669" to-port="1" />
		<edge from-layer="669" from-port="2" to-layer="673" to-port="0" />
		<edge from-layer="670" from-port="1" to-layer="672" to-port="0" />
		<edge from-layer="671" from-port="0" to-layer="672" to-port="1" />
		<edge from-layer="672" from-port="2" to-layer="673" to-port="1" />
		<edge from-layer="673" from-port="2" to-layer="674" to-port="0" />
		<edge from-layer="674" from-port="1" to-layer="676" to-port="0" />
		<edge from-layer="675" from-port="0" to-layer="676" to-port="1" />
		<edge from-layer="676" from-port="2" to-layer="678" to-port="0" />
		<edge from-layer="677" from-port="0" to-layer="678" to-port="1" />
		<edge from-layer="678" from-port="2" to-layer="680" to-port="0" />
		<edge from-layer="679" from-port="0" to-layer="680" to-port="1" />
		<edge from-layer="680" from-port="2" to-layer="682" to-port="0" />
		<edge from-layer="680" from-port="2" to-layer="688" to-port="0" />
		<edge from-layer="680" from-port="2" to-layer="820" to-port="0" />
		<edge from-layer="681" from-port="0" to-layer="682" to-port="1" />
		<edge from-layer="682" from-port="2" to-layer="766" to-port="0" />
		<edge from-layer="683" from-port="0" to-layer="684" to-port="1" />
		<edge from-layer="684" from-port="2" to-layer="687" to-port="0" />
		<edge from-layer="685" from-port="0" to-layer="686" to-port="1" />
		<edge from-layer="686" from-port="2" to-layer="687" to-port="1" />
		<edge from-layer="687" from-port="2" to-layer="691" to-port="0" />
		<edge from-layer="688" from-port="1" to-layer="690" to-port="0" />
		<edge from-layer="689" from-port="0" to-layer="690" to-port="1" />
		<edge from-layer="690" from-port="2" to-layer="691" to-port="1" />
		<edge from-layer="691" from-port="2" to-layer="692" to-port="0" />
		<edge from-layer="692" from-port="1" to-layer="694" to-port="0" />
		<edge from-layer="693" from-port="0" to-layer="694" to-port="1" />
		<edge from-layer="694" from-port="2" to-layer="696" to-port="0" />
		<edge from-layer="695" from-port="0" to-layer="696" to-port="1" />
		<edge from-layer="696" from-port="2" to-layer="698" to-port="0" />
		<edge from-layer="697" from-port="0" to-layer="698" to-port="1" />
		<edge from-layer="698" from-port="2" to-layer="700" to-port="0" />
		<edge from-layer="698" from-port="2" to-layer="867" to-port="0" />
		<edge from-layer="698" from-port="2" to-layer="706" to-port="0" />
		<edge from-layer="699" from-port="0" to-layer="700" to-port="1" />
		<edge from-layer="700" from-port="2" to-layer="752" to-port="0" />
		<edge from-layer="701" from-port="0" to-layer="702" to-port="1" />
		<edge from-layer="702" from-port="2" to-layer="705" to-port="0" />
		<edge from-layer="703" from-port="0" to-layer="704" to-port="1" />
		<edge from-layer="704" from-port="2" to-layer="705" to-port="1" />
		<edge from-layer="705" from-port="2" to-layer="709" to-port="0" />
		<edge from-layer="706" from-port="1" to-layer="708" to-port="0" />
		<edge from-layer="707" from-port="0" to-layer="708" to-port="1" />
		<edge from-layer="708" from-port="2" to-layer="709" to-port="1" />
		<edge from-layer="709" from-port="2" to-layer="710" to-port="0" />
		<edge from-layer="710" from-port="1" to-layer="712" to-port="0" />
		<edge from-layer="711" from-port="0" to-layer="712" to-port="1" />
		<edge from-layer="712" from-port="2" to-layer="714" to-port="0" />
		<edge from-layer="713" from-port="0" to-layer="714" to-port="1" />
		<edge from-layer="714" from-port="2" to-layer="716" to-port="0" />
		<edge from-layer="715" from-port="0" to-layer="716" to-port="1" />
		<edge from-layer="716" from-port="2" to-layer="721" to-port="0" />
		<edge from-layer="716" from-port="2" to-layer="718" to-port="0" />
		<edge from-layer="716" from-port="2" to-layer="914" to-port="0" />
		<edge from-layer="717" from-port="0" to-layer="718" to-port="1" />
		<edge from-layer="718" from-port="2" to-layer="738" to-port="0" />
		<edge from-layer="719" from-port="0" to-layer="720" to-port="1" />
		<edge from-layer="720" from-port="2" to-layer="724" to-port="0" />
		<edge from-layer="721" from-port="1" to-layer="723" to-port="0" />
		<edge from-layer="722" from-port="0" to-layer="723" to-port="1" />
		<edge from-layer="723" from-port="2" to-layer="724" to-port="1" />
		<edge from-layer="724" from-port="2" to-layer="725" to-port="0" />
		<edge from-layer="725" from-port="1" to-layer="727" to-port="0" />
		<edge from-layer="726" from-port="0" to-layer="727" to-port="1" />
		<edge from-layer="727" from-port="2" to-layer="729" to-port="0" />
		<edge from-layer="728" from-port="0" to-layer="729" to-port="1" />
		<edge from-layer="729" from-port="2" to-layer="731" to-port="0" />
		<edge from-layer="730" from-port="0" to-layer="731" to-port="1" />
		<edge from-layer="731" from-port="2" to-layer="961" to-port="0" />
		<edge from-layer="731" from-port="2" to-layer="735" to-port="0" />
		<edge from-layer="732" from-port="0" to-layer="735" to-port="1" />
		<edge from-layer="733" from-port="0" to-layer="735" to-port="2" />
		<edge from-layer="734" from-port="0" to-layer="735" to-port="3" />
		<edge from-layer="735" from-port="4" to-layer="737" to-port="0" />
		<edge from-layer="736" from-port="0" to-layer="737" to-port="1" />
		<edge from-layer="737" from-port="2" to-layer="738" to-port="1" />
		<edge from-layer="738" from-port="2" to-layer="739" to-port="0" />
		<edge from-layer="739" from-port="1" to-layer="741" to-port="0" />
		<edge from-layer="740" from-port="0" to-layer="741" to-port="1" />
		<edge from-layer="741" from-port="2" to-layer="743" to-port="0" />
		<edge from-layer="742" from-port="0" to-layer="743" to-port="1" />
		<edge from-layer="743" from-port="2" to-layer="745" to-port="0" />
		<edge from-layer="744" from-port="0" to-layer="745" to-port="1" />
		<edge from-layer="745" from-port="2" to-layer="749" to-port="0" />
		<edge from-layer="745" from-port="2" to-layer="916" to-port="0" />
		<edge from-layer="746" from-port="0" to-layer="749" to-port="1" />
		<edge from-layer="747" from-port="0" to-layer="749" to-port="2" />
		<edge from-layer="748" from-port="0" to-layer="749" to-port="3" />
		<edge from-layer="749" from-port="4" to-layer="751" to-port="0" />
		<edge from-layer="750" from-port="0" to-layer="751" to-port="1" />
		<edge from-layer="751" from-port="2" to-layer="752" to-port="1" />
		<edge from-layer="752" from-port="2" to-layer="753" to-port="0" />
		<edge from-layer="753" from-port="1" to-layer="755" to-port="0" />
		<edge from-layer="754" from-port="0" to-layer="755" to-port="1" />
		<edge from-layer="755" from-port="2" to-layer="757" to-port="0" />
		<edge from-layer="756" from-port="0" to-layer="757" to-port="1" />
		<edge from-layer="757" from-port="2" to-layer="759" to-port="0" />
		<edge from-layer="758" from-port="0" to-layer="759" to-port="1" />
		<edge from-layer="759" from-port="2" to-layer="763" to-port="0" />
		<edge from-layer="759" from-port="2" to-layer="869" to-port="0" />
		<edge from-layer="760" from-port="0" to-layer="763" to-port="1" />
		<edge from-layer="761" from-port="0" to-layer="763" to-port="2" />
		<edge from-layer="762" from-port="0" to-layer="763" to-port="3" />
		<edge from-layer="763" from-port="4" to-layer="765" to-port="0" />
		<edge from-layer="764" from-port="0" to-layer="765" to-port="1" />
		<edge from-layer="765" from-port="2" to-layer="766" to-port="1" />
		<edge from-layer="766" from-port="2" to-layer="767" to-port="0" />
		<edge from-layer="767" from-port="1" to-layer="769" to-port="0" />
		<edge from-layer="768" from-port="0" to-layer="769" to-port="1" />
		<edge from-layer="769" from-port="2" to-layer="771" to-port="0" />
		<edge from-layer="770" from-port="0" to-layer="771" to-port="1" />
		<edge from-layer="771" from-port="2" to-layer="773" to-port="0" />
		<edge from-layer="772" from-port="0" to-layer="773" to-port="1" />
		<edge from-layer="773" from-port="2" to-layer="822" to-port="0" />
		<edge from-layer="773" from-port="2" to-layer="777" to-port="0" />
		<edge from-layer="774" from-port="0" to-layer="777" to-port="1" />
		<edge from-layer="775" from-port="0" to-layer="777" to-port="2" />
		<edge from-layer="776" from-port="0" to-layer="777" to-port="3" />
		<edge from-layer="777" from-port="4" to-layer="779" to-port="0" />
		<edge from-layer="778" from-port="0" to-layer="779" to-port="1" />
		<edge from-layer="779" from-port="2" to-layer="780" to-port="1" />
		<edge from-layer="780" from-port="2" to-layer="781" to-port="0" />
		<edge from-layer="781" from-port="1" to-layer="783" to-port="0" />
		<edge from-layer="782" from-port="0" to-layer="783" to-port="1" />
		<edge from-layer="783" from-port="2" to-layer="785" to-port="0" />
		<edge from-layer="784" from-port="0" to-layer="785" to-port="1" />
		<edge from-layer="785" from-port="2" to-layer="787" to-port="0" />
		<edge from-layer="786" from-port="0" to-layer="787" to-port="1" />
		<edge from-layer="787" from-port="2" to-layer="789" to-port="0" />
		<edge from-layer="787" from-port="2" to-layer="1008" to-port="0" />
		<edge from-layer="787" from-port="2" to-layer="824" to-port="0" />
		<edge from-layer="788" from-port="0" to-layer="789" to-port="1" />
		<edge from-layer="789" from-port="2" to-layer="791" to-port="0" />
		<edge from-layer="790" from-port="0" to-layer="791" to-port="1" />
		<edge from-layer="791" from-port="2" to-layer="793" to-port="0" />
		<edge from-layer="792" from-port="0" to-layer="793" to-port="1" />
		<edge from-layer="793" from-port="2" to-layer="794" to-port="0" />
		<edge from-layer="794" from-port="1" to-layer="796" to-port="0" />
		<edge from-layer="795" from-port="0" to-layer="796" to-port="1" />
		<edge from-layer="796" from-port="2" to-layer="798" to-port="0" />
		<edge from-layer="797" from-port="0" to-layer="798" to-port="1" />
		<edge from-layer="798" from-port="2" to-layer="800" to-port="0" />
		<edge from-layer="799" from-port="0" to-layer="800" to-port="1" />
		<edge from-layer="800" from-port="2" to-layer="801" to-port="0" />
		<edge from-layer="801" from-port="1" to-layer="803" to-port="0" />
		<edge from-layer="802" from-port="0" to-layer="803" to-port="1" />
		<edge from-layer="803" from-port="2" to-layer="805" to-port="0" />
		<edge from-layer="804" from-port="0" to-layer="805" to-port="1" />
		<edge from-layer="805" from-port="2" to-layer="807" to-port="0" />
		<edge from-layer="806" from-port="0" to-layer="807" to-port="1" />
		<edge from-layer="807" from-port="2" to-layer="808" to-port="0" />
		<edge from-layer="808" from-port="1" to-layer="810" to-port="0" />
		<edge from-layer="809" from-port="0" to-layer="810" to-port="1" />
		<edge from-layer="810" from-port="2" to-layer="812" to-port="0" />
		<edge from-layer="811" from-port="0" to-layer="812" to-port="1" />
		<edge from-layer="812" from-port="2" to-layer="814" to-port="0" />
		<edge from-layer="813" from-port="0" to-layer="814" to-port="1" />
		<edge from-layer="814" from-port="2" to-layer="816" to-port="0" />
		<edge from-layer="815" from-port="0" to-layer="816" to-port="1" />
		<edge from-layer="816" from-port="2" to-layer="818" to-port="0" />
		<edge from-layer="817" from-port="0" to-layer="818" to-port="1" />
		<edge from-layer="818" from-port="2" to-layer="1004" to-port="0" />
		<edge from-layer="819" from-port="0" to-layer="820" to-port="1" />
		<edge from-layer="820" from-port="2" to-layer="823" to-port="0" />
		<edge from-layer="821" from-port="0" to-layer="822" to-port="1" />
		<edge from-layer="822" from-port="2" to-layer="823" to-port="1" />
		<edge from-layer="823" from-port="2" to-layer="827" to-port="0" />
		<edge from-layer="824" from-port="1" to-layer="826" to-port="0" />
		<edge from-layer="825" from-port="0" to-layer="826" to-port="1" />
		<edge from-layer="826" from-port="2" to-layer="827" to-port="1" />
		<edge from-layer="827" from-port="2" to-layer="828" to-port="0" />
		<edge from-layer="828" from-port="1" to-layer="830" to-port="0" />
		<edge from-layer="829" from-port="0" to-layer="830" to-port="1" />
		<edge from-layer="830" from-port="2" to-layer="832" to-port="0" />
		<edge from-layer="831" from-port="0" to-layer="832" to-port="1" />
		<edge from-layer="832" from-port="2" to-layer="834" to-port="0" />
		<edge from-layer="833" from-port="0" to-layer="834" to-port="1" />
		<edge from-layer="834" from-port="2" to-layer="1039" to-port="0" />
		<edge from-layer="834" from-port="2" to-layer="871" to-port="0" />
		<edge from-layer="834" from-port="2" to-layer="836" to-port="0" />
		<edge from-layer="835" from-port="0" to-layer="836" to-port="1" />
		<edge from-layer="836" from-port="2" to-layer="838" to-port="0" />
		<edge from-layer="837" from-port="0" to-layer="838" to-port="1" />
		<edge from-layer="838" from-port="2" to-layer="840" to-port="0" />
		<edge from-layer="839" from-port="0" to-layer="840" to-port="1" />
		<edge from-layer="840" from-port="2" to-layer="841" to-port="0" />
		<edge from-layer="841" from-port="1" to-layer="843" to-port="0" />
		<edge from-layer="842" from-port="0" to-layer="843" to-port="1" />
		<edge from-layer="843" from-port="2" to-layer="845" to-port="0" />
		<edge from-layer="844" from-port="0" to-layer="845" to-port="1" />
		<edge from-layer="845" from-port="2" to-layer="847" to-port="0" />
		<edge from-layer="846" from-port="0" to-layer="847" to-port="1" />
		<edge from-layer="847" from-port="2" to-layer="848" to-port="0" />
		<edge from-layer="848" from-port="1" to-layer="850" to-port="0" />
		<edge from-layer="849" from-port="0" to-layer="850" to-port="1" />
		<edge from-layer="850" from-port="2" to-layer="852" to-port="0" />
		<edge from-layer="851" from-port="0" to-layer="852" to-port="1" />
		<edge from-layer="852" from-port="2" to-layer="854" to-port="0" />
		<edge from-layer="853" from-port="0" to-layer="854" to-port="1" />
		<edge from-layer="854" from-port="2" to-layer="855" to-port="0" />
		<edge from-layer="855" from-port="1" to-layer="857" to-port="0" />
		<edge from-layer="856" from-port="0" to-layer="857" to-port="1" />
		<edge from-layer="857" from-port="2" to-layer="859" to-port="0" />
		<edge from-layer="858" from-port="0" to-layer="859" to-port="1" />
		<edge from-layer="859" from-port="2" to-layer="861" to-port="0" />
		<edge from-layer="860" from-port="0" to-layer="861" to-port="1" />
		<edge from-layer="861" from-port="2" to-layer="863" to-port="0" />
		<edge from-layer="862" from-port="0" to-layer="863" to-port="1" />
		<edge from-layer="863" from-port="2" to-layer="865" to-port="0" />
		<edge from-layer="864" from-port="0" to-layer="865" to-port="1" />
		<edge from-layer="865" from-port="2" to-layer="1004" to-port="1" />
		<edge from-layer="866" from-port="0" to-layer="867" to-port="1" />
		<edge from-layer="867" from-port="2" to-layer="870" to-port="0" />
		<edge from-layer="868" from-port="0" to-layer="869" to-port="1" />
		<edge from-layer="869" from-port="2" to-layer="870" to-port="1" />
		<edge from-layer="870" from-port="2" to-layer="874" to-port="0" />
		<edge from-layer="871" from-port="1" to-layer="873" to-port="0" />
		<edge from-layer="872" from-port="0" to-layer="873" to-port="1" />
		<edge from-layer="873" from-port="2" to-layer="874" to-port="1" />
		<edge from-layer="874" from-port="2" to-layer="875" to-port="0" />
		<edge from-layer="875" from-port="1" to-layer="877" to-port="0" />
		<edge from-layer="876" from-port="0" to-layer="877" to-port="1" />
		<edge from-layer="877" from-port="2" to-layer="879" to-port="0" />
		<edge from-layer="878" from-port="0" to-layer="879" to-port="1" />
		<edge from-layer="879" from-port="2" to-layer="881" to-port="0" />
		<edge from-layer="880" from-port="0" to-layer="881" to-port="1" />
		<edge from-layer="881" from-port="2" to-layer="918" to-port="0" />
		<edge from-layer="881" from-port="2" to-layer="883" to-port="0" />
		<edge from-layer="881" from-port="2" to-layer="1070" to-port="0" />
		<edge from-layer="882" from-port="0" to-layer="883" to-port="1" />
		<edge from-layer="883" from-port="2" to-layer="885" to-port="0" />
		<edge from-layer="884" from-port="0" to-layer="885" to-port="1" />
		<edge from-layer="885" from-port="2" to-layer="887" to-port="0" />
		<edge from-layer="886" from-port="0" to-layer="887" to-port="1" />
		<edge from-layer="887" from-port="2" to-layer="888" to-port="0" />
		<edge from-layer="888" from-port="1" to-layer="890" to-port="0" />
		<edge from-layer="889" from-port="0" to-layer="890" to-port="1" />
		<edge from-layer="890" from-port="2" to-layer="892" to-port="0" />
		<edge from-layer="891" from-port="0" to-layer="892" to-port="1" />
		<edge from-layer="892" from-port="2" to-layer="894" to-port="0" />
		<edge from-layer="893" from-port="0" to-layer="894" to-port="1" />
		<edge from-layer="894" from-port="2" to-layer="895" to-port="0" />
		<edge from-layer="895" from-port="1" to-layer="897" to-port="0" />
		<edge from-layer="896" from-port="0" to-layer="897" to-port="1" />
		<edge from-layer="897" from-port="2" to-layer="899" to-port="0" />
		<edge from-layer="898" from-port="0" to-layer="899" to-port="1" />
		<edge from-layer="899" from-port="2" to-layer="901" to-port="0" />
		<edge from-layer="900" from-port="0" to-layer="901" to-port="1" />
		<edge from-layer="901" from-port="2" to-layer="902" to-port="0" />
		<edge from-layer="902" from-port="1" to-layer="904" to-port="0" />
		<edge from-layer="903" from-port="0" to-layer="904" to-port="1" />
		<edge from-layer="904" from-port="2" to-layer="906" to-port="0" />
		<edge from-layer="905" from-port="0" to-layer="906" to-port="1" />
		<edge from-layer="906" from-port="2" to-layer="908" to-port="0" />
		<edge from-layer="907" from-port="0" to-layer="908" to-port="1" />
		<edge from-layer="908" from-port="2" to-layer="910" to-port="0" />
		<edge from-layer="909" from-port="0" to-layer="910" to-port="1" />
		<edge from-layer="910" from-port="2" to-layer="912" to-port="0" />
		<edge from-layer="911" from-port="0" to-layer="912" to-port="1" />
		<edge from-layer="912" from-port="2" to-layer="1004" to-port="2" />
		<edge from-layer="913" from-port="0" to-layer="914" to-port="1" />
		<edge from-layer="914" from-port="2" to-layer="917" to-port="0" />
		<edge from-layer="915" from-port="0" to-layer="916" to-port="1" />
		<edge from-layer="916" from-port="2" to-layer="917" to-port="1" />
		<edge from-layer="917" from-port="2" to-layer="921" to-port="0" />
		<edge from-layer="918" from-port="1" to-layer="920" to-port="0" />
		<edge from-layer="919" from-port="0" to-layer="920" to-port="1" />
		<edge from-layer="920" from-port="2" to-layer="921" to-port="1" />
		<edge from-layer="921" from-port="2" to-layer="922" to-port="0" />
		<edge from-layer="922" from-port="1" to-layer="924" to-port="0" />
		<edge from-layer="923" from-port="0" to-layer="924" to-port="1" />
		<edge from-layer="924" from-port="2" to-layer="926" to-port="0" />
		<edge from-layer="925" from-port="0" to-layer="926" to-port="1" />
		<edge from-layer="926" from-port="2" to-layer="928" to-port="0" />
		<edge from-layer="927" from-port="0" to-layer="928" to-port="1" />
		<edge from-layer="928" from-port="2" to-layer="1101" to-port="0" />
		<edge from-layer="928" from-port="2" to-layer="962" to-port="0" />
		<edge from-layer="928" from-port="2" to-layer="930" to-port="0" />
		<edge from-layer="929" from-port="0" to-layer="930" to-port="1" />
		<edge from-layer="930" from-port="2" to-layer="932" to-port="0" />
		<edge from-layer="931" from-port="0" to-layer="932" to-port="1" />
		<edge from-layer="932" from-port="2" to-layer="934" to-port="0" />
		<edge from-layer="933" from-port="0" to-layer="934" to-port="1" />
		<edge from-layer="934" from-port="2" to-layer="935" to-port="0" />
		<edge from-layer="935" from-port="1" to-layer="937" to-port="0" />
		<edge from-layer="936" from-port="0" to-layer="937" to-port="1" />
		<edge from-layer="937" from-port="2" to-layer="939" to-port="0" />
		<edge from-layer="938" from-port="0" to-layer="939" to-port="1" />
		<edge from-layer="939" from-port="2" to-layer="941" to-port="0" />
		<edge from-layer="940" from-port="0" to-layer="941" to-port="1" />
		<edge from-layer="941" from-port="2" to-layer="942" to-port="0" />
		<edge from-layer="942" from-port="1" to-layer="944" to-port="0" />
		<edge from-layer="943" from-port="0" to-layer="944" to-port="1" />
		<edge from-layer="944" from-port="2" to-layer="946" to-port="0" />
		<edge from-layer="945" from-port="0" to-layer="946" to-port="1" />
		<edge from-layer="946" from-port="2" to-layer="948" to-port="0" />
		<edge from-layer="947" from-port="0" to-layer="948" to-port="1" />
		<edge from-layer="948" from-port="2" to-layer="949" to-port="0" />
		<edge from-layer="949" from-port="1" to-layer="951" to-port="0" />
		<edge from-layer="950" from-port="0" to-layer="951" to-port="1" />
		<edge from-layer="951" from-port="2" to-layer="953" to-port="0" />
		<edge from-layer="952" from-port="0" to-layer="953" to-port="1" />
		<edge from-layer="953" from-port="2" to-layer="955" to-port="0" />
		<edge from-layer="954" from-port="0" to-layer="955" to-port="1" />
		<edge from-layer="955" from-port="2" to-layer="957" to-port="0" />
		<edge from-layer="956" from-port="0" to-layer="957" to-port="1" />
		<edge from-layer="957" from-port="2" to-layer="959" to-port="0" />
		<edge from-layer="958" from-port="0" to-layer="959" to-port="1" />
		<edge from-layer="959" from-port="2" to-layer="1004" to-port="3" />
		<edge from-layer="960" from-port="0" to-layer="961" to-port="1" />
		<edge from-layer="961" from-port="2" to-layer="965" to-port="0" />
		<edge from-layer="962" from-port="1" to-layer="964" to-port="0" />
		<edge from-layer="963" from-port="0" to-layer="964" to-port="1" />
		<edge from-layer="964" from-port="2" to-layer="965" to-port="1" />
		<edge from-layer="965" from-port="2" to-layer="966" to-port="0" />
		<edge from-layer="966" from-port="1" to-layer="968" to-port="0" />
		<edge from-layer="967" from-port="0" to-layer="968" to-port="1" />
		<edge from-layer="968" from-port="2" to-layer="970" to-port="0" />
		<edge from-layer="969" from-port="0" to-layer="970" to-port="1" />
		<edge from-layer="970" from-port="2" to-layer="972" to-port="0" />
		<edge from-layer="971" from-port="0" to-layer="972" to-port="1" />
		<edge from-layer="972" from-port="2" to-layer="1132" to-port="0" />
		<edge from-layer="972" from-port="2" to-layer="974" to-port="0" />
		<edge from-layer="973" from-port="0" to-layer="974" to-port="1" />
		<edge from-layer="974" from-port="2" to-layer="976" to-port="0" />
		<edge from-layer="975" from-port="0" to-layer="976" to-port="1" />
		<edge from-layer="976" from-port="2" to-layer="978" to-port="0" />
		<edge from-layer="977" from-port="0" to-layer="978" to-port="1" />
		<edge from-layer="978" from-port="2" to-layer="979" to-port="0" />
		<edge from-layer="979" from-port="1" to-layer="981" to-port="0" />
		<edge from-layer="980" from-port="0" to-layer="981" to-port="1" />
		<edge from-layer="981" from-port="2" to-layer="983" to-port="0" />
		<edge from-layer="982" from-port="0" to-layer="983" to-port="1" />
		<edge from-layer="983" from-port="2" to-layer="985" to-port="0" />
		<edge from-layer="984" from-port="0" to-layer="985" to-port="1" />
		<edge from-layer="985" from-port="2" to-layer="986" to-port="0" />
		<edge from-layer="986" from-port="1" to-layer="988" to-port="0" />
		<edge from-layer="987" from-port="0" to-layer="988" to-port="1" />
		<edge from-layer="988" from-port="2" to-layer="990" to-port="0" />
		<edge from-layer="989" from-port="0" to-layer="990" to-port="1" />
		<edge from-layer="990" from-port="2" to-layer="992" to-port="0" />
		<edge from-layer="991" from-port="0" to-layer="992" to-port="1" />
		<edge from-layer="992" from-port="2" to-layer="993" to-port="0" />
		<edge from-layer="993" from-port="1" to-layer="995" to-port="0" />
		<edge from-layer="994" from-port="0" to-layer="995" to-port="1" />
		<edge from-layer="995" from-port="2" to-layer="997" to-port="0" />
		<edge from-layer="996" from-port="0" to-layer="997" to-port="1" />
		<edge from-layer="997" from-port="2" to-layer="999" to-port="0" />
		<edge from-layer="998" from-port="0" to-layer="999" to-port="1" />
		<edge from-layer="999" from-port="2" to-layer="1001" to-port="0" />
		<edge from-layer="1000" from-port="0" to-layer="1001" to-port="1" />
		<edge from-layer="1001" from-port="2" to-layer="1003" to-port="0" />
		<edge from-layer="1002" from-port="0" to-layer="1003" to-port="1" />
		<edge from-layer="1003" from-port="2" to-layer="1004" to-port="4" />
		<edge from-layer="1004" from-port="5" to-layer="1006" to-port="0" />
		<edge from-layer="1005" from-port="0" to-layer="1006" to-port="1" />
		<edge from-layer="1006" from-port="2" to-layer="1208" to-port="0" />
		<edge from-layer="1007" from-port="0" to-layer="1008" to-port="1" />
		<edge from-layer="1008" from-port="2" to-layer="1010" to-port="0" />
		<edge from-layer="1009" from-port="0" to-layer="1010" to-port="1" />
		<edge from-layer="1010" from-port="2" to-layer="1012" to-port="0" />
		<edge from-layer="1011" from-port="0" to-layer="1012" to-port="1" />
		<edge from-layer="1012" from-port="2" to-layer="1013" to-port="0" />
		<edge from-layer="1013" from-port="1" to-layer="1015" to-port="0" />
		<edge from-layer="1014" from-port="0" to-layer="1015" to-port="1" />
		<edge from-layer="1015" from-port="2" to-layer="1017" to-port="0" />
		<edge from-layer="1016" from-port="0" to-layer="1017" to-port="1" />
		<edge from-layer="1017" from-port="2" to-layer="1019" to-port="0" />
		<edge from-layer="1018" from-port="0" to-layer="1019" to-port="1" />
		<edge from-layer="1019" from-port="2" to-layer="1020" to-port="0" />
		<edge from-layer="1020" from-port="1" to-layer="1022" to-port="0" />
		<edge from-layer="1021" from-port="0" to-layer="1022" to-port="1" />
		<edge from-layer="1022" from-port="2" to-layer="1024" to-port="0" />
		<edge from-layer="1023" from-port="0" to-layer="1024" to-port="1" />
		<edge from-layer="1024" from-port="2" to-layer="1026" to-port="0" />
		<edge from-layer="1025" from-port="0" to-layer="1026" to-port="1" />
		<edge from-layer="1026" from-port="2" to-layer="1027" to-port="0" />
		<edge from-layer="1027" from-port="1" to-layer="1029" to-port="0" />
		<edge from-layer="1028" from-port="0" to-layer="1029" to-port="1" />
		<edge from-layer="1029" from-port="2" to-layer="1031" to-port="0" />
		<edge from-layer="1030" from-port="0" to-layer="1031" to-port="1" />
		<edge from-layer="1031" from-port="2" to-layer="1033" to-port="0" />
		<edge from-layer="1032" from-port="0" to-layer="1033" to-port="1" />
		<edge from-layer="1033" from-port="2" to-layer="1035" to-port="0" />
		<edge from-layer="1034" from-port="0" to-layer="1035" to-port="1" />
		<edge from-layer="1035" from-port="2" to-layer="1037" to-port="0" />
		<edge from-layer="1036" from-port="0" to-layer="1037" to-port="1" />
		<edge from-layer="1037" from-port="2" to-layer="1162" to-port="0" />
		<edge from-layer="1038" from-port="0" to-layer="1039" to-port="1" />
		<edge from-layer="1039" from-port="2" to-layer="1041" to-port="0" />
		<edge from-layer="1040" from-port="0" to-layer="1041" to-port="1" />
		<edge from-layer="1041" from-port="2" to-layer="1043" to-port="0" />
		<edge from-layer="1042" from-port="0" to-layer="1043" to-port="1" />
		<edge from-layer="1043" from-port="2" to-layer="1044" to-port="0" />
		<edge from-layer="1044" from-port="1" to-layer="1046" to-port="0" />
		<edge from-layer="1045" from-port="0" to-layer="1046" to-port="1" />
		<edge from-layer="1046" from-port="2" to-layer="1048" to-port="0" />
		<edge from-layer="1047" from-port="0" to-layer="1048" to-port="1" />
		<edge from-layer="1048" from-port="2" to-layer="1050" to-port="0" />
		<edge from-layer="1049" from-port="0" to-layer="1050" to-port="1" />
		<edge from-layer="1050" from-port="2" to-layer="1051" to-port="0" />
		<edge from-layer="1051" from-port="1" to-layer="1053" to-port="0" />
		<edge from-layer="1052" from-port="0" to-layer="1053" to-port="1" />
		<edge from-layer="1053" from-port="2" to-layer="1055" to-port="0" />
		<edge from-layer="1054" from-port="0" to-layer="1055" to-port="1" />
		<edge from-layer="1055" from-port="2" to-layer="1057" to-port="0" />
		<edge from-layer="1056" from-port="0" to-layer="1057" to-port="1" />
		<edge from-layer="1057" from-port="2" to-layer="1058" to-port="0" />
		<edge from-layer="1058" from-port="1" to-layer="1060" to-port="0" />
		<edge from-layer="1059" from-port="0" to-layer="1060" to-port="1" />
		<edge from-layer="1060" from-port="2" to-layer="1062" to-port="0" />
		<edge from-layer="1061" from-port="0" to-layer="1062" to-port="1" />
		<edge from-layer="1062" from-port="2" to-layer="1064" to-port="0" />
		<edge from-layer="1063" from-port="0" to-layer="1064" to-port="1" />
		<edge from-layer="1064" from-port="2" to-layer="1066" to-port="0" />
		<edge from-layer="1065" from-port="0" to-layer="1066" to-port="1" />
		<edge from-layer="1066" from-port="2" to-layer="1068" to-port="0" />
		<edge from-layer="1067" from-port="0" to-layer="1068" to-port="1" />
		<edge from-layer="1068" from-port="2" to-layer="1162" to-port="1" />
		<edge from-layer="1069" from-port="0" to-layer="1070" to-port="1" />
		<edge from-layer="1070" from-port="2" to-layer="1072" to-port="0" />
		<edge from-layer="1071" from-port="0" to-layer="1072" to-port="1" />
		<edge from-layer="1072" from-port="2" to-layer="1074" to-port="0" />
		<edge from-layer="1073" from-port="0" to-layer="1074" to-port="1" />
		<edge from-layer="1074" from-port="2" to-layer="1075" to-port="0" />
		<edge from-layer="1075" from-port="1" to-layer="1077" to-port="0" />
		<edge from-layer="1076" from-port="0" to-layer="1077" to-port="1" />
		<edge from-layer="1077" from-port="2" to-layer="1079" to-port="0" />
		<edge from-layer="1078" from-port="0" to-layer="1079" to-port="1" />
		<edge from-layer="1079" from-port="2" to-layer="1081" to-port="0" />
		<edge from-layer="1080" from-port="0" to-layer="1081" to-port="1" />
		<edge from-layer="1081" from-port="2" to-layer="1082" to-port="0" />
		<edge from-layer="1082" from-port="1" to-layer="1084" to-port="0" />
		<edge from-layer="1083" from-port="0" to-layer="1084" to-port="1" />
		<edge from-layer="1084" from-port="2" to-layer="1086" to-port="0" />
		<edge from-layer="1085" from-port="0" to-layer="1086" to-port="1" />
		<edge from-layer="1086" from-port="2" to-layer="1088" to-port="0" />
		<edge from-layer="1087" from-port="0" to-layer="1088" to-port="1" />
		<edge from-layer="1088" from-port="2" to-layer="1089" to-port="0" />
		<edge from-layer="1089" from-port="1" to-layer="1091" to-port="0" />
		<edge from-layer="1090" from-port="0" to-layer="1091" to-port="1" />
		<edge from-layer="1091" from-port="2" to-layer="1093" to-port="0" />
		<edge from-layer="1092" from-port="0" to-layer="1093" to-port="1" />
		<edge from-layer="1093" from-port="2" to-layer="1095" to-port="0" />
		<edge from-layer="1094" from-port="0" to-layer="1095" to-port="1" />
		<edge from-layer="1095" from-port="2" to-layer="1097" to-port="0" />
		<edge from-layer="1096" from-port="0" to-layer="1097" to-port="1" />
		<edge from-layer="1097" from-port="2" to-layer="1099" to-port="0" />
		<edge from-layer="1098" from-port="0" to-layer="1099" to-port="1" />
		<edge from-layer="1099" from-port="2" to-layer="1162" to-port="2" />
		<edge from-layer="1100" from-port="0" to-layer="1101" to-port="1" />
		<edge from-layer="1101" from-port="2" to-layer="1103" to-port="0" />
		<edge from-layer="1102" from-port="0" to-layer="1103" to-port="1" />
		<edge from-layer="1103" from-port="2" to-layer="1105" to-port="0" />
		<edge from-layer="1104" from-port="0" to-layer="1105" to-port="1" />
		<edge from-layer="1105" from-port="2" to-layer="1106" to-port="0" />
		<edge from-layer="1106" from-port="1" to-layer="1108" to-port="0" />
		<edge from-layer="1107" from-port="0" to-layer="1108" to-port="1" />
		<edge from-layer="1108" from-port="2" to-layer="1110" to-port="0" />
		<edge from-layer="1109" from-port="0" to-layer="1110" to-port="1" />
		<edge from-layer="1110" from-port="2" to-layer="1112" to-port="0" />
		<edge from-layer="1111" from-port="0" to-layer="1112" to-port="1" />
		<edge from-layer="1112" from-port="2" to-layer="1113" to-port="0" />
		<edge from-layer="1113" from-port="1" to-layer="1115" to-port="0" />
		<edge from-layer="1114" from-port="0" to-layer="1115" to-port="1" />
		<edge from-layer="1115" from-port="2" to-layer="1117" to-port="0" />
		<edge from-layer="1116" from-port="0" to-layer="1117" to-port="1" />
		<edge from-layer="1117" from-port="2" to-layer="1119" to-port="0" />
		<edge from-layer="1118" from-port="0" to-layer="1119" to-port="1" />
		<edge from-layer="1119" from-port="2" to-layer="1120" to-port="0" />
		<edge from-layer="1120" from-port="1" to-layer="1122" to-port="0" />
		<edge from-layer="1121" from-port="0" to-layer="1122" to-port="1" />
		<edge from-layer="1122" from-port="2" to-layer="1124" to-port="0" />
		<edge from-layer="1123" from-port="0" to-layer="1124" to-port="1" />
		<edge from-layer="1124" from-port="2" to-layer="1126" to-port="0" />
		<edge from-layer="1125" from-port="0" to-layer="1126" to-port="1" />
		<edge from-layer="1126" from-port="2" to-layer="1128" to-port="0" />
		<edge from-layer="1127" from-port="0" to-layer="1128" to-port="1" />
		<edge from-layer="1128" from-port="2" to-layer="1130" to-port="0" />
		<edge from-layer="1129" from-port="0" to-layer="1130" to-port="1" />
		<edge from-layer="1130" from-port="2" to-layer="1162" to-port="3" />
		<edge from-layer="1131" from-port="0" to-layer="1132" to-port="1" />
		<edge from-layer="1132" from-port="2" to-layer="1134" to-port="0" />
		<edge from-layer="1133" from-port="0" to-layer="1134" to-port="1" />
		<edge from-layer="1134" from-port="2" to-layer="1136" to-port="0" />
		<edge from-layer="1135" from-port="0" to-layer="1136" to-port="1" />
		<edge from-layer="1136" from-port="2" to-layer="1137" to-port="0" />
		<edge from-layer="1137" from-port="1" to-layer="1139" to-port="0" />
		<edge from-layer="1138" from-port="0" to-layer="1139" to-port="1" />
		<edge from-layer="1139" from-port="2" to-layer="1141" to-port="0" />
		<edge from-layer="1140" from-port="0" to-layer="1141" to-port="1" />
		<edge from-layer="1141" from-port="2" to-layer="1143" to-port="0" />
		<edge from-layer="1142" from-port="0" to-layer="1143" to-port="1" />
		<edge from-layer="1143" from-port="2" to-layer="1144" to-port="0" />
		<edge from-layer="1144" from-port="1" to-layer="1146" to-port="0" />
		<edge from-layer="1145" from-port="0" to-layer="1146" to-port="1" />
		<edge from-layer="1146" from-port="2" to-layer="1148" to-port="0" />
		<edge from-layer="1147" from-port="0" to-layer="1148" to-port="1" />
		<edge from-layer="1148" from-port="2" to-layer="1150" to-port="0" />
		<edge from-layer="1149" from-port="0" to-layer="1150" to-port="1" />
		<edge from-layer="1150" from-port="2" to-layer="1151" to-port="0" />
		<edge from-layer="1151" from-port="1" to-layer="1153" to-port="0" />
		<edge from-layer="1152" from-port="0" to-layer="1153" to-port="1" />
		<edge from-layer="1153" from-port="2" to-layer="1155" to-port="0" />
		<edge from-layer="1154" from-port="0" to-layer="1155" to-port="1" />
		<edge from-layer="1155" from-port="2" to-layer="1157" to-port="0" />
		<edge from-layer="1156" from-port="0" to-layer="1157" to-port="1" />
		<edge from-layer="1157" from-port="2" to-layer="1159" to-port="0" />
		<edge from-layer="1158" from-port="0" to-layer="1159" to-port="1" />
		<edge from-layer="1159" from-port="2" to-layer="1161" to-port="0" />
		<edge from-layer="1160" from-port="0" to-layer="1161" to-port="1" />
		<edge from-layer="1161" from-port="2" to-layer="1162" to-port="4" />
		<edge from-layer="1162" from-port="5" to-layer="1163" to-port="0" />
		<edge from-layer="1163" from-port="1" to-layer="1165" to-port="0" />
		<edge from-layer="1164" from-port="0" to-layer="1165" to-port="1" />
		<edge from-layer="1165" from-port="2" to-layer="1208" to-port="1" />
		<edge from-layer="1166" from-port="0" to-layer="1172" to-port="0" />
		<edge from-layer="1167" from-port="1" to-layer="1187" to-port="0" />
		<edge from-layer="1167" from-port="1" to-layer="1179" to-port="0" />
		<edge from-layer="1167" from-port="1" to-layer="1195" to-port="0" />
		<edge from-layer="1167" from-port="1" to-layer="1171" to-port="0" />
		<edge from-layer="1167" from-port="1" to-layer="1203" to-port="0" />
		<edge from-layer="1168" from-port="0" to-layer="1171" to-port="1" />
		<edge from-layer="1169" from-port="0" to-layer="1171" to-port="2" />
		<edge from-layer="1170" from-port="0" to-layer="1171" to-port="3" />
		<edge from-layer="1171" from-port="4" to-layer="1172" to-port="1" />
		<edge from-layer="1172" from-port="2" to-layer="1174" to-port="0" />
		<edge from-layer="1173" from-port="0" to-layer="1174" to-port="1" />
		<edge from-layer="1174" from-port="2" to-layer="1207" to-port="0" />
		<edge from-layer="1175" from-port="0" to-layer="1180" to-port="0" />
		<edge from-layer="1176" from-port="0" to-layer="1179" to-port="1" />
		<edge from-layer="1177" from-port="0" to-layer="1179" to-port="2" />
		<edge from-layer="1178" from-port="0" to-layer="1179" to-port="3" />
		<edge from-layer="1179" from-port="4" to-layer="1180" to-port="1" />
		<edge from-layer="1180" from-port="2" to-layer="1182" to-port="0" />
		<edge from-layer="1181" from-port="0" to-layer="1182" to-port="1" />
		<edge from-layer="1182" from-port="2" to-layer="1207" to-port="1" />
		<edge from-layer="1183" from-port="0" to-layer="1188" to-port="0" />
		<edge from-layer="1184" from-port="0" to-layer="1187" to-port="1" />
		<edge from-layer="1185" from-port="0" to-layer="1187" to-port="2" />
		<edge from-layer="1186" from-port="0" to-layer="1187" to-port="3" />
		<edge from-layer="1187" from-port="4" to-layer="1188" to-port="1" />
		<edge from-layer="1188" from-port="2" to-layer="1190" to-port="0" />
		<edge from-layer="1189" from-port="0" to-layer="1190" to-port="1" />
		<edge from-layer="1190" from-port="2" to-layer="1207" to-port="2" />
		<edge from-layer="1191" from-port="0" to-layer="1196" to-port="0" />
		<edge from-layer="1192" from-port="0" to-layer="1195" to-port="1" />
		<edge from-layer="1193" from-port="0" to-layer="1195" to-port="2" />
		<edge from-layer="1194" from-port="0" to-layer="1195" to-port="3" />
		<edge from-layer="1195" from-port="4" to-layer="1196" to-port="1" />
		<edge from-layer="1196" from-port="2" to-layer="1198" to-port="0" />
		<edge from-layer="1197" from-port="0" to-layer="1198" to-port="1" />
		<edge from-layer="1198" from-port="2" to-layer="1207" to-port="3" />
		<edge from-layer="1199" from-port="0" to-layer="1204" to-port="0" />
		<edge from-layer="1200" from-port="0" to-layer="1203" to-port="1" />
		<edge from-layer="1201" from-port="0" to-layer="1203" to-port="2" />
		<edge from-layer="1202" from-port="0" to-layer="1203" to-port="3" />
		<edge from-layer="1203" from-port="4" to-layer="1204" to-port="1" />
		<edge from-layer="1204" from-port="2" to-layer="1206" to-port="0" />
		<edge from-layer="1205" from-port="0" to-layer="1206" to-port="1" />
		<edge from-layer="1206" from-port="2" to-layer="1207" to-port="4" />
		<edge from-layer="1207" from-port="5" to-layer="1208" to-port="2" />
		<edge from-layer="1208" from-port="3" to-layer="1209" to-port="0" />
	</edges>
	<rt_info>
		<MO_version value="2023.0.0-10926-b4452d56304-releases/2023/0" />
		<Runtime_version value="2023.0.0-10926-b4452d56304-releases/2023/0" />
		<conversion_parameters>
			<framework value="tf" />
			<input value="image_arrays" />
			<input_model value="DIR/efficientdet-d0_frozen.pb" />
			<input_shape value="[1, 512, 512, 3]" />
			<is_python_api_used value="False" />
			<layout value="image_arrays(NHWC)" />
			<model_name value="efficientdet-d0-tf" />
			<output_dir value="DIR" />
			<transformations_config value="DIR/automl_efficientdet.json" />
		</conversion_parameters>
		<legacy_frontend value="True" />
	</rt_info>
</net>
